Time-Series---Forecasting/Results/periodic/model18.pth (torch, 9421 bytes, 5 tensors)

lstm.weight_ih_l0 f4 [80, 1]
00000000: 63f0 6dbd 88c1 da3d 0046 55be b1a5 c63e
00000010: 25c9 983c a69c efbd 0f8b 11be 14a2 8d3d
00000020: 6638 a1be 92ed 53be 6c93 d9be 1f51 c63c
00000030: e4cf a2be ed44 24be 90a2 90bd 38a5 113e
00000040: 54d8 9bbe 8860 dabe f77b 783e 5a5b c1bc
00000050: bc53 6ebe ad28 b73d bb22 233e fb1b 623e
00000060: 0d96 693e 526f 853e 8150 91bd 11e6 a4bc
00000070: 1462 d0bd efce dd3d 53b2 5fbe 19be b3ba
00000080: 15f1 bc3d c5a2 7cbe 1ce3 94bd aa41 813e
00000090: b193 58be d33a c3be 65c3 da3e 7cc9 88be
000000a0: 8b0f fcbd ad7d 5ebe 67d8 873e 219f 0f3e
000000b0: 08fc 46be 3515 863e 578d 613e 128b 1f3e
000000c0: f0b6 86bd e7b1 343e ea80 2abe 468e 9abd
000000d0: 28ff 9b3b 2bd6 af3b 3cb5 ba3d 2575 55be
000000e0: 33a4 d53d c96a 313e b27a e63d 2d41 e63c
000000f0: 82de 97bd c117 133e 9d8e d33d 0462 3d3e
00000100: 7fce 07be 481d 063e ab4b b6be 526e 2a3e
00000110: 9150 4c3d 8730 8cbe cc05 aebe e855 d83e
00000120: 2401 46bd e132 5a3d e1f2 7bbe 91d1 093e
00000130: 5bb1 d2be a253 b1be 3aa5 8f39 b938 4bbe
-0.05809058 0.106814444 -0.20827484 0.38798288 0.0186506 -0.116998 -0.14213203 0.069156796
-0.3148834 -0.20696095 -0.42495286 0.024208603 -0.31799233 -0.16041918 -0.07062256 0.14223182
-0.30438483 -0.42651772 0.24266039 -0.02360313 -0.2327413 0.08943305 0.15931217 0.22080986
0.22811146 0.26061493 -0.07095433 -0.020129235 -0.10174957 0.10830485 -0.21845369 -0.001371327
0.0922567 -0.24671467 -0.0726988 0.2524541 -0.2115009 -0.38130817 0.427272 -0.2671622
-0.12307652 -0.21727629 0.2653229 0.14025547 -0.1943208 0.26188055 0.22026573 0.15580395
-0.06577861 0.1764599 -0.1665074 -0.07546668 0.0047606416 0.005366107 0.09116599 -0.20845468
0.10431709 0.17325892 0.11253871 0.02810725 -0.07415487 0.1436453 0.10329936 0.18494421
-0.13262366 0.13097107 -0.35604605 0.16643646 0.04988152 -0.27380773 -0.33988798 0.4225304
-0.04834093 0.05327118 -0.2460437 0.1345885 -0.41150936 -0.3463412 0.0002739819 -0.19845857

lstm.weight_hh_l0 f4 [80, 20]
00000000: b1fa 303d ed1c e43c 8693 9dbd 5fa3 a73d
00000010: d15b 9b3e 4f25 9abd 1151 65be 0f55 6dbe
00000020: 54c5 3e3e 1148 81bd d6d4 373e 5305 c2bd
00000030: 6547 a23e 4fb4 8ebe 1dc9 11bd 0a42 3bbd
00000040: b6f2 a63d d6e3 8fbe 32b8 60be 1952 953e
00000050: 2570 933d ba29 b9bc a2ba 053e cabd 9f3e
00000060: 9c42 8dbc e818 31bc 32f6 063e 1da0 c73d
00000070: be91 ad3d 9dca 9ebd 5038 803e c844 f7bd
00000080: 7438 91bc 12a1 35be aec8 4b3e f963 e5bd
00000090: 28bc d13c cbd2 b9bd 3cb7 7c3e 39d9 d13d
000000a0: 29c7 55bd d28b 5fbe dcf4 0a3e 67cf f33c
000000b0: de37 553e 8bcd 2b3e 77f4 ed3c c0c2 2e3e
000000c0: 434f b43e 9f92 21be c185 cc3d 6381 84be
000000d0: 2ea3 e4bd 448b 583d 183a 0cbb 0ef4 4cbe
000000e0: daa8 90be 79d1 14bc fd3f 4e3e 0ef9 303e
000000f0: 5d12 5ebe afed 81ba 7545 84bd 427a 8c3d
00000100: b639 fabd 6634 1d3e 7f00 9b3e d4a0 b83d
00000110: ed78 0ebe bc81 9ebc 1b55 61bc b88a 05bf
00000120: 3c92 90bd 8106 d03c c86c 85be 586f 3bbe
00000130: 75e0 8cbe 7aa5 c3be c32b 9e3e 2a3a 703e
00000140: c8b0 27be 6c9c 2abe 1caa 813e c293 583e
00000150: b34f 16be e676 5fbe c004 24b8 4b6c 983d
00000160: a2d2 1c3e 4f1b c0bd 7053 a2be 6bdd 0ebb
00000170: cafd 9e3e 28ac 7abe c4b4 183e e997 df3d
00000180: 617a 8dbe 92e1 453d 25a6 2cbe 0779 a83e
00000190: 521f 70bd 138e 52be 09d2 eb3e 4da0 e83e
000001a0: 683a 3bbd 5b73 883d 930b 58bc 7f29 32be
000001b0: 1027 90bc 1eaa 2abe 93c7 2dbe 9a6c ddbe
000001c0: aba3 5cbd 3319 3c3d 359f 51be 805f b7be
000001d0: 54c0 0ebe bb03 4c3e f078 0a3d 5195 3abe
000001e0: f1c8 b0bd 924c dabd a8e2 f73d 1120 c13e
000001f0: 33c4 4fbd 34f9 9dbd 59e8 d23d 6be3 2ebe
00000200: 48ca 473d 5d0a 66be c154 32bc 134d bdbd
00000210: 2a14 823e e5cf e63d 97b8 f03c a4de 20bd
00000220: 6606 3dbe 2d9c 6dbc dd55 60bd e4b9 0e3e
00000230: 26e2 803d 95e7 9cbc ce5c d23d e3e2 0fbd
00000240: e1c3 2c3e 4834 7bbe 5009 bbbe 74c4 da3d
00000250: 9b53 983e b6f2 bcbd b7d1 1fbe fbb0 3fbd
00000260: feeb bc3e d525 84be a93a 25be 937a 6d3e
00000270: b330 edbe 6bce dfbd 2e44 14bd 9205 b43e
00000280: b6e6 353e 873c 9e3e f086 e63d ad8d 8bbe
00000290: e7fc 143e 4a75 803d 5075 52bd 818f 3abc
000002a0: 291e 4d3e 0ba0 723d 95b8 7f3e 9e2d e7bb
000002b0: 6765 bebc 6f8f 63be 54d0 8cbe 30b4 e5bd
000002c0: 8230 23be 511b 10be 8aa1 88be 8a81 4a3d
000002d0: e78e bfbd 41fc 603d caf1 803e fb35 e93d
000002e0: c3cf 1d3d 1fb2 593d cf7b ac3d 8686 09be
000002f0: 02bf e23d aeab aebd a26b 7f3e 7dac 463d
00000300: 233c ca3d de82 bbbd 5a72 073e 5370 1dbc
00000310: c38f 8bbe b6c1 3ebc ebc6 94bc 6af5 8e3e
00000320: 040e 593e 931a 05be 58ac 2c3e 5957 a6bc
00000330: e8d1 963e d1d7 59be ebd3 23be 535a 2fbc
00000340: 8c3b c33e f20c 76bd f159 a5bd 20e3 bfbe
00000350: 026a a23e bab8 14be 4d7f 2bbe 8695 2abe
00000360: 5c96 a73c 3752 bdbe 494d debb 28c5 593e
00000370: b403 d8be 7b99 a0be 0e9f f83e 01a5 833e
00000380: 1908 be3e 8ffc 9cbd d7eb 623e 0db9 0a3d
00000390: f6d0 6c3d 0f97 35bd 2e67 ffbe f9e9 bebe
000003a0: b5a2 85be 4090 8a3d 1d91 1b3e d249 c7bd
000003b0: 4d55 db3e a816 b33d 447f af3d 19a4 8c3c
000003c0: 07d5 21be 9cf4 0bbe 9dd0 aa3d 5d30 583d
000003d0: a93b 573e da8e f53d 399e 87be 65d5 24bd
000003e0: a369 0fbe f3c0 53bd 805f cd3d b62b 403d
000003f0: e15f 12bd 4b08 57be 6790 e03d 66cf c2bd
0.043207828 0.027845824 -0.076941535 0.081854574 0.30343488 -0.07526647 -0.22394206 -0.23176979
0.18629962 -0.06312574 0.17952284 -0.09473672 0.31695095 -0.2787194 -0.035592187 -0.045717277
0.08151762 -0.28103513 -0.21945265 0.29164198 0.07199124 -0.022602905 0.13059476 0.31199485
-0.017243676 -0.010809161 0.13179854 0.09747336 0.08475064 -0.07753489 0.25042963 -0.12073666
-0.017727114 -0.17737225 0.19900772 -0.11200709 0.025602415 -0.09073409 0.24679273 0.1024651
-0.052191887 -0.21830681 0.13569969 0.029761983 0.20822093 0.16777627 0.029047234 0.17066479
0.35216722 -0.15778588 0.09986449 -0.25879964 -0.111639366 0.05286719 -0.0021396931 -0.20014974
-0.28253824 -0.009083145 0.20141597 0.17282507 -0.21686693 -0.0009912754 -0.064585604 0.06859256
-0.12218039 0.1535202 0.30273816 0.090150505 -0.13913317 -0.019348972 -0.013753201 -0.52164793
-0.07059142 0.025393726 -0.26059556 -0.18304193 -0.27514997 -0.38212186 0.30892763 0.23459688
-0.1637603 -0.16661233 0.25325096 0.21150115 -0.1467884 -0.218227 -3.910507e-05 0.0744253
0.15314725 -0.09380209 -0.31704283 -0.0021799456 0.31053 -0.24479735 0.14912707 0.109176464
-0.2763243 0.048310824 -0.16860254 0.32904837 -0.05862362 -0.2056201 0.46058682 0.454348
-0.045709997 0.06662627 -0.013186353 -0.17398642 -0.017596751 -0.16666457 -0.16970663 -0.4324692
-0.053867023 0.04592247 -0.20470889 -0.35815048 -0.13940555 0.19923298 0.03380674 -0.18221022
-0.086320765 -0.10659136 0.12103778 0.37719777 -0.05072422 -0.07713547 0.10298223 -0.1707894
0.048776895 -0.22464891 -0.010884465 -0.09243216 0.2540601 0.112701215 0.029384894 -0.039274827
-0.18459472 -0.014502567 -0.054769386 0.13938099 0.062931344 -0.019153396 0.10271607 -0.035128485
0.16871597 -0.24531662 -0.36530542 0.10682002 0.29751286 -0.09225981 -0.15607344 -0.04679964
0.36898798 -0.25810114 -0.16135658 0.2319129 -0.46326217 -0.10928043 -0.036197834 0.351605
0.1776379 0.30905554 0.11256206 -0.27256528 0.145496 0.06272371 -0.05138141 -0.011386753
0.20031036 0.05923466 0.24972756 -0.0070549985 -0.023241712 -0.22222684 -0.27502692 -0.11216009
-0.15936473 -0.1407292 -0.26685745 0.049439944 -0.09353428 0.054928068 0.2518447 0.11387249
0.038528215 0.053148385 0.08422052 -0.13430223 0.11071588 -0.08528839 0.24943402 0.04850434
0.098747514 -0.0915582 0.13227215 -0.0096093 -0.2725812 -0.011642864 -0.018161258 0.2792161
0.21196753 -0.12998419 0.16862619 -0.020305322 0.2945702 -0.21273734 -0.15998809 -0.010702687
0.38131368 -0.06007094 -0.080737956 -0.3747797 0.31721503 -0.14523593 -0.1674778 -0.16658601
0.02045744 -0.36976787 -0.0067841155 0.21266615 -0.42190325 -0.31367096 0.4855885 0.25711825
0.37115553 -0.07665359 0.22160278 0.033867884 0.05781647 -0.044333514 -0.49883407 -0.37287882
-0.26100698 0.06765795 0.15192075 -0.09730877 0.42838517 0.08744556 0.08569196 0.017168092
-0.1580392 -0.1366753 0.08340571 0.052780498 0.21018852 0.119901374 -0.26487902 -0.04024257
-0.14005141 -0.051697683 0.10027981 0.046916686 -0.03573597 -0.20999257 0.109650426 -0.09512214

lstm.bias_ih_l0 f4 [80]
00000000: 907d dc3c a473 0bbd 1240 fdbd 0b72 76bd
00000010: a59d d23c a42f 853e 073a ad3d fd06 dfbc
00000020: 8664 c2bd b500 b0bd 6385 3c3c cbc0 7dbd
00000030: d757 833e 5ea5 243e 5394 cbbc 59c4 babd
00000040: 7d90 c73d 35c4 68bd d319 a8bd 8193 6e3d
00000050: f847 8e3e 46db b63d a059 913e 8f81 173d
00000060: 5c3d 253e 5476 6fbd 749e 7d3e af25 833e
00000070: b020 f23d 0b0f f13d 6061 1d3e 143c 013d
00000080: dde4 a3bd bbc9 f5bd d795 0cbe e29d 6d3a
00000090: 184c 2abd 4b53 123e 12a5 933e fc08 09bd
000000a0: 4548 26be 2bc9 bebd 3122 023e 6b83 8e3d
000000b0: 57c8 1c3e fb19 9dbe c463 b5bd e6ac 533c
000000c0: 1e09 583e d6d2 d23c bb35 dbbd dd89 ebbd
000000d0: 9023 5e3e 3152 0b3d e25f 8ebe ba62 ee3c
000000e0: fe81 473d 01c1 35be 8c47 79bd 7af9 373e
000000f0: 3293 5e3c 7832 e1bd 1a4a 033e 85a6 b03d
00000100: 68bb 4c3d 8e76 943e 495e f1bd 7bb4 7d3d
00000110: 3ae5 043d 2b22 493e 8eea 703e 1c75 9e3d
00000120: 7cb7 d8ba 5e82 4d3d c1d8 293e a1b3 d23d
00000130: 195a 193e bc3e 813e 1e05 83bd 699f b4bd
0.026915342 -0.03404583 -0.12365736 -0.060167354 0.025709936 0.2601291 0.084583335 -0.027225012
-0.094918296 -0.08593885 0.011506411 -0.06195144 0.25652954 0.16078708 -0.024851 -0.091194816
0.09744356 -0.056827743 -0.082080506 0.05824614 0.27789283 0.08928542 0.2838869 0.03698879
0.16136688 -0.058462456 0.24767476 0.25614688 0.11822641 0.11770447 0.15369177 0.031551436
-0.080026366 -0.12001368 -0.13729034 0.0009064359 -0.041576475 0.14289586 0.28836876 -0.033455834
-0.16238506 -0.093157135 0.12708355 0.0695866 0.15310799 -0.30683884 -0.088569194 0.01291964
0.21097228 0.0257353 -0.10703608 -0.11500905 0.21693254 0.03401393 -0.27807528 0.02909981
0.048707955 -0.17749406 -0.060859248 0.17966262 0.013584899 -0.10995954 0.12821236 0.08625511
0.049983412 0.289967 -0.117855616 0.061939698 0.03244517 0.1964194 0.23526976 0.077371806
-0.0016534175 0.050173156 0.16586591 0.10288168 0.14975776 0.25243175 -0.063974604 -0.088194676

lstm.bias_hh_l0 f4 [80]
00000000: 471b a83d bd5c 1e3e 88fa 623e 2b20 543e
00000010: 6d33 543e b614 b4bd db93 0bbe 88da c5bd
00000020: f166 0c3d 3f1e 963e 2251 443e ed9b 0f3e
00000030: ed1b b1bc c6dd 893e f248 663e ad78 b43c
00000040: 6bf5 ddbd eb4d a73e 6e3f d23d f88a a73d
00000050: 0552 243d c595 9dbb 7a32 6a3d edb0 323e
00000060: b57a 2a3e 749f 803d a7bd be3d 9eac 2b3e
00000070: 6bd1 5b3e cb3b 0f3c bf1a 093e 2be3 763e
00000080: cd38 723e a48b 023e 7cdf a13d 933b 75bc
00000090: 33ff 763e d9a3 593d 25c6 0dbe 6dd0 693e
000000a0: 35ad 28bd 1f45 66bd 3bd3 093e 322a e1bd
000000b0: 0b17 6f3e 27e3 eebd 6c48 e7bb 0274 403e
000000c0: 3240 d13d e92e 65bd 1da7 0cbc 0c96 9cbd
000000d0: 9656 ed3d b533 6cbe d9f9 8ebd 1224 b7bc
000000e0: 3acf 01be 307e db3d ef87 ff3b 8b43 1f3e
000000f0: 5bdb 503e 22b5 083e 3486 373e 1895 a9bd
00000100: f8b9 d5bd 59ec c63c 8337 d13c 16a4 923c
00000110: 53a6 6a3d 89c6 363e 1e2f 483e 217e 883d
00000120: e707 a13b 29e0 45bc 65de 993d 5d8b 7d3d
00000130: e902 dc3c 0af0 133e 0b2f 293e 1e93 e93d
0.08208328 0.15465064 0.22165883 0.20715396 0.20722742 -0.08793013 -0.13630621 -0.09660822
0.03427786 0.2931995 0.19171575 0.14024325 -0.021619761 0.26927012 0.22488764 0.022030199
-0.108378254 0.32676634 0.102660045 0.08180803 0.040117282 -0.0048091137 0.057177044 0.17450304
0.16648372 0.06280413 0.09313517 0.16765067 0.21466605 0.008742283 0.13389109 0.24110095
0.2365448 0.12748581 0.079039544 -0.014967817 0.24120788 0.053134773 -0.13845117 0.22833414
-0.041180808 -0.056218263 0.13459484 -0.10994376 0.23348634 -0.116644196 -0.007058194 0.18794253
0.102173224 -0.05595294 -0.008584765 -0.07645807 0.115887806 -0.230666 -0.069812484 -0.022356067
-0.12676707 0.10717428 0.007798187 0.1555311 0.20396177 0.13350347 0.17922288 -0.082803905
-0.10435861 0.024282621 0.025539165 0.017900508 0.057287525 0.17849173 0.19549224 0.06664682
0.004914272 -0.01207737 0.075131215 0.061900485 0.026856856 0.14447036 0.16521852 0.114050135

linear.weight f4 [1, 20]
00000000: 623b 903c fe53 0fbe b119 f23d 35b2 f73d
00000010: d467 ce3c 6de1 d63d 5b1c 803e a072 18be
00000020: b48e 12be 6bd1 3c3e 0b73 8bbe 2499 023e
00000030: 429d 56be b9ca 3a3e 545f 8e3e 0bc2 7fbe
00000040: 49e0 dcbc cea3 8b3e 290e 593e 9477 6ebe
0.017606441 -0.13996884 0.118213065 0.12094537 0.025195993 0.10492215 0.25021634 -0.14887476
-0.1431225 0.18439262 -0.27236208 0.12753731 -0.20958427 0.18241395 0.27807105 -0.24976365
-0.026962416 0.2727341 0.21196808 -0.23287803
