Time-Series---Forecasting/Results/periodic/model0.pth (torch, 2573 bytes, 5 tensors)

rnn.weight_ih_l0 f4 [10, 1]
00000000: 48e0 08bc eeea b63e 8c7b c3be 847f a53e
00000010: 597f 23be 5106 55be a5d2 36be 84d6 1d3e
00000020: 803f 52be f4ba 373e
-0.008354254 0.35726112 -0.38180196 0.3232385 -0.15966548 -0.20803191 -0.17853792 0.15413862
-0.20532036 0.1794241

rnn.weight_hh_l0 f4 [10, 10]
00000000: aa78 8d3e 2785 16be 6cba e53e bf75 b0bd
00000010: 66f8 4c3c 86d7 2f3e c4c4 bbbc 5b0c 913e
00000020: 3be7 a73e e35d b33e dd95 23be 3d60 263e
00000030: 11a6 d2be 4d99 833b 6fc5 553e 7317 a03d
00000040: 9b4a 5e3e 1864 25be 164c 11be 9b1d d13e
00000050: 072a 703e 897e d6bd 0281 bb3e 2041 023e
00000060: f714 c7bd 7a57 be3e ac75 76be d190 923e
00000070: a39a 02be 573b 4c3c 8304 ddbd 56b3 723e
00000080: d96c 4fbe 02b6 51be 5f65 f03c ffa7 183e
00000090: b110 86be 3c31 773d f7eb 0e3e f678 503d
000000a0: fa78 4cbe effd b93e 6a69 983d ac16 ae3e
000000b0: f14d 863c 007a 02be b525 adbe 99a2 72bd
000000c0: 909e 423d 2341 35be 0032 a5be 7a67 43be
000000d0: d0d9 573c f32a f43d 53ef 4f3d bd20 d63d
000000e0: 8f71 b43e 0d6b 8f3e 46e1 473e faf5 993e
000000f0: 6400 97bb 2817 7fbe 807c 773d f55b 28be
00000100: dead 93be 6e30 a73e 55ba d93e 79f6 6bbe
00000110: 0db1 2f3e 7f05 d43e ec70 96b9 25a0 ebbe
00000120: f63e b13d 24db 293e 0876 693e 437a 09be
00000130: 639f a13d c747 5c3e e85a 743e aeec 7e3e
00000140: b7f8 833e b3c2 75be 51cc 88bd 4fe8 6dbd
00000150: 6c5b 49be 2591 65be 4f3d a63d 39b1 c43e
00000160: 036d 35be 11b7 b33e 8cf8 293f 6d2d cdbd
00000170: 84ee bfbc 3fd1 e1bd dda0 91be 1485 703e
00000180: 4fa6 963e 358e 473e 7752 6c3e 0e97 033e
0.27631122 -0.14699231 0.4486879 -0.08616208 0.012510395 0.1717206 -0.022920974 0.2832974
0.32793602 0.35032567 -0.15975137 0.1624765 -0.41142324 0.0040160776 0.20876096 0.078169726
0.21708147 -0.16151464 -0.1418918 0.408429 0.23453532 -0.104733534 0.36621863 0.12720156
-0.097207956 0.37176114 -0.24068326 0.2862611 -0.12754302 0.01246532 -0.10791876 0.23701224
-0.20256366 -0.20479587 0.029345213 0.14907835 -0.2618461 0.060349688 0.13957201 0.050896607
-0.19968024 0.36326548 0.07441981 0.34001672 0.016394587 -0.12741852 -0.3381783 -0.059237096
0.0475145 -0.17700629 -0.3226471 -0.19082442 0.013174489 0.119222544 0.050765347 0.10455463
0.35242888 0.2801136 0.19519529 0.30070478 -0.004608201 -0.24911177 0.060421467 -0.16441329
-0.28843588 0.32654136 0.42524973 -0.2304324 0.17157383 0.41410443 -0.00028694363 -0.46020618
0.08654587 0.16587502 0.22798932 -0.13425545 0.07891729 0.21511756 0.23862803 0.24894974
0.25775692 -0.24000053 -0.06679595 -0.058082875 -0.19663781 -0.2241865 0.081171624 0.3841646
-0.17717366 0.35100606 0.6639488 -0.1001843 -0.023429163 -0.11026239 -0.2844304 0.23488265
0.29423758 0.19487841 0.23078333 0.12850592

rnn.bias_ih_l0 f4 [10]
00000000: 4289 de3d 44f2 033e 79ce 54be cf99 b63c
00000010: 123c e8be 0811 b23e 303c 5e3e 97bd a2bd
00000020: 5987 92be 1f59 923e
0.108660236 0.12885386 -0.20781888 0.022290139 -0.4535833 0.3477862 0.21702647 -0.07946318
-0.28618887 0.2858362

rnn.bias_hh_l0 f4 [10]
00000000: 3e82 e93d b8fe e93d 1073 44bd 6c91 f1bd
00000010: c458 bd3d 7a74 d6bd e512 013f bd31 05bd
00000020: 78dd 873e e0f5 ab3d
0.11401795 0.11425537 -0.047961295 -0.11795315 0.09245446 -0.10471435 0.50419456 -0.032518137
0.26536155 0.08396506

linear.weight f4 [1, 10]
00000000: 27a8 b8be 7425 343e 0b60 a1be d508 a03e
00000010: 2811 a53e 865d ee3d a9c5 a0be c59f 4cbe
00000020: b1cf a33c 8880 2dbe
-0.3606579 0.17592412 -0.31518587 0.31256738 0.32239652 0.11638932 -0.31400803 -0.19982822
0.019996496 -0.16943562
