Time-Series---Forecasting/Results/periodic/model20.pth (torch, 167181 bytes, 5 tensors)

lstm.weight_ih_l0 f4 [400, 1]
000000 14 42 33 bd f8 1c 21 3a 45 d1 75 3c 2c bb 9b bc
       -0.04376419 0.0006145979 0.015003507 -0.019010149
000010 06 80 a5 3d 12 2b 78 3d 4a 85 75 3d 97 86 2f bd
       0.08081059 0.06058795 0.059941567 -0.042852964
000020 26 6a b9 3d 78 a4 4a bc 33 84 9f 3c f7 6a 07 3d
       0.09053449 -0.012368314 0.019472217 0.033060994
000030 65 9b 52 3d 46 01 af bc e6 41 d7 bd 57 b6 f3 bc
       0.051417727 -0.021362912 -0.10510616 -0.029750032
000040 7d 1a df 3d d8 09 b7 bd 56 c4 2f 3d bf 27 ae bc
       0.10893724 -0.089374244 0.04291185 -0.021259187
000050 d5 2d 4d bd 69 60 0d bc 1b 7d 25 3b 5a 01 a7 bd
       -0.050092537 -0.008628943 0.002525157 -0.08154555
000060 da 80 7a bd 77 6e 4a bd 7f 37 2c bd 3a 3e c6 3d
       -0.06115804 -0.049421754 -0.042045113 0.096798375
000070 9e 22 ef 3c af 3d 8c bd 47 33 21 bd 40 0f 0c 3e
       0.029191311 -0.06847703 -0.039355543 0.13677692
000080 cf d1 98 3d c5 85 a8 bc cb a2 4c 3c 81 47 80 bd
       0.07461893 -0.020571599 0.012489985 -0.06263638
000090 c3 36 9f bb 31 51 05 3d 00 ec c4 bd 0f 28 a7 3d
       -0.004858823 0.032548133 -0.09615326 0.081619374
0000a0 f9 ce 17 be fa d4 1d 3c 28 c7 fd 3b 77 ca 74 3d
       -0.14825048 0.009633297 0.0077446885 0.059763398
0000b0 64 99 5c 3d e1 3a 04 bd f5 13 8f 3d 38 34 45 bc
       0.053857222 -0.032282714 0.069862284 -0.012036376
0000c0 3f d4 86 3d 15 68 eb b9 10 ac 0a 3d 2c 41 9a bd
       0.065834515 -0.0004490024 0.033855498 -0.07531962
0000d0 9a a6 c9 3d e4 c1 a4 3c a8 cd 01 3e ce b5 ab 3d
       0.0984623 0.020111986 0.12676108 0.08384286
0000e0 78 27 73 bd 21 a2 92 3d 5c 46 20 3c 5c 56 43 3d
       -0.059363812 0.0715983 0.0097824 0.04768978
0000f0 cd 99 c0 bd cf 41 12 3c 1e 6a ed 3d a6 29 0b be
       -0.09404335 0.008926823 0.11592506 -0.13590106
000100 79 2d ea bd 65 37 38 3c 58 d7 90 bd 39 59 ad bc
       -0.114344545 0.011243676 -0.070723236 -0.021160709
000110 3f 0c 5b 3d 92 62 eb bb a3 ba 11 bd 9e be cc 3d
       0.053478476 -0.0071833814 -0.03557838 0.09997295
000120 f6 cf 05 bd 98 62 be 3c 1e 2d ee bd 10 19 25 bd
       -0.03266903 0.023240373 -0.11629699 -0.040307105
000130 58 66 c3 3d 8b 24 da bd 58 9b af 3d b9 e4 65 bd
       0.09541005 -0.10651501 0.08574551 -0.05612633
000140 33 33 44 bd 23 29 d2 bd c0 ec 4c bd ad 00 b6 3d
       -0.04790039 -0.102617525 -0.05003047 0.08886848
000150 98 1a 87 3d a7 8d fe 3c 7e cb d2 3d cb 02 80 bd
       0.06596869 0.031073404 0.10292719 -0.06250533
000160 39 6c 2b 3d ab 9e ed 3c 11 1a 2d 3d 17 23 54 bc
       0.041851256 0.029006323 0.042261187 -0.012947819
000170 e5 54 86 bc 1f f6 f7 3c 8d 0f 25 bd db 5a 7f 3d
       -0.016397903 0.030268727 -0.040298034 0.062342506
000180 11 ad b8 3d 10 dc 49 3d 54 ef bb 3d 34 de 7c bd
       0.09017385 0.049282134 0.091765076 -0.061735347
000190 50 d1 ed bd c5 ac 71 3d e1 16 94 bd 23 37 70 bd
       -0.11612189 0.059002656 -0.07230926 -0.058646332
0001a0 eb b8 8f bb b6 de 5d 3e 4a 1b 80 bd ff 2b 21 3d
       -0.0043860576 0.21666989 -0.06255205 0.0393486
0001b0 4b b2 b7 3d a9 03 e9 bd 0f 84 ee 3b f6 40 05 3d
       0.089695536 -0.11377651 0.007278926 0.032532655
0001c0 0c b2 a6 3d 34 6a 6c bd 0b d4 4d 3b e2 96 8d 3d
       0.081394285 -0.05771847 0.0031406905 0.06913544
0001d0 44 a3 c3 bc 99 21 7c bd d4 c7 de 3d 0f e8 95 bd
       -0.023881562 -0.06155548 0.10877958 -0.07319652
0001e0 43 c4 8c bd 9d a3 45 bd c4 f3 f5 bd ab 90 f2 bb
       -0.068733715 -0.048251737 -0.12009385 -0.0074024997
0001f0 32 ea c4 3c a3 9d 85 bd 29 30 60 3d e8 9a 7c 3d
       0.024037454 -0.065242074 0.05473343 0.061671168
000200 e4 e2 92 bd 4a d4 27 bd 14 ee 2c 3d cd 62 f7 3d
       -0.07172182 -0.04097394 0.042219236 0.12079392
000210 86 26 84 3d 22 b9 5a bd 87 b6 61 bc 1e 8e b1 3d
       0.0645266 -0.053399213 -0.013776428 0.08669685
000220 2d de 89 bc 50 15 d7 3d 55 d2 76 bc 0d 8f 1c 3d
       -0.016829574 0.10502112 -0.0150647955 0.03822236
000230 24 6c 23 be 44 9e 12 3d 77 ef 75 3c 4b 9c 3e 3d
       -0.15959221 0.035795465 0.015010706 0.04653577
000240 2f 7b e7 bc fb 0d d8 3c d3 1e e0 bd 64 cb 03 3e
       -0.02825698 0.026373854 -0.10943379 0.12870556
000250 aa 70 01 3e fe c9 ca 3d ca 4d 94 3d 17 7c 86 bd
       0.12640634 0.09901808 0.072413996 -0.06566637
000260 ac df 12 bc 5b 2a 06 3e 4b 36 fd 3d 4e ac a5 3d
       -0.00896446 0.13102095 0.12363871 0.08089505
000270 be 6d 89 3d a5 db 8b 3d 4d 90 09 3d eb ea 78 bb
       0.06710385 0.06829003 0.03358488 -0.003798182
000280 e7 ef ab bd 80 65 93 3d ab 4d d9 3d b0 b9 df bd
       -0.08395367 0.07197094 0.10610517 -0.10924089
000290 f7 00 fa 3c 6c e5 f7 3d 99 a6 b5 bd 3a 4c cc 3d
       0.030518038 0.121043056 -0.088696666 0.099754766
0002a0 27 31 7d 3d 27 53 23 3c a9 da 90 bc ec 04 ab 3c
       0.061814453 0.0099685555 -0.01768239 0.02087637
0002b0 dc 3d c0 3c ad a6 fc 3d ab e3 4d bd da 8e 4a bc
       0.023466997 0.123364784 -0.05026595 -0.01236316
0002c0 19 37 19 bd fc f1 83 bd 4d be 2b bd 0a d2 a4 bc
       -0.03740606 -0.06442639 -0.04192953 -0.020119686
0002d0 01 6b ab 3c 4f f4 f3 bd c3 79 d5 3c 4a 6a 5d bd
       0.020925047 -0.119118325 0.026059037 -0.054056443
0002e0 4b 1b ab 3d 0d e1 8d bd e6 9c 91 3d d2 20 3e 3c
       0.08354815 -0.06927691 0.07110004 0.011604505
0002f0 55 9a 2f 3d 5d 4c 6d 3c 26 d0 a6 bd 3c 72 cd bd
       0.042871792 0.014483538 -0.0814517 -0.10031554
000300 42 5a 97 3d 6a 84 b6 bd 22 bd 04 bd 5b b4 a4 bd
       0.07390262 -0.08911975 -0.032406934 -0.080422126
000310 d3 fc 10 3e e9 8e fd 3d 10 57 bc bc 73 5a b4 3c
       0.14158945 0.123807736 -0.022990733 0.022015786
000320 2b 25 5e 3d 94 b4 15 bd 01 d5 91 3c dd 32 26 3d
       0.054234665 -0.036549166 0.017801763 0.04057585
000330 ea ce 0e 3d 79 94 29 bc 39 13 c9 bd 69 9e 07 3e
       0.034865297 -0.01035034 -0.098181196 0.13244022
000340 cb 3e 75 3c 87 b4 dd 3c d1 bc b6 bc 9f 55 51 bd
       0.014968584 0.027063621 -0.022306832 -0.051107045
000350 23 88 3f 3d 6b 8f dd bd 0b a8 a0 bd 1b 08 82 3d
       0.04676069 -0.108183704 -0.07844552 0.06349202
000360 1e cd 4d 3c b8 7d 6e bd 3b 88 06 3e 26 6a b4 3d
       0.012561111 -0.058225363 0.13137905 0.08809309
000370 07 ee 8e bd 7e 2c bd 3c 3b 0c 7a 3d f6 9c 2c 3d
       -0.06978994 0.023092505 0.06104682 0.042141877
000380 b8 b4 8e 3d 4b c7 76 3d fd dc f5 3d 5e f3 f0 bb
       0.06968063 0.060248654 0.12005041 -0.0073532304
000390 8d b7 6a 3d c5 a9 ba 3d c1 1d ab bc 11 67 8e 3d
       0.057303954 0.09114412 -0.020888211 0.06953252
0003a0 1e 00 13 3d 67 2d 62 3c 81 14 be 3d 89 f5 c5 3c
       0.035888784 0.01380477 0.092812546 0.024164932
0003b0 ec 4c 07 bd 9f bb 96 3d 4e 89 bc bd 4f e3 1f 3d
       -0.033032343 0.07360005 -0.09205876 0.039035138
0003c0 96 78 bf 3d a0 1f 27 3d 7a 1c bc 3d 9c 93 56 3d
       0.09349172 0.040801644 0.09185119 0.052386865
0003d0 74 fb 56 3d e6 4a d9 bd 92 2e d4 3d d7 ea 32 3d
       0.052485898 -0.10609989 0.10360445 0.043680992
0003e0 23 df 41 3d ba 4a 6d bd 2d 1e ba 3c 3d 13 0c 3d
       0.04733194 -0.057932593 0.022719467 0.034198035
0003f0 22 47 81 bd 24 f2 a5 3d 33 2e a9 3b df 3a fa bd
       -0.06312396 0.08102825 0.005162978 -0.1221826

lstm.weight_hh_l0 f4 [400, 100]
000000 8c 70 81 bd 76 53 3d 3d 4e 5c 98 3d 44 a8 fb 3d
       -0.06320295 0.046222173 0.07439481 0.122879535
000010 e3 d4 ab 3c 8b 56 34 bd 8c a8 85 3b 47 59 b9 bd
       0.020975536 -0.044027846 0.0040789302 -0.090502314
000020 90 d0 f2 bd ea 18 ec bd da 0b 90 3d 6d d3 a6 3d
       -0.118561864 -0.115281895 0.070335105 0.08145795
000030 8a 0d 83 bd bb ea 84 3d 44 fd 21 3c 43 77 d9 bc
       -0.06399067 0.06490084 0.009887043 -0.026546126
000040 e5 09 3a bd a7 72 73 bd bb 56 8f 3d e8 65 26 3d
       -0.045419592 -0.059435513 0.069989644 0.04062453
000050 7a 99 1a bd e8 72 ad 3d 55 61 bb 3c d6 7d 9e bd
       -0.037744023 0.08469182 0.02287356 -0.07738845
000060 99 7a bc bd cf 1d eb bd 06 4f a3 bd a9 48 a4 3d
       -0.09203071 -0.11480295 -0.07974057 0.08021671
000070 44 c3 88 bd 96 e9 88 bd dd 3d ca bb 35 f0 71 3d
       -0.06677869 -0.06685178 -0.0061719255 0.05906697
000080 82 ce ff 3c 31 29 9b bd b4 24 e7 bc 4b 72 e0 bd
       0.0312264 -0.07576216 -0.028215744 -0.109593
000090 4f df cc 38 50 09 f3 3c a7 65 dc 3c 7d 51 08 3d
       9.7690725e-05 0.029667526 0.02690394 0.03328084
0000a0 9c 90 2f 3d 01 83 57 3d d4 f2 99 bd e2 b3 3c bd
       0.04286252 0.05261517 -0.07517019 -0.046069987
0000b0 4e 8f 77 3d 26 95 09 3d 50 8b 81 bc c0 53 6e bd
       0.0604394 0.033589505 -0.0158135 -0.05818534
0000c0 c0 35 8c 3c f8 f0 b3 bd 46 5b f9 bc be 9d c1 bd
       0.017115474 -0.087861955 -0.03043903 -0.09453915
0000d0 13 ce 56 3d 7f d0 8d 3d 7d 25 72 3d 4e 7f 16 bd
       0.05244262 0.06924533 0.059117783 -0.0367425
0000e0 3d 32 78 bd de d5 ef bd 39 51 de bc 2a e2 b4 3c
       -0.060594786 -0.11710714 -0.02713834 0.0220805
0000f0 da 82 ba 3d 61 73 6e 3c eb fd 84 bd f9 d4 ed bd
       0.09106989 0.014553876 -0.064937435 -0.11612887
000100 c9 47 22 3c c9 b7 c4 3d 68 be c7 3d c2 a6 c9 3d
       0.00990481 0.09605367 0.09753114 0.0984626
000110 80 2c e0 bc 27 ae a0 3d 13 df 27 3c a8 e0 80 3d
       -0.02736497 0.07845717 0.010246056 0.0629285
000120 28 72 4e 3c f0 21 6f bb a9 75 3d 3d 2a 3b 0a 3d
       0.012600459 -0.0036488734 0.046254788 0.03374783
000130 d3 56 2c 3c 1a ac ba bd 43 29 85 bc 11 30 a7 3d
       0.010518747 -0.09114857 -0.016255027 0.08163465
000140 ba 83 fc 3a 60 33 fd bc fc 9e c3 3c 29 fa 4b bd
       0.0019265332 -0.030908287 0.02387952 -0.04979912
000150 af 04 7b bd 03 4a bf bd 5b c0 29 3d 38 65 03 3d
       -0.061283763 -0.093402885 0.04144321 0.03207895
000160 b0 2b b2 bd b8 2a e5 3b 6f ff 19 bc dc 08 a0 3d
       -0.08699739 0.006993618 -0.009399279 0.0781419
000170 69 81 bd bc 08 43 92 bd 38 cc 60 3d e7 d2 70 3d
       -0.023132997 -0.071416914 0.05488226 0.058794882
000180 f0 87 60 3c e3 c3 2f bc 04 cf dd 3d d0 10 cc bd
       0.013704285 -0.010727855 0.10830501 -0.09964144
000190 9b 26 8c 3d de 9a c2 3d 56 f3 75 3d 5f 91 90 3c
       0.06843301 0.09502195 0.060046516 0.017647443
0001a0 86 f5 be bb eb ef 95 3d 9e 4e ad 3c ac 95 81 3d
       -0.0058276085 0.07321151 0.021155652 0.06327376
0001b0 cb de 19 bd eb 86 96 bd f4 3b 19 3d 92 a7 fb 3c
       -0.037565988 -0.07349952 0.03741069 0.030719552
0001c0 d5 62 5d bb 27 ec aa 3d 45 6a 8f bd 7e be 96 3b
       -0.0033780832 0.08345824 -0.07002691 0.004600345
0001d0 e5 f6 7b 3d a3 1b 6f bd 09 08 b0 3d bf e3 53 bb
       0.061514754 -0.058375966 0.085952826 -0.0032331792
0001e0 60 87 7e 3d 68 15 17 3c 93 42 a6 bd 55 4f 3d bd
       0.062140822 0.009221412 -0.08118167 -0.046218235
0001f0 3c 61 89 3c a5 93 32 3c e8 f5 04 bc c1 17 6a bd
       0.016769998 0.010899459 -0.008115269 -0.05715156
000200 27 2c 82 bd 2c 8c b1 bd 4f 9c 35 3d 1a 2c 06 bc
       -0.06356078 -0.08669314 0.04433852 -0.008189226
000210 73 29 49 3d 07 b8 b4 bd 8b df 1a bd d0 57 eb 3c
       0.049111795 -0.08824163 -0.037810843 0.028728396
000220 87 2a 87 bd 7a ae 92 bd 7e 7e d2 3c a6 a9 19 3d
       -0.06599908 -0.07162185 0.025695082 0.037515305
000230 a6 bf 2a be 06 b8 5b 3d 96 08 a6 bd 75 86 64 bd
       -0.1667467 0.053642295 -0.081071064 -0.05579229
000240 f0 c2 14 3c 43 fc 34 bb 56 be dd bc e1 f0 58 bc
       0.00907968 -0.002761618 -0.027068298 -0.013241024
000250 69 8d 0b 3d 28 2e ae 3d f5 d5 4f 3d 18 45 e8 bd
       0.034070406 0.08504897 0.050741155 -0.113413036
000260 5c 70 9c 3d 40 e5 93 3d 96 4c 8a 3d d8 6c e0 bd
       0.07638618 0.0722146 0.06752889 -0.1095826
000270 18 ca 7a bc 51 7a 01 3d f8 1a bf bd 0e 90 7f 3d
       -0.015306972 0.03161079 -0.09331316 0.06239324
000280 e3 cb 85 3c 32 7d d4 3c 50 db e4 bd e6 be 56 bc
       0.016332572 0.025938604 -0.11174643 -0.013107037
000290 04 73 6c bc d1 82 29 bc 93 e8 91 3d a1 4a 98 3c
       -0.014431719 -0.0103461305 0.07124438 0.018590273
0002a0 9e 7a 6d 3d b5 0d 66 bd 21 91 47 bd 83 4a 01 bd
       0.057978265 -0.056165416 -0.04872239 -0.0315652
0002b0 9e ec e4 bd 87 93 d3 3d 66 eb 13 3c b0 be e1 bd
       -0.11177944 0.10330873 0.009028291 -0.11022699
0002c0 ab b1 8f bd e5 36 dc bd a2 3a 52 3d 4c bf 8b bd
       -0.07016309 -0.10752658 0.051325448 -0.06823596
0002d0 db d7 4a 3d c7 ba 44 bd f2 22 f9 bb a3 4d 41 3d
       0.049522262 -0.048029687 -0.0076030428 0.04719318
0002e0 ec a0 ab 3d a0 d9 83 bd 82 16 45 bd e4 ad 1a bd
       0.08380303 -0.06437993 -0.04811717 -0.03776349
0002f0 73 68 98 3d 64 23 c2 3c 7d 81 b0 3c e6 75 fc ba
       0.07441797 0.023698516 0.02154612 -0.0019261211
000300 9f 0e 83 3d 72 51 b6 bc 0b df a6 bd 10 7f 12 bc
       0.06399273 -0.022255633 -0.08148011 -0.008941427
000310 81 09 a6 3d 23 9a 89 3d 9b 94 09 3d 8b ef 99 3d
       0.081072815 0.06718852 0.033588987 0.07516392
000320 64 b8 dd 3d a0 51 f4 bc 17 fa 8c bc a6 9f 04 bd
       0.10826185 -0.029824078 -0.017209096 -0.032378815
000330 91 e4 e3 3d bd ba 60 bd cd 44 62 bc e7 3c 8d bd
       0.1112758 -0.054865588 -0.013810349 -0.06896382
000340 0a d6 92 bd 66 a4 d4 bd 53 3c 70 3d 44 2e c1 3c
       -0.07169731 -0.10382919 0.05865128 0.023581631
000350 13 8e 42 bd c3 5c 0e be ee a1 e3 bd a8 dd 8d 3c
       -0.047498774 -0.13902573 -0.1111487 0.017317608
000360 c7 74 a5 bc 7e aa e8 3c b4 f9 f5 3d 4a 89 5b 3c
       -0.020197285 0.02840161 0.12010518 0.0133994315
000370 ef b0 91 bd 5f a0 b8 3d 26 21 51 bd c5 a0 32 bd
       -0.071138255 0.09014963 -0.051057003 -0.043610353
000380 9a 1d 03 3e 3e 7f 63 3d dd 32 f0 3d d0 cb ce 3c
       0.12804261 0.05554127 0.117284514 0.02524367
000390 6b 65 7e bd c4 9b ae bb 70 8b 2e 3d b8 10 92 bd
       -0.06210844 -0.0053286273 0.042613447 -0.07132095
0003a0 d5 ae e8 bc 0f 4b 79 bd 21 eb 5a bd 7f 60 46 bd
       -0.028403679 -0.060862597 -0.053446893 -0.04843187
0003b0 c4 63 4e bc 02 cb b6 3d 7c 1d fa 3d 3e 69 49 3d
       -0.012597028 0.089254394 0.12212655 0.049172632
0003c0 78 7a 24 3b 01 fb c5 bb be c7 06 bd 9d 05 31 3d
       0.002509741 -0.006041885 -0.032905333 0.043218244
0003d0 98 7e a7 bc c2 84 ea bd 33 2c b3 3d 0c 4f 92 bd
       -0.020446107 -0.11451103 0.08748665 -0.07143983
0003e0 67 da 94 3d 0b ff 44 3d 82 7d d3 bc db 15 b7 3d
       0.072682194 0.04809479 -0.025816683 0.089397155
0003f0 d0 0d 4f bd 8f 8f 29 bd 7f eb 8e 3d b6 5e 4b bd
       -0.050550282 -0.041396674 0.06978511 -0.04965087

lstm.bias_ih_l0 f4 [400]
000000 ba d4 86 3c da 0f 98 bd 62 47 f0 bb f8 cd 4a 3d
       0.016458858 -0.074248984 -0.0073327282 0.049512833
000010 c6 24 7e bd f8 41 25 bd b5 9c 55 bd ee 93 b5 3d
       -0.06204679 -0.040346116 -0.0521514 0.08866106
000020 be 78 86 3b 6c 55 ef 3d 8c 16 ba 3d d9 94 7b 3c
       0.004103749 0.11686215 0.09086332 0.015355312
000030 80 b1 26 bd 2c 78 54 3d 1b 7c ff 3d 40 b9 93 3d
       -0.04069662 0.051872417 0.12474843 0.07213068
000040 78 4a b3 3d 20 e1 83 bc ff 98 ec bc f0 49 50 bd
       0.08754438 -0.016098559 -0.028881548 -0.050851762
000050 7e 72 8b bb ae 24 e2 bc a5 a8 4c bd 91 85 05 3e
       -0.004255592 -0.02760538 -0.04996552 0.13039233
000060 65 9e 2e 3d 57 94 fa bb d5 54 ed 3d cf 9f 5e bd
       0.042631526 -0.007647078 0.11588446 -0.054351624
000070 1d 77 27 bd cc 7d c9 bb 1d 80 a6 3d a2 b2 8a 3d
       -0.04088508 -0.0061490294 0.081299044 0.06772353
000080 06 7a 74 3d be 73 c2 3d b9 e9 f8 3c 35 13 5a bd
       0.059686683 0.09494732 0.030384885 -0.053240974
000090 e0 72 52 bd fe 70 96 3c 09 71 0b 3e 8c 96 8b 3d
       -0.051379085 0.018364426 0.13617338 0.06815824
0000a0 69 61 a6 3d c2 fa 7b 3d 8e 73 57 bd dd b3 e5 3d
       0.08124048 0.06151844 -0.052600436 0.11215947
0000b0 cb 9f 17 3d de f2 09 3e 92 d9 c5 3d 09 16 e9 bb
       0.037017625 0.13471553 0.09660639 -0.0071132225
0000c0 c8 5f 97 3d 42 25 84 3d 8d 8e b8 3d 53 67 77 bc
       0.07391316 0.06452419 0.090115644 -0.015100318
0000d0 fb d8 cb bc 24 c1 89 bd 80 40 e0 bc 18 37 84 3d
       -0.024883738 -0.06726292 -0.027374506 0.06455821
0000e0 3c 2c a5 bd 9d cb f4 3d 1b 01 ab 3d de 56 97 3d
       -0.08065078 0.11952899 0.0834982 0.073896155
0000f0 99 c0 f1 3c 65 a9 b3 3c 54 ba 1d 3d fe 63 c3 3c
       0.029510783 0.02193136 0.038507774 0.02385139
000100 97 82 f7 3d 5f 59 75 bd d4 47 7a bd 53 39 af 3d
       0.12085455 -0.059899684 -0.061103657 0.085558556
000110 0d 86 b3 3c 02 3e d7 bc 47 dc 9d bd 2a 49 1d bd
       0.021914506 -0.026274685 -0.0770803 -0.038399853
000120 0f ee f8 3d 68 53 49 3d c0 e0 fc bc 42 8d 43 3d
       0.12154781 0.049151808 -0.030868888 0.047742136
000130 0f 67 3a bc 6c 11 5d 3d 4c ea db 3c ab d8 19 bd
       -0.01137711 0.053971693 0.02684512 -0.037560146
000140 6c 2d de bc d3 2f 09 3d 5e a9 76 3d ba ec 91 3d
       -0.027121268 0.033492874 0.060220115 0.0712523
000150 c6 3e e4 3d aa c2 04 bd 31 95 3d 3d a8 35 92 bd
       0.111447856 -0.03241221 0.04628486 -0.0713914
000160 ca 39 18 3d 70 da ec 3d a3 ad 22 3d ff 8e c7 bd
       0.037164487 0.11565101 0.039716374 -0.09744071
000170 a5 47 bf 3b 5b 30 a2 3d bc 04 92 bd eb 30 75 bd
       0.005837398 0.07919379 -0.07129809 -0.059861105
000180 01 75 93 3d a9 42 98 bd 76 c4 57 3d d1 06 b3 bc
       0.07200051 -0.074345894 0.052677594 -0.021853836
000190 47 7b f2 3d 9c 9f 74 bd f3 3c 8e bc 02 04 ab 3d
       0.118399195 -0.059722528 -0.017363047 0.08350374
0001a0 62 5d 9a bc 66 cf 0b 3d e8 92 89 3d 44 94 46 3d
       -0.018843357 0.034133337 0.06717473 0.04848124
0001b0 e9 93 82 3d 7d 4b 3e 3d 6c bf 97 bd d4 f5 11 ba
       0.06375868 0.04645871 -0.07409558 -0.0005567942
0001c0 d7 8f 2b 3d e9 84 77 bd 01 64 a1 3c 40 96 05 3c
       0.041885223 -0.060429487 0.019701006 0.008153498
0001d0 51 7e 17 bd 24 d8 ee 3d 1e 92 a4 3c 97 10 18 bc
       -0.0369857 0.11662319 0.020089205 -0.009281299
0001e0 7f 63 11 bd 87 9b 69 bc 2c 35 4b bc ae 42 52 bd
       -0.035495277 -0.014258272 -0.012402814 -0.051333122
0001f0 74 ac 12 3d 6b bc 7f 3d 85 8a e0 bc 38 19 9d 3d
       0.035808995 0.06243555 -0.027409801 0.07670826
000200 14 de 65 3c 89 46 94 3d 60 74 9c bd 17 c5 be bd
       0.014029998 0.07240016 -0.07639384 -0.09314936
000210 86 e6 14 bd fe e2 9b 3d 0f 52 f7 3d d0 85 2c 3d
       -0.036352657 0.07611655 0.12076198 0.0421198
000220 05 17 39 3d f1 9d 82 3d f8 3c 94 3c fb 44 88 bc
       0.04518797 0.06377781 0.018095478 -0.016634455
000230 78 4f ca 3c 99 01 be 3d fe 8c 7a 3d 03 00 64 bd
       0.024696097 0.092776485 0.061169617 -0.055664074
000240 8b 10 f0 3d 9a 3e 75 3d 64 fa c6 bd c1 81 16 bd
       0.11721905 0.059874155 -0.09715727 -0.036744837
000250 82 c4 cc 3b 71 7d a3 bd 1e e8 73 3d 02 c1 28 bd
       0.0062490115 -0.079829104 0.059547536 -0.04119969
000260 44 6d db bc ff 7d 19 bc 09 31 a1 3d 3b e7 21 3e
       -0.0267855 -0.009368419 0.07870681 0.15810864
000270 35 8b 8b bd b7 d2 c3 3d 15 3b 9d bd 7b a6 95 bc
       -0.06813661 0.09561675 -0.07677285 -0.01826786
000280 52 67 9c 3d bd 96 84 3c 4d 25 a5 bd 89 55 bf 3d
       0.07636894 0.016185159 -0.08063755 0.093424864
000290 02 94 5e 3d b5 cb 22 bc 06 1d 91 bd c7 12 69 bd
       0.05434037 -0.009936263 -0.07085614 -0.056902673
0002a0 9e c4 13 3d 72 2a cc bb 69 d3 51 3d 55 7e 68 3c
       0.03607618 -0.006230646 0.051227007 0.014190276
0002b0 5a 19 e5 3d b0 f1 20 3d fe 89 43 bd 1d 65 6f 3d
       0.11186476 0.03929299 -0.04773902 0.05844604
0002c0 d8 c9 2d bd 56 98 a9 3d 4f 6d 0d bd 85 6a f7 3b
       -0.04242882 0.08281009 -0.034528073 0.00755054
0002d0 66 4d 2e bd d2 80 4a 3d d2 47 23 bd 45 bd 8b 3d
       -0.04255428 0.04943926 -0.039863415 0.0682321
0002e0 bd 7a 8d bd fc e5 88 3d 0f 6b ad 3c ee d8 a4 bd
       -0.06908176 0.06684491 0.021169214 -0.080491886
0002f0 56 89 3f bc 6c 5c d3 3c 20 c0 67 bd 28 e1 90 bd
       -0.011690458 0.025800906 -0.05657971 -0.07074195
000300 8d 3d cc 3d 2e 46 b9 3d 6c 36 20 bd 46 1c 39 bd
       0.099726774 0.09046589 -0.0391144 -0.04519298
000310 27 b9 e6 bc 3b d2 76 3d 8e 6a 04 3c 90 c7 db 3d
       -0.02816446 0.060259085 0.008082045 0.10731423
000320 a4 17 7d bd 3e 55 96 3d c9 e2 bd 3c c2 dd 8b 3d
       -0.061790124 0.073404774 0.023179429 0.06829406
000330 64 0d d6 bc 5f 4c dd bd 8f 00 7f 3d cb ec bf bd
       -0.026129432 -0.10805582 0.062256392 -0.093713365
000340 d0 e1 cd bc 66 54 ed bd 04 ae 9b bc 66 ac c7 3d
       -0.02513209 -0.11588363 -0.019003876 0.09749679
000350 c6 d7 14 bd 8b 55 27 3d 12 e5 96 3d bd c1 fd bc
       -0.03633859 0.040853065 0.073679104 -0.03097617
000360 58 a5 e8 3b dc 79 89 3d ef 8b 23 bc e8 09 ed 3b
       0.0070997886 0.06712696 -0.009982093 0.007233847
000370 8e 32 d6 3b 8b 94 16 bc 7d 22 08 bd 93 15 d4 bc
       0.0065367883 -0.009190689 -0.033236016 -0.025889194
000380 71 e2 d5 bc aa af f0 3c 9a 73 9f bd ad 69 d5 3d
       -0.026108952 0.029380638 -0.07785721 0.10420547
000390 05 0b 78 3c 32 fa 48 bb 28 32 94 bd b8 52 5a 3d
       0.015139346 -0.0030666706 -0.07236129 0.053301543
0003a0 26 a5 ab 3d 2a 27 94 3d 8a 70 c6 bd 36 bc 83 bd
       0.08381109 0.072340325 -0.09689434 -0.06432383
0003b0 8b 11 da bc 1c 65 4e 3d a3 fa d2 3d 64 6c 6c 3d
       -0.026619693 0.050389394 0.103017114 0.057720557
0003c0 06 83 8f bd 24 82 e2 3d b3 6a dc bd c7 ef 8e 3c
       -0.070074126 0.110599786 -0.10762539 0.01744832
0003d0 72 11 03 bd e8 5a 97 3d 83 4c aa 3c 72 00 8b 3d
       -0.03199906 0.07390386 0.020788437 0.06787194
0003e0 c9 2f 02 3d 1d 49 cf bc 49 47 d6 bc e6 6b ca bc
       0.031783853 -0.025303418 -0.026157038 -0.024709653
0003f0 a1 df 85 bd 8d 92 ba 3d c9 a8 f7 3c b1 fa 30 3d
       -0.065367945 0.091099836 0.03023185 0.043207828

lstm.bias_hh_l0 f4 [400]
000000 b2 a5 ba bb 4f 41 8a bc 49 9e 3a 3d 9e a5 e1 3c
       -0.005696022 -0.016876845 0.04556111 0.027544793
000010 c0 43 8d bb 64 18 5b 3d 93 b7 0b bd 7c 85 0d 3e
       -0.004311055 0.053490058 -0.034110617 0.13820451
000020 7e 7b b8 bc 29 59 d8 3c ee b1 bd bb 10 29 ea 3d
       -0.022519823 0.026409702 -0.005789033 0.11433613
000030 09 24 db 3c 5b ef b8 3d 0f 8b d9 3d 53 9b 6d bc
       0.026750581 0.090300284 0.106222264 -0.014502364
000040 34 cb a7 3d ba b2 ac 3d 38 3e 74 bb 45 a0 56 3d
       0.08193055 0.08432527 -0.003726853 0.05239894
000050 ff 7f 35 bc 70 a8 ea 3d 58 14 4d 3d df 04 1e bd
       -0.01107788 0.11457908 0.05006823 -0.038578864
000060 35 87 dd 3d a7 3d 6d 3d 67 5f ee 3b 95 37 3d bd
       0.10816804 0.057920124 0.0072745564 -0.046195585
000070 b5 ae c9 3d e7 55 07 3d 9a 37 1e bd 62 db 76 3d
       0.09847776 0.033040907 -0.038627245 0.060267814
000080 15 70 8e 3d b4 98 5e bc 7f 2b 3e bd a2 50 31 3d
       0.06954972 -0.013586212 -0.0464282 0.043289788
000090 8c 5a 13 3d ba 67 79 bd b6 db 0c bd 19 92 a2 3d
       0.035975024 -0.060889937 -0.03438922 0.07938022
0000a0 56 94 4b 3e 89 c0 c6 3b c0 fd 4e bd 25 0e a3 3c
       0.19880804 0.0060654324 -0.050534964 0.019904206
0000b0 f6 70 42 3d 81 ae f9 3c 25 d6 be 3d e5 09 02 3d
       0.04747101 0.030478718 0.093181886 0.031747717
0000c0 a7 92 d8 bc 79 36 b7 3c a0 9e 12 bd 1c 52 82 bc
       -0.026437117 0.022364842 -0.035795808 -0.015908293
0000d0 3b 7a e5 3d c3 c0 1d bd 2a 42 a0 3d 11 7b 37 3e
       0.11204954 -0.03851391 0.0782512 0.1791804
0000e0 19 85 72 3d 7c b0 39 3d cf 72 df 3d 7b 8f 96 3d
       0.059208963 0.045334324 0.1091057 0.073515855
0000f0 9b 34 17 bc 16 19 fd bc e0 90 3e 3d c6 bd 00 3d
       -0.009228851 -0.030895751 0.046524882 0.031430982
000100 12 54 93 3d 44 ba 58 bd 0d 60 ad 3d c8 d1 ed 3b
       0.071937695 -0.05291201 0.08465586 0.007257674
000110 fd a5 7d bd 06 ce 77 3d a9 d2 65 bd bd 79 25 bd
       -0.061925877 0.060499214 -0.056109104 -0.0403993
000120 ad 07 26 3d cd 57 74 3c 23 f4 58 bd 1a aa d8 3b
       0.040534664 0.014913511 -0.052967202 0.0066120746
000130 2f 9c 02 3e 4f 59 fa 3d 21 c7 bd 3d cb 08 92 3d
       0.12754892 0.122240655 0.092664964 0.071305834
000140 08 e7 d3 3d c2 89 b3 3d 88 50 58 3d bc 6c 59 bc
       0.103468 0.087665096 0.052811176 -0.013270553
000150 c0 5c 38 3c 50 06 f8 3c 21 8b 80 3d 01 5f 95 3c
       0.011252582 0.030276448 0.06276537 0.018233778
000160 5c 96 96 3d 72 09 c0 3d 2d 2f d8 39 e0 21 80 3b
       0.073528975 0.093768016 0.0004123388 0.003910288
000170 99 82 50 bd db ae ca 3d e2 6a 90 3b ff 64 33 bd
       -0.050905798 0.09896632 0.0044072727 -0.04379749
000180 45 af 3e bd 2a 36 c2 bb 4c d6 5d bd 08 ba cc 3c
       -0.04655387 -0.005926867 -0.054159448 0.02499105
000190 53 d1 e8 3d 0f d1 ca bc e9 d5 76 bd a4 d7 1e bd
       0.113680504 -0.02475789 -0.060262594 -0.03877987
0001a0 ef 5e 32 3d 59 4b c3 bd 96 99 ce 3d d0 98 c1 3d
       0.043547567 -0.09535856 0.10087888 0.09452975
0001b0 0f de 8e 3d 5a 07 10 bd 41 98 27 3d 19 35 39 3d
       0.06975948 -0.03516326 0.040916685 0.045216653
0001c0 4f e2 b5 bd be 5c 0f bb 08 31 3a bc a0 60 86 3d
       -0.088810556 -0.0021875347 -0.011364229 0.065613985
0001d0 19 3a 85 3c 98 0f 95 bd 5c 98 a1 3d 85 24 b7 3d
       0.016263055 -0.07278365 0.07890388 0.089425124
0001e0 f8 56 76 3d 98 94 92 bd b1 21 bb 3d 81 d2 c9 3d
       0.060141534 -0.07157248 0.091372855 0.098546036
0001f0 be f8 f2 3c eb 50 37 3d 1d 5b 87 bd a8 08 a1 3b
       0.029659625 0.044754904 -0.06609175 0.004914362
000200 e9 31 e4 bb 57 62 1b 3d ed 67 6f 3d 32 9b c5 bd
       -0.0069639576 0.03793558 0.05844872 -0.09648742
000210 09 41 bb 3d f2 86 bf 3d 8c dd 0d 3d 9d 9a 7a 3c
       0.09143264 0.09351911 0.03463511 0.015295652
000220 30 af 77 bc 47 9c 99 bd 60 93 29 bd ef ae 4a 3d
       -0.015117452 -0.07500511 -0.041400313 0.049483236
000230 0f ec bb 3d b1 36 f6 ba 95 d2 f0 bb 5c 95 ea 3d
       0.09175884 -0.001878461 -0.007349322 0.11454269
000240 f6 25 50 3d 32 c4 2f 3d c0 59 13 3d 02 0f dc 3d
       0.050817452 0.042911716 0.035974264 0.1074505
000250 7f e7 4b 3d 6d 0d 65 3d 43 c9 cd 3c 0d f6 d6 3d
       0.04978132 0.055921007 0.025120383 0.10496149
000260 f5 34 f5 bb bb 64 89 3d e4 23 31 bd 21 b3 17 3e
       -0.0074831196 0.06708666 -0.04324712 0.14814426
000270 d8 3a ba bd 2e cd 9f bd c3 83 e1 3c 7f c6 5c bd
       -0.09093255 -0.07802807 0.02752865 -0.053900238
000280 df 3b b1 3d 28 35 57 bd 17 5d 93 bd 69 b9 e5 bc
       0.08653998 -0.052540928 -0.0719549 -0.028042512
000290 b9 a9 fa bb 85 c1 ee 3d 62 49 28 3d 30 bf 07 bd
       -0.007649627 0.11658005 0.04108561 -0.033141315
0002a0 0c 47 89 bd 8a 45 21 bd 85 4e ad 3a 01 bd 5a bd
       -0.06703004 -0.03937296 0.0013222253 -0.053402904
0002b0 c7 0c 3b 3d c3 38 bf 3d 0a c3 55 3d c6 b9 6a 3d
       0.045666482 0.09336998 0.052187957 0.057306074
0002c0 e4 b7 ea 3c c2 25 b5 3d 9d 98 a2 3d 14 37 86 3d
       0.028652139 0.08845092 0.07939265 0.06553474
0002d0 74 16 76 3d f0 2e 97 3d 02 a4 b4 3d a3 91 83 3d
       0.060080007 0.073819995 0.088203445 0.064242624
0002e0 13 3b 25 3d 95 d2 de 3c 7e 7c 9f 3d c5 e7 94 3c
       0.04033954 0.027200023 0.07787417 0.018176923
0002f0 d4 af 20 3c fa 46 59 3d 11 4c 89 bd ce 85 77 bd
       0.009807546 0.053046204 -0.06703962 -0.06043034
000300 94 36 b6 3c 5f 5f 62 bd 70 c7 2d bd 4b 07 44 bd
       0.022242822 -0.055266734 -0.042426527 -0.047858518
000310 99 30 bd 3c 3f 55 92 3c 64 1b 26 bd 96 ff ac bb
       0.023094462 0.017862914 -0.040553465 -0.0052794917
000320 17 97 cf bc e6 95 33 bd 18 9b 34 3d 97 77 af 3d
       -0.0253406 -0.043844126 0.04409322 0.08567732
000330 f2 ac cd 3d ba 67 fa 3c 0f 5f 9f bd 0d 0e ab bd
       0.10042752 0.030567039 -0.07781803 -0.08352289
000340 8e de 92 bd fd f2 bc bd 91 bf e4 bd 7c d6 83 3c
       -0.07171355 -0.09226034 -0.11169351 0.016093485
000350 c2 d5 87 bd e7 74 f8 3b 7a d8 44 3d ed b8 72 bd
       -0.06632568 0.007582295 0.04805801 -0.05925839
000360 0b a8 9c bd 9f ce 75 bd 75 12 ac 3b 34 c0 40 bc
       -0.07649239 -0.060011502 0.0052512237 -0.011764575
000370 45 29 22 3d a9 fc 35 3d a4 37 17 bd cd 9a 97 bd
       0.03959014 0.04443041 -0.036918297 -0.07402573
000380 9b f8 49 bd ce 09 d5 bd 24 0d c6 3b 8f 0b ab 3d
       -0.049309354 -0.10402261 0.006044047 0.08351814
000390 61 ad 59 bc 11 76 20 bd 98 29 47 bd 68 69 7b bd
       -0.013285966 -0.039175097 -0.04862365 -0.06137982
0003a0 c4 0a b7 bd 19 7c 46 3d d8 02 8d bd cc 3f 98 bd
       -0.089376 0.048458192 -0.06885308 -0.07434043
0003b0 69 fa 85 3d aa d6 b1 3d 4b 6f bc 3d e4 88 8e 3d
       0.065419026 0.08683522 0.09200915 0.069597036
0003c0 92 74 e0 3c d7 19 17 3d 9e 74 a4 bd aa e8 ac 3d
       0.027399335 0.036889877 -0.080300555 0.08442815
0003d0 4a 37 f3 bd 86 61 dc 3b c7 8b 45 bd 85 06 28 bd
       -0.1187578 0.006725493 -0.048229005 -0.041021843
0003e0 1c 73 9a bd 96 92 21 bd 59 be be 3c 1f f0 0a bd
       -0.075414866 -0.039446436 0.023284124 -0.033920404
0003f0 48 ff 52 bd 65 94 af 3d d0 77 b9 3d 69 1d e4 bd
       -0.051512986 0.08573226 0.090560555 -0.11138422

linear.weight f4 [1, 100]
000000 1a 48 93 3d 6f 91 a5 bd 6e 0d a5 3d aa 38 1c 3d
       0.07191487 -0.0808438 0.08059202 0.038139977
000010 51 a5 97 3d c7 7f 02 3e 4d 56 a1 bb 7c d0 14 3e
       0.074045785 0.12744056 -0.004923618 0.14532655
000020 35 71 32 3d 48 ad a2 3d 4f 5e ef 3d 02 e6 bb bd
       0.043564994 0.07943207 0.1168791 -0.0917473
000030 d4 6d c2 3c 7f a7 ff bd 37 5c aa bd 72 00 e6 3d
       0.02373401 -0.12483119 -0.0831837 0.11230554
000040 cf ad 0f bb b3 da cb bd d8 22 d3 3b 05 2a b7 3d
       -0.0021923666 -0.09953823 0.0064433627 0.089435615
000050 31 30 8e bd b2 b4 a3 3d 59 95 b1 ba 6a fc c7 3d
       -0.069427855 0.07993449 -0.0013548537 0.09764941
000060 a5 04 97 bb af 9b 6d bc 9f 8e 6c 3d 74 b0 95 bb
       -0.004608708 -0.01450245 0.0577532 -0.004568154
000070 7a c8 ce bc 74 bd c3 3d 1d 04 68 3b 41 f2 7a bd
       -0.025242079 0.0955762 0.0035402842 -0.061266188
000080 80 ea 4f bd de 04 27 3c 38 da d5 3d 6c 03 79 3d
       -0.050760746 0.0101940315 0.104420125 0.06079428
000090 02 f9 c6 bd eb 36 c8 bd 82 e6 4d bd c9 f7 93 3d
       -0.09715463 -0.097761 -0.050268658 0.07224996
0000a0 35 69 8a 3d 3e 78 4e bd ad a9 0d bd f9 22 8c 3d
       0.06758348 -0.05040764 -0.034585644 0.06842608
0000b0 47 29 30 3d 5c 85 e7 bd 42 3c d3 bd be 83 cc bc
       0.043008115 -0.11304733 -0.10314228 -0.024965163
0000c0 8c 48 f5 3c 84 f2 4e 3d cf 41 25 bd 0d 10 08 3e
       0.02994182 0.05052425 -0.040345963 0.13287373
0000d0 d1 12 77 bd 9f 7b 30 bd fc fa 5a bc b9 84 a4 3c
       -0.06032068 -0.043086644 -0.013365503 0.020082818
0000e0 b0 17 d8 bd 25 f3 3f bd bb 65 81 3d 0a 1c b2 3d
       -0.10551393 -0.04686274 0.06318232 0.08696754
0000f0 bf 28 79 bd 64 d4 dc bd 1b d4 9f bd 09 c2 fc 3d
       -0.060829874 -0.10782698 -0.07804128 0.12341697
000100 90 40 fa 3d 3c b5 c9 3a 00 6e c2 bd 91 6e bf 3c
       0.122193456 0.0015389095 -0.09493637 0.023368152
000110 3e 0c 92 3d 45 ce a4 3d 65 23 11 3d 4e 3d f3 bc
       0.07131241 0.08047155 0.035434145 -0.029692318
000120 62 47 b4 3c c3 29 ec 3d 08 62 9c bd 21 5e c1 3d
       0.022006694 0.11531403 -0.076358855 0.09441782
000130 0a 43 85 bc 46 d3 fe 3c 25 52 b4 bc bc c0 d5 3c
       -0.016267318 0.031106602 -0.022011826 0.02609288
000140 e6 dd a9 bd 19 33 03 be 51 f6 03 be 98 88 a1 bc
       -0.08294277 -0.12812461 -0.12886931 -0.019718453
000150 81 47 e1 3d 60 6f e8 3d f4 18 8d bd 3b 4d 5a 3d
       0.109999664 0.11349368 -0.06889525 0.05329631
000160 69 b3 c3 3d 1d 08 93 3d ca ca dd bd a2 78 9c 3c
       0.09555704 0.07179282 -0.108296946 0.019100491
000170 8d c4 05 3d ce 56 4e bd 65 e0 d5 bc 55 9d ec bd
       0.03265815 -0.050375752 -0.026107976 -0.11553446
000180 fe 5e 26 3e e1 d0 70 bd 18 8f da bd bf ae 9e bd
       0.16247174 -0.058792952 -0.10671824 -0.07748174
