Time-Series---Forecasting/Results/periodic/model13.pth (torch, 487188 bytes, 9 tensors)

rnn.weight_ih_l0 f4 [200, 1]
000000 06 db 45 3c 60 ce 3c 3d d9 4c 37 bd 04 d1 18 bd
       0.012076145 0.046095252 -0.044751022 -0.037308708
000010 77 08 56 bd 40 9b eb 3c 00 31 2e bd 61 b9 bb bc
       -0.052254166 0.028760552 -0.0425272 -0.022915544
000020 91 3a 4e ba e6 1b 33 bd 14 8c 33 3c 30 be 52 3c
       -0.00078670034 -0.043727778 0.01095869 0.012862727
000030 72 06 01 bd 1e 81 0d bd fe 24 aa bc 68 64 2e bc
       -0.031500287 -0.034546964 -0.020769592 -0.010644056
000040 6b d4 0c 3d 87 db af 3c d2 cc 25 3d f2 d9 a1 bc
       0.034382265 0.021466983 0.040478535 -0.019757245
000050 4a 6a 25 3d 4e 9b 83 3d 9d 0f 8e bd 89 45 09 3c
       0.04038457 0.064261064 -0.06936572 0.008378395
000060 81 1a c7 bc be e7 1f bc f7 cc 79 bd 0e 98 df bc
       -0.02430463 -0.0097598415 -0.060986485 -0.027294185
000070 45 71 44 bc 2f 76 9e bc 53 73 8a bd b9 09 dd bc
       -0.011989896 -0.019343464 -0.067602776 -0.026982175
000080 4e f5 60 3c dd 0d e7 3b 5c 93 1a 3d 99 5d 64 bd
       0.01373036 0.007051213 0.03773819 -0.055753324
000090 79 ab 50 3d 15 36 41 bd 20 6c 57 3c 99 48 15 bd
       0.05094478 -0.047170717 0.013148338 -0.036446188
0000a0 a3 1c de bb d4 64 9d bc e3 83 4f 3c 40 1a 17 bc
       -0.006778316 -0.019213118 0.012665722 -0.009222567
0000b0 2f 46 43 3d 66 9f 8b bd d9 f1 f8 bc 67 d8 f8 bc
       0.047674354 -0.06817512 -0.03038876 -0.030376626
0000c0 76 4a 58 bd 1a 59 86 bd d5 1b 1f bd d5 a4 6d bc
       -0.052805386 -0.065599635 -0.038844902 -0.014504631
0000d0 e5 f5 c3 bc d1 ee 1e 3d 75 22 67 b9 09 91 b1 3c
       -0.023920963 0.03880197 -0.00022042713 0.021675603
0000e0 82 e0 85 3d 5c 05 95 3c a1 53 cd 3c a4 3d 5c bc
       0.06536962 0.018191032 0.025064291 -0.013442431
0000f0 88 f1 77 3a 68 d8 78 bc 40 b0 7b 3d 04 81 9f 3c
       0.0009458293 -0.015188314 0.061447382 0.0194707
000100 b4 e3 73 3d f8 67 2c bc 58 b3 53 3d e4 d3 da 3a
       0.059543326 -0.010522835 0.051684707 0.0016695228
000110 5a 77 24 3d 63 97 09 bc 8f 25 dc bc 4f cc 8b 3d
       0.040152885 -0.00839791 -0.026873378 0.06826078
000120 48 9c 77 3a 2e a0 e7 3c 20 d8 63 bd 56 25 bf 3b
       0.000944559 0.028274622 -0.055626035 0.005833308
000130 6f f2 0a 3c a2 0c 29 3c 2f 48 c1 3c 9b 4b f4 3c
       0.008480652 0.010317953 0.02359399 0.029821208
000140 bc 81 ff 3c 48 9e 0c bc 86 7d d0 bc 03 5c b0 bc
       0.031189792 -0.008582659 -0.02545048 -0.02152825
000150 a5 7c 62 3d f7 02 92 bd 8d d1 7b bc bc 06 93 bd
       0.05529465 -0.07129472 -0.015369785 -0.07179019
000160 33 16 3e bd 01 d2 c8 bc f6 b4 8b 3d e3 b9 a6 bc
       -0.04640789 -0.0245142 0.06821625 -0.02035231
000170 5b 88 1b bd ce fd 45 bd 90 e9 28 bc a7 fe 82 bd
       -0.037971836 -0.04833775 -0.010309592 -0.06396227
000180 12 8a 38 3d 02 21 8b 3c 7f 9c 44 bd ee 08 18 bc
       0.04505355 0.016983513 -0.04800081 -0.009279473
000190 07 c4 0e bb 9e 0f 87 3d 6f 00 1f bc 76 d4 22 3d
       -0.0021784322 0.065947756 -0.009704693 0.0397534
0001a0 be ee 75 3d d6 35 45 3d e7 fa bc 3c 71 2d 34 bc
       0.060042135 0.048147045 0.023068858 -0.010997162
0001b0 d4 c3 0e bd 21 e8 21 3b b3 96 25 3d 26 51 60 b9
       -0.034854725 0.002470501 0.04042692 -0.00021392535
0001c0 de e2 a1 3a e0 22 82 3d bc 96 49 3d e7 f5 f0 bc
       0.0012350937 0.06354308 0.049216017 -0.02941413
0001d0 4c e3 e6 3c 67 d3 76 bd 8f 5a 07 3d ac 88 79 3d
       0.028184555 -0.060260203 0.033045348 0.060921356
0001e0 00 7f 40 3d 0b a0 43 3b ce b9 6c 3d 25 b4 21 bb
       0.046996117 0.0029850032 0.057794385 -0.0024674025
0001f0 54 90 23 bd 84 02 84 3d dc da 1f bd 8f ba 88 bd
       -0.039932564 0.06445792 -0.03902708 -0.06676208
000200 5b fb bb 3c 27 c4 61 3d e2 5c d9 3c 48 9c 72 3d
       0.022947004 0.055118706 0.026533548 0.059231073
000210 52 03 80 3d 1d 28 19 bd f7 12 0e 3a a4 ac d6 3c
       0.06250633 -0.03739177 0.0005419696 0.026205368
000220 ec 57 33 3d b8 93 1c bd dc 3b 34 3d 18 9e 18 3d
       0.04378502 -0.038226813 0.0440024 0.037260145
000230 9c 71 3e bd 72 0f a7 3c 63 dd 1a bd b0 43 c0 3c
       -0.046495065 0.020393107 -0.037808787 0.023469776
000240 44 af 27 bb 53 67 cc 3c 37 60 5b bd 4a e8 10 3d
       -0.0025586644 0.024951613 -0.053558555 0.035377778
000250 7f bf 81 3c 9b 6b dc 3c a2 d5 79 bc 09 f9 35 3c
       0.015838383 0.026906779 -0.015248688 0.011106738
000260 67 98 8b bd d8 24 7e bc ad 56 02 bd 03 12 13 3d
       -0.06816178 -0.015511714 -0.03182094 0.03590585
000270 94 3c f3 bc 6c d5 62 bd db f1 8f bd fa b9 8a 3d
       -0.029691972 -0.055379316 -0.07028552 0.067737535
000280 6d 1b 2e bd 8b 0e 21 bd 36 3e 21 bd 86 9e 66 3c
       -0.042506624 -0.03932051 -0.03936597 0.014075881
000290 97 4a e5 3b 95 5a 66 3d f2 46 0c bb e1 5f 17 3c
       0.006997417 0.05623873 -0.0021404591 0.009239168
0002a0 c7 35 26 bc 1c 2a 58 3d 6a 86 95 bd ad 2b 58 bd
       -0.010144657 0.052774534 -0.07301028 -0.052776027
0002b0 29 b6 3c 3d 28 c5 5a 3c 79 54 42 bd 8e b5 d9 bc
       0.04607216 0.01335267 -0.04744384 -0.02657583
0002c0 1e 67 f2 3c 44 a0 46 bd 04 50 3d 3d 0e 6d b7 3c
       0.029590186 -0.048492685 0.046218887 0.022390869
0002d0 87 37 3c 3d aa ef 13 3c 3c 22 dc 3c dd 29 66 3c
       0.045951393 0.009029308 0.026871793 0.014048067
0002e0 29 3a c2 3c f1 20 6b bd 01 61 37 3d df a3 8c bd
       0.023709374 -0.057404462 0.044770245 -0.068671934
0002f0 45 11 94 3d b5 ab 50 3b 32 1f 49 3d cf 65 c0 3c
       0.072298564 0.0031840627 0.049102016 0.023486046
000300 01 df d2 3c 05 4f 69 3d a8 da 7f bc 3a 7b 9a 3c
       0.025741102 0.056960125 -0.015616097 0.018857587
000310 85 64 7a 3c ac d4 44 bd 11 a2 d8 bc c7 0e f5 bb
       0.015282755 -0.048054382 -0.026444467 -0.0074785682

rnn.weight_hh_l0 f4 [200, 200]
000000 dd 20 7d bd 57 73 06 bd 5b e7 86 3c 8f bc 31 3d
       -0.06179892 -0.03282484 0.01646774 0.043392714
000010 7d 58 2b bd 81 17 17 bd 3e 4e e5 3c d2 1b 19 bc
       -0.041832436 -0.03688765 0.02799141 -0.009345012
000020 50 13 81 3d c6 c6 03 3c 91 74 ef 3b ac ae 85 3d
       0.06302512 0.008042997 0.007307597 0.06527457
000030 3a 2e f7 bc 8d 52 ed bc fe 83 64 bc 70 e6 2c 3a
       -0.03017341 -0.028970027 -0.013947485 0.0006595617
000040 9d dd b7 bc ec 7e 17 3d 1a b3 88 bc 1c 2c 59 bd
       -0.02244454 0.036986277 -0.016686965 -0.05302058
000050 54 42 87 3d 7b e0 87 3a 7a 65 69 3d ce 0d 64 bc
       0.06604448 0.0010366583 0.05698154 -0.013919307
000060 53 c2 2d bd c2 fc 89 bc e0 20 5d bd 72 e8 47 3d
       -0.04242165 -0.016844157 -0.05398643 0.04880566
000070 1a 9a 20 3d f9 a4 95 bd fd 4f 94 bc 69 d0 48 3d
       0.039209463 -0.07306857 -0.018104548 0.04902688
000080 20 59 36 bc 8e 5c 6b 3d 10 99 5a bd 3d f7 7c 3b
       -0.0111296475 0.057461314 -0.053368628 0.0038599514
000090 ac c5 14 3c ee fa 91 3d a9 51 7a bd 87 43 e7 bc
       0.009080332 0.07127939 -0.061113033 -0.028230442
0000a0 ed 6a 5a 3d bd 19 06 3d 15 0c 7a bc cc 4f dc 3c
       0.05332463 0.03273939 -0.01526167 0.026893519
0000b0 59 09 0f 3c bf 45 f4 3b 60 38 22 3d 2a 68 07 3c
       0.008730256 0.0074546034 0.039604545 0.008264581
0000c0 a3 15 8e 3d 5e 00 37 3d ae d3 28 bd ee b6 84 3d
       0.069377206 0.044678085 -0.0412175 0.064802036
0000d0 b8 30 00 bd d0 e1 57 3d af 48 8d bc 90 41 03 bc
       -0.03129646 0.052705586 -0.017246572 -0.008011237
0000e0 5b bb 4d bc 42 68 9e bc 82 34 2e 3b ba 1f 80 bc
       -0.012556876 -0.019336823 0.002658159 -0.015640128
0000f0 8a 3a dc bc 02 65 de 3c 8e 74 89 bd 49 2e c9 bc
       -0.026883382 0.027147774 -0.06711684 -0.024558203
000100 31 32 00 3d 06 bc 49 3d ee 93 1f bc bc e1 6b 3c
       0.031297866 0.04925158 -0.009739859 0.014397081
000110 83 4a 88 3d 55 cf 49 3d a6 49 16 bd d5 ce 8f bd
       0.06654837 0.049269993 -0.03669133 -0.07021872
000120 a8 eb db bc 00 5a 1c bd b4 3f 91 3d af 81 0c bd
       -0.026845768 -0.03817177 0.070922285 -0.034303363
000130 d6 a7 8d bc 03 12 1d bd 32 ee 0e bc 5a 41 18 bd
       -0.017291944 -0.038347255 -0.008723782 -0.0371717
000140 1c e9 0a bd 39 99 a8 bc cd 84 1a bb d7 46 3c 3d
       -0.033913717 -0.020580875 -0.002357769 0.045965996
000150 81 57 78 bd f8 a8 e8 bb a8 fd 7f 3d 90 39 bb bc
       -0.060630325 -0.007100221 0.062497765 -0.022854596
000160 5b 13 7b bd 02 97 13 3d 62 2e 47 bd f6 6e 7c bd
       -0.061297756 0.036032684 -0.04862822 -0.061629258
000170 79 ff 45 bd c7 57 8f 3c c7 fe 0b bd 2a 73 b0 bc
       -0.04833934 0.01749791 -0.03417852 -0.02153929
000180 bb a7 48 bd f9 8f 57 bd b4 23 09 3d 76 60 ea bc
       -0.048988085 -0.052627537 0.033481315 -0.02861045
000190 03 f2 3a 3d dc 7a 62 bd 47 1c 61 3d 0e 83 70 3d
       0.045640957 -0.05529295 0.054958608 0.058718733
0001a0 73 dd f5 bc 76 22 1f 3c aa 94 04 bd 8c 74 04 bd
       -0.030012822 0.009712806 -0.03236834 -0.03233771
0001b0 72 f7 1c bd 75 b6 83 bd 53 0d 4c bd 9b 7c 68 bd
       -0.03832192 -0.06431285 -0.049817394 -0.056759458
0001c0 ee bf 8f 3c 6a 95 42 bd b9 82 a4 3c be 7e 78 bb
       0.017547574 -0.047505774 0.020081865 -0.003791734
0001d0 93 3b 8b bc 4c 06 f0 3b fe f2 70 bd 52 b9 6b bc
       -0.01699618 0.0073249694 -0.058825485 -0.0143874455
0001e0 66 60 9d bc 87 b0 bc bb bb f9 b1 bc 0d 33 30 bd
       -0.019211005 -0.0057583484 -0.021725526 -0.043017436
0001f0 38 0a 59 bd a0 63 39 3c db 43 71 3d 7d 4c 82 3c
       -0.05298826 0.011315256 0.058902603 0.015905613
000200 17 ea 1e 3c be 5f ca bc cd 8d 79 3c 4d c5 0f 3d
       0.009699366 -0.024703857 0.015231562 0.03510027
000210 2f 13 b9 bc 5e 25 94 3d f0 fa 71 bd 29 f0 e1 bb
       -0.022592155 0.0723369 -0.059077203 -0.0068950844
000220 0c 70 54 3d ac 68 50 3d b5 c3 89 bd a5 84 19 bd
       0.05186467 0.050881073 -0.06726781 -0.037480015
000230 d5 f7 79 3d 9a be ae bc 49 10 33 3b eb e9 68 bd
       0.061027367 -0.02133112 0.002732294 -0.056863707
000240 b2 10 96 bd 48 0d 0d 3d 04 75 6c 3d 97 02 82 bd
       -0.07327403 0.034436494 0.057728782 -0.0634815
000250 f4 09 ce bb 5a 7f 5d 3d 83 79 76 3c b4 d3 07 3d
       -0.0062878076 0.05407653 0.015043619 0.03316088
000260 0f 8c 88 3d 9e 57 16 3d bc f3 37 bd 5a d8 d7 3c
       0.06667339 0.036704652 -0.044910178 0.026348282
000270 ab 9b 3b bd 89 e5 06 3d 55 25 0d 3c 00 0e 93 bd
       -0.045802753 0.032933746 0.008614858 -0.07180405
000280 7d a6 8d 3d d2 d2 a6 bc 25 5e 3f 3d 8c cf 88 3d
       0.06916521 -0.020364199 0.046720643 0.066802114
000290 21 c1 81 bd ba 4b 12 bd 27 b6 d4 bc fe 7a 46 bd
       -0.063356645 -0.03571675 -0.025965763 -0.04845714
0002a0 ab 77 cd ba e5 b0 2e 3c c0 2a a7 bb 65 a0 f2 bc
       -0.0015675923 0.010662292 -0.0051015317 -0.029617498
0002b0 7c 23 f5 3c be 7d be 3c 11 7e 86 bd d0 c4 a4 3c
       0.029924147 0.023253318 -0.06567014 0.020113379
0002c0 59 a3 07 3d c4 43 bf 3c b6 01 83 3d 89 15 3a 3d
       0.033114765 0.023347743 0.06396811 0.045430694
0002d0 7e ae 67 bd ef fe 06 bd 46 a5 cf 3c 6f da 4f bd
       -0.056562893 -0.032957967 0.025347363 -0.050745424
0002e0 7a 0a df 3c 42 bd 5b 3d 2c fe 86 3d c5 c0 8f 3d
       0.027226675 0.053647287 0.06591448 0.0701919
0002f0 1f 7c 77 bd c7 e1 6b 3d 9c 09 85 bd f9 88 81 3d
       -0.060421105 0.057588365 -0.064959735 0.063249536
000300 eb 8d 1f 3d 07 bb e9 3c d5 68 25 bd 3f 82 3d bd
       0.038953703 0.028531564 -0.04038318 -0.04626679
000310 00 16 0f 3d ab 79 eb 3c ed e1 f7 3c 11 59 72 bd
       0.03493309 0.02874454 0.030259097 -0.05916697
000320 2a 2f 84 bd 88 2f 68 bd 6b b1 ed bc e2 9f 5f bd
       -0.06454308 -0.056685954 -0.029015264 -0.054595836
000330 e1 c8 9e 3c 0a 9b 23 bd cf e6 00 3d 01 17 01 bd
       0.019382896 -0.03994278 0.031470116 -0.03151608
000340 4f 45 56 3d 44 60 5a bc c3 97 2e bd 88 39 17 3d
       0.05231219 -0.013328616 -0.0426252 0.0369201
000350 f2 17 2a bc cc e3 d2 ba 33 df ed 3c f3 64 5c 3d
       -0.010381686 -0.0016089617 0.029037094 0.05380721
000360 c3 4f 00 bd cd 2f 8c bd e4 08 3f 3d 69 a0 0f 3d
       -0.031326067 -0.06845055 0.046639338 0.03506509
000370 ba b1 59 bb 56 ed 26 bd 84 b7 37 bd 9a d2 82 3d
       -0.0033217506 -0.040753685 -0.04485275 0.06387825
000380 81 f1 3d 3d 3f fe 4c bc 9a 02 60 3d 0b 48 87 3d
       0.046372894 -0.012511789 0.05468998 0.06605538
000390 65 f4 83 3d c1 a8 f0 bc da 3f 2d bd c5 de 21 bd
       0.06443099 -0.029377343 -0.04229722 -0.03951909
0003a0 55 90 cf 3c 0c 87 32 3d 0e 9f 3a bd da 9a 13 3d
       0.025337378 0.043585822 -0.045561843 0.03603635
0003b0 d5 1a 14 3d 7f 5b 57 bc ae 9c 07 bd a7 e3 16 3c
       0.0361584 -0.013144373 -0.033108406 0.00920955
0003c0 bb d2 2b 3d de 5d 43 3d 55 b7 51 3d 34 8c 4b bd
       0.041949015 0.04769694 0.05120023 -0.049694255
0003d0 e1 8d 94 bc a4 b1 6e 3c 93 ac 79 3d a8 0b d3 bc
       -0.01813406 0.01456872 0.060955595 -0.025762394
0003e0 61 ad b0 3b d0 65 ef 3b 41 69 88 bd 9f fd 81 3d
       0.005391762 0.007305838 -0.066607006 0.063472025
0003f0 41 c7 2c bc 1a 19 61 3d b8 30 9d 3c 87 84 23 bc
       -0.010545553 0.05495558 0.01918827 -0.009980327

rnn.bias_ih_l0 f4 [200]
000000 15 2a 1b bd 84 09 01 3d c6 52 88 3d e4 78 34 3a
       -0.03788193 0.031503215 0.06656413 0.0006884469
000010 8d 2f 6b 3a 9e 4d 8b bd 8e 0b bc 3c ff 73 4f 3d
       0.0008971624 -0.06801914 0.022954728 0.050647732
000020 6a 87 7f 3d a5 34 91 3d b4 54 bd bb 9d a4 68 3d
       0.062385 0.07090119 -0.0057779197 0.056797612
000030 3b 91 5f 3d 4a ff 8c 3c c5 7a 49 3b d7 55 e0 3c
       0.054581862 0.017211575 0.0030743342 0.027384682
000040 43 40 51 bc 72 84 df bc 29 af 36 bd 0f 21 1e 3d
       -0.012771669 -0.027284835 -0.04460064 0.038605746
000050 54 70 11 bd 51 33 03 bd 6e 95 86 3c f8 eb 8d bd
       -0.035507515 -0.03203136 0.016428676 -0.06929773
000060 59 50 27 bd 61 8b 07 3d 30 85 c7 3c de 16 13 3d
       -0.04084811 0.033091906 0.024355501 0.03591048
000070 41 7b fd bb 6a a3 b0 3b 3c 1a 58 bd 84 4d 24 bd
       -0.0077356403 0.005390574 -0.052759394 -0.040112987
000080 9e a6 57 3c 8f a5 c0 b9 84 a5 24 bc 13 b2 b8 bc
       0.013162283 -0.00036744445 -0.010049228 -0.02254585
000090 74 64 81 3d 93 d9 0f 3d 13 06 3f bc a0 21 6d 3c
       0.06317988 0.035119604 -0.011659163 0.014473349
0000a0 96 02 f6 bc 05 94 32 bc 95 fe 54 3d 10 45 74 bd
       -0.03003053 -0.010899548 0.0520006 -0.059636176
0000b0 18 8b 12 bd 09 1a 2f 3c f7 00 47 3d cd 1e 5a bd
       -0.03577718 0.01068736 0.048584905 -0.05325203
0000c0 61 ac e4 bc 44 d0 a1 bb 3e 1f df 3c 5b 5e 03 bd
       -0.027914228 -0.0049381573 0.027236577 -0.032072406
0000d0 44 ba 6a bd 16 47 57 3d 51 2e 6b 3d 1d 09 87 bc
       -0.057306543 0.052558027 0.057417218 -0.016483838
0000e0 f5 93 69 bd 5c 3f 16 3b 82 be 80 bd 20 4f 43 3c
       -0.05702587 0.0022925949 -0.062863365 0.01192072
0000f0 2e b4 6a 3d 93 22 6a 3d 57 8f f4 3c ab 72 d0 bc
       0.05730074 0.05716188 0.029853506 -0.025445303
000100 09 31 af 3c ef ad 96 bc 10 ff 56 bd 58 0a 73 bd
       0.021385686 -0.018393485 -0.05248934 -0.059336036
000110 9e 83 22 bd c8 a4 72 3d cd 73 72 3d fa c7 3b 3d
       -0.0396763 0.05923918 0.059192467 0.04584501
000120 59 fa 23 bd 70 d8 a0 3c c2 df c8 bc 76 3e 6b 3d
       -0.040033672 0.019634455 -0.024520759 0.057432614
000130 76 26 be bc 5c cd 21 3d 18 57 c2 3c 94 f0 8a bd
       -0.023211699 0.039502487 0.02372317 -0.06784168
000140 e5 a3 cb 3c bf ad d4 3c d8 f8 03 3d b0 e1 c7 3c
       0.024858424 0.025961755 0.032219738 0.024399608
000150 c4 15 2a 3d 81 30 4a 3d 4d b9 e3 3c 7c 0b 21 bc
       0.041524664 0.049362663 0.02779832 -0.009829398
000160 23 21 70 3d a7 dd 12 bc 33 c5 f4 bc 1e 26 0a bd
       0.05862535 -0.008963979 -0.029879188 -0.033727758
000170 be d6 3b bd 29 77 2f 3d a4 77 9b 3c b6 e5 23 bc
       -0.04585909 0.04283825 0.018977948 -0.010003498
000180 a5 a2 a7 3c 4e 5f 20 bd fe 5f cc bc 5e a8 84 bc
       0.020463297 -0.03915339 -0.024948116 -0.016193565
000190 d5 6a ca 39 66 b7 59 bd 1e 4b 13 bb 00 11 43 3d
       0.00038608038 -0.053153418 -0.0022475193 0.047623634
0001a0 76 60 d1 bc a2 a4 97 3c 5c 9a 3f 3d 46 a5 58 bc
       -0.025558691 0.01851112 0.046778068 -0.013222998
0001b0 fb 40 28 ba 24 fc 34 bd b8 56 84 bd 23 d0 39 3c
       -0.0006418374 -0.044185773 -0.06461853 0.011341128
0001c0 f1 9f 90 ba 71 01 46 bd 55 20 75 bd 5e 05 83 bd
       -0.0011033994 -0.04834122 -0.059845287 -0.06397508
0001d0 20 dc 4b bc c3 fd 66 bd 76 22 0f bd a6 3d b5 3c
       -0.012442619 -0.05639435 -0.034944974 0.022124123
0001e0 6f 08 12 3d d7 25 da 3b 8e 6c 5e 3d 2c f7 3a bd
       0.035652574 0.006657343 0.054302745 -0.045645878
0001f0 ed bc bb bc c7 de 5b bd d5 fc 32 bd c0 67 60 3c
       -0.022917235 -0.053679254 -0.04369815 0.013696611
000200 15 d1 04 bd 05 06 4c bd 93 c7 d1 3c a1 a2 27 bd
       -0.03242596 -0.04981043 0.02560786 -0.04092658
000210 ae f2 7f bd 82 fe ef ba b6 e7 65 3d 5e 20 d3 bc
       -0.062487297 -0.0018310102 0.05612918 -0.02577227
000220 51 b7 c5 3c 3c 57 2a 3d 54 8b 8e bd d7 4d 2f 3d
       0.024135264 0.0415871 -0.069601685 0.042798843
000230 37 f4 8e bd 11 9a 02 3c 6a 29 fe bc 9f 8b 04 3d
       -0.06980174 0.007971303 -0.031025607 0.032359716
000240 d4 ea 56 bd f5 bc 47 3c 18 1c 62 bd 12 21 3e bc
       -0.052470043 0.012191047 -0.055202574 -0.011604564
000250 fb e8 89 bd 85 24 c3 bc 41 11 65 bd a1 f5 c4 3b
       -0.067338906 -0.023821125 -0.055924658 0.0060107266
000260 55 cf bf bd af e5 5d bc 7c 39 7a bb 69 9c 98 bc
       -0.09365717 -0.01354353 -0.0038181236 -0.01862927
000270 b5 74 70 bc 0a e1 6c 3d 53 76 3b 3d b0 a8 90 3d
       -0.014676263 0.0578318 0.04576714 0.070634246
000280 7f a5 6c bd 55 b2 6d 3d 13 24 e8 3c 68 d8 46 3d
       -0.057775017 0.0580314 0.028337514 0.048546225
000290 84 59 72 bd 4f cc 8a bd cc 20 0c bc 46 a9 64 bd
       -0.0591674 -0.0677725 -0.008552741 -0.055825494
0002a0 62 e3 6e 3c 0e ed 1f bd be 98 96 3d dd 52 aa bc
       0.0145805795 -0.039044432 0.07353352 -0.020791465
0002b0 4a 98 6d 3d 3f 8b 5e 3d 58 f0 1c bd b5 76 b5 ba
       0.058006562 0.054332014 -0.038315147 -0.0013844582
0002c0 7a f6 61 3d 12 52 67 3d 44 ff 68 bc 21 44 da 3c
       0.0551667 0.056474753 -0.014221016 0.026643815
0002d0 c5 0f 97 3d 07 31 a4 bc 5a 1c b4 3b c2 ad 4b 3d
       0.07376055 -0.02004291 0.005496544 0.049726255
0002e0 96 57 14 3b 4e 3a 54 bd db 00 17 3b e4 9f 3c bd
       0.0022635213 -0.051813416 0.0023041281 -0.04605092
0002f0 eb f2 30 3d b7 c5 7e 3c cc 40 26 3d 49 7b 40 3d
       0.043200415 0.015550069 0.04058914 0.046992574
000300 5d c4 90 3c 0b 14 74 bd ae a8 2c 3c ed e9 45 bd
       0.017671758 -0.059589427 0.010538263 -0.048318792
000310 33 7d 61 bd 69 b2 68 3d f9 93 60 bd ef df 95 3d
       -0.05505104 0.05681077 -0.054828618 0.073181026

rnn.bias_hh_l0 f4 [200]
000000 7c 8b 2d 3d cc 01 1a bd 6c e0 85 3d 36 16 46 3c
       0.04236935 -0.03759937 0.06536946 0.012090256
000010 0d 7d 5b bc 22 29 a2 bb d3 0e 2b bc 4a 7a 43 3d
       -0.013396514 -0.004948751 -0.010440546 0.047724046
000020 c9 78 4b bd d8 6b 7a 3d b9 0b e8 3c 55 ee 8a 3d
       -0.049675737 0.061138004 0.028325902 0.067837395
000030 fc 91 3d bd 5d 06 56 bd e9 bb 4a bd 29 bf 36 3d
       -0.0462818 -0.052252162 -0.04949561 0.0446159
000040 b3 58 8f 3d 44 7e c5 3c b4 c2 2b 3d 14 4f 0f bd
       0.0699934 0.02410806 0.04193373 -0.034987524
000050 8a 0c 0a 3d 81 e3 f1 3c 20 d0 23 bd a8 4d b6 bc
       0.033703364 0.029527428 -0.039993405 -0.022253826
000060 74 2f f3 3c 3f cb 8f bb 20 0c 92 3d b1 89 82 bd
       0.029685713 -0.0043882425 0.07131219 -0.06373919
000070 cf fa b2 3c ba e7 0a 3c e0 07 87 3d 34 c6 75 bd
       0.02184811 0.0084780995 0.06593299 -0.060003474
000080 03 6c a9 bc 0b fe 94 3d f5 86 fc bc 47 ec 9a 35
       -0.020681387 0.07275017 -0.030826071 1.154266e-06
000090 80 2a df 3c eb dc 72 3d ab 16 89 3d 8e 86 5c 3b
       0.027241945 0.059292715 0.06693777 0.0033649537
0000a0 3e 52 01 bd c6 62 77 bc 77 3f 5b 3d 01 a8 ea 3c
       -0.031572573 -0.015099233 0.05352732 0.028644564
0000b0 57 84 01 3d a5 2a 3c 3c ea e7 1b bc 33 8a 96 3d
       0.03162035 0.011484777 -0.009515742 0.07350578
0000c0 de 64 49 3d 2c 2d b5 bc 3c f3 e8 bb 89 e1 7e 3d
       0.04916846 -0.022116266 -0.007109074 0.062226806
0000d0 0e 19 06 3d 18 da 64 3d 45 1c 91 bd 69 93 51 3d
       0.032738738 0.055872053 -0.0708547 0.051165972
0000e0 62 62 3f 3c 09 c9 4f 3c af 84 5b bd f7 5a 16 bd
       0.011681171 0.012682208 -0.053593334 -0.036707845
0000f0 e5 72 da bc 24 7b 61 3d d7 9e 8b bc 8e 86 52 bc
       -0.026666114 0.055049077 -0.017043514 -0.012849463
000100 62 81 2b bd 85 0d 87 bc ca ca e2 3c b2 24 9e b9
       -0.041871436 -0.016485939 0.027684588 -0.00030163449
000110 cc 9f ac bc 82 3d 1d 3d e0 18 02 3d f4 32 80 bd
       -0.02107229 0.038388737 0.031762004 -0.062597185
000120 91 4b 61 3b 7d ad 5a 3d 3a 9a 0f 3b b6 79 52 3d
       0.0034377316 0.053388108 0.0021911995 0.051385604
000130 e0 13 e8 bb 0e c4 be 3c 70 51 24 3d 18 8b 33 bd
       -0.0070824474 0.023286846 0.040116727 -0.043833822
000140 1b 95 99 3b 1a fc f6 3c 3c f2 45 3c 0d 2c 94 bc
       0.004686964 0.030149508 0.012081679 -0.018087411
000150 06 b5 85 3c 3d 5e 45 bd 09 9e 8b 3c a5 07 57 bd
       0.01632167 -0.048185576 0.01704313 -0.052497525
000160 da c2 71 bc 59 f6 e4 bc 3e c0 86 3d a1 15 5f bc
       -0.014755929 -0.027949499 0.06579636 -0.013615997
000170 ff 7b 24 3d 19 10 5a 3d 0b 11 12 3d 11 8f 33 3d
       0.040157314 0.05323801 0.035660785 0.04383761
000180 78 ad bf bc 17 3e 77 bd 80 46 6b 3c bf c1 65 3b
       -0.023398146 -0.060361948 0.01436007 0.0035058109
000190 e1 f0 70 bd c2 52 24 3d 9b d7 77 3d 07 b4 76 3b
       -0.05882347 0.040117987 0.06050835 0.0037643926
0001a0 2c 5b 85 bc 86 dc 2d bd 1c 5f 8f 3d 38 ae 84 bd
       -0.016278826 -0.042446636 0.070005625 -0.06478542
0001b0 a3 c6 4a 3d 01 19 4c 3d 4b 4b 70 3d 3a 5f ae 3c
       0.04950584 0.049828533 0.058665555 0.021285642
0001c0 9c 42 be 3b e2 19 96 bb cc 11 8e bd 29 36 a1 3c
       0.0058062803 -0.004580722 -0.06936988 0.019679146
0001d0 d6 66 23 3d 0c e2 09 bd dc 0b 69 3d a9 4b 85 3d
       0.039892994 -0.03366284 0.056896076 0.06508572
0001e0 d3 ee 95 bb a2 2f 61 bd 3b d7 8f bd a5 a5 37 bd
       -0.004575589 -0.054977067 -0.07023474 -0.044835705
0001f0 30 49 2d 3c 59 0a 04 3c e1 07 dc bc 4f 0f 29 3c
       0.010576531 0.008059108 -0.026859226 0.010318591
000200 85 e6 8f 3c a3 91 26 3d 5c 14 56 bd b2 d8 0c 3b
       0.017565975 0.040666234 -0.05226551 0.0021491465
000210 fa 58 42 bd af 68 ff 3c 86 70 19 bc 25 4b 52 3c
       -0.047448136 0.031177847 -0.009365207 0.012835299
000220 f5 53 b6 3b 15 3c 85 3d 2e 2c ef bc f1 b5 63 bd
       0.0055642077 0.065056 -0.029195871 -0.055593435
000230 20 ec 48 bd ec c9 86 bd 55 b7 47 bd 15 19 c9 bc
       -0.04905331 -0.06581482 -0.048758823 -0.024548093
000240 e7 90 05 3d ec 9e 1e 3d 55 6f 09 bd 8a 9c 8d ba
       0.032608893 0.03872578 -0.03355344 -0.0010804099
000250 a5 fe 36 3d 23 d9 eb bb d2 99 fe bc 9c 28 ba 3c
       0.04467644 -0.0071975156 -0.031079207 0.022724442
000260 37 7a 88 bb 56 d3 f1 3c 95 d5 8c bd bd b7 86 bb
       -0.00416496 0.029519718 -0.06876675 -0.004111259
000270 a8 05 5a bc 78 8f 2e bd 1d 32 5b 3d fd f7 c0 3c
       -0.013307013 -0.04261729 0.05351459 0.02355575
000280 2a 18 57 ba 99 04 62 bd b9 3a 8e bc 6e 58 f0 bc
       -0.00082052 -0.055180166 -0.017361986 -0.029339042
000290 ab 92 c8 bc 42 e3 13 bd 50 64 85 bd f8 ca 60 3d
       -0.024484 -0.0361054 -0.06513274 0.054881066
0002a0 16 50 b7 bb 9a 59 e5 3c b6 4a 6a bb a1 a6 db bc
       -0.005594264 0.027996827 -0.0035750098 -0.026812853
0002b0 36 61 3c 3d 92 79 bd bb 8a 67 58 3c 60 d4 9c bb
       0.045991145 -0.0057823146 0.013208279 -0.0047860593
0002c0 1c 7a e2 3c 4e 80 87 3d 5b 41 67 bd 97 81 64 bc
       0.027646117 0.06616269 -0.056458812 -0.013946912
0002d0 1a d5 99 3c 32 12 16 bc 9c 3b 5a bd c8 6b fe ba
       0.018778373 -0.009159612 -0.053279504 -0.0019410783
0002e0 f6 7c 2c bd bc d0 8b bd 7f 73 ce 3c 85 93 c8 3c
       -0.04211136 -0.06826922 0.025201557 0.024484405
0002f0 d6 34 e9 bc cd e9 fb 3c ea 61 31 3d eb ea e9 bc
       -0.028467577 0.030751133 0.04330627 -0.0285544
000300 ac b8 e3 3c 6c 6f 11 3c 9f 55 88 3d b8 52 f4 bc
       0.02779802 0.008876663 0.06656956 -0.0298246
000310 de b0 83 bc 66 8c 8d b9 06 01 58 3c 10 85 57 3d
       -0.016075548 -0.0002699822 0.013183838 0.052617133

rnn.weight_ih_l1 f4 [200, 200]
000000 a4 6d d9 3c 97 ab 41 bd ff 1c 4a bd 8a 81 3b bc
       0.026541539 -0.04728278 -0.04934406 -0.011444459
000010 cb ae 5b 3b 69 74 40 3c 98 8b 27 bd 3a c0 97 3b
       0.0033520933 0.011746504 -0.04090461 0.0046310695
000020 33 de f2 bc 20 f1 05 3d 44 a7 81 bd 24 bf 0b bd
       -0.029646968 0.032700658 -0.063307315 -0.034117833
000030 53 2e 68 3d e8 b2 52 bd c4 c3 06 bd ec 82 8a 3c
       0.056684803 -0.05144015 -0.03290154 0.016908132
000040 6e 7e 1d 3d 80 67 16 bc 3a e2 f4 bb 1d 8c 8a 3d
       0.03845065 -0.00917995 -0.0074732574 0.06765006
000050 3e f3 ee 3b 11 76 20 bd 29 00 4d bc 5e b2 0e bd
       0.0072921803 -0.039175097 -0.012512245 -0.034838073
000060 cc 97 6e bd 00 c9 a9 3c 30 1e 62 3d cb c1 b8 3c
       -0.058250234 0.020725727 0.05520457 0.022553345
000070 82 b7 89 bd 95 45 c9 bc 0c 07 b6 3b b1 30 3b bd
       -0.067244545 -0.024569312 0.0055550393 -0.045700733
000080 3d 55 21 3d 27 0c 83 3d a1 da 96 3d 48 7c a9 38
       0.03938793 0.06398802 0.07365919 8.081697e-05
000090 60 69 9c 39 f0 e2 70 3d 0f 0d 7c 3c b5 54 ea 3c
       0.0002983315 0.058810174 0.015383973 0.028604845
0000a0 25 5f e1 bc 88 37 5a 3d a4 ec 4e 3d c8 c9 94 3d
       -0.027511189 0.053275615 0.050518647 0.07265049
0000b0 a1 17 cc 3c 26 f3 64 3d e7 60 81 bd 31 d5 41 3d
       0.02491361 0.055895947 -0.06317311 0.047322456
0000c0 f6 ad fe bc c1 1b 5f 3c 5d 84 8c bc d8 10 5c bd
       -0.03108881 0.013617457 -0.01715296 -0.053727
0000d0 80 aa 78 3d 59 59 68 3d 79 56 1e 3d 20 c3 7c 3c
       0.060709476 0.056725834 0.038656686 0.015427381
0000e0 ad 80 0e 3d 19 ba 64 3d 98 2e 94 3d 6a a8 8e 3c
       0.034790684 0.05584154 0.072354496 0.01741429
0000f0 dd ca 91 3c cd 9e 63 bd fb d0 73 bd 8c 5c 1b 3d
       0.017796928 -0.055571366 -0.05952547 0.037930056
000100 40 ca 23 3d 76 86 6e bd 70 54 85 bd b5 2d 76 3d
       0.039987803 -0.0582337 -0.06510246 0.060102183
000110 d2 47 82 3d b4 53 c3 3c 9b 35 27 bc 1f 27 37 3c
       0.06361355 0.023843624 -0.010205652 0.011178761
000120 1a 75 18 3d 6f d3 dc 3c ab f8 bf bc 46 1b 34 3d
       0.03722105 0.026956288 -0.023434004 0.043971322
000130 03 27 10 bd a7 2b 5c bd de 8a 61 3d 75 af 04 bc
       -0.035193454 -0.053752568 0.055064075 -0.008098473
000140 c8 89 7c 39 d0 a9 93 bb bb a7 0e bd 16 d7 ad bc
       0.0002408392 -0.004506327 -0.03482793 -0.021220725
000150 99 f2 5f bd d6 d7 5d bd 00 33 82 3d 12 b6 4c bc
       -0.05467472 -0.054160915 0.06357384 -0.012494581
000160 46 51 23 bd 82 19 d8 3c f2 4b 31 3d d8 ba 4a bd
       -0.03987243 0.02637935 0.043285318 -0.049494594
000170 42 9d f7 3c 29 06 d2 3b 4e 5a 29 bd 7f a0 16 3d
       0.030226354 0.0064094258 -0.041345887 0.036774155
000180 0c d6 03 bd 1d 54 97 bc 0c 3a 04 bd a1 02 3f 3d
       -0.032186553 -0.018472726 -0.03228192 0.046633366
000190 ba e0 46 bd 47 a9 4b bd 10 74 b2 3c 8e 58 35 bc
       -0.04855416 -0.049721982 0.021783859 -0.011068476
0001a0 88 0b a2 bc dd e1 21 3d 2f 19 1d bd 82 5e 6f 3c
       -0.01978089 0.03952204 -0.038354095 0.014609935
0001b0 14 0b 85 bd 10 e3 6b bd a5 f1 0a bd 01 25 9e 3c
       -0.064962536 -0.05758959 -0.033921856 0.019304754
0001c0 dc 87 99 bb aa 58 c1 3c 7f c8 69 3d 05 3e 48 bd
       -0.004685385 0.023601849 0.057075974 -0.04888727
0001d0 cb 51 2c bd d5 95 77 3d 71 1b 33 3c a7 4c 0a 3c
       -0.04207019 0.060445625 0.0109318355 0.008441127
0001e0 7d a3 f0 3c 97 3b 5a bd 74 df 91 3d 67 b5 48 bc
       0.029374832 -0.053279486 0.071226984 -0.012250281
0001f0 48 81 77 3b 97 0f 69 bb b8 f6 85 bd 45 09 b7 3c
       0.0037766267 -0.003556227 -0.065411985 0.022343287
000200 f3 92 3c bd 85 27 52 3c 55 21 c7 bc 30 33 a5 38
       -0.04603858 0.012826805 -0.024307886 7.8773475e-05
000210 2f f8 87 3d fa f9 e3 bc c2 26 09 3d c2 b2 c4 3c
       0.06639134 -0.027829159 0.033484228 0.02401102
000220 13 e4 9a bc bd d5 1a 3d 04 09 03 3b 36 4f a3 bc
       -0.018907582 0.037801493 0.0019994387 -0.019935232
000230 9a 94 27 3d 10 f5 a2 bb c5 e1 34 bc ca 2e 69 bd
       0.040913202 -0.0049730614 -0.011040156 -0.056929387
000240 00 83 a8 3c ad 4a 93 bc 11 79 46 3d 52 80 6a bb
       0.020570278 -0.017979944 0.0484553 -0.0035782051
000250 52 50 db bc 39 50 88 bd f4 e4 2f b9 c8 c1 dd 3c
       -0.026771698 -0.06655926 -0.00016774592 0.027069941
000260 ea f3 12 3d 9e 56 44 bc 23 a5 9f bc 31 0a 7b bd
       0.035877146 -0.011983542 -0.019487923 -0.061289016
000270 b2 a8 59 bc b0 24 85 bd cf b2 2e 3c 3a 25 46 3d
       -0.013284849 -0.06501138 0.0106627485 0.048375346
000280 e8 15 78 3d 26 91 25 bd 31 7b 87 3d 2b 0a d7 bc
       0.060567766 -0.040421627 0.06615294 -0.026249966
000290 7e dd 23 3d 0d 59 90 3c 16 e6 aa bc 74 00 0d 3d
       0.040006153 0.017620588 -0.020861667 0.03442426
0002a0 e2 6a 81 3b 81 d4 56 bc ff 6a 39 3c 13 a6 85 3d
       0.003949509 -0.013112188 0.011317014 0.06525817
0002b0 57 4e 51 bd 0b 06 69 bd 9e 26 27 3d cd d1 ec 3a
       -0.0511001 -0.05689053 0.040808313 0.0018067897
0002c0 8e cb 99 bc d3 3b 6f 3d 51 68 86 3b 18 5d 55 bd
       -0.01877382 0.058406662 0.004101791 -0.052090734
0002d0 b4 c5 cd 3c 7a bf 03 3b f1 5b 5b 3d ab 57 74 bc
       0.025118686 0.0020103143 0.05355448 -0.01491348
0002e0 2e 5c 33 3d 93 bb a0 bc 82 a1 87 3d 4c 4a 2a bd
       0.04378908 -0.019620692 0.06622602 -0.04157476
0002f0 72 62 33 3c b4 e5 07 bd 4b 34 0f bd c8 03 b5 bc
       0.010948764 -0.033178046 -0.03496198 -0.02209653
000300 b0 43 dc bc bb f3 ac bc 21 a7 08 bd 4b 38 a4 3c
       -0.026887745 -0.021112313 -0.03336251 0.020046374
000310 ab f7 03 bd 46 9b 18 bc 49 de 3a bd 87 98 51 3d
       -0.032218616 -0.009314364 -0.045622144 0.051170852
000320 7a f1 4f 3c 17 a8 94 bd 12 ce 93 3d f4 ba 73 bc
       0.01269185 -0.07258623 0.07217039 -0.014876116
000330 51 62 72 bd 96 00 8a 3c 36 66 12 3d 03 00 49 3b
       -0.059175793 0.016845983 0.035742007 0.0030670173
000340 7a 22 fd bc 03 e9 96 3d f3 92 35 3d bb da 79 3c
       -0.030900229 0.07368662 0.044329595 0.015249903
000350 44 70 38 bd ed d4 8c 3d b0 c4 4b bc 76 99 6d 3d
       -0.04502894 0.0687655 -0.012437031 0.05800768
000360 e0 51 e1 3b d2 0c 6d bc 4f 7e 73 3d b8 76 8b 3d
       0.0068762153 -0.014468389 0.05944663 0.06809753
000370 04 c8 00 bd fd 67 c2 37 c6 bd 86 3d 66 d3 88 3c
       -0.03144075 2.3175025e-05 0.06579165 0.016702365
000380 55 46 17 3d 20 0b 87 bd 5e 22 7c bc 8e d0 c0 3c
       0.03693231 -0.06593919 -0.015389053 0.023536947
000390 a2 ad 86 3d 99 b0 64 3d e0 1a 3f bc fb 9a 42 3b
       0.065760866 0.05583248 -0.011664122 0.0029694426
0003a0 4f 49 76 3d 7f 47 5a bd d0 a0 8d bd 6c a9 14 bc
       0.060128506 -0.05329084 -0.06915438 -0.009073596
0003b0 07 37 0f bd 1a b3 42 bd 30 f2 91 3d cf 47 c4 bc
       -0.034964588 -0.047534086 0.07126272 -0.023960022
0003c0 a7 a7 aa 3c ae ab 02 3c 57 ca 04 bd d4 95 d2 bc
       0.020831896 0.007975502 -0.03241953 -0.02570621
0003d0 07 c6 75 3d 9e 33 67 3d 7a 66 87 3c 95 40 9f 3c
       0.060003307 0.05644571 0.016528357 0.019439975
0003e0 db f8 34 bd 3b 68 3d bd cd b5 a3 3c 6a fe 13 bd
       -0.04418264 -0.04624198 0.01998415 -0.0361313
0003f0 ab d6 36 3c 53 9e 2a bd 16 ff 21 3d 92 cd be bc
       0.011159579 -0.041654896 0.03954991 -0.023291383

rnn.weight_hh_l1 f4 [200, 200]
000000 ea a0 7c bd de 73 f6 bc 5a 84 64 ba 5c b4 7a bb
       -0.061676897 -0.030084547 -0.00087172317 -0.0038254475
000010 e6 31 8e bc cc 5e fc bc e0 7c 86 3d a1 11 bd bc
       -0.017357778 -0.030806921 0.06566787 -0.023079695
000020 fb 2d 83 3d 99 1a c5 3b 13 ad 00 bd b9 95 09 3d
       0.064052545 0.0060151336 -0.031415056 0.033590052
000030 35 e7 bf 3c aa f2 99 3c ea d1 67 bd 29 df 4c bd
       0.023425678 0.018792469 -0.056596674 -0.05001751
000040 9c 68 66 bd 7c 14 3a bd c9 eb 7f 3d a3 b8 7a 3d
       -0.056252107 -0.04542969 0.06248072 0.06121124
000050 c0 b8 2d bd 54 ac 41 bd 6d 29 3e bd 6e ff 09 3d
       -0.04241252 -0.047283486 -0.046426225 0.033690862
000060 e0 98 50 bd 1b 76 33 bd 37 f3 7a bd 03 ac 88 bd
       -0.050927043 -0.043813806 -0.061267104 -0.06673434
000070 dc 9e 51 3b 11 e2 1b 3d 5d a4 93 bd 8f a1 00 bd
       0.0031985557 0.03805739 -0.07209084 -0.031404074
000080 45 d6 c4 3c 37 46 97 3b 86 6f 43 3d 5d 11 4d 3d
       0.024027953 0.0046165246 0.04771378 0.050065387
000090 fb b2 22 bd a0 d2 bf 3c fd 1a 3c bd b3 df 92 bd
       -0.03972147 0.023415864 -0.045924176 -0.071715735
0000a0 be 69 20 bd fc 40 c7 bb e7 e3 a7 ba 09 76 6d bd
       -0.039163344 -0.006080745 -0.0012809009 -0.057973895
0000b0 86 44 83 bd 90 28 ca 3c f9 ea 02 bd c9 2b 20 bd
       -0.06409554 0.024677545 -0.03196237 -0.039104257
0000c0 b8 9d 86 3d bd 99 16 3c 86 c3 66 bc ec 75 8b bd
       0.06573051 0.0091919275 -0.014084702 -0.06809601
0000d0 99 f1 95 3d ad 58 c1 ba 98 b7 27 bd 3b 10 72 3d
       0.07321472 -0.0014751159 -0.040946573 0.05909751
0000e0 0b a0 1f bd 67 53 85 bd 5b 87 54 3c e3 ba 1e 3b
       -0.03897099 -0.06510048 0.012971724 0.002422028
0000f0 82 2f 0a 3d 53 bb 15 bc 9d 46 20 bd 2e b4 94 3d
       0.033736713 -0.0091389 -0.039129842 0.07260929
000100 61 79 43 3d f1 78 00 3d c6 bd 95 bd 24 13 42 bc
       0.047723178 0.03136534 -0.07311587 -0.011845384
000110 d5 42 1d bd 40 4e e2 3c 16 b6 08 3d 8b 5b e8 bc
       -0.038393814 0.027625203 0.033376776 -0.028363964
000120 ea 4f 7b bc 88 33 66 3d e8 9b a4 3c b7 08 5c 3d
       -0.015338877 0.056201488 0.020093873 0.05371925
000130 1c 5c 83 bb ff 5c 9e bc 45 eb 63 bd 3b 4d 06 bd
       -0.004008783 -0.019331453 -0.055644292 -0.032788496
000140 74 77 c1 3c d3 34 8c 3a b6 ee 73 3c a5 a8 1d bc
       0.02361653 0.0010696895 0.014888456 -0.0096227275
000150 e8 66 89 bd e3 aa 33 3d 49 a9 81 bc cd fb 31 bd
       -0.06709081 0.043864142 -0.015827792 -0.043453027
000160 36 11 04 3d e9 b1 60 bd dd 7a 7c bd d4 7b 27 3c
       0.032242976 -0.05485717 -0.06164061 0.010222394
000170 af 7c 74 3c 9a 4d 33 bc b5 09 7b 3d 72 af d6 3c
       0.014922305 -0.010943795 0.061288554 0.026206706
000180 4d 5e 79 bd ae 0e 09 3d c3 3f 03 bc 74 18 94 3c
       -0.060880948 0.033461265 -0.008010807 0.018078066
000190 98 e2 5f 3d a0 cc 7a bd a5 57 94 bc 83 84 73 bc
       0.054659456 -0.0612303 -0.018108198 -0.014863136
0001a0 fb d0 22 3c ba 6b 74 3c 4b a4 e4 ba 87 57 aa bb
       0.00993752 0.014918262 -0.0017443983 -0.0051984224
0001b0 0f 4b bb bc 01 e2 1e 3d 34 81 68 bc 33 00 42 bc
       -0.02286294 0.038789753 -0.014190961 -0.011840868
0001c0 92 1b 52 bd 53 18 ca bc df 65 57 3d 02 50 0d 3d
       -0.051295824 -0.024669802 0.052587386 0.03450013
0001d0 c3 96 88 3d 73 33 25 3d b6 c3 2d 3d da 5c 42 bd
       0.066693805 0.04033227 0.042422973 -0.04745183
0001e0 2f a6 7d 3d aa dd 63 bd e6 d6 80 3d 75 ff 1e 3d
       0.061926063 -0.055631317 0.062909886 0.03881784
0001f0 a9 c9 d3 3c 44 ab 5b bd 86 20 0d 3d bd 16 e6 3b
       0.025852995 -0.05363013 0.034454845 0.0070217536
000200 68 7c 90 3c 7e b5 d8 3b a6 4a 1f 3d b9 da ed bc
       0.017637447 0.0066134324 0.03888955 -0.02903496
000210 6f 25 46 3d 98 42 96 3b 2f 6b 28 bc 96 2f 50 bc
       0.048375543 0.0045855753 -0.010279461 -0.012706658
000220 8c 0f 2a bd e4 cf 38 bd 4c dd 84 bb 82 97 03 3c
       -0.041518733 -0.045120135 -0.004054701 0.008031728
000230 f8 e7 c7 bc 93 40 b5 3c 70 41 9a 3b 4f 9b 27 bd
       -0.024402604 0.022125518 0.004707508 -0.0409196
000240 e4 8b 51 bd 90 4e 11 3d d0 b2 24 3d 1d c4 81 bc
       -0.0511588 0.035475314 0.04020959 -0.015840584
000250 4e 1a 1a 3a 43 68 93 bd f7 00 5d 3d 27 57 07 3c
       0.00058785535 -0.07197621 0.053956 0.008260525
000260 43 1c 7f bd 27 78 69 bd 5d de 82 3c bd 7c ae 3b
       -0.06228281 -0.05699935 0.015975172 0.0053249286
000270 f6 d0 8d 3c 5d 8d 8f bd 9e 74 22 3d fd 6c f8 3b
       0.017311554 -0.07009385 0.039661996 0.007581352
000280 81 c3 1d 3c d9 e2 7d 3d 7e 68 03 bb 78 77 25 bd
       0.009629131 0.061983917 -0.0020051296 -0.040397137
000290 df fd 36 bb 25 4c 60 bd cb e8 3c bd 53 5f db bb
       -0.0027922315 -0.054760117 -0.046120446 -0.006694713
0002a0 89 61 33 3c ee b2 2e bd 0f f6 80 bd d2 b8 57 3d
       0.010948547 -0.04265111 -0.06296932 0.052666493
0002b0 82 18 a8 bc 69 e1 10 bd 24 e9 0e 3d 84 28 07 3c
       -0.020519499 -0.035371218 0.03489031 0.008249406
0002c0 27 ec 70 3c eb 43 99 3c a9 72 ae bc 79 01 80 3d
       0.014704741 0.018709144 -0.021294909 0.06250281
0002d0 94 c8 bb 3c d7 54 27 3d a7 9c 36 bd dc 56 3f bd
       0.022922792 0.040852394 -0.04458299 -0.046713695
0002e0 09 ce aa 3c ac 15 72 bd 71 54 74 bd 1a 4d 04 3d
       0.020850198 -0.0591027 -0.059650842 0.032300092
0002f0 ad 86 84 bd 3b d4 70 bd 7e 26 79 bd b8 25 1d 3d
       -0.06471 -0.05879615 -0.060827725 0.03836605
000300 a6 53 ad 3b 87 47 27 3c fa 81 d8 bc 3a 64 91 bd
       0.0052895127 0.010209925 -0.026429165 -0.07099195
000310 39 a5 8a 3d 02 9c 48 3c 0b 94 1f 3c cd 65 66 3d
       0.06769795 0.012244226 0.009739886 0.05624943
000320 fa e3 0e bd a3 91 80 3d e7 7b 91 3d 9e e0 77 bd
       -0.034885384 0.06277778 0.071037106 -0.060516946
000330 64 e3 0c bb b2 bb 37 3b 47 52 32 bc 74 d1 90 bd
       -0.002149784 0.002803546 -0.010883874 -0.070712
000340 86 26 21 bd 46 33 c3 ba cb a3 2c bd be 06 58 3c
       -0.03934338 -0.00148926 -0.042148393 0.013185201
000350 24 49 2d bd da 29 e7 3b 63 52 39 bd a4 20 19 3c
       -0.04230608 0.0070545496 -0.045244586 0.009346161
000360 25 58 42 bd 27 ab b1 bc 16 b9 4f 3d 71 f8 61 3d
       -0.047447342 -0.021688057 0.05071362 0.055168573
000370 fb 94 5e 3d b2 08 3a bd 55 43 5d bd 28 ef 4a bc
       0.054341298 -0.04541845 -0.05401929 -0.012386121
000380 d7 8b 90 3d f7 84 09 bc 59 a8 40 3c a0 ad 16 3c
       0.07057922 -0.008393518 0.011758887 0.009196669
000390 19 da 66 3d 37 0e 82 bd ac a9 3c bc 12 c3 83 bc
       0.056360338 -0.063503675 -0.011515062 -0.016084228
0003a0 53 28 eb 3c 98 19 18 3d 00 b7 19 3c fc e6 83 3c
       0.028705752 0.037133783 0.0093820095 0.016101353
0003b0 80 64 9a bc 21 e2 0e bd c0 43 40 3c 82 08 04 3d
       -0.01884675 -0.034883622 0.011734903 0.032234676
0003c0 58 8a f5 3c 02 72 6f 3d 16 66 2b bc e3 cb 3b 39
       0.029973194 0.058458336 -0.010461351 0.00017909663
0003d0 f4 6a 31 3d d4 da 8b 39 d0 ec df 3c 07 e4 fe bc
       0.04331489 0.00026675186 0.0273346 -0.031114591
0003e0 80 bf cf 3c 10 57 6b bd 5f cf da 3c d5 a6 b9 3c
       0.025359869 -0.057456076 0.02671021 0.02266256
0003f0 f5 47 73 bd 44 5d 10 bd 22 b9 2f bc 2b e8 a1 3c
       -0.059394795 -0.035245195 -0.010725291 0.019764027

rnn.bias_ih_l1 f4 [200]
000000 b5 6a 0e bd da f4 e6 bc 1e 35 a2 3c 6d fa 42 bb
       -0.034769733 -0.028192926 0.019800719 -0.0029751316
000010 a5 a2 a7 bd ba 6c 30 3d c8 9e 9b 3d b6 bb 85 bd
       -0.08185319 0.04307244 0.075986445 -0.06529944
000020 69 41 33 bd 42 3b 45 bd 3a 61 6a 3d 73 87 42 bd
       -0.04376355 -0.048152216 0.05722163 -0.047492456
000030 1b c9 26 3d a1 ba e5 bc e2 26 eb 3c 4a 58 97 3d
       0.040719133 -0.028043093 0.028705064 0.07389887
000040 e3 38 f1 3c fc 3c 24 3c 0a 00 fc ba a0 7a 71 bc
       0.029446071 0.010024305 -0.0019226086 -0.014738709
000050 ed ec 61 3b 83 ea 62 3d 97 5d cb bc 70 c6 90 bd
       0.0034473494 0.05539943 -0.0248249 -0.07069099
000060 5d a3 54 3d a7 95 64 bd 41 2e 3d bd a8 52 81 3d
       0.051913608 -0.055806782 -0.04618669 0.063145936
000070 cf 06 2f 3d f0 86 77 bc 1f df db bc 79 aa e4 3c
       0.042731103 -0.015107855 -0.02683979 0.027913319
000080 5a 6c 6b 3c c6 6a 7f bc ca f2 00 3c b3 10 85 bd
       0.014369095 -0.015589422 0.007870385 -0.06497326
000090 51 7d 00 3d 9e 67 08 bd ad c7 dd bc 4b 53 12 bd
       0.03136951 -0.033301942 -0.027072752 -0.035723966
0000a0 aa 6d 78 bb cd 6a d1 3c ed c7 4a bd 1f 4e 05 3d
       -0.0037907162 0.025563622 -0.04950707 0.032545205
0000b0 aa 52 54 bc e8 af 6d 3d 1c 86 7d 3c 5d 0f 4d bd
       -0.012959162 0.058029085 0.015473869 -0.05006348
0000c0 3a ac 49 bd 88 5e 03 3d 9c 86 d9 bc 80 e7 ea bb
       -0.049236514 0.032072574 -0.026553445 -0.00716871
0000d0 26 32 58 bc ac c9 2a 3c 77 16 cf 3c ef 7f da bc
       -0.01319555 0.010424059 0.025279267 -0.026672332
0000e0 8b c6 71 bc b0 d9 71 3d f6 81 25 bd 69 1a 68 3b
       -0.014756809 0.059045494 -0.040407144 0.0035416132
0000f0 8e 61 c5 3b e9 43 83 bd 2c fa 6c 3d bf 7a e3 bb
       0.0060235923 -0.06409437 0.05785577 -0.0069421227
000100 09 c5 6e 3d 6e 16 8e 3d bb 74 ca bc 90 7e 7e bd
       0.058293376 0.06937872 -0.024713865 -0.06213242
000110 b9 48 07 bd c9 6c 3d 3d a7 a8 dd 3c 97 d3 65 bd
       -0.033028338 0.046246324 0.027057959 -0.05610999
000120 6b 02 21 3c eb 89 50 3d 3e 33 be 3c f8 ab 10 3d
       0.009827237 0.05091278 0.023217794 0.035320252
000130 e9 41 e5 3c 6e 09 8b 3d 50 15 23 3d bb e1 2c bd
       0.02798553 0.06788908 0.039815247 -0.04220746
000140 19 83 99 bc c1 8d 81 3d 54 86 d2 3c d5 ce 00 bb
       -0.01873927 0.063258655 0.025698818 -0.0019654531
000150 5e 29 75 3d 58 bc 9c 3c 6a 54 21 bd 1d bc ce 3c
       0.059853904 0.019132778 -0.039387144 0.025236184
000160 09 d0 aa bb c5 cb 9e 3d a1 a8 89 bd 72 39 7a 3a
       -0.005212788 0.0775371 -0.067216165 0.0009545303
000170 e6 df bc bc 43 37 1f bd a3 eb ab 3b 44 2b 4f bc
       -0.023055982 -0.03887106 0.005246596 -0.012644593
000180 d5 c3 9a 3b cf 58 f3 3c fd 0a ee bc 60 4f 06 bd
       0.004723052 0.029705433 -0.029057974 -0.03279054
000190 9a ba 01 3d ec e0 5e 3d e5 75 79 3d 3c 88 2f 3c
       0.031672098 0.05441372 0.06090345 0.010713633
0001a0 cf 79 0c 3d 73 41 17 bc b4 d9 47 bd c8 b7 0f bd
       0.034295853 -0.009231913 -0.048791602 -0.035087377
0001b0 64 ae 6d bd 9c b0 10 ba fb 86 17 bc 26 45 c8 3c
       -0.05802764 -0.0005519481 -0.00924849 0.024447035
0001c0 02 85 4c bd 94 93 40 3d 4a 52 cc bb f5 76 21 bc
       -0.049931534 0.04701574 -0.0062353956 -0.009855022
0001d0 48 54 3f bd 29 2c a8 3c c3 7d 13 bc 67 ec af 3c
       -0.046711236 0.02052887 -0.009002152 0.02147503
0001e0 45 b3 c8 bb 46 97 2a 3d 1a d5 62 3d 5a f3 02 bd
       -0.006124886 0.04164817 0.05537901 -0.03197036
0001f0 2c ef 38 3d 29 85 98 bd 6c 15 49 3d 20 56 36 bd
       0.045149967 -0.07447273 0.049092695 -0.04451573
000200 81 ad d0 3c 11 49 9f bc 86 c4 55 bd bf 3a 75 bd
       0.025473358 -0.01944402 -0.052189372 -0.059870478
000210 b2 8c 22 3d 80 be 58 3a 40 3e a9 bc 06 de e0 bc
       0.03968496 0.0008268133 -0.020659566 -0.027449619
000220 67 18 9f bc 6e 6a 46 bc 81 9e 77 3d e5 bf 20 3d
       -0.019420816 -0.012110336 0.060453895 0.039245505
000230 2e ab ef bb f2 fc 8e bd cc 29 0d 3d d7 6b 72 3c
       -0.0073141074 -0.06981839 0.03446369 0.014796219
000240 8b a9 a4 bd 57 c8 43 3d df a9 a6 bc f5 07 94 3d
       -0.0804015 0.04779848 -0.020344673 0.0722808
000250 32 a1 28 bd e5 9e 2c 3d 55 36 fd 3b 3c 57 8d 3d
       -0.041169353 0.04214372 0.007727424 0.06901404
000260 3b 68 aa bc 4c 63 39 3d 28 0c f6 bb 72 43 a1 bc
       -0.020801654 0.045260713 -0.0075087734 -0.01968548
000270 35 32 96 bc e2 f1 1d bd 30 5b 86 bd 58 c6 c2 3c
       -0.018334487 -0.038560756 -0.065603614 0.023776218
000280 4c 26 3f ba 8d b8 18 bd ee 0a c6 3c 1c 8f 43 3d
       -0.00072917785 -0.037285376 0.024175134 0.0477439
000290 31 0b 50 bd a5 53 44 3d 23 d7 5c bc bd 87 0b 3d
       -0.050791923 0.047931332 -0.013479027 0.034064997
0002a0 d4 a7 34 bd a6 0b 82 3c 79 8d 00 3d 99 99 95 3d
       -0.044105366 0.015874695 0.03138492 0.07304687
0002b0 be a4 97 bc 85 b5 41 bc cb 4a 92 3d d6 1e 65 bd
       -0.018511172 -0.011823063 0.07143172 -0.05593761
0002c0 85 9c 3e bc a7 d8 ae bc 4c 00 77 3d 31 2f 29 3c
       -0.011633997 -0.021343542 0.060303017 0.010326193
0002d0 84 92 8a 3d 86 41 e0 bb 2d 98 a5 bc 2d 45 a8 3c
       0.06766227 -0.0068437485 -0.020214165 0.020540798
0002e0 fb 72 15 bc 93 98 da 3c 2b 62 48 bd 2d 66 96 bd
       -0.009121652 0.026684081 -0.048921745 -0.07343707
0002f0 2b aa 72 bd d9 57 21 3d a1 50 99 bc 49 7d 8b bd
       -0.059244316 0.03939042 -0.018715205 -0.068110056
000300 cf 1a 3e 3d 86 2e 49 3c 05 47 2d bd 0b 5c 08 3c
       0.046412285 0.012279158 -0.042304058 0.008322726
000310 30 04 43 3d a5 57 07 3d 16 50 a7 bc 20 cf 34 3d
       0.047611415 0.03304257 -0.02042393 0.044142842

rnn.bias_hh_l1 f4 [200]
000000 6a 50 8e 3d ce c8 3d 3d 2f 70 13 3c a2 8a 98 3b
       0.069489315 0.04633408 0.008998915 0.004655198
000010 71 44 31 3d c4 5a 12 bd 49 b4 2a bd 96 7f 8c 3d
       0.04327816 -0.035731092 -0.04167584 0.068602726
000020 51 69 74 bd 1b cf 19 bd 07 2e df 3b 8a 69 80 bc
       -0.05967075 -0.037551027 0.006810907 -0.015675325
000030 90 81 82 bc 07 10 91 bb 36 f5 4f bd f0 c2 6c 3c
       -0.01593092 -0.0044269594 -0.05077096 0.014450774
000040 8e 2f 8c bd 0f 13 31 bd 48 9c ab 3c 49 9a 47 3d
       -0.06845008 -0.043231066 0.020948544 0.048731122
000050 85 ab 26 3c 0f e8 3a 3d 56 81 5e bd c2 00 0f 3d
       0.010172729 0.045631465 -0.054322563 0.034912832
000060 3c 82 53 3d 6a 7d 94 3d 06 42 61 bd 7d 62 8f bb
       0.051637873 0.07250483 -0.054994605 -0.0043757544
000070 27 c7 4b 3d 68 37 09 bd 22 88 64 bd 5c 8e fd 3b
       0.049750473 -0.033500105 -0.05579389 0.007737918
000080 b3 cc 3a 3d c7 7b 7b 3d 36 32 ac bc cc f6 14 bd
       0.045605373 0.06139734 -0.021020036 -0.036368176
000090 21 0a 3f bd a4 29 92 3c ea 80 89 39 c8 6c 4d 3d
       -0.04664052 0.017842121 0.00026226725 0.05015257
0000a0 27 83 1a bd 18 59 28 ba 23 6c af bc b7 da 84 bd
       -0.037722733 -0.00064219674 -0.021413868 -0.06487029
0000b0 0f 25 41 bd 36 68 66 3d b1 72 d6 bc 0e 55 70 3d
       -0.047154482 0.056251727 -0.026177736 0.058674864
0000c0 ca 1e 72 bd 1b 7c 0e 3c 43 4a 3e 3c d6 d3 29 bb
       -0.059111394 0.008696581 0.011614385 -0.0025913618
0000d0 9d 33 4e bd df cb 0c 3d ce 5f cb 3b f0 34 c5 bc
       -0.05034219 0.034374114 0.006206489 -0.024073094
0000e0 a4 7a 7f 3a 83 ac 35 bd a5 37 3b bd 0d 07 2a 3d
       0.0009745753 -0.044353973 -0.045707364 0.04151063
0000f0 ad bd ce bc ee 6d 5f 3d 35 96 00 bd 09 91 68 3b
       -0.025236929 0.054548196 -0.03139325 0.0035486838
000100 13 0d 6a 3d f5 90 4f bd b7 6d 82 3a 0c 59 8c bc
       0.057141375 -0.05067535 0.000995091 -0.017132305
000110 49 30 bd bc fc 5d 5b bd 36 bb 5c 3d 32 92 27 bc
       -0.023094313 -0.053556427 0.053889476 -0.010227727
000120 2b 1f 4d 3d e8 68 6e 3d 54 19 6b 3d 05 8d 2d bd
       0.050078552 0.058205515 0.0573972 -0.042370815
000130 b0 71 30 bd 36 bb 5c 3d d8 82 b3 bc 3a f0 94 3b
       -0.04307717 0.053889476 -0.021912977 0.004545239
000140 4c c1 f4 3c 25 31 98 3c 16 7f 91 3d 37 51 87 bd
       0.029877327 0.018578121 0.07104318 -0.066072874
000150 a5 aa ae 3c c8 f7 e7 3c fa bb b7 bc db a8 6c 3d
       0.021321604 0.028316393 -0.022428501 0.05777822
000160 05 f0 01 3d f5 30 3d 3d 84 45 66 bd 9c 52 64 bd
       0.03172304 0.046189267 -0.05621864 -0.055742845
000170 e0 19 15 bc 6f 82 86 3c 64 ce 9b 3d 42 03 32 3d
       -0.009100407 0.016419617 0.07607725 0.04346014
000180 99 a2 66 bd 60 9b e6 bc e9 ae 92 bd ff b5 75 bd
       -0.05630741 -0.02815026 -0.07162268 -0.059988018
000190 59 c0 a0 3b 55 7e c7 bc c3 90 c6 ba ee 55 9c 3c
       0.004905742 -0.024352232 -0.0015149344 0.019083943
0001a0 aa 21 2d 3d a0 7e 71 3d 3d ac 24 3b 09 76 46 bd
       0.042268433 0.05895865 0.0025127076 -0.04845241
0001b0 87 e9 a7 bc e0 79 e1 bc 0e 01 2d 3d 39 2c 96 ba
       -0.020497097 -0.027523935 0.042237334 -0.0011457271
0001c0 1f e1 31 3c c2 db 80 3d 47 58 14 3d 4a 9b 65 bd
       0.010856896 0.062919155 0.036217 -0.0560563
0001d0 ad 39 1a bc 5f 66 3f bc 80 ab a8 3c e3 f9 b5 3c
       -0.009413165 -0.011682122 0.02058959 0.022213882
0001e0 f6 1e d8 bc d6 43 90 bd eb 44 83 bd 56 02 e9 3c
       -0.02638195 -0.07044189 -0.064096294 0.028443497
0001f0 50 63 57 bb 18 3f 47 3d de 4c 19 bc ce 98 84 bd
       -0.0032865591 0.048644155 -0.0093567055 -0.06474458
000200 f5 3d 5f bc e1 37 46 3d 0b 82 9a bc a5 9f e4 3c
       -0.013625612 0.048393134 -0.018860837 0.027908156
000210 cd d2 0a bd 34 ed 46 bd 82 4b 20 bd 7a 6a b7 3c
       -0.03389244 -0.04856606 -0.03913451 0.02238964
000220 a1 41 cc bb 5c 35 84 3d e3 a1 41 3d 0a 52 c2 bb
       -0.0062334095 0.0645549 0.047273528 -0.00593019
000230 7c cf 60 3d 87 8e f0 3c 88 f0 7a bd f5 69 ca bc
       0.054885373 0.029364837 -0.061264545 -0.024708727
000240 df 70 de 3c c6 cb 06 3d 04 35 b9 bc 12 5a 1e bd
       0.02715343 0.032909177 -0.022608288 -0.038660116
000250 49 e3 82 bd e3 5c 5f 3d 12 bb b4 bc 50 7e 55 3d
       -0.063910075 0.054531943 -0.022061858 0.052122414
000260 0b 93 bd 3c 0a 1a c6 3b 77 47 99 3c ad 1a 72 bd
       0.023141405 0.0060455846 0.018710835 -0.05910747
000270 74 71 84 3d 0b ce c8 bc c6 0d 05 bd 75 17 52 3c
       0.06466952 -0.024512311 -0.03248384 0.012822975
000280 cf 84 2a 3c 3d a3 9a 3c 49 2d 68 3d ac 4d 85 bb
       0.010407641 0.018876666 0.056683812 -0.004068097
000290 f6 3f 4e bd 35 48 4c 3d fa 8a 84 3c bf 75 ea 3c
       -0.050353967 0.04987355 0.01617955 0.028620599
0002a0 0a a8 4a bd ec 4a 2d 3d 9b 13 20 bd ec f6 a6 3c
       -0.04947666 0.04230778 -0.039081197 0.020381413
0002b0 e2 80 fc bc d1 a7 37 bc 6c 02 85 bd 3f 24 06 bd
       -0.030823175 -0.011209444 -0.064946026 -0.03274941
0002c0 6b 63 7d 3d ed 37 80 bd a4 76 42 bd eb 31 a3 3c
       0.06186239 -0.06260667 -0.047476426 0.019921264
0002d0 9c 9f 0f 3c 34 31 3a bd da bd 44 3d e5 3a 46 bd
       0.008766081 -0.04545708 0.04803262 -0.04839601
0002e0 30 9f 10 3d 07 56 9c 3a 8a 24 8b bc b0 91 2a bd
       0.035308063 0.0011927494 -0.016985197 -0.041642845
0002f0 af 31 28 bd 0f b6 0a bc 57 d6 26 3d 3a a4 fd bc
       -0.041063007 -0.008466258 0.040731754 -0.030962098
000300 39 a9 a9 3c 84 7b f0 bc dc 80 0b ba 8f 74 b0 ba
       0.020710574 -0.029355772 -0.0005321631 -0.0013462472
000310 6a 37 1e 3d 88 45 cb bb e0 51 80 3c d5 9b ed 3c
       0.038627066 -0.006203357 0.015664041 0.02900497
