Time-Series---Forecasting/Results/periodic/model11.pth (torch, 205844 bytes, 13 tensors)

rnn.weight_ih_l0 f4 [100, 1]
0	0x3948d2d5	0.00019152027
1	0x3da843ea	0.082160786
2	0x3d6dadc7	0.058027055
3	0x3d3b439c	0.045718774
4	0xbd917e0f	-0.07104122
5	0x3cd26401	0.025682451
6	0x3d5620f1	0.05227751
7	0xbca72cae	-0.020407047
8	0xbdaabae8	-0.08336431
9	0xbd62107b	-0.0551915
10	0x3c2898bb	0.01029032
11	0xbd9206c1	-0.071301945
12	0x3cef69d6	0.029225271
13	0x3d9b61dd	0.07587025
14	0x3cecc055	0.028900305
15	0xbd20e393	-0.03927953
16	0xbcf87307	-0.030328287
17	0x3c77c869	0.015123465
18	0x3d9b6504	0.075876266
19	0xbd0b6578	-0.034032315
20	0x3c54c0c8	0.012985416
21	0xbd9095bb	-0.07059809
22	0x3dbefb00	0.09325218
23	0xbd0e67e9	-0.034767065
24	0xbcafe33f	-0.021470664
25	0x3d354124	0.044251576
26	0xbca24ae2	-0.019811098
27	0xbc99f6ad	-0.018794382
28	0x3d84092a	0.064470604
29	0xbd90dd12	-0.07073416
30	0x3db3dee2	0.08782746
31	0xbc7283a7	-0.014801896
32	0xbd997d24	-0.07494572
33	0xbd38a5a5	-0.045079846
34	0x3d932c1a	0.07186146
35	0x3cd80142	0.026367787
36	0xbd92cbc9	-0.07167775
37	0xbd892e0f	-0.06698238
38	0x3dc4f9d5	0.09617964
39	0xbdccc693	-0.099988125
40	0x3d9fdf96	0.078063175
41	0xbd9f3552	-0.07773842
42	0xbd7dfa44	-0.06200625
43	0x3dc460a9	0.09588749
44	0xbdd192c3	-0.10233071
45	0xbd6d4edf	-0.057936545
46	0xbda232c0	-0.07919836
47	0x3cfade5e	0.030623611
48	0xbb10e202	-0.0022107367
49	0x3d586030	0.052826107
50	0xbd866ab6	-0.06563322
51	0x3ca7112e	0.020393934
52	0xbd7ed07f	-0.062210556
53	0x3bf49523	0.0074640675
54	0x3ccc4c35	0.024938682
55	0x3dbb769b	0.091534816
56	0xbc485350	-0.0122268945
57	0x3d8db435	0.069191374
58	0x3d7dae60	0.061933875
59	0x3cb20d73	0.021734929
60	0xbdb5139e	-0.08841632
61	0xbd9a0f07	-0.075223975
62	0xbdc4518c	-0.09585866
63	0x3d46a1ac	0.048494026
64	0xbd81eef6	-0.06344406
65	0xbdafdb7e	-0.08586787
66	0x3d41f6b2	0.047354408
67	0xbcf50f29	-0.029914455
68	0x3db291ba	0.087192014
69	0x3db8c649	0.09022195
70	0x3db90f01	0.09036065
71	0x3d80064f	0.06251203
72	0x3cb75c1c	0.022382788
73	0x3db3bb54	0.087759644
74	0x3cc08a26	0.023503374
75	0x3bb8d999	0.005641174
76	0xbdb6ce72	-0.08926095
77	0x3d94c5e7	0.072643094
78	0x3cd96c02	0.02654076
79	0x3d0d3ec6	0.034483694
80	0xbda27352	-0.07932152
81	0xbcedd322	-0.02903134
82	0xbdab7cf2	-0.08373441
83	0x3c922ff8	0.017845139
84	0x3d27ad1a	0.040936567
85	0x3d145aff	0.036219593
86	0xbc381781	-0.0112360725
87	0x3be9af6e	0.0071315086
88	0xbd39e3c7	-0.04538324
89	0xbd9d62e2	-0.07684876
90	0x3bfc994a	0.007708703
91	0xbd16c0f6	-0.036805116
92	0x3dcfd521	0.10148073
93	0xbd8bb5e0	-0.06821799
94	0xbdc1d7b6	-0.09464972
95	0x3d9626e6	0.07331638
96	0x3d9125e3	0.070873044
97	0x3ca436e5	0.020045707
98	0xbc577a69	-0.013151743
99	0x3db581db	0.088626586

rnn.weight_hh_l0 f4 [100, 100]
0	0xbc211964	-0.009832714
1	0x3d10dd71	0.035367433
2	0xbbb2d263	-0.005457209
3	0x3daa9977	0.08330052
4	0x3dc24877	0.09486478
5	0x3dbaaf9e	0.091155276
6	0xbc917e97	-0.017760558
7	0xbd74bf27	-0.05975261
8	0x3d55aff4	0.052169755
9	0x3dd72555	0.105051674
10	0xbddae15b	-0.106875144
11	0x3b0b892a	0.0021291473
12	0x3dd57e60	0.10424495
13	0x3d044ade	0.03229796
14	0xbb0cdfb5	-0.0021495644
15	0xbdae3dd3	-0.08507886
16	0x3d628eac	0.055311844
17	0x3d9135f4	0.07090369
18	0xbcd06241	-0.025437476
19	0x3d0d5e54	0.034513786
20	0x3da8ed2f	0.08248364
21	0x3d9d6f6f	0.0768727
22	0xbdc27c28	-0.09496337
23	0xbd4b8033	-0.049682807
24	0x3db3b86b	0.08775409
25	0x3b69aba6	0.003565529
26	0x3d97774b	0.073958
27	0x3c96380a	0.018337268
28	0x3dbd0ad4	0.09230581
29	0x3cb0d9c0	0.021588206
30	0xbb2ecd8e	-0.0026672813
31	0xbd07aaa2	-0.033121713
32	0x3cdefce9	0.027220206
33	0x3d395b67	0.045253184
34	0xbcb8c804	-0.022556312
35	0x3c0aaf8e	0.008464707
36	0xbd5d2a1a	-0.05399523
37	0x3b05c002	0.0020408635
38	0xbdadea98	-0.08492011
39	0x3d16d258	0.036821693
40	0xbd818963	-0.063250326
41	0xbd5633b0	-0.052295387
42	0x3bc32c57	0.0059562135
43	0xbb783f46	-0.003787951
44	0x3d4be730	0.049781024
45	0x3c97abc5	0.018514523
46	0x3d15c56c	0.03656523
47	0xbc9b0402	-0.01892281
48	0xbc937fc5	-0.018005261
49	0xbd6ac145	-0.057313222
50	0x3d424e29	0.04743782
51	0xbdd53ce3	-0.10412004
52	0xbdaed76e	-0.08537184
53	0x3d34961d	0.04408847
54	0x3d62cb92	0.05536992
55	0x3dcd5f66	0.100279614
56	0x3c76c2d6	0.015061101
57	0x3c970fab	0.018440088
58	0xbd1e27cb	-0.03861217
59	0xbcebe05c	-0.028793506
60	0xbd797615	-0.060903627
61	0xbd776815	-0.060401995
62	0xbc92bf88	-0.017913595
63	0xbd74bfe8	-0.05975333
64	0x3daca4ed	0.084298946
65	0x3d356102	0.044281967
66	0xbdabddff	-0.08391952
67	0x3d5c30b6	0.053757392
68	0x3d58aec8	0.05290106
69	0xbd266534	-0.04062386
70	0x3dc3b9ae	0.095569
71	0xbd600848	-0.054695398
72	0x3cdb5f93	0.026778972
73	0xbbe37241	-0.0069411104
74	0x3d1d583e	0.038414232
75	0x3d8e6c83	0.06954291
76	0xbd9223f0	-0.07135761
77	0xbd82d77d	-0.063887574
78	0x3da37040	0.07980394
79	0xbc3ee439	-0.011651092
80	0x3d8c5f3f	0.06854104
81	0x3d9af569	0.075663395
82	0xbd8b80b8	-0.068116605
83	0x3cdd435e	0.027009662
84	0xbd9556db	-0.07291957
85	0x3df0623a	0.11737485
86	0xbd23829e	-0.039919488
87	0x3cc32587	0.023821605
88	0xbda11f4d	-0.07867298
89	0xbd924673	-0.07142343
90	0x3d2589fb	0.04041479
91	0xbd6aae9d	-0.05729543
92	0xbcecd226	-0.0289088
93	0x3dfe690f	0.12422382
94	0xbcb41f12	-0.021987472
95	0x3dbde1d0	0.09271586
96	0x3d7d21d5	0.061799843
97	0xbc78dbb3	-0.015189099
98	0xbd8e1941	-0.069384106
99	0x3d4201c5	0.04736497
100	0xbd0a39a6	-0.033746384
101	0x3e01b7a2	0.12667707
102	0xbdb6c264	-0.08923796
103	0xbd440892	-0.047859736
104	0x3d41b488	0.04729131
105	0x3b43fc23	0.0029904924
106	0xbd1be412	-0.0380593
107	0xbc0f41da	-0.008743728
108	0xbde962cc	-0.11395797
109	0xbdb8c9dd	-0.09022877
110	0xbd852b73	-0.06502428
111	0xbd8434bb	-0.0645537
112	0xbda939a3	-0.082629465
113	0xbbca55af	-0.006174765
114	0xbd3efc1f	-0.04662716
115	0x3d800fbb	0.06253
116	0x3c7330ab	0.014843146
117	0xbc491523	-0.012273106
118	0x3c4ab294	0.012371678
119	0xbdbde04e	-0.09271298
120	0xbd907816	-0.070541546
121	0xbd0225de	-0.031774394
122	0xbd572807	-0.052528407
123	0xbca872bf	-0.020562528
124	0x3d929fbd	0.07159374
125	0x3d0181eb	0.03161804
126	0xbcde9b8b	-0.027173778
127	0x3d983009	0.07431037
128	0x3c292344	0.010323349
129	0x3dc81056	0.09768741
130	0xbd4c39da	-0.04985986
131	0x3da3832d	0.07984004
132	0x3cb972f7	0.022637827
133	0x3cda5046	0.026649605
134	0x3cc5c386	0.024141084
135	0x3db29693	0.08720126
136	0x3cb2d6b7	0.0218309
137	0xbc6931e1	-0.014233083
138	0xbcc10030	-0.02355966
139	0xbdafa13e	-0.085756764
140	0x3da81898	0.08207816
141	0x3d079b96	0.033107363
142	0xbd32e679	-0.043676827
143	0x3d717128	0.058945805
144	0x3c9a650b	0.01884701
145	0x3d9abe6f	0.075558536
146	0x3d4e510a	0.050370254
147	0xbcea2831	-0.028583618
148	0xbd93f538	-0.07224506
149	0xbdb9b296	-0.09067266
150	0x3c6520bc	0.013984855
151	0xbd1dce00	-0.038526535
152	0xbda00cf3	-0.0781497
153	0xbd2f1ede	-0.042754047
154	0x3c5e6ecd	0.013576222
155	0xbc8e0f12	-0.01734117
156	0xbcc85f34	-0.024459459
157	0xbdb25c44	-0.087090045
158	0x3d11b4f9	0.03557298
159	0xbbbb480b	-0.0057153753
160	0xbdbd1aba	-0.09233613
161	0x3da9f644	0.082989246
162	0xbd12dd7f	-0.035855766
163	0xbd5762a5	-0.05258431
164	0x3dac5c24	0.08416012
165	0x3bbaac8b	0.0056968383
166	0xbc97a761	-0.01851243
167	0xbdc467ba	-0.09590097
168	0xbdaa38f8	-0.08311647
169	0x3d086bd2	0.03330595
170	0xbd9c9cec	-0.07647118
171	0xbbd83968	-0.0065986402
172	0x3dd81e2a	0.10552628
173	0xbda8afaf	-0.08236634
174	0x3d2d29f1	0.042276327
175	0x3d5c50d2	0.053788014
176	0x3ccaedd4	0.024771608
177	0x3d60f182	0.05491782
178	0xbd934b49	-0.07192094
179	0x3da6d085	0.08145241
180	0x3cc966c0	0.024585128
181	0x3b81b5aa	0.0039584236
182	0xbd2a02d0	-0.04150659
183	0x3dc152bc	0.094396085
184	0xbd57d3bc	-0.05269216
185	0x3d30500b	0.043045085
186	0x3c04a3d6	0.008095702
187	0x3d376c72	0.044781156
188	0x3ae8321c	0.0017715129
189	0x3db887b3	0.090102576
190	0x3dadd696	0.08488195
191	0x3dc486b1	0.09596003
192	0x3d539808	0.05165866
193	0xbd7ae368	-0.061252028
194	0x3a446a0f	0.00074926106
195	0xbcf6fa42	-0.03014863
196	0xbc9a752b	-0.018854698
197	0x3d9fb48f	0.07798111
198	0xbd04a768	-0.032386214
199	0x3d0c4be5	0.034252066
200	0xbba14aa3	-0.0049222275
201	0xbcc30951	-0.023808153
202	0xbd2e9c45	-0.0426295
203	0xbc5eb1ca	-0.013592193
204	0xbd99094b	-0.074724756
205	0xbc9698a5	-0.018383333
206	0xbd114385	-0.035464782
207	0x3dafb68a	0.085797384
208	0x3d97ac62	0.07405926
209	0x3d8606ca	0.06544264
210	0x3d7c1676	0.061544858
211	0x3dad2b0c	0.08455476
212	0x3db574f6	0.08860199
213	0xbd284684	-0.041082874
214	0x3d75bd28	0.059994847
215	0x3d9275b1	0.07151354
216	0x3d39592a	0.04525105
217	0xbd868288	-0.065678656
218	0xbbeb5a64	-0.0071824063
219	0xbc01fbb2	-0.007933544
220	0xbdb6583e	-0.089035496
221	0x3be9555f	0.0071207727
222	0x3d8abc82	0.06774236
223	0x3b0635e6	0.0020478903
224	0xbc01878d	-0.007905853
225	0xbcf93505	-0.03042079
226	0xbcae56a5	-0.02128155
227	0x3c58f059	0.013240897
228	0xbdbdc2a0	-0.092656374
229	0xbd119eae	-0.03555172
230	0xbca36e9d	-0.019950205
231	0x3d457317	0.04820546
232	0x3d196337	0.037448134
233	0x3c7fd55a	0.015614832
234	0x3d52f9b4	0.051507667
235	0x3d94eb9b	0.07271501
236	0xbcfa445d	-0.030550176
237	0x3c73483c	0.014848765
238	0xbc6e2002	-0.014533998
239	0x3d90af55	0.07064692
240	0x3d076dca	0.033063687
241	0xbd7f1dde	-0.062284343
242	0xbdbd82d6	-0.092534706
243	0xbdc00d55	-0.09377543
244	0xbd65eefc	-0.056136116
245	0xbdd3e087	-0.103455596
246	0x3d21522a	0.039385
247	0xbdb4ae72	-0.08822335
248	0x3d29b0e3	0.041428458
249	0xbce6bb9f	-0.028165637
250	0x3cd7a819	0.026325272
251	0xbd2961cc	-0.041353032
252	0xbd56e0cc	-0.052460477
253	0xbc140b44	-0.009035889
254	0xbda5f04a	-0.08102472
255	0x3d5a7f1d	0.05334388

rnn.bias_ih_l0 f4 [100]
0	0x3cd91e85	0.02650381
1	0x3c6d2c20	0.014475852
2	0xbcaec79b	-0.021335414
3	0xbd3d02b6	-0.046145163
4	0x3dbd07cd	0.092300035
5	0x3d007df1	0.031370107
6	0xbbc38825	-0.0059671574
7	0x3c2a1bf0	0.010382637
8	0xbd9d83a3	-0.07691123
9	0xbda1e0f0	-0.079042315
10	0xbd3e04a5	-0.046391148
11	0xbdb45981	-0.08806134
12	0x3d8a2fbb	0.06747385
13	0x3cc8565d	0.024455244
14	0xbc25e2bc	-0.0101248585
15	0x3d90ed01	0.07076455
16	0x3cbf7072	0.023369048
17	0x3c43e625	0.011956726
18	0xbcfa086e	-0.030521598
19	0x3d5fc005	0.054626483
20	0x3c093c85	0.008376245
21	0x3d642c2f	0.0557062
22	0x3c13fe2b	0.009032766
23	0xbc435e02	-0.011924269
24	0x3dbc41ff	0.09192275
25	0x3dc4e6aa	0.09614308
26	0xbc5155b4	-0.012776781
27	0x3cb8d66c	0.022563182
28	0x3df1962b	0.117962204
29	0xbda45b66	-0.08025245
30	0x3d61abb7	0.0550954
31	0x3db56dc4	0.08858827
32	0xbc4bf78d	-0.012449157
33	0x3d2fac9b	0.04288922
34	0x3d8c3d51	0.06847633
35	0x3d87c78a	0.06629856
36	0xbd3d9aca	-0.046290196
37	0x3c9b424c	0.018952511
38	0xbcf144f2	-0.029451821
39	0xbdea0ea9	-0.114285775
40	0xbcd517eb	-0.026012382
41	0x3cc4ca08	0.024022117
42	0x3b981d83	0.00464219
43	0x3d497627	0.049184944
44	0xbcdf9f12	-0.02729753
45	0xbd829200	-0.063755035
46	0xbd434c53	-0.04768021
47	0x3d73c0ec	0.059510157
48	0xbc1b81ac	-0.009491365
49	0x3c723152	0.014782267
50	0xbdb1641c	-0.086616725
51	0xbdc92523	-0.098215364
52	0xbd3adaac	-0.045618698
53	0xbd5cdacb	-0.053919595
54	0x3dd9a37f	0.106268875
55	0x3d6177b1	0.055045787
56	0xbd88f294	-0.06686893
57	0xbd559cc4	-0.052151456
58	0xbdaa6e08	-0.08321768
59	0xbda086b1	-0.0783819
60	0x3dce5734	0.100752264
61	0xbdcb3690	-0.09922516
62	0xbd2021f8	-0.039094895
63	0x3d9fbe15	0.07799927
64	0x3c85b3c3	0.016321069
65	0xbd41b0c0	-0.047287703
66	0x3d4c65d7	0.04990181
67	0x3d785a59	0.060633037
68	0xbd6b155b	-0.057393413
69	0xbdb242d1	-0.087041505
70	0x3d83986b	0.06425556
71	0xbd9bf403	-0.07614901
72	0xbda5b71e	-0.080915675
73	0x3ba99e3c	0.0051763337
74	0x3d8551af	0.065097205
75	0x3c805d04	0.015669353
76	0x3d641746	0.055686258
77	0xbdc3feab	-0.095700584
78	0x3d8c4017	0.06848162
79	0x3d1d545f	0.03841054
80	0x3d59c240	0.053163767
81	0x3d905ada	0.070485786
82	0xbdcb836a	-0.099371746
83	0xbda6b9d6	-0.08140914
84	0xbcf59064	-0.029976077
85	0xbc14acf4	-0.009074438
86	0x3df4d3b6	0.11954443
87	0xbc4b84b2	-0.012421774
88	0xbc570218	-0.013123058
89	0xbdaf3534	-0.085550696
90	0x3da0d250	0.07852614
91	0x3d2ee5f3	0.042699765
92	0x3c99a528	0.01875551
93	0xbce73aa8	-0.028226212
94	0x3d70a7b8	0.0587537
95	0x3a930299	0.0011215984
96	0x3dc9cae7	0.09853154
97	0x3d41b74e	0.047293954
98	0x3dc25201	0.09488297
99	0xbd2f7071	-0.04283184

rnn.bias_hh_l0 f4 [100]
0	0x3ce7e669	0.02830811
1	0x3c570013	0.013122576
2	0x3c9942de	0.018708643
3	0xbd3b8fbf	-0.045791384
4	0x3d3cfc90	0.0461393
5	0x3d67468f	0.056463774
6	0x3d5b4e13	0.053541254
7	0x3d318dd8	0.043348163
8	0x3d94a157	0.07257336
9	0x3d7e5653	0.062094044
10	0x3d9e22c4	0.07721475
11	0x3d643380	0.055713177
12	0xbd86cdea	-0.06582244
13	0xbc23801e	-0.009979276
14	0x3dbc6f7c	0.092009515
15	0xbd2e637e	-0.042575352
16	0xbcbbe7e8	-0.02293773
17	0x3d7cf27f	0.0617547
18	0x3d2c1145	0.042008657
19	0xbd845c18	-0.06462878
20	0xbce256b8	-0.027629241
21	0x3d2c6068	0.042084128
22	0x3b6cfe1f	0.003616221
23	0xb975cb97	-0.00023440864
24	0x3db68d21	0.08913637
25	0x3d95c3a2	0.073127046
26	0xbdc23254	-0.094822556
27	0xbd582406	-0.05276873
28	0x3da2e78d	0.07954321
29	0xbd1edc69	-0.03878442
30	0xbc841487	-0.01612307
31	0x3d0c96ad	0.034323383
32	0x3db99516	0.09061639
33	0x3c1c1658	0.009526812
34	0xbd31c672	-0.043402143
35	0xbd5a6693	-0.05332048
36	0xbdaba087	-0.083802275
37	0x3d2b5705	0.041831035
38	0xbcae18ef	-0.021252124
39	0xbd1a4ca3	-0.037670743
40	0x3d6d61db	0.05795465
41	0xbd8dfd58	-0.06933087
42	0xbc8be2f1	-0.017075988
43	0x3dc72a37	0.09724849
44	0xbcc90336	-0.024537664
45	0xbd5cfef0	-0.053954065
46	0x3d4c7fed	0.049926687
47	0xbdafa950	-0.08577216
48	0xbdb0c5a6	-0.086314484
49	0xbce0a22c	-0.02742108
50	0x3ccf7f3d	0.025329227
51	0xbdd0221b	-0.10162755
52	0x3dcf958f	0.10135948
53	0xbcb945ba	-0.022616256
54	0xbd978b73	-0.07399645
55	0x3baa64c3	0.0052
56	0xbd32339c	-0.04350625
57	0x3d9729a3	0.073809884
58	0x3ce43c87	0.027860893
59	0x3d12b668	0.035818487
60	0xbda5344f	-0.08066618
61	0x3c1b25ed	0.009469491
62	0xbc85d633	-0.01633749
63	0x3d6d46fa	0.057929017
64	0xbdb52fcf	-0.088470094
65	0xbbe1feb4	-0.006896818
66	0x3ca2426b	0.019807061
67	0x3c6a0ab5	0.014284779
68	0x3da84b08	0.08217436
69	0x3d3caa29	0.046060715
70	0x3d4aa545	0.04947402
71	0x3cdcbee2	0.026946489
72	0xbd413b58	-0.047175735
73	0xbd935e78	-0.07195753
74	0xbda751f0	-0.08169925
75	0x3c97889d	0.01849776
76	0x3cb6ce2c	0.022315107
77	0xbd9a3b33	-0.075308226
78	0x3da4dc16	0.080497906
79	0x3d880bc8	0.06642872
80	0xbc68e2c2	-0.0142142195
81	0xbcbd638c	-0.023118757
82	0xba0e9a49	-0.00054398604
83	0x3d9fb1fc	0.0779762
84	0xbd98f804	-0.0746918
85	0x3d2a67d1	0.041602913
86	0x3dc0f25a	0.09421225
87	0xbd264518	-0.040593237
88	0xbd3f88ae	-0.046761207
89	0x3d8d7924	0.06907871
90	0xbd0f292b	-0.03495137
91	0xbd7ecf91	-0.06220967
92	0xbce2a417	-0.027666135
93	0xbd93f9ce	-0.07225381
94	0xbc33f97a	-0.010984773
95	0x3c01ff51	0.007934407
96	0x3dc47fbf	0.09594678
97	0xbd8f0f3d	-0.06985328
98	0xbd3d952d	-0.046284843
99	0x3d63f919	0.05565748

rnn.weight_ih_l1 f4 [100, 100]
0	0xbcdec62d	-0.027194107
1	0xbbdaee9d	-0.006681277
2	0xbd62db50	-0.055384934
3	0xbd3f02b6	-0.046633445
4	0x3d55f2c4	0.052233472
5	0xb855c625	-5.0967694e-05
6	0x3db6544f	0.08902799
7	0x3d8a8141	0.067629345
8	0x3ba9d395	0.0051826932
9	0xbd84b182	-0.064791694
10	0x3cfd0f66	0.030891132
11	0x3c98a142	0.018631581
12	0xbdaeb8c0	-0.08531332
13	0xbd200bda	-0.039073803
14	0x3c4439b0	0.011976644
15	0xbd614432	-0.054996677
16	0xbca61da6	-0.02027781
17	0xbd96f5b2	-0.073710814
18	0xbd32f28f	-0.043688353
19	0xbdc0ecde	-0.09420179
20	0xbd49a195	-0.049226362
21	0xbd7c4093	-0.06158502
22	0x3d008948	0.03138092
23	0x3dbdb574	0.09263125
24	0x3d47ad8c	0.04874949
25	0x3c0de1c2	0.008659782
26	0xbd633623	-0.05547155
27	0x3d0c5d22	0.034268506
28	0x3d9d6371	0.076849826
29	0xbdc30cc0	-0.09523916
30	0xbcc4804f	-0.023986964
31	0xbd3dbdae	-0.04632347
32	0x3dadb6b2	0.08482112
33	0xbd6d5c3f	-0.0579493
34	0x3c1bc8d3	0.009508329
35	0x3d7dfac6	0.062006734
36	0xbd559737	-0.052146163
37	0xbcb1c511	-0.021700414
38	0xbd164c39	-0.036693785
39	0x3d3be510	0.045872748
40	0xbd4613da	-0.048358776
41	0xbd35dbc1	-0.044399027
42	0x3d959f84	0.07305816
43	0xbd45a7fc	-0.048255906
44	0xbd599c42	-0.053127535
45	0x3d051d25	0.032498498
46	0xbd9f493f	-0.077776425
47	0x3d5af852	0.053459473
48	0xbcae547c	-0.02128052
49	0x3ced95ef	0.029002158
50	0xbc1ac7bd	-0.009447035
51	0xbd92b37b	-0.071631394
52	0x3ca624f1	0.020281287
53	0x3da58b32	0.0808319
54	0xbba7cf4f	-0.0051211487
55	0xbd9fa6d5	-0.077954926
56	0xbdd2d91d	-0.10295317
57	0xbd10b03a	-0.035324313
58	0xbdd3988f	-0.103318326
59	0x3b49b753	0.0030779436
60	0xbd7e580b	-0.062095683
61	0x3c1c90ad	0.009555978
62	0x3d6c3439	0.05766699
63	0x3d43cf40	0.04780507
64	0xbcc5bd19	-0.02413802
65	0x3dad5a59	0.08464498
66	0xbda48426	-0.08033018
67	0x3d8482d9	0.0647027
68	0x3cee94ca	0.029123683
69	0xbd9c39bf	-0.07628202
70	0x3d841045	0.06448416
71	0xbd08dedf	-0.03341567
72	0xbd88e137	-0.06683581
73	0xbd7b1081	-0.061295036
74	0x3c0efc46	0.008727139
75	0xbdd4ce0a	-0.10390861
76	0xbdb69ff2	-0.08917226
77	0x3be6d24c	0.0070441123
78	0x3ae0107a	0.0017094754
79	0x3cf38cf6	0.029730301
80	0x3dbbb5ce	0.09165536
81	0x3d8eca21	0.06972147
82	0xbc9c2d78	-0.01906465
83	0xbd0d102e	-0.03443926
84	0x3d362084	0.044464603
85	0x3db650f8	0.08902162
86	0x3d83293a	0.06404348
87	0xbd92f40a	-0.07175453
88	0x3db2aabd	0.08723972
89	0xbd56201d	-0.05227672
90	0xbd538d09	-0.051648173
91	0xbd6cfcf9	-0.05785844
92	0xbd059679	-0.032614205
93	0xbd1edab0	-0.038782775
94	0xbc6eb4ad	-0.014569444
95	0x3da7e400	0.081977844
96	0xbdc194e3	-0.09452226
97	0xbdb1ec19	-0.0868761
98	0xbd1b8434	-0.037967876
99	0x3dbccf94	0.0921928
100	0x3bd171c6	0.0063917367
101	0xbd26ad5b	-0.04069267
102	0xbb888fe0	-0.004167542
103	0xbc266c40	-0.010157645
104	0x3cd903b4	0.026491024
105	0x3cc06837	0.023487194
106	0xbd436da9	-0.047712002
107	0x3d27d6c5	0.040976305
108	0xbd9211e2	-0.07132317
109	0x3db926b9	0.09040589
110	0x3da10c1f	0.0786364
111	0xbcdaf5f2	-0.026728604
112	0x3d7354f0	0.059407175
113	0x3d963dab	0.07335981
114	0x3d9d331f	0.07675766
115	0xbdbd0284	-0.092289954
116	0x3d597c9c	0.053097352
117	0xbdabb307	-0.08383756
118	0x3c32fa56	0.010923943
119	0xbd6863d7	-0.05673584
120	0xbd977232	-0.07394828
121	0x3c8c6d76	0.017142039
122	0xbd211ad1	-0.039332215
123	0x3dc1594c	0.0944086
124	0xbd3270ec	-0.043564722
125	0x3d49bfcd	0.04925518
126	0xbd962fcf	-0.073333375
127	0xbd9123a0	-0.07086873
128	0x3d1e3b48	0.038630754
129	0x3db46155	0.08807627
130	0x3a362b73	0.00069492235
131	0xbdbaea77	-0.09126752
132	0xbd9004bc	-0.07032153
133	0x3d6ef753	0.058341336
134	0x3da8b95f	0.08238482
135	0x3d85a485	0.0652552
136	0xbd7542e2	-0.059878238
137	0x3bcbf320	0.006224051
138	0xbd885412	-0.0665666
139	0xbd9537ad	-0.0728601
140	0xbdaed4e3	-0.08536699
141	0xbd7bad51	-0.061444584
142	0x3d6ed84a	0.058311738
143	0xbd91b9c2	-0.071155086
144	0x3de1fd53	0.11034646
145	0x3dbfab49	0.09358842
146	0x3d2fc319	0.04291067
147	0x3d567b2f	0.05236357
148	0xbd8f0eed	-0.06985269
149	0xbd8c94ff	-0.06864356
150	0x3d567284	0.052355304
151	0x3d469b0a	0.0484877
152	0xbdb6e225	-0.089298524
153	0xbcec16f0	-0.028819531
154	0xbdb1765a	-0.08665152
155	0x3cbcb83d	0.02303707
156	0xbdaf9c0d	-0.08574686
157	0xbca7c086	-0.020477545
158	0x3bb7b8d5	0.0056067505
159	0x3d85d3e1	0.06534553
160	0xbc8e7a13	-0.017392194
161	0x3d4ea8ef	0.050454076
162	0x3d0906f9	0.033453915
163	0x3ccdea49	0.02513613
164	0xbbba73c2	-0.005690069
165	0xbd5cfdb6	-0.053952895
166	0xbaf0c2d2	-0.0018368608
167	0xbd3d53d7	-0.046222534
168	0xbd56553c	-0.05232738
169	0xbd2db055	-0.04240449
170	0x3cc54814	0.024082221
171	0xbd952680	-0.07282734
172	0xbd0eb5cb	-0.03484134
173	0x3d7f0235	0.062257964
174	0xbcb3c64c	-0.021945141
175	0xbd8a8016	-0.06762712
176	0xbd2a6cc3	-0.04160763
177	0xbd8b93a7	-0.06815272
178	0x3db619d4	0.08891645
179	0x3cb0e507	0.021593584
180	0x3da65cc8	0.08123165
181	0x3ab151a3	0.0013528358
182	0xbcbb9741	-0.022899272
183	0x3b038c03	0.0020072467
184	0xbd631541	-0.05544019
185	0x3da5e486	0.08100228
186	0x3d055da3	0.032560002
187	0x3d87b030	0.06625402
188	0xbdafe606	-0.08588795
189	0x3db20275	0.08691875
190	0x3c8e903f	0.017402766
191	0xbd904026	-0.07043485
192	0xbdabe12b	-0.08392557
193	0x3dc58a71	0.09645546
194	0x3d6d9524	0.05800356
195	0xbc83a8fe	-0.016071793
196	0xbd0a3b8a	-0.033748187
197	0x3d1c5fd3	0.038177323
198	0x3d7d2dfa	0.061811425
199	0xbd612f89	-0.054976974
200	0x3daddf0e	0.0848981
201	0x3c1883cc	0.009308767
202	0xbd81f950	-0.06346381
203	0xbdb02e9b	-0.08602639
204	0x3d36a1ae	0.044587784
205	0x3da1ece2	0.0790651
206	0xbd980211	-0.07422269
207	0xbd918e2a	-0.07107194
208	0xbd245b08	-0.040125877
209	0x3dc5f0ea	0.09665091
210	0x3ccdd042	0.02512372
211	0xbd85fbf6	-0.06542198
212	0x3d18da20	0.037317395
213	0xbdb76d1f	-0.0895636
214	0x3d82e12a	0.06390603
215	0xbdc1c95d	-0.09462235
216	0x3c174c0e	0.009234441
217	0xbc224986	-0.009905225
218	0xbd2e2cc8	-0.042523175
219	0xbd57150d	-0.05251031
220	0xbda485ae	-0.0803331
221	0x3bbd500b	0.005777364
222	0x3d95d3dd	0.073158
223	0xbbadac84	-0.0053001065
224	0xbdaa2145	-0.08307127
225	0x3d0a582a	0.033775486
226	0x3daf593f	0.08561944
227	0xbda7026c	-0.08154759
228	0x3cb723c7	0.022355927
229	0xbda050dd	-0.078279234
230	0xbd4fd8cf	-0.050743874
231	0xbb5d35d4	-0.0033754008
232	0xbd88bebf	-0.06677007
233	0x3bea066f	0.00714188
234	0xbdbcaa10	-0.09212124
235	0xbd344bf2	-0.04401774
236	0x3d88c524	0.066782266
237	0xbd3eb710	-0.0465613
238	0x3db7c2a1	0.089726694
239	0xbc1f9846	-0.009740895
240	0x3d8d7708	0.06907469
241	0x3d14671a	0.036231138
242	0xbd060f59	-0.03272948
243	0x3ab1787c	0.0013539935
244	0xbb6b4314	-0.0035898136
245	0x3dbb41fd	0.09143446
246	0xbb7902bc	-0.0037996015
247	0x3d88bbc8	0.066764414
248	0xbda4fcf5	-0.0805606
249	0xbd205d48	-0.03915146
250	0x3d602733	0.054724883
251	0x3d8c1351	0.06839622
252	0x3be2e736	0.006924535
253	0x3c990e47	0.018683566
254	0x3d49c1f0	0.04925722
255	0x3cbad32d	0.022805775

rnn.weight_hh_l1 f4 [100, 100]
0	0x3dbc3708	0.09190184
1	0xbdc66418	-0.0968706
2	0xbcbcbdce	-0.023039725
3	0x3d148e05	0.036268253
4	0x3d8571cb	0.06515845
5	0xbdc0f80e	-0.09422313
6	0x3d022c10	0.031780303
7	0xbd7d0a99	-0.061777685
8	0x3a1fec68	0.0006100596
9	0x3c0d3ddc	0.008620705
10	0xbdc9d4a3	-0.0985501
11	0x3d361d56	0.04446157
12	0xbd96cd47	-0.07363372
13	0xbd596538	-0.053075045
14	0x3dab4af2	0.08363904
15	0x3d84e4fb	0.06488987
16	0x3dbaa362	0.09113194
17	0x3dcdf19f	0.10055851
18	0xbc8d6366	-0.01725931
19	0xbd4b04c5	-0.049565095
20	0xbccf336d	-0.025293076
21	0x3dba535b	0.0909793
22	0x3d70a86d	0.058754373
23	0x3d73f622	0.059560902
24	0xbdb80ed1	-0.08987201
25	0xbd6a5344	-0.057208315
26	0xbd0961a9	-0.0335404
27	0x3d6e1066	0.058121108
28	0x3cd0f06a	0.025505263
29	0x3c208c48	0.009799071
30	0x3cad83d7	0.02118103
31	0xbdb7051b	-0.08936521
32	0x3d7452b2	0.059649177
33	0x3d82ff12	0.06396307
34	0xbd8342b5	-0.06409208
35	0x3a5b9e29	0.0008377755
36	0xbb1fc49c	-0.0024378663
37	0xbd811120	-0.063020945
38	0xbda77c1a	-0.08177967
39	0xbd5d67e2	-0.05405415
40	0x3d9bb3f1	0.076026805
41	0x3d058d48	0.03260544
42	0x3d40f4d7	0.047108497
43	0xbd18e7f3	-0.03733058
44	0x3d5a683c	0.053322062
45	0x3cac999c	0.02106934
46	0x3cfc048a	0.030763883
47	0x3da2816d	0.07934842
48	0x3d2d4901	0.04230595
49	0x3d824caf	0.063622825
50	0x3c5b9f68	0.013404705
51	0xbda311bc	-0.07962367
52	0xbc3086a0	-0.010774285
53	0xbd7a5f37	-0.06112596
54	0x3c8e5e4d	0.01737895
55	0x3d36c4b0	0.04462117
56	0x3d3480ce	0.04406815
57	0x3d206060	0.03915441
58	0x3d1c34ea	0.0381364
59	0x3dd1d4d4	0.10245672
60	0xbc3e5022	-0.011615785
61	0xbd7eb7bb	-0.062186938
62	0xbc9be391	-0.01902941
63	0xbd61cc02	-0.055126198
64	0x3d0739c0	0.03301406
65	0xbcfe76aa	-0.031062443
66	0x3da8d32b	0.08243402
67	0xbd8d01a0	-0.068850756
68	0xbc314714	-0.010820169
69	0xbd6267e7	-0.05527487
70	0x3d55a071	0.052154962
71	0xbd1ce306	-0.038302444
72	0xbd96af34	-0.07357636
73	0x3d6cc882	0.057808407
74	0x3dadba9a	0.08482857
75	0x3c5f6674	0.013635267
76	0xbc527f66	-0.012847757
77	0x3dbc2b91	0.09187997
78	0xba293799	-0.0006455123
79	0x3dbe7e19	0.09301395
80	0x3d5de7f1	0.054176275
81	0xbbff1592	-0.007784554
82	0xbd38f9ba	-0.045160033
83	0x3db1a648	0.08674294
84	0xbcb49acf	-0.022046475
85	0xbd2bdb22	-0.04195703
86	0x3c867dd1	0.016417416
87	0xbd565a4e	-0.052332215
88	0xbdbb1e95	-0.091366924
89	0xbd7fb324	-0.0624267
90	0x3da8dbb8	0.08245033
91	0x3ca609b2	0.020268295
92	0x3dabdbcf	0.083915345
93	0x3d29a5f1	0.04141802
94	0xbcd684fd	-0.02618646
95	0xbc35eddb	-0.011104072
96	0xbd05f4c5	-0.032704134
97	0xbd0b1fc1	-0.03396583
98	0xbbf5cff8	-0.0075015984
99	0x3da462e2	0.08026673
100	0xbb9ecde3	-0.004846321
101	0x3d6fca6f	0.058542665
102	0x3c8f19d5	0.017468372
103	0x3ca77ae2	0.020444337
104	0x3c9729ed	0.018452609
105	0x3d0ebbc6	0.034847043
106	0x3acf61ec	0.001582203
107	0xbd999c0b	-0.07500466
108	0xbc9c05b5	-0.01904569
109	0xbdb2fddc	-0.08739826
110	0xbd2f7842	-0.042839296
111	0xba8e0586	-0.0010835386
112	0xbc408fd5	-0.011753042
113	0x3db45fad	0.08807311
114	0x3da241ab	0.079226814
115	0xbdd8b51a	-0.105814174
116	0x3d419fa3	0.047271382
117	0x3d629fc8	0.05532816
118	0x3c7cc308	0.015427358
119	0xbdb38c4c	-0.08766994
120	0xbd316139	-0.04330561
121	0xbdd31be4	-0.10308054
122	0x3d8bb40c	0.068214506
123	0xbd6e1ad4	-0.058131054
124	0x3dbed6d4	0.09318319
125	0xbdbea5be	-0.093089566
126	0xbd02e87d	-0.03196
127	0x3dbaa4e5	0.091134824
128	0x3ca549b2	0.020176742
129	0x3c451488	0.012028821
130	0xbc63c2df	-0.013901441
131	0xbcf774a8	-0.030206993
132	0x3cf8a8b8	0.030353889
133	0xbd6f9506	-0.05849173
134	0x3b9e1ef2	0.0048254663
135	0xbd57cab9	-0.052683566
136	0xbda8227c	-0.082097024
137	0xbd3d11ea	-0.046159662
138	0x3db6b42e	0.08921085
139	0x3d1ccced	0.03828137
140	0xbb4b084f	-0.0030980294
141	0x3d0fe002	0.03512574
142	0x3d2e5891	0.042564932
143	0x3d96a40c	0.07355508
144	0xbdc91c5d	-0.09819863
145	0x3d9e7c35	0.07738534
146	0xbdb2bb26	-0.08727102
147	0xbab98643	-0.0014154393
148	0xbd172910	-0.036904395
149	0x3da3f8b5	0.080064215
150	0x3d6aa3e1	0.057285193
151	0xbd35d359	-0.04439101
152	0x3d902740	0.07038736
153	0xbd772566	-0.0603384
154	0xbd0b78cf	-0.03405076
155	0xbcd84f68	-0.026405051
156	0x3dcc2d3d	0.09969566
157	0xbdbfd729	-0.093672104
158	0x3cedddcc	0.029036425
159	0xbd61bc63	-0.0551113
160	0xbdacb05a	-0.08432074
161	0x3d73bdd3	0.059507202
162	0x3dce0efb	0.10061451
163	0xbcfc9869	-0.030834394
164	0x3c4f8051	0.01266487
165	0x3d2a056f	0.041509088
166	0x3b48210e	0.003053728
167	0x3c0402bb	0.008057292
168	0xbda3512e	-0.07974468
169	0x3cc12d2f	0.023581116
170	0x3c06b72f	0.008222385
171	0x3da1aab8	0.0789389
172	0xbdd3c91f	-0.10341095
173	0x3d32ad16	0.0436221
174	0x3c94e7fe	0.018177029
175	0x3d60ead0	0.054911435
176	0xbd09e1bf	-0.033662554
177	0xbcfefef6	-0.031127434
178	0xbd0f4910	-0.034981787
179	0x3d097431	0.033558074
180	0x3ca67fdf	0.020324646
181	0xbdc3c357	-0.095587425
182	0x3d625fff	0.05526733
183	0x3d1dfe3d	0.03857254
184	0xbdb3d578	-0.0878095
185	0x3d90e6b9	0.07075257
186	0xbd21cc5f	-0.039501544
187	0xbd3dbfe2	-0.04632557
188	0xbca90cbd	-0.020635957
189	0xbc16ee4e	-0.00921209
190	0xbd9b45ec	-0.07581696
191	0x3c24d312	0.010060089
192	0xbd3dda87	-0.046350982
193	0x3ce395de	0.027781423
194	0x3ccba66d	0.024859631
195	0x3d4e6851	0.050392453
196	0xbd31bc68	-0.04339257
197	0xbd833f70	-0.06408584
198	0x3ca10504	0.019655712
199	0xbdb94614	-0.090465695
200	0x3d633102	0.05546666
201	0xbc3b9c7d	-0.011450884
202	0x3d9a3097	0.07528799
203	0xbdb97720	-0.090559244
204	0xbd0122de	-0.031527393
205	0x3cec776e	0.028865542
206	0x3d0d962c	0.034567043
207	0x3d744a3a	0.0596411
208	0xbce91412	-0.028451953
209	0xbd843707	-0.06455808
210	0x3c1868ee	0.009302361
211	0x3cebf2a4	0.028802224
212	0x3d8efe49	0.06982095
213	0xbd5efed8	-0.054442257
214	0x3d4948f3	0.049141835
215	0x3cbd89b3	0.02313695
216	0x3d98276c	0.07429394
217	0xbd3cc7ac	-0.04608886
218	0xbd5713d1	-0.052509133
219	0xbcff4a22	-0.031163279
220	0x3d27e998	0.040994257
221	0x3dba73f6	0.09104149
222	0xbd81c649	-0.06336648
223	0xbd4c9a26	-0.049951695
224	0xbd897dbc	-0.06713435
225	0xbd9fe296	-0.0780689
226	0xbd47fa6d	-0.04882281
227	0xbd149255	-0.036272366
228	0xbda18fbf	-0.078887455
229	0xbc59759d	-0.01327267
230	0x3d5e6b7d	0.054301728
231	0xbc9661b3	-0.018357133
232	0x3beab6ce	0.0071629053
233	0xbcf31aef	-0.029675929
234	0xbd0fecd2	-0.03513796
235	0xbd75e1ee	-0.060029916
236	0xbbba29c1	-0.005681247
237	0x3cda142e	0.02662095
238	0xbda6b06e	-0.0813912
239	0x3d3a97de	0.045554988
240	0x3d0ca59c	0.034337625
241	0xbd06920a	-0.032854117
242	0x3d8bbd27	0.06823187
243	0x3d6d4aeb	0.057932775
244	0x3d44a006	0.048004173
245	0x3d5070d3	0.050888848
246	0xbc696ccc	-0.014247131
247	0x3d2fd311	0.042925898
248	0xbd3d2946	-0.04618194
249	0x3dc30463	0.09522321
250	0x3dbeae6f	0.09310614
251	0x3d931fa8	0.07183772
252	0xbdace81b	-0.08442708
253	0xbd4cc4e3	-0.049992453
254	0x3d205007	0.03913882
255	0xbd56df05	-0.05245878

rnn.bias_ih_l1 f4 [100]
0	0x3d22ac72	0.039715238
1	0x3d1af976	0.03783556
2	0xbc43ad7c	-0.011943217
3	0x3d66851a	0.05627928
4	0xbd40ec79	-0.047100518
5	0xbd82e559	-0.06391401
6	0x3c954b8f	0.018224506
7	0xbcaa2de9	-0.020773845
8	0xbd80ef22	-0.06295611
9	0xbdc9cbb3	-0.09853306
10	0x3cb3109a	0.021858502
11	0xbd4f6553	-0.05063374
12	0x3a0b54f7	0.000531509
13	0xbdb649e0	-0.08900809
14	0xbcc0b2a1	-0.023522677
15	0x3dc3e9c7	0.09566074
16	0x3d31b671	0.04338688
17	0xbd96c1d2	-0.07361187
18	0xbb79f2e1	-0.0038139152
19	0x3c88c964	0.016697593
20	0xbd728ea9	-0.059218083
21	0x3d890b89	0.06691653
22	0x3d3662ef	0.044527944
23	0x3b061055	0.0020456512
24	0xbd230d68	-0.039807707
25	0x3cb5fba6	0.022214722
26	0xbdc77d7f	-0.09740733
27	0xbcf5ba5a	-0.029996086
28	0x3dc0df1a	0.09417553
29	0x3b851067	0.004060793
30	0x3d33b963	0.04387797
31	0xbdab88df	-0.083757155
32	0xbd8d8191	-0.069094785
33	0xbd80c369	-0.062872715
34	0xbcd49141	-0.025948169
35	0xbc6c4a12	-0.014421957
36	0xbdbfe068	-0.09368974
37	0x3c5b30c2	0.013378324
38	0x3cec3a8b	0.02883651
39	0x3d27a5e6	0.040929697
40	0xbdb0e2b4	-0.0863699
41	0x3beaf2e6	0.007170069
42	0x3d3996b0	0.045309722
43	0xbdbcd185	-0.0921965
44	0x3d427f7c	0.04748486
45	0x3d8cfd2c	0.06884226
46	0x3dd4ad95	0.10384671
47	0xbd02d506	-0.031941436
48	0xbd961fcf	-0.07330286
49	0xbd3aeb85	-0.045634765
50	0xbcfec6e0	-0.03110069
51	0x3d5c057c	0.053716168
52	0xbd7c2815	-0.061561663
53	0x3d155bd4	0.036464527
54	0xbc6631a7	-0.014049924
55	0x3db8f947	0.09031921
56	0x3d992285	0.07477287
57	0x3dca6210	0.09881985
58	0x3d32cba4	0.043651238
59	0xbdcf733b	-0.101294
60	0xbdc42a5b	-0.09578391
61	0xbc790e17	-0.015201113
62	0xbd82b71d	-0.06382582
63	0xbd944d5d	-0.072413184
64	0x3df5e6f1	0.12006939
65	0x3d107c0e	0.035274558
66	0xbd6fd4b6	-0.058552466
67	0x3d3c9d00	0.046048164
68	0xbd33982b	-0.04384629
69	0x3d8dfaf4	0.06932631
70	0xbdc23844	-0.09483388
71	0x3d8c03c7	0.06836658
72	0xbd98bb1b	-0.074575625
73	0xbc28ebfb	-0.010310168
74	0x3db19b49	0.086721964
75	0x3d632b76	0.05546137
76	0xbd9ca133	-0.07647934
77	0x3da95388	0.082678854
78	0x3d7f5774	0.06233926
79	0xbd6416d4	-0.055685833
80	0xbd75d7f0	-0.060020387
81	0x3d30600a	0.04306034
82	0x3d9b0d6f	0.07570922
83	0xbdac0f81	-0.08401395
84	0xbd45642c	-0.048191234
85	0xbd973471	-0.07383049
86	0x3c2d0654	0.010560591
87	0xbd0a0738	-0.03369829
88	0xbd3a86ad	-0.045538593
89	0x3dbdf880	0.09275913
90	0xbdc99346	-0.09842543
91	0x3c844cca	0.016149897
92	0xbdbe23b4	-0.092841536
93	0x3d9b8750	0.07594168
94	0x3d1dbc57	0.038509693
95	0x3cb69739	0.022288905
96	0xbd3852f5	-0.04500099
97	0x3da8d8c5	0.082444705
98	0x3d70ee16	0.058820806
99	0x3da2f637	0.07957118

rnn.bias_hh_l1 f4 [100]
0	0xbcc6b6ee	-0.02425715
1	0xbd6505c7	-0.055913713
2	0xbd654434	-0.055973247
3	0xbdbfd54b	-0.09366854
4	0xbd11d7f1	-0.03560633
5	0x3d69a32b	0.057040375
6	0x3dd66466	0.10468368
7	0xbd1202fe	-0.035647385
8	0x3d2443dd	0.040103782
9	0xbcaab301	-0.020837309
10	0x3ab6ac32	0.0013936816
11	0xbd8db94f	-0.069201104
12	0xbd94b3df	-0.0726087
13	0xbda4e965	-0.08052329
14	0x3dc6d68d	0.09708891
15	0xbd842f63	-0.06454351
16	0xbd01845e	-0.031620376
17	0xbd8eef46	-0.069792315
18	0xbb3d16de	-0.0028852741
19	0x3cfd196e	0.030895915
20	0xbda9a3e0	-0.0828321
21	0x3a4c1908	0.00077857124
22	0x3d827777	0.06370442
23	0x3d334c74	0.043774083
24	0x3dd00761	0.101576574
25	0xbd4a5eb6	-0.04940673
26	0xbd34f534	-0.044179156
27	0xbde55052	-0.111969605
28	0x3cbfa040	0.023391843
29	0x3c05790d	0.008146537
30	0x3ce55dcf	0.027998833
31	0x3d4122ee	0.047152452
32	0xbda99a98	-0.082814395
33	0xbdb3ccbb	-0.087792836
34	0x3d014061	0.031555537
35	0xbd65cbd7	-0.0561026
36	0x3be49c38	0.0069766305
37	0x3d9db96a	0.077013806
38	0xbd9b1f41	-0.075743206
39	0x3d69f613	0.05711944
40	0x3d3602f5	0.044436414
41	0xbc5a1d08	-0.013312586
42	0x3cb445c1	0.022005918
43	0xbd3c0b86	-0.045909427
44	0xbda70bfe	-0.08156584
45	0x3d5f3f83	0.05450393
46	0xbb4b7010	-0.0031042136
47	0xbd155cfe	-0.036465637
48	0x3d0708a2	0.032967217
49	0xbd0a829f	-0.033815976
50	0x3d8ec9da	0.06972094
51	0x3c244874	0.01002704
52	0x3d924d31	0.07143629
53	0xbd6b733a	-0.057482935
54	0x3d65f1ad	0.056138683
55	0xbcd885b2	-0.026430938
56	0x3d90cba8	0.07070094
57	0xbd0c356b	-0.03423063
58	0xbd92e0c8	-0.0717178
59	0xbcdede80	-0.027205706
60	0x3cb40200	0.02197361
61	0xbd6f298c	-0.05838923
62	0xbd4acd80	-0.049512386
63	0x3a49d048	0.0007698578
64	0x3d899633	0.06718101
65	0xbd84000b	-0.06445321
66	0xbd44b20e	-0.04802137
67	0x3db9a9e8	0.0906561
68	0x3d28b7fc	0.041191086
69	0xbd994e0f	-0.074855916
70	0xbb95a059	-0.004566234
71	0xbd27d0c1	-0.040970568
72	0x3d468529	0.048466835
73	0xbc49182e	-0.012273831
74	0x3de7159e	0.1128342
75	0x3d510890	0.051033556
76	0xbd28570c	-0.04109864
77	0xbd9e9938	-0.07744068
78	0x3dab70c8	0.08371121
79	0xbd627f34	-0.05529709
80	0xbd1adc42	-0.03780771
81	0x3db5ce41	0.088772304
82	0xbdabb489	-0.08384044
83	0x3da00449	0.07813317
84	0xbb2b06a9	-0.00260965
85	0xbd97975d	-0.07401917
86	0xbcef6c85	-0.02922655
87	0x3bc8c64e	0.0061271554
88	0x3d3a89ad	0.045541454
89	0xbbdc371f	-0.006720438
90	0xbd2d2c56	-0.04227861
91	0xbd92207d	-0.07135103
92	0xbc8f4c9e	-0.017492589
93	0xbdc54007	-0.09631353
94	0xbd154273	-0.036440324
95	0xbdb0b717	-0.086286716
96	0x3d82afa0	0.06381154
97	0xbd0b2987	-0.03397515
98	0x3d991d5d	0.07476304
99	0xbd820cfd	-0.063501336

rnn.weight_ih_l2 f4 [100, 100]
0	0xbd85a8be	-0.06526326
1	0x3c6adc09	0.014334687
2	0x3d74bc23	0.059749734
3	0x3dc8c260	0.09802699
4	0xbdc12af5	-0.094320215
5	0x3dc8226b	0.0977219
6	0x3daa917e	0.08328532
7	0x3db7e084	0.0897837
8	0xbd8a3d89	-0.06750018
9	0x3d968a49	0.073505946
10	0xbd55e241	-0.052217726
11	0xbdc0f734	-0.0942215
12	0xbd8687cd	-0.06568871
13	0x3cd7877c	0.026309721
14	0x3c5dcec6	0.013538068
15	0x3cb0a6d5	0.021563927
16	0x3cd82a0f	0.026387243
17	0xbc55a7a7	-0.01304046
18	0x3d887823	0.06663539
19	0x3c975434	0.018472768
20	0x3d541c14	0.05178459
21	0xbd20e211	-0.039278094
22	0xbda8fbce	-0.08251153
23	0x3d25adbc	0.04044889
24	0xb9fc2fa8	-0.00048100692
25	0xbd3bf109	-0.045884166
26	0x39fa0d0c	0.00047693436
27	0xbd11fda4	-0.03564228
28	0x3d85696c	0.06514248
29	0xba8f10f9	-0.0010915092
30	0xbc9ee4ba	-0.019396175
31	0xbdca373e	-0.09873818
32	0x3d760d7a	0.060071446
33	0x3db922ae	0.09039818
34	0x3dab7267	0.0837143
35	0xbcdcd281	-0.026955845
36	0x3dc0b04c	0.09408626
37	0x3d85d397	0.06534498
38	0x3d044b0b	0.03229813
39	0xbdaaf1ad	-0.08346877
40	0xbd68c23d	-0.056825865
41	0x3d4ecba4	0.050487176
42	0xbd0d0ac0	-0.03443408
43	0x3d2acd79	0.04169986
44	0xbdbb66d0	-0.09150469
45	0x3d26abd7	0.040691223
46	0x3db10931	0.08644331
47	0x3bd9fe06	0.0066525964
48	0xbd230ce8	-0.03980723
49	0x3d7c68d6	0.061623417
50	0x3d63818f	0.05554348
51	0xbd1bbf05	-0.038023967
52	0xbcae9567	-0.021311475
53	0xbcd47b93	-0.025937831
54	0xbc4f2aad	-0.012644452
55	0x3da55643	0.08073094
56	0x3d5ba24c	0.053621575
57	0x3db2c496	0.08728902
58	0x3d21d355	0.039508183
59	0x3a25d35a	0.00063257443
60	0xbdba4699	-0.09095497
61	0xbdaa0aaf	-0.08302819
62	0xbd0bd665	-0.03414001
63	0xbd73f166	-0.059556387
64	0xbc4137ff	-0.011793136
65	0xbbdf172b	-0.0068081818
66	0xbdce472c	-0.10072169
67	0xbbacca24	-0.0052731205
68	0x3c43a48a	0.011941085
69	0x3d2612e9	0.040545378
70	0xbdcf5b86	-0.101248786
71	0xbd3807fc	-0.04492949
72	0xba98747b	-0.0011631394
73	0x3d8cf0db	0.06881877
74	0xbd4b54d9	-0.049641464
75	0x3dc7836c	0.097418636
76	0x3db94678	0.09046644
77	0x3daaef3c	0.083464116
78	0xbd6c6f48	-0.057723314
79	0xbd8109c8	-0.06300694
80	0x3d5bb7ec	0.0536422
81	0xbdb67540	-0.089090824
82	0xbdb24ae7	-0.08705693
83	0xbda98ccc	-0.08278808
84	0xbd94c3ed	-0.072639324
85	0xbd4a17a5	-0.049338955
86	0xbc10c70f	-0.008836522
87	0x3da52697	0.08064001
88	0xbd7c6390	-0.061618388
89	0xbd3f6729	-0.04672924
90	0xbcf63562	-0.030054752
91	0xbd1170f1	-0.0355081
92	0xbdcfe8c3	-0.10151818
93	0x3d8ee2b8	0.06976837
94	0x3d17fec6	0.037108205
95	0x3d36103b	0.044449072
96	0x3d4ec30f	0.05047899
97	0xbd37885f	-0.044807788
98	0xbc5eee7d	-0.013606665
99	0x3d92a12c	0.07159647
100	0xbd25eff3	-0.040512037
101	0x3d8bf251	0.068333276
102	0xbd90e897	-0.07075613
103	0xbd21fc96	-0.039547525
104	0x3d8c6c97	0.06856649
105	0x3c6a4c24	0.01430038
106	0x3b4ecc2f	0.0031554808
107	0x3c1ca3b0	0.0095605105
108	0xbcdb57eb	-0.026775321
109	0xbd8ee3c9	-0.0697704
110	0x3cd97ec1	0.026549699
111	0xbd997a62	-0.07494046
112	0x3d73e0c5	0.05954053
113	0xbc0477de	-0.008085219
114	0x3c8c816b	0.017151555
115	0x3d8c64e4	0.06855181
116	0x3dbcfb1e	0.09227584
117	0x3dd473c8	0.10373646
118	0xb96216ce	-0.00021561535
119	0xbd9b271f	-0.07575821
120	0x3d7ce1dc	0.061738834
121	0x3da19f4e	0.07891713
122	0xbd7483f8	-0.059696168
123	0x3d924182	0.07141401
124	0x3d2b4cac	0.041821167
125	0xbc723f77	-0.014785639
126	0x3cb1072e	0.021609869
127	0x3db7285d	0.089432456
128	0xbdc0b3aa	-0.09409268
129	0x3d3c8723	0.046027314
130	0x3ce96c6f	0.028494088
131	0x3d82b651	0.0638243
132	0x3cf1e86b	0.02952977
133	0xbdaae92b	-0.083452545
134	0x3ced8bd5	0.028997341
135	0x3d88f2ce	0.06686936
136	0xbda89da2	-0.08233191
137	0x3d9a8c06	0.075462386
138	0xbbaaf9fe	-0.0052177897
139	0xbdb42883	-0.087967895
140	0x3d4e1c39	0.050319884
141	0x3d595891	0.05306298
142	0xbc81cb6e	-0.015844073
143	0x3d828262	0.06372525
144	0x3c7e5cda	0.015525067
145	0xbd117382	-0.035510547
146	0x3cfdd1a9	0.030983763
147	0xbc5c205f	-0.013435452
148	0x3d898e90	0.06716645
149	0xbd30f92c	-0.04320638
150	0x3d58aef3	0.05290122
151	0x3cb1c80e	0.021701839
152	0x3d3cfdc0	0.046140432
153	0x3a38fb23	0.0007056465
154	0xbcceb0b7	-0.025230749
155	0x3d959946	0.07304625
156	0x3d6fe32a	0.05856625
157	0xbd59e526	-0.05319705
158	0x3d57f75d	0.05272614
159	0x3d61fc43	0.055172216
160	0x3dbebc97	0.093133144
161	0xbdb2879f	-0.08717274
162	0xbd87a5f9	-0.06623454
163	0xbd1b4dca	-0.037915982
164	0xbdd8be08	-0.105831206
165	0xbd1b6b1e	-0.03794395
166	0xbdabe71e	-0.083936915
167	0x3d98a082	0.074524894
168	0x3d9f2f6d	0.077727176
169	0x3c9ab146	0.018883359
170	0xbdb9104c	-0.090363115
171	0xbd942599	-0.07233734
172	0xbd8480db	-0.0646989
173	0x3c32f5dc	0.010922875
174	0xbdf41d63	-0.119196676
175	0x3d22cf27	0.039748337
176	0xbd8b2c1a	-0.06795521
177	0x3baa43f4	0.005196089
178	0x3d951ff0	0.07281482
179	0x3c9f497c	0.01944422
180	0xbaab186b	-0.0013053542
181	0x3d58150b	0.052754443
182	0x3d8b9689	0.06815822
183	0xbdab6b46	-0.0837007
184	0x3d4e383b	0.050346594
185	0x3d88f55f	0.06687426
186	0xbcb92a88	-0.022603288
187	0xbd681451	-0.05666
188	0xbd9a9712	-0.075483456
189	0xbd58f5c3	-0.05296875
190	0x3dd831ab	0.105563484
191	0x3d74309c	0.05961667
192	0xbdca5f23	-0.09881427
193	0xbd4105b3	-0.047124576
194	0xbd61dd47	-0.055142667
195	0xbdb6275e	-0.088942274
196	0x3d0b4e2e	0.034010105
197	0xbd1c9d48	-0.038235933
198	0xbdb2f516	-0.08738153
199	0x3d176c60	0.03696859
200	0xbd767421	-0.060169343
201	0x3d961d20	0.07329774
202	0xbba67d1e	-0.005080833
203	0x3d0011cd	0.031266976
204	0xbcd3a0fd	-0.025833601
205	0xbd8b0335	-0.06787721
206	0xbd7cd948	-0.061730653
207	0x3db9397f	0.0904417
208	0x3c39d641	0.011342586
209	0xbc66000a	-0.014038095
210	0x3d47f295	0.04881533
211	0x3ce13745	0.027492175
212	0xbcc4c1cf	-0.024018196
213	0xbd9fa37d	-0.07794855
214	0x3d78fd54	0.060788468
215	0x3d002500	0.031285286
216	0x3bdb1ff2	0.006687158
217	0x3d1fb707	0.038992908
218	0x3d952aca	0.07283552
219	0x3d0c1e18	0.034208387
220	0xbd2353e6	-0.039874934
221	0xbdbfbdd6	-0.0936238
222	0x3b59f8f7	0.0033259967
223	0xbc84fe1f	-0.016234456
224	0xbd541ab2	-0.05178327
225	0xbd9fbc20	-0.07799554
226	0xbd46fdd3	-0.04858191
227	0x3d554b59	0.05207381
228	0xbcbf636c	-0.023362838
229	0xbd694fdc	-0.056960925
230	0xbd926565	-0.07148246
231	0xbc873401	-0.01650429
232	0x3dc1144c	0.094276994
233	0x3c254c2c	0.010088962
234	0xbcb2b999	-0.021817015
235	0x3d79aafd	0.060954083
236	0x3dce4dcc	0.10073432
237	0x3db4ee61	0.0883453
238	0x3d1e404e	0.038635544
239	0x3dca1a2f	0.098682754
240	0x3bdadd9e	0.006679251
241	0x3d738032	0.05944843
242	0xbdb58890	-0.08863938
243	0x3c9c0836	0.019046884
244	0xbaea6507	-0.0017882892
245	0xbd3c08bc	-0.045906767
246	0x3d557a42	0.052118547
247	0xbd581423	-0.05275358
248	0x3d9441e5	0.07239131
249	0xbdb746b5	-0.08949033
250	0xbd0a6193	-0.03378446
251	0xbd88c3f2	-0.066779986
252	0x3ce31536	0.027720075
253	0x3cd0dcb2	0.02549586
254	0xbd78af91	-0.06071431
255	0x3d6173a1	0.055041913

rnn.weight_hh_l2 f4 [100, 100]
0	0x3d9376ec	0.07200417
1	0x3d44cc15	0.04804619
2	0xbb1844f5	-0.002323446
3	0xbd504305	-0.050845165
4	0x3b91f914	0.0044547413
5	0xbc1a342d	-0.009411854
6	0xbda0c752	-0.07850517
7	0x3c4bd639	0.012441211
8	0xbdc892df	-0.097936384
9	0xbdb29844	-0.087204486
10	0xbda0ebc1	-0.078574665
11	0xbc8ba58a	-0.017046709
12	0xbd9cf60d	-0.07664118
13	0xbdb6fd8e	-0.089350805
14	0x3d8bc5f0	0.06824863
15	0x3dbc5d92	0.091975346
16	0x3d99f228	0.07516891
17	0xbd47a61e	-0.048742406
18	0xbd1c6f41	-0.038192037
19	0x3d3a26a5	0.04544701
20	0x3b8955ca	0.004191135
21	0xbd2ade0d	-0.04171567
22	0xbca9a9f7	-0.020710928
23	0xbd945cc1	-0.07244254
24	0xbd82bd9e	-0.06383823
25	0xbd4c731f	-0.049914476
26	0x3d0f65e5	0.035009284
27	0x3d8bd855	0.068283714
28	0xbcf0163b	-0.029307475
29	0x3bf19c8e	0.007373399
30	0x3ce54421	0.027986588
31	0xbd870c5f	-0.065941565
32	0xbd4bb087	-0.049728896
33	0x3d94cb2a	0.07265313
34	0x3db09895	0.08622853
35	0xbdb7d5e2	-0.08976342
36	0xbd8cff35	-0.068846144
37	0x3db64af9	0.08901019
38	0xbca30fff	-0.019905088
39	0xbd9da488	-0.076973975
40	0x3d1259ee	0.035730295
41	0xbd9b6b5a	-0.07588835
42	0xbd48bcc9	-0.049008165
43	0xbdb27672	-0.08713998
44	0xbdc72786	-0.09724335
45	0x3d911e10	0.07085812
46	0xbd8631d7	-0.06552475
47	0x3d9a9923	0.0754874
48	0xbaf1ae1d	-0.0018438731
49	0xbd75fa9c	-0.060053453
50	0xbbaaa728	-0.005207915
51	0xbd64635b	-0.055758815
52	0xbc9e3c77	-0.019315941
53	0xbce1ba5e	-0.027554687
54	0xbd97adf8	-0.07406229
55	0xbdc54a14	-0.0963327
56	0x3d07cde7	0.03315535
57	0xbd66d250	-0.056352913
58	0x3dcf3d76	0.101191446
59	0x3d3bc59d	0.045842756
60	0xbd26495f	-0.040597316
61	0xbba7e4dc	-0.0051237177
62	0x3db5fd3a	0.0888619
63	0x3c03f825	0.008054768
64	0x3cf831af	0.030297128
65	0x3d9fba29	0.07799179
66	0xbcf4e05e	-0.029892143
67	0xbc3e1a31	-0.011602924
68	0x3d0db1da	0.03459344
69	0xbdb75402	-0.0895157
70	0xbd9e668a	-0.077344015
71	0xbd9e4cd4	-0.077294976
72	0x3d7bac5d	0.061443675
73	0x3d14e718	0.0363532
74	0x3dba54c9	0.09098203
75	0xbda85c53	-0.082207344
76	0xbc29917b	-0.010349627
77	0x3ca25504	0.01981593
78	0x3d55ba55	0.052179653
79	0xbc30f569	-0.010800698
80	0xbdc2f022	-0.09518458
81	0x3b8596e1	0.004076824
82	0xbd815aac	-0.063161224
83	0x3da5301e	0.08065818
84	0xbd489de5	-0.048978705
85	0x3dbe9171	0.093050845
86	0x3cefca9d	0.029271418
87	0x3c985bf2	0.01859853
88	0xbd3f9c4e	-0.046779923
89	0xbb750c02	-0.003739119
90	0xbd0f2649	-0.03494862
91	0x3d96e420	0.0736773
92	0x3da66c91	0.08126176
93	0x3d2024c9	0.03909758
94	0xbd978f9d	-0.07400439
95	0xbd8d6085	-0.06903175
96	0xbcff0369	-0.031129556
97	0x3d84f4ba	0.064919904
98	0x3ca9da68	0.020734027
99	0xbc4417c3	-0.011968556
100	0x3d27252d	0.040806938
101	0x3ca6c5c0	0.020357966
102	0xbd94d585	-0.07267288
103	0x3d49e816	0.0492936
104	0x3d781696	0.060568415
105	0xbd517fd1	-0.051147286
106	0xbb3f8d6c	-0.002922858
107	0xbda616e0	-0.08109832
108	0x3d047d2b	0.032345932
109	0xbd40c5f1	-0.04706377
110	0x3d565e2a	0.052335896
111	0x3dd20e95	0.102566876
112	0x3cc43a49	0.023953574
113	0xbc1a04cc	-0.009400558
114	0x3cdd2eb6	0.026999813
115	0xbd9b95d9	-0.075969405
116	0xbd2f1987	-0.042748954
117	0x3cec47f8	0.028842911
118	0x3d844e38	0.064602315
119	0xbcdd5e36	-0.027022462
120	0xbd762acf	-0.06009942
121	0x3d4efeac	0.050535843
122	0x3d76a14d	0.060212422
123	0xbd86bc43	-0.06578877
124	0x3a0db2b0	0.00054053497
125	0xba69373e	-0.00088964764
126	0xbd85e8d3	-0.06538548
127	0x3b6ee2cb	0.0036451097
128	0x3dc0e07a	0.094178155
129	0x3be68813	0.0070352643
130	0x3d89e4ef	0.06733119
131	0x3b917282	0.004438699
132	0x3d71aed9	0.05900464
133	0xbcca6afe	-0.024709221
134	0xbbc92a84	-0.0061391015
135	0x3daf2f4b	0.08553942
136	0xbce71b81	-0.028211357
137	0x3cf6d965	0.030132959
138	0xbde39a82	-0.111134544
139	0x3be6143f	0.0070214565
140	0xbcfd5c10	-0.030927688
141	0x3d1127e9	0.035438452
142	0x3d8e0b81	0.06935788
143	0x3bb92488	0.005650107
144	0xbd73e3d0	-0.05954343
145	0xbd184208	-0.037172347
146	0x3d9cfc72	0.076653376
147	0xbcbbb8e4	-0.022915311
148	0x3c070bc7	0.008242554
149	0x3dfaa1e9	0.12237913
150	0x3da1519b	0.07876893
151	0xbc9574bc	-0.01824414
152	0x3d27eb37	0.040995803
153	0x3daa5592	0.083171025
154	0x3da4de21	0.0805018
155	0x3ddab6a4	0.10679367
156	0x3d6c5e46	0.057707094
157	0x3dcd4da0	0.100245714
158	0x3d9522c8	0.072820246
159	0x3cf2149a	0.02955084
160	0xbd557622	-0.052114613
161	0xbdbfea09	-0.093708105
162	0x3dc36ea2	0.09542586
163	0x3d82da4c	0.06389293
164	0x3d51956a	0.051167883
165	0x3dcf9714	0.10136238
166	0xbdc6613b	-0.09686514
167	0x3c2b60ec	0.01046012
168	0xbd30cff4	-0.04316707
169	0xbd224096	-0.039612375
170	0xbc333ef6	-0.010940304
171	0x3cc5650e	0.024096038
172	0xbd5b030d	-0.053469706
173	0xbd917d45	-0.071039714
174	0xbd8c5ee7	-0.06854039
175	0x3db4b750	0.088240266
176	0x3c2c46c3	0.010514918
177	0xbd26b5a8	-0.040700585
178	0xbbb67e8b	-0.0055692843
179	0x3d547b88	0.05187562
180	0xbd973018	-0.0738222
181	0xbdc1c809	-0.09461982
182	0x3d47b367	0.048755076
183	0xbd63a413	-0.055576395
184	0x3db347da	0.08753939
185	0x3daf218c	0.085513204
186	0xbccc7c07	-0.024961485
187	0x3d6d49d0	0.05793172
188	0x3d8d2d6e	0.06893431
189	0x3ca7975e	0.02045792
190	0xbd78e0d4	-0.060761288
191	0xbc97e763	-0.018542951
192	0xbdb6df50	-0.08929312
193	0x3cda6a40	0.026661992
194	0xbdb7543f	-0.089516155
195	0xbd5b1616	-0.05348786
196	0xbc172291	-0.00922455
197	0x3dcef0bc	0.1010451
198	0xbcfb8391	-0.030702384
199	0x3dbeb731	0.09312285
200	0xbda52740	-0.08064127
201	0x3d3fcdfd	0.046827305
202	0x3db8e71a	0.09028454
203	0x3dcfd3e0	0.10147834
204	0x3dc55b4f	0.09636556
205	0xbb25f3e9	-0.0025322384
206	0xbe0885ca	-0.13332286
207	0x3c8ad82e	0.016948786
208	0xbcfbaf4b	-0.030723235
209	0xbd858935	-0.06520311
210	0xbcddda9d	-0.027081782
211	0x3d212ee0	0.039351344
212	0xbd9f29d2	-0.077716485
213	0xbdc8fc82	-0.09813787
214	0x3d84f895	0.06492726
215	0xbd9874bd	-0.07444141
216	0xbc21e135	-0.009880354
217	0xbc9bdc51	-0.019025953
218	0x3c9551bf	0.018227456
219	0xbcdef5f0	-0.027216882
220	0xbdbe446e	-0.09290396
221	0x3dbf0019	0.093261905
222	0xbd8b015d	-0.067873694
223	0xbd74af78	-0.059737653
224	0xbda005cc	-0.07813606
225	0xbb88e952	-0.0041782046
226	0x3d97b571	0.07407654
227	0x3cad7068	0.021171764
228	0xbd93af5c	-0.072111815
229	0x3c9133c7	0.017724885
230	0x3d96a257	0.073551826
231	0xbcbf73e1	-0.023370685
232	0x3d752457	0.05984911
233	0x3db9b0e1	0.0906694
234	0x3c878b8d	0.016546035
235	0xbd483c8a	-0.04888586
236	0x3c729643	0.014806333
237	0xbbc19aab	-0.0059083304
238	0x3cb7b88a	0.022426862
239	0x3dad1724	0.08451679
240	0xbdd025c5	-0.10163454
241	0x3da35963	0.079760335
242	0xbdc63842	-0.09678699
243	0x3da8c016	0.082397625
244	0x3d82de7d	0.063900925
245	0xbcbfee68	-0.02342911
246	0xbdab280a	-0.08357246
247	0xbd7822e3	-0.060580146
248	0xbd6e2fec	-0.05815117
249	0x3d7dffc8	0.06201151
250	0xbcc9e420	-0.024644911
251	0xbc68d4d1	-0.014210896
252	0xbda2cae7	-0.07948857
253	0xbd762880	-0.060097218
254	0xbd6bd027	-0.057571556
255	0xbdcae5b9	-0.09907097

rnn.bias_ih_l2 f4 [100]
0	0x3c10e2c6	0.0088431295
1	0xbcdaeb58	-0.026723549
2	0x3b9e5b81	0.0048326855
3	0x3c7c94b2	0.015416311
4	0x3d39b4da	0.04533849
5	0x3d736dbe	0.05943083
6	0xbd628b6e	-0.05530875
7	0xbd4747aa	-0.04865233
8	0xbcb2e4aa	-0.021837551
9	0x3c786de4	0.015162919
10	0x3d48486d	0.048897196
11	0xbcbf4ca7	-0.02335198
12	0x3d619286	0.055071376
13	0x3d137ed4	0.036009625
14	0xbd9700fc	-0.07373235
15	0xbda4367b	-0.08018204
16	0x3dc1fd97	0.094721965
17	0xbd649303	-0.055804264
18	0x3dbfe221	0.093693025
19	0xbda156df	-0.078778975
20	0x3db4c146	0.088259265
21	0x3d8dc4a4	0.06922272
22	0xbca2e70a	-0.019885559
23	0x3b1bbb32	0.00237627
24	0xbd9d17c1	-0.07670546
25	0x3d5e09c1	0.05420852
26	0xbd9534e6	-0.0728548
27	0xbc7ac8da	-0.015306676
28	0xbcb8f0df	-0.022575794
29	0xbbe95900	-0.0071212053
30	0x3db74d29	0.08950264
31	0xbd38926a	-0.045061506
32	0xbda0ec55	-0.07857577
33	0xbbd4b0e8	-0.0064908154
34	0x3d992228	0.07477218
35	0x3de39d65	0.11114005
36	0x3dbfcd42	0.09365322
37	0xbc81bdf5	-0.015837649
38	0x3dc7f757	0.09763973
39	0xbd960546	-0.073252246
40	0xbce41d52	-0.027846012
41	0x3d220139	0.039551947
42	0xbd837c70	-0.06420219
43	0x3d91cea5	0.071194924
44	0x3ca6b9c1	0.020352246
45	0x3cb206ec	0.021731816
46	0x3c3ce24f	0.011528566
47	0xbc98edcb	-0.018668076
48	0x3da58089	0.08081157
49	0xbd3393b6	-0.04384204
50	0x3d7200f2	0.059082933
51	0x3dbea6d1	0.093091615
52	0x3d724101	0.059144024
53	0xbd37b787	-0.04485276
54	0x3cd4f308	0.025994793
55	0x3cbc84b7	0.023012502
56	0x3d714209	0.058900867
57	0xbb5403db	-0.003235093
58	0xbda70110	-0.081544995
59	0xbdc98521	-0.098398454
60	0x3d88020f	0.06641018
61	0xbaa98dac	-0.0012935898
62	0xbdaa4d7b	-0.083155595
63	0xbc1e59fe	-0.0096650105
64	0x3d00425b	0.03131328
65	0xbca51299	-0.02015047
66	0xbd246d9f	-0.040143605
67	0xbca060c8	-0.019577399
68	0x3d97bf24	0.07409504
69	0xbd3e0cf4	-0.04639907
70	0xbd9e694d	-0.07734928
71	0xbd8f10c3	-0.06985619
72	0x3ca164c6	0.019701373
73	0xbc0f89e6	-0.008760905
74	0xbd8b71b1	-0.06808794
75	0xbdad95be	-0.08475827
76	0xbb98147c	-0.004641114
77	0xbd1b1173	-0.037858438
78	0xbdf122c9	-0.11774213
79	0x3d3beded	0.0458812
80	0xbd546474	-0.051853612
81	0x3db047c2	0.08607437
82	0xbc7675b4	-0.015042711
83	0x3d9849b0	0.0743593
84	0xbc4a5a99	-0.012350702
85	0xbd6eacd2	-0.058270283
86	0xbdb459f9	-0.088062234
87	0xbd605c51	-0.05477554
88	0x3d13ba6f	0.03606647
89	0x3cb164f8	0.021654591
90	0xbc8d2dec	-0.017233811
91	0xbdc08d11	-0.09401906
92	0x3d9089ba	0.07057519
93	0xbc23b82a	-0.009992639
94	0xbd23ebe9	-0.040019903
95	0xbc919aeb	-0.017774066
96	0x3d8a8821	0.06764246
97	0x3dac9ec4	0.0842872
98	0xbcefab18	-0.029256389
99	0xbd562162	-0.05227793
