Time-Series---Forecasting/Results/periodic/model6.pth (torch, 12813 bytes, 5 tensors)

rnn.weight_ih_l0 f4 [50, 1]
0	0xbdd943c4	-0.106086284
1	0xbdc10838	-0.09425396
2	0xbd8195db	-0.06327411
3	0xbe26c1e3	-0.162849
4	0xbe6ee977	-0.23331247
5	0xbe0f50e1	-0.13995697
6	0xbd700903	-0.058602344
7	0x3dd64f8f	0.10464393
8	0x3e010886	0.12600908
9	0xbde02e09	-0.109462805
10	0xbcd4c35a	-0.025972057
11	0x3e394cd9	0.18095721
12	0xbdc7d2c9	-0.09757001
13	0x3c9f32f8	0.019433483
14	0xbdfe3d92	-0.12414087
15	0xbd462550	-0.048375428
16	0x3de121b2	0.10992755
17	0x3d4fd2a9	0.05073801
18	0x3ca12cd3	0.019674694
19	0x3dcbef16	0.099577114
20	0x3cca8f55	0.02472655
21	0x3dcbd35f	0.09952425
22	0x3d305298	0.043047518
23	0xbdc1a0db	-0.09454509
24	0x3daa768a	0.08323391
25	0x3b7a99a0	0.003823854
26	0x3e21a9dc	0.15787452
27	0x3cc311e9	0.023812251
28	0xbd1bf82b	-0.03807847
29	0xbd9b82c6	-0.075933024
30	0xbd82f296	-0.06393926
31	0xbc90675b	-0.017627409
32	0x3dcad670	0.09904182
33	0xbd503a7e	-0.050837032
34	0x3e0f7955	0.14011128
35	0xbe16ddc3	-0.14733033
36	0xbd97fa4c	-0.07420787
37	0x3d7d4a73	0.06183858
38	0xbdfe277d	-0.124098755
39	0xbd77acdb	-0.060467582
40	0xbde40673	-0.111340426
41	0xbd06e057	-0.03292879
42	0x3bb1a492	0.0054212296
43	0xbd733095	-0.059372503
44	0xbcf91db7	-0.030409677
45	0x3dd40671	0.10352791
46	0x3def132c	0.116735786
47	0x3d914319	0.07092876
48	0x3d830782	0.063979164
49	0x3d174b50	0.036937058

rnn.weight_hh_l0 f4 [50, 50]
0	0xbd7ccca9	-0.061718617
1	0x3d82d296	0.06387822
2	0xbde3ed43	-0.111292385
3	0x3d0a248b	0.033726256
4	0xbc25e0a0	-0.010124356
5	0x3c4f0242	0.012634816
6	0xbe087622	-0.13326314
7	0xbe1958ef	-0.14975332
8	0xbcc9fe8d	-0.024657512
9	0xbd97de95	-0.07415501
10	0x3e159255	0.14606602
11	0xbdc4f0ee	-0.09616266
12	0x3cb2891b	0.021793893
13	0xbdf79f0b	-0.12090882
14	0x3d228eab	0.03968684
15	0xbbf8849d	-0.007584168
16	0xbdb9f178	-0.0907926
17	0x3e0e6c7d	0.13908572
18	0x3cef65b6	0.029223304
19	0xbd775bbb	-0.060390215
20	0xbe0dec67	-0.13859712
21	0xbd069c11	-0.03286368
22	0xbc2909a5	-0.010317241
23	0xbd3debd3	-0.046367478
24	0xbd821f06	-0.063535735
25	0xbc682bea	-0.014170626
26	0x3db2252b	0.086984955
27	0x3e10e0d6	0.14148268
28	0x3d642538	0.055699557
29	0xbd2e5e56	-0.042570435
30	0xbc140d73	-0.00903641
31	0x3de8b456	0.11362521
32	0xbd236e49	-0.039900098
33	0x3dc30505	0.09522442
34	0xbcd48a37	-0.025944812
35	0xbe048cf2	-0.12944391
36	0xbdc2a21f	-0.095035784
37	0x3dc96973	0.09834566
38	0xbc8fb8d2	-0.017544184
39	0xbd6fdd37	-0.058560576
40	0x3dabd0b9	0.0838942
41	0x3e21f2f1	0.15815331
42	0xbcbe3e5e	-0.023223098
43	0xbdbebe99	-0.09313697
44	0x3af25cc8	0.0018490786
45	0xbb51766f	-0.003196146
46	0xbe0da57b	-0.13832657
47	0x3dcdc5d4	0.10047498
48	0x3cfde098	0.030990884
49	0xbd420bb7	-0.047374453
50	0xbd41f407	-0.047351863
51	0xbdd8e5bc	-0.10590693
52	0x3d3ba051	0.045807187
53	0x3e09bcbc	0.13450903
54	0x3c8c0965	0.017094323
55	0xbb72f782	-0.0037073796
56	0xbdb99179	-0.0906095
57	0x3d2e5dd2	0.042569943
58	0xbdbde923	-0.09272983
59	0xbdb5cda6	-0.08877115
60	0x3dcf2bf8	0.10115808
61	0xbbc2d730	-0.0059460625
62	0x3d4720dd	0.048615325
63	0xbdc62cec	-0.09676537
64	0x3e124fde	0.1428828
65	0xbdb72ae0	-0.08943725
66	0xbddba61e	-0.10725044
67	0xbda03ad0	-0.078237176
68	0x3dbbcae4	0.09169558
69	0xbddeee0d	-0.10885248
70	0xbdd6a9a6	-0.104815766
71	0xbda6d6a4	-0.08146408
72	0x3dee7d2e	0.1164497
73	0x3ddb5c23	0.10710933
74	0x3d6a2776	0.05716654
75	0x3ca07e84	0.019591577
76	0x3c850b7c	0.016240828
77	0x3b56f8bf	0.0032802073
78	0xbdea26a6	-0.11433153
79	0x3a9577bc	0.0011403481
80	0xbda5f626	-0.0810359
81	0xbe054848	-0.13015854
82	0xbdceca86	-0.10097222
83	0x3d074bf3	0.033031415
84	0xbd1d7e19	-0.038450334
85	0x3e11959a	0.14217225
86	0x3dc26a53	0.09492936
87	0xbd8805a0	-0.06641698
88	0xbcc6bc0f	-0.024259595
89	0x3d275208	0.040849715
90	0x3de43cb3	0.1114439
91	0x3cf6f34a	0.030145306
92	0x3e03a6c4	0.12856585
93	0x3cf1467e	0.029452559
94	0x3e14c739	0.14529122
95	0xbd393b5c	-0.045222625
96	0x3c2841c9	0.010269591
97	0x3da13db5	0.07873098
98	0xbdcb7dc8	-0.099361
99	0x3dd224f3	0.10260954
100	0xbd3f60f5	-0.046723325
101	0x3de0b3a9	0.109717675
102	0x3dbff487	0.09372812
103	0x3ca44f36	0.020057302
104	0xbcbcf9be	-0.023068305
105	0xbdc120ae	-0.09430061
106	0x3cf0e386	0.029405367
107	0x3b42b1f0	0.002970811
108	0x3e17e19d	0.14832158
109	0xbdad1cf0	-0.08452785
110	0xbe2d48f6	-0.16922364
111	0x3e1b36c4	0.1515761
112	0xbda222a5	-0.07916764
113	0x3e045e4e	0.129266
114	0xbe1bcee6	-0.15215644
115	0x3cccc289	0.024995105
116	0xbe1d5fdf	-0.15368603
117	0x3db39f8c	0.087706655
118	0xbdae86d4	-0.0852181
119	0x3e18d42e	0.1492469
120	0xbcccb6f6	-0.024989586
121	0xbda418c0	-0.08012533
122	0x3e0bd65a	0.13655987
123	0x3d16c698	0.036810488
124	0x3d258c58	0.040417045
125	0x3d57175f	0.052512523
126	0x3df2a9f4	0.11848822
127	0x3d425699	0.047445867
128	0x3d75925e	0.05995404
129	0x3dbbf255	0.091770805
130	0x3e1ae749	0.15127291
131	0xbdc9781d	-0.09837363
132	0xbde136bf	-0.1099677
133	0xbc2eae7c	-0.0106617175
134	0xbd858ac1	-0.06520606
135	0x3d518ff7	0.051162686
136	0x3d05727d	0.032579888
137	0xbe3aba8d	-0.18235226
138	0xbe29ec26	-0.1659399
139	0xbd7ec268	-0.06219712
140	0xbdb440d2	-0.08801426
141	0x3c0b39dc	0.0084976815
142	0xbe29d01a	-0.1658329
143	0x3c3a5092	0.0113717485
144	0x3d75b291	0.059984747
145	0xbcbc90f1	-0.023018332
146	0xbe1166ff	-0.14199446
147	0xbdd0b4c8	-0.10190731
148	0x3df55d02	0.119806305
149	0x3c86396b	0.0163848
150	0xbdad8e24	-0.08474377
151	0xbd9392f5	-0.07205764
152	0xbe12fc25	-0.14353998
153	0x3ddbc49e	0.10730861
154	0xbc1429db	-0.009043182
155	0xbdaa2f33	-0.08309784
156	0x3e0076b9	0.12545289
157	0xbe13fa23	-0.14450888
158	0xbd6551d5	-0.055986244
159	0xbd29d113	-0.041459154
160	0x3de73c7b	0.112908326
161	0x3cfdb8ef	0.030971972
162	0xbd2e6134	-0.04257317
163	0x3c05de92	0.008170741
164	0x3da2fb71	0.07958115
165	0x3d7b9b12	0.061427183
166	0xbd876d2b	-0.06612619
167	0xbdc0b3ef	-0.094093196
168	0x3d900966	0.070330426
169	0xbd567acb	-0.0523632
170	0xbd971305	-0.073766746
171	0xbdc41180	-0.0957365
172	0x3da90e8f	0.0825473
173	0x3e064fb3	0.1311634
174	0xbc488f7d	-0.0122412415
175	0xbd8d00c0	-0.06884909
176	0xbe0869cb	-0.13321607
177	0x3e0b5150	0.13605237
178	0x3dd7cd60	0.10537219
179	0xbdfb781c	-0.122787684
180	0x3bba0597	0.005676936
181	0x3ded4216	0.115848705
182	0xbd940786	-0.072279975
183	0xbd7d86e7	-0.06189623
184	0x3d118de2	0.0355357
185	0x3d2998eb	0.0414056
186	0x3c799873	0.015234101
187	0xbdfa51c2	-0.12222625
188	0xbb8acf22	-0.004236118
189	0x3d747ef9	0.059691403
190	0x3d451779	0.04811809
191	0x3e059cc3	0.13048081
192	0x3e1a3287	0.15058337
193	0xb984b9a9	-0.0002531533
194	0x3cbe55cd	0.023234272
195	0xbcfe4041	-0.031036498
196	0xbda02ecb	-0.07821425
197	0xbddb4803	-0.107070945
198	0xbe1f93b9	-0.15583695
199	0xbe2d95cc	-0.16951674
200	0xbc66e7b0	-0.014093325
201	0x3e12b7a8	0.14327872
202	0xbe392049	-0.18078722
203	0x3e3e392d	0.18576498
204	0x3e1e9f7c	0.15490526
205	0x3c8e6441	0.01738179
206	0xbdc1e72d	-0.094679214
207	0xbd0e861d	-0.03479587
208	0x3dab9f94	0.083800465
209	0x3e44ef4c	0.1923191
210	0xbb4ee6d4	-0.003157069
211	0xbd1862a1	-0.037203435
212	0x3d04c7f2	0.032417245
213	0x3c3a0bf2	0.011355387
214	0x3c3c9f93	0.011512655
215	0xbe223619	-0.15840949
216	0xbe0b3666	-0.1359497
217	0x3dce385a	0.10069342
218	0x3e8df2be	0.2772426
219	0x3d0e8fa8	0.03480497
220	0xbcbd29c7	-0.02309121
221	0xbe42b76d	-0.19015284
222	0xbd4f32f3	-0.0505857
223	0x3e6811ab	0.2266299
224	0xbe0eab91	-0.13932635
225	0x3ce54917	0.027988954
226	0x3d908150	0.070559144
227	0x3e10692d	0.14102621
228	0x3dc0a719	0.09406871
229	0xbdcf16c2	-0.101117626
230	0x3cff14ff	0.031137941
231	0x3ea7aa31	0.32747033
232	0xbb8f5c7d	-0.004375039
233	0xbda04134	-0.078249365
234	0x3bed2a25	0.00723769
235	0x3dcbc64e	0.09949933
236	0x3defc125	0.11706761
237	0x3d1bae15	0.038007814
238	0xbd290188	-0.041261226
239	0xbe399c68	-0.1812607
240	0x3dbea101	0.09308053
241	0x3e399cb5	0.18126185
242	0x3d8a2c3b	0.067467175
243	0xbcae69c3	-0.021290665
244	0x3db470af	0.08810555
245	0xbd42c6e0	-0.047552943
246	0xbd095d4c	-0.03353624
247	0xbd8e799a	-0.069567874
248	0xbe1bfa41	-0.15232183
249	0xbdac7a7d	-0.084218
250	0x3e1e1449	0.15437426
251	0x3e0a3af5	0.13499053
252	0xbda995d3	-0.0828053
253	0xbdceb1e5	-0.100925244
254	0xbdff475a	-0.12464781
255	0xbdb111ed	-0.08645997

rnn.bias_ih_l0 f4 [50]
0	0xbdac0a90	-0.08400452
1	0x3c74d10a	0.014942417
2	0x3cb6ea8e	0.022328641
3	0x3de53aaf	0.11192834
4	0xbd88b0fc	-0.06674382
5	0xbbf70c50	-0.0075393096
6	0x3e1fae63	0.15593867
7	0x3c13039b	0.008973028
8	0xbd958a2a	-0.07301743
9	0x3dac8f68	0.0842579
10	0x3e139037	0.14410482
11	0xbd0cdc30	-0.034389675
12	0x3dd438a9	0.103623696
13	0xbd7ad205	-0.061235446
14	0x3db98f38	0.0906052
15	0x3e07d088	0.13263142
16	0x3ddec95e	0.108782515
17	0xbc859d1e	-0.01631027
18	0x3e0af431	0.13569714
19	0x3cc9cf68	0.024635032
20	0xbd376345	-0.044772405
21	0x3da8e663	0.08247068
22	0xbc8b6d9b	-0.017020037
23	0x3bf1df4a	0.0073813545
24	0xbde11015	-0.109893955
25	0xbdbd88dd	-0.0925462
26	0xbd4827da	-0.04886613
27	0xbb558bd4	-0.0032584565
28	0xbde20d44	-0.110376865
29	0xbd12cfb2	-0.035842605
30	0xbd0c73f1	-0.034290258
31	0x3d288133	0.04113884
32	0x3dfbc944	0.12294248
33	0x3da52a14	0.080646664
34	0x3d66fcb8	0.056393355
35	0xbe0bcf4e	-0.13653299
36	0x3e702a0d	0.23453541
37	0xbd3c68b4	-0.04599829
38	0x3d67e549	0.056615148
39	0xbd511a7d	-0.05105065
40	0x3b534100	0.0032234788
41	0x3dbd8002	0.09252931
42	0xbdfc5995	-0.12321774
43	0x3bc02ca3	0.005864696
44	0x3e2df153	0.16986589
45	0xbdf90050	-0.12158263
46	0x3e3a7989	0.18210424
47	0x3e252fdd	0.1613154
48	0x3e06d449	0.13166918
49	0x3e31dedc	0.1737017

rnn.bias_hh_l0 f4 [50]
0	0x3dbd0a17	0.0923044
1	0x3e1e642d	0.15467902
2	0xbe313071	-0.17303635
3	0xbc9b57a8	-0.018962696
4	0x3d3384df	0.043827888
5	0x3a80ae28	0.0009817528
6	0xbd03c607	-0.032171275
7	0x3e071ce6	0.13194618
8	0xbce33022	-0.027732912
9	0x3d87a63f	0.06623506
10	0x3d49c006	0.049255393
11	0xbe6798f8	-0.22616947
12	0x3e11e5eb	0.14247863
13	0xbd1777ef	-0.036979612
14	0xbc8064ad	-0.015673006
15	0x3bef5d80	0.0073048472
16	0x3d9dca5f	0.07704615
17	0xbe7bca73	-0.24588947
18	0x3af3db5e	0.0018604805
19	0xbb27d385	-0.0025608253
20	0xbdeb5436	-0.11490671
21	0xba9f5bb4	-0.0012158067
22	0x3d1a476b	0.037665766
23	0xbe0af423	-0.13569693
24	0x3dfd6c66	0.12374191
25	0xbe192117	-0.14954029
26	0x3db28268	0.08716279
27	0xbd8b2145	-0.06793455
28	0xbdd56d1a	-0.104212
29	0xbc2ae705	-0.010431056
30	0x3cea6e4a	0.028617043
31	0x3d549a9a	0.051905252
32	0x3df26052	0.11834778
33	0x3d9e5dc6	0.077327296
34	0xbd5132b1	-0.051073734
35	0xbd6de5a9	-0.05808035
36	0x3e413119	0.18866386
37	0x3e006599	0.12538756
38	0x3e1449f5	0.14481337
39	0x3b9d45e3	0.004799591
40	0x3c0d7e1a	0.008636022
41	0x3cbd87ca	0.023136038
42	0x3ce1ef01	0.027579786
43	0x3ce47bc5	0.02789105
44	0x3db7db4c	0.089773744
45	0x3e1dd4bd	0.15413184
46	0xbc4f49e4	-0.012651894
47	0x3d8cb5bd	0.06870601
48	0xbc4e57d4	-0.012594182
49	0x3dbcaa9f	0.09212231

linear.weight f4 [1, 50]
0	0x3dd60dfd	0.10451887
1	0xbe2f3e84	-0.17113692
2	0x3ddfc93f	0.109270565
3	0xbe0c7416	-0.13716158
4	0xbc4097db	-0.011754955
5	0xbde0a0ae	-0.10968147
6	0xbda310c4	-0.07962182
7	0x3e04adc7	0.12956916
8	0x3d504770	0.050849378
9	0xbe28d0eb	-0.16485946
10	0xbe07f5a7	-0.13277303
11	0x3dd33d41	0.10314418
12	0xbe0fab32	-0.1403015
13	0xbd9bcccc	-0.07607421
14	0xbc2a78e9	-0.010404804
15	0x3d0accf8	0.03388688
16	0xbc65d05b	-0.014026727
17	0x3e00c37a	0.12574568
18	0xbd216320	-0.039401174
19	0x3e03fff3	0.12890606
20	0x3d8e38f5	0.069444574
21	0xbbe15eb2	-0.0068777436
22	0x3e1420a1	0.14465572
23	0x3da63785	0.08116058
24	0x3d18ef2e	0.037337475
25	0x3c76071a	0.015016342
26	0xbd05bd39	-0.03265116
27	0xbd66c62f	-0.056341346
28	0xbc484ec6	-0.012225812
29	0x3b8ba5ef	0.004261724
30	0x3e00325a	0.12519208
31	0xbd3b79bc	-0.04577039
32	0x3c21e642	0.009881558
33	0x3e2552ea	0.1614491
34	0x3d9f9f3b	0.07794043
35	0xbd7c692d	-0.06162374
36	0xbd77c94f	-0.060494717
37	0xbdf1714f	-0.1178919
38	0x3d28a0be	0.04116892
39	0xbdbd507a	-0.09243865
40	0xbda93028	-0.08261138
41	0x3d22fbb3	0.03979082
42	0x3c4dab1e	0.012553005
43	0x3db252f0	0.08707225
44	0xbdbc2a2c	-0.09187731
45	0xbdb6445a	-0.08899756
46	0xbdb1d90e	-0.08683978
47	0xbd2822d1	-0.04104883
48	0xbd6ec5db	-0.05829416
49	0xbd87b094	-0.066254765
