Time-Series---Forecasting/Results/periodic/model17.pth (torch, 4109 bytes, 5 tensors)

lstm.weight_ih_l0 f4 [40, 1]
00000000: 956d 39be 070d e0bd b5e5 2abd 1d81 493e
00000010: 624d adbd 7729 a3bc 5b43 3abe b168 1e3c
00000020: 6f7d 153d f3d3 9f3c 186c a8be eeb2 8fbe
00000030: e026 0c3e fa86 cc3e cbc9 013f 3df7 2f3e
00000040: 76b5 b8be 0ddf d6be 2198 1bbe e39b e83e
00000050: e33b 1fbe e09c 1b3e 8ff5 033e 278a 60be
00000060: 339a 14be 7448 053e c48c 833e 0bed bbbe
00000070: 55a1 5e3e 4236 a1be e3b1 23be 2ff2 f1be
00000080: aabe 823e 46db 9abd 1827 ba3e 875f 18be
00000090: c506 d2be af32 06bf 38f3 dbbe 2685 493e
-0.18108208 -0.10939985 -0.041722972 0.19678159 -0.08462025 -0.019917233 -0.18189757 0.009668515
0.036496576 0.019510245 -0.3289497 -0.280662 0.13686705 0.3994673 0.50698537 0.17184158
-0.36075944 -0.4196705 -0.15194751 0.45431432 -0.15550189 0.15196562 0.12886642 -0.21927701
-0.14511947 0.1301592 0.25693333 -0.36704287 0.21741231 -0.31486708 -0.15985827 -0.47255084
0.2553609 -0.07561354 0.3635795 -0.14880191 -0.4102079 -0.5242109 -0.42959 0.19679698

lstm.weight_hh_l0 f4 [40, 10]
00000000: 288b bebe 06d9 98be 5001 7b3e eb15 71bc
00000010: 1d7b ba3e b43f 87be d362 adbd f7ff bc3e
00000020: 487e d3be 02f3 28bd 519d 99be 09b0 54be
00000030: d47c 79be f495 6c3e 5e92 58be 45d2 9fbe
00000040: 3b16 e4be 4f97 933e 1682 0d3c 6b1c d63d
00000050: 2721 52be 0a52 20be c9b7 1bbe 9e66 76bd
00000060: 4c25 a7be 36fe 0abe 5ee7 c43e c86e a1be
00000070: 4c70 4b3e 3876 29bd 8d3a 883e fb16 96bd
00000080: f1f6 1d3e 96ae 813e 796d 31bd 19ce dabd
00000090: 930b a13e 75ad e5be bea4 583e 4f41 3ebe
000000a0: bd95 5e3d 393c fcbd d342 41be 6e1b eb3e
000000b0: eb37 c2be f36f 453e 1003 08be 4f57 193e
000000c0: 9526 a6be 7581 b6be dab8 333e 99cb b83e
000000d0: 7e0e f63d 1993 213e 9246 83be bf45 eebe
000000e0: 9d53 7d3d 8095 79be ad7f ae3e 2892 9ebe
000000f0: 2ac4 97be a85a c73b 6016 f23b 4f3e d43e
00000100: 2a12 6b3d c686 37bd f7e1 9fbd 2de6 38be
00000110: 885e 9a3d f58f ddbd b791 4b3e 6b12 babe
00000120: 5b46 9cbe 37ae 653c 422e 0dbf 5fa5 c0be
00000130: b4d3 d93d e339 9bbd a4a2 8b3e 45ae 433e
00000140: a84b 26be 9f37 d2be c0df abbe 4620 0ebe
00000150: 90ee 91be d8a4 fdbe 3913 b3be 6722 b63e
00000160: 9a47 a3be 56d2 1e3c ffb2 ddbe 7891 7bbc
00000170: 0437 26be 3f9c 4f3e 15b6 b1be ebe1 72be
00000180: 1027 6a3e 8f5c d23d db0e c43d b0ce ccbe
00000190: 1586 a0be d8a3 4dbe 4ca7 ecbd 30b7 d83c
000001a0: c010 813e 3e74 423e 8d20 2ebe 91ca b03c
000001b0: 79e7 cbbe cfd4 f93e 6f98 ca3d b375 85be
000001c0: adbb 953c efae dabd 941e d1bd fa2b 20bc
000001d0: 9539 97be 2390 163e 73b8 65bb 86b9 d63d
000001e0: 5e4a b8be 378d e03e c3c8 b6be 972f c53e
000001f0: 20c4 2bbe 770b 3ebe a4e2 983e 8f22 81bd
00000200: 0910 d83e 5c94 f2bd e2c0 43be 2088 06be
00000210: b7bc 5bbe 0fcc c7bd 9b06 74be b8d5 103b
00000220: 3a86 833e 2ec2 aabe 146e f23d 692d e3be
00000230: d94a bbb9 1090 f4be 1cc2 d8be 281f ae3e
00000240: fca1 e1bd 93dc 94be 5010 b6be 9662 8d3e
00000250: 203d 7cbe 7d0b f4be 339e c93d 4095 8d3e
00000260: c8ba a03d 9117 f93e 9866 663c 4b33 cfbe
00000270: 3376 983e 8c10 0abe f11f 613d befe 31be
00000280: 4389 45be af56 6ebd 988c f7be 719f 993e
00000290: 8f72 dabc 6964 e2be bd42 0fbe 742a 983e
000002a0: 479e ec3c 7fa3 ddbe ee7e ccbd b165 54be
000002b0: 07a2 6cbe 8270 cbbd ac7b bfbe 64ee 2cbf
000002c0: af38 89bd 0b06 ceba f870 45bd 641a a53d
000002d0: bd40 43be 5ab3 64be 4ed8 15bd 2a06 503e
000002e0: e16f 1ebe 7502 a7be 43f9 92be e593 873e
000002f0: 6a97 c7be 1dee b7bd e540 85be ecad 983d
00000300: 5d6a 14be 796d 0e3e e7d0 f9be 9250 ca3b
00000310: adfd 6a3e 8bc5 3abd d447 d43d cbec 023d
00000320: 0dda 92bd bba0 873b e092 d83a f6ee 9b3e
00000330: 4d2b 45bd d2e1 7e3e 7ce6 863e 7b27 aabe
00000340: e5e8 013f 1894 95be 9e75 9b3e 763d 2cbe
00000350: 8baf 323e 2e9b 873e 2cbf 45be bc9c 5ebe
00000360: 28d8 923d 28e4 50bd 859e 423e e188 f7bd
00000370: ac12 b53d 6050 57be 482d 4b3e 528d 193e
00000380: 7ea9 5bbb e45a 03be c013 f2be 9a97 39bd
00000390: e748 a03d 8c26 513e 37bc 74be f3eb 43be
000003a0: 288a 8bbe f28f 1a3d d93b b9bd b0a2 d63d
000003b0: 1462 e43d 5594 383e 15a7 303c 0233 b6be
000003c0: 3974 8bbd c191 adbe c781 fabc 26dc 633e
000003d0: ef2c 893e 43ed d83d 29e1 45be d3a6 513e
000003e0: a609 e8bd 80de 6d3d 8091 f1be 5c82 393d
000003f0: 70cc 1c3e fa14 a1be 2a02 ee3d d412 bf3e
-0.37215543 -0.29853076 0.2451222 -0.014714698 0.36422053 -0.2641579 -0.08466115 0.36914036
-0.41307282 -0.041247375 -0.30002835 -0.20770277 -0.24364024 0.23104078 -0.21149585 -0.3121511
-0.4454821 0.28826377 0.008636972 0.10454639 -0.20520459 -0.15656295 -0.15206827 -0.060156457
-0.32645643 -0.13573536 0.3845777 -0.31529832 0.19867057 -0.041372508 0.2660717 -0.07328602
0.15426232 0.2532851 -0.043317292 -0.10683841 0.31454143 -0.448589 0.21156594 -0.18579601
0.05434202 -0.12316174 -0.18873148 0.45919365 -0.37933287 0.19280986 -0.13282418 0.14974712
-0.3245131 -0.35645643 0.17550984 0.36092833 0.12014483 0.1577877 -0.25639778 -0.46537587
0.061847318 -0.24373436 0.34081784 -0.30970883 -0.2964185 0.006083805 0.007387921 0.41453788
0.05739037 -0.044806264 -0.07806771 -0.18056555 0.07537562 -0.10818473 0.19879805 -0.36342177
-0.30522427 0.014018587 -0.5514871 -0.37626168 0.10636082 -0.075794004 0.27272522 0.19109447
-0.16239798 -0.4105806 -0.33569145 -0.13879499 -0.2850232 -0.49539828 -0.34975603 0.35573122
-0.31890565 0.009693703 -0.43300626 -0.015354507 -0.16231924 0.20274447 -0.3470923 -0.23718993
0.22866464 0.102715604 0.09573146 -0.4000144 -0.31352296 -0.20082033 -0.11555347 0.026454538
0.25208092 0.18989655 -0.17004605 0.021580966 -0.39825037 0.48795173 0.09892356 -0.2606636
0.018277967 -0.10677897 -0.102109104 -0.00977611 -0.2953612 0.14703421 -0.0035052567 0.104846045
-0.35994238 0.43857738 -0.35700044 0.3851287 -0.16774035 -0.18559061 0.29860413 -0.0630542
0.42199734 -0.118447036 -0.19116548 -0.13137865 -0.21458708 -0.09755718 -0.23830645 0.0022100043
0.25688344 -0.33351272 0.11837402 -0.44370583 -0.00035723185 -0.4776616 -0.42335594 0.34008145
-0.11017224 -0.29074535 -0.3555932 0.27614278 -0.24632692 -0.47665015 0.09844627 0.2765293
0.07848126 0.48650792 0.014062546 -0.4046882 0.2977768 -0.13482875 0.054962102 -0.17382333
-0.19290642 -0.058188137 -0.48349452 0.30004457 -0.026665954 -0.44217232 -0.13990302 0.2971989
0.028884066 -0.432888 -0.099851474 -0.20741917 -0.23108684 -0.099335685 -0.37399042 -0.67551255
-0.06700265 -0.0015718354 -0.04820344 0.08061674 -0.19067664 -0.22334042 -0.036583237 0.20314851
-0.15472366 -0.32619062 -0.28705797 0.26480022 -0.38982707 -0.089809634 -0.26026073 0.07455048
-0.144937 0.13908948 -0.48792192 0.0061741555 0.22948332 -0.045598548 0.10365263 0.031964105
-0.07170496 0.0041390336 0.0016523264 0.3045575 -0.048136998 0.24890831 0.2634772 -0.33233246
0.50745994 -0.2921455 0.30363172 -0.1682032 0.17449777 0.2648558 -0.19311208 -0.21739477
0.07170135 -0.050998837 0.19005783 -0.120866545 0.08841452 -0.21026754 0.19841492 0.14995316
-0.0033517773 -0.12827641 -0.47280693 -0.045310594 0.07826405 0.2042486 -0.23899923 -0.19132976
-0.27253842 0.037734933 -0.09044618 0.10480249 0.111515194 0.18025334 0.010782023 -0.3558579
-0.06809277 -0.33900264 -0.03057946 0.22251949 0.26792094 0.10592129 -0.19324173 0.20473795
-0.11329965 0.05807352 -0.4718132 0.045290336 0.15312362 -0.31461316 0.116215065 0.37319052

lstm.bias_ih_l0 f4 [40]
00000000: 1f5c 183e aa9f cb3e 8332 583e 48fd 0f3e
00000010: 3dea 29bd 5d59 343d 5331 343c 6f45 663e
00000020: 39da 683d d296 923e a609 17be 673f ab3e
00000030: a639 47be 2107 03be 3ae0 3e3e 0f9c 2a3e
00000040: b057 dc3e 39db c23d ca04 d93c 2dc3 203e
00000050: 8ceb 75be edb5 42be bead abbe 7b42 803e
00000060: 87da 553e 6e82 8d3d dbc6 4abe c7a9 da3d
00000070: 0075 32be 9e78 3fbe 79f7 87bd fdd2 f33e
00000080: 9931 23be 8d42 843e 29f3 de3e 31f6 52be
00000090: 3413 323d 942d 053d aa88 ec3e 3993 733d
0.14878891 0.39770252 0.21113019 0.14061463 -0.041483153 0.044030536 0.010998088 0.22487424
0.05684874 0.28630692 -0.14749774 0.3344681 -0.19455585 -0.12795688 0.18640223 0.16661094
0.4303565 0.0951447 0.026491541 0.15699454 -0.24015635 -0.19014712 -0.33530992 0.2505072
0.20884143 0.06909643 -0.1980242 0.10676914 -0.17427444 -0.18698356 -0.066389985 0.4762191
-0.15936889 0.25832024 0.4354489 -0.20601727 0.043475345 0.03251417 0.46198016 0.059466574

lstm.bias_hh_l0 f4 [40]
00000000: e184 38be f9a5 853e 53aa 2b3c 8c86 8bbe
00000010: 11db d43e 5169 5fbe e710 963e 45bd f93c
00000020: 7bdd a0bd baab b13e d0ab 163d e529 62bd
00000030: 1198 a13e d060 b13e b92a 803e a00f 5d3e
00000040: 7601 d0bd 3eef a53e fb1f 1cbe 5fab 7b3d
00000050: 0dc7 a5be b97f 5ebe 21b8 74be 5e2a c13e
00000060: 3e28 b4bc 7d5c 75be 2728 cf3d 3b01 97be
00000070: 2423 9c3c ea09 eb3d 2b3d 8abc 147c b23e
00000080: 335b 8f3e 68fd 363e e4ef 82bd 6963 bb3e
00000090: a68b da3d cd4f 8f3d 1623 e63e 627e c13d
-0.1801944 0.2610319 0.01047762 -0.2725109 0.41573384 -0.21817519 0.2930977 0.030485759
-0.07854744 0.3470133 0.036784947 -0.055215735 0.3156133 0.34644175 0.25032595 0.21587992
-0.10156529 0.3240909 -0.15246575 0.06144273 -0.32378426 -0.2172841 -0.23898365 0.37727636
-0.021991845 -0.23961063 0.1011508 -0.29493126 0.019059725 0.114765 -0.01687487 0.3486029
0.27999267 0.17870104 -0.06393412 0.3659928 0.10671167 0.06997643 0.44948643 0.09447934

linear.weight f4 [1, 10]
00000000: 93ac 8e3e 94e5 903e 3d3a 6abe d84e 853e
00000010: 3d45 b1be fc0b fcbd c5c0 6a3e 28ed 48be
00000020: 96f2 c93e 8eca b7be
0.2786604 0.28300154 -0.22873779 0.26036716 -0.34623137 -0.12306973 0.22925098 -0.19621718
0.3944289 -0.35896724
