Time-Series---Forecasting/Results/periodic/model2.pth (torch, 4941 bytes, 13 tensors)

rnn.weight_ih_l0 f4 [10, 1]
000000 23 f6 51 be ae 29 0c be b2 d5 90 3d b7 81 95 be
       -0.2050405 -0.13687775 0.07072009 -0.29200527
000010 81 bc 64 3d 94 17 ad 3e ba fa 80 3e 9d b0 ab be
       0.055843834 0.3380705 0.2519129 -0.33533183
000020 8f bf 9f 3c b2 23 a4 3e
       0.019500522 0.32058483

rnn.weight_hh_l0 f4 [10, 10]
000000 af 05 c6 3d bd ae fa bd 15 cf 36 3e 63 86 3f 3e
       0.09669053 -0.1224036 0.17852433 0.18703608
000010 62 e3 ed bd cd b6 97 bd 05 63 47 3e d8 1e 9e be
       -0.116156355 -0.07407913 0.19471367 -0.30882907
000020 c4 db a1 3e 6e fe 20 be d5 9c 09 3e 69 6b 46 3d
       0.3161298 -0.15722057 0.13438733 0.048442278
000030 c8 bf e9 3d a7 c3 7d 3e ec 28 23 3e 88 17 90 be
       0.114135325 0.24781667 0.15933579 -0.28142953
000040 80 65 30 bd 73 3f b7 be 88 39 27 3d ba 0b 30 bd
       -0.043065548 -0.35790595 0.04082635 -0.042979933
000050 a5 b9 66 be 19 4e dc 3d df e5 bf 3d 97 45 79 3e
       -0.22531755 0.107570834 0.09370016 0.24342953
000060 a0 ca 02 be bb 7f b1 3e eb 4b ab be 61 5d 8b 3e
       -0.12772608 0.34667763 -0.33456358 0.2721968
000070 52 7b a8 bd 2b b2 96 be 9d 5e 78 be e8 ca 65 3e
       -0.082266465 -0.29432806 -0.24254842 0.22440684
000080 05 34 6e 3c b7 2c f5 bd 1b d3 a4 39 8d 2a 78 be
       0.01453877 -0.11971419 0.00031437803 -0.24234982
000090 24 33 18 be b5 7d 94 3e 76 cc 25 3e cf be 53 3e
       -0.14863259 0.29002157 0.16191277 0.20678256
0000a0 5d f6 68 be a1 7a 88 be 00 96 75 3e 11 60 aa bd
       -0.2275023 -0.26656058 0.23983002 -0.083191045
0000b0 8e aa cb bd 5d f6 2f be cf 80 0b be de 3c 90 be
       -0.0994464 -0.17183824 -0.13623355 -0.28171438
0000c0 aa 83 1f 3e f3 06 a4 3d f0 86 50 be 7a f0 73 bd
       0.1557757 0.08009138 -0.20363975 -0.05955551
0000d0 e9 d7 2c 3e e1 3c c9 be 2e 1b 86 3e 17 79 5c 3e
       0.16879238 -0.3930426 0.2619261 0.21530567
0000e0 6b e5 79 be ff 9c 78 3e d8 dc 91 3d cb e3 4d 3e
       -0.24403922 0.2427864 0.07122201 0.20106427
0000f0 80 41 82 be 79 40 9a 3d 71 b9 1e be 1d 31 d8 3d
       -0.25440598 0.075318284 -0.15500428 0.105562426
000100 1b fc 92 bd 9d d4 a0 be 74 73 23 3e b5 bf 9a be
       -0.071769916 -0.3141221 0.1596201 -0.30224386
000110 3a 40 62 bd c2 6c 0d be 5b 4d fb bd 3f c1 20 be
       -0.055237032 -0.13811019 -0.12270614 -0.15698718
000120 57 45 98 bc 51 6d a5 3e ca cc 83 be da 58 4e 3e
       -0.018587751 0.32309964 -0.2574218 0.20151082
000130 b9 5a ac bb 92 a1 96 3e 78 76 15 be d3 e5 7d bd
       -0.0052598384 0.29420143 -0.14595973 -0.061986756
000140 76 f4 b1 3c a9 21 b9 bd 3c f4 3b 3d 77 29 f5 bd
       0.021723013 -0.09039623 0.045887217 -0.119707994
000150 4a d7 dd 3c ff 1f 32 3e 22 8a 2d 3e fb 4b e0 bd
       0.027080197 0.17395018 0.16947225 -0.10951992
000160 28 b1 fa bd 67 ed 89 be 77 27 31 3e ce ae e4 3c
       -0.12240821 -0.26938936 0.17300211 0.027915385
000170 d3 04 b0 be fa 2e b9 3c 8d 75 68 3e 9d d3 81 3e
       -0.3437868 0.022605408 0.22701092 0.2535676
000180 c2 9d 43 3e cc 21 83 bd 89 e8 62 be 52 b9 77 be
       0.19103149 -0.064029306 -0.22159018 -0.24191788

rnn.bias_ih_l0 f4 [10]
000000 a8 15 40 3d 7b 36 68 bc 72 62 db bd ec 59 e6 3d
       0.046895653 -0.014173145 -0.10712136 0.1124762
000010 3e d4 90 be 18 e1 8a be 2a ca 9e 3d 9f a6 49 3e
       -0.28286928 -0.27124858 0.077534035 0.19692467
000020 9e 52 89 be 0b 39 9b bd
       -0.26820844 -0.075792395

rnn.bias_hh_l0 f4 [10]
000000 05 92 49 3e 02 88 d2 bd 98 2f 97 be 37 45 03 3e
       0.19684608 -0.10279848 -0.295285 0.12819372
000010 8d d3 4d 3e 35 71 60 be 67 46 8e 3e 28 50 23 be
       0.20100231 -0.21918185 0.27788088 -0.15948546
000020 e8 d5 8d be 20 6e be 3c
       -0.2770226 0.023245871

rnn.weight_ih_l1 f4 [10, 10]
000000 95 52 da 3d d0 c0 da 3d 31 b4 9c 3e 67 b6 8a 3e
       0.106602825 0.10681307 0.30606225 0.27092287
000010 29 73 6a 3e f1 13 76 bd f4 e5 d8 bd b6 a5 33 be
       0.22895493 -0.06007761 -0.10590735 -0.17543682
000020 89 7f 89 3e f6 cb 00 be 85 ae ef bd b0 0b 23 3e
       0.26855114 -0.12577805 -0.11703209 0.15922427
000030 8b f1 15 3e d5 78 48 3e 5d 0f 2c 3d 6b 5c 0f be
       0.14642923 0.19577344 0.04200684 -0.14000098
000040 a3 d6 a4 bd 01 de 3a 3e 4b 91 34 3e 46 bb 2d 3e
       -0.08048751 0.1824875 0.1763355 0.1696597
000050 c5 86 88 3e 1b 29 60 3d d0 b9 e1 bd 14 3a 93 be
       0.2666532 0.0547267 -0.11021769 -0.28755248
000060 ee ff 5e 3d c2 d9 2a 3e 77 31 45 bc e4 23 f3 3c
       0.054443292 0.1668463 -0.012035719 0.0296802
000070 41 c1 47 3d 83 bc 44 3d c0 82 25 3e 2d 46 98 3e
       0.048768286 0.04803134 0.16163158 0.2974104
000080 99 f1 72 be 38 42 c1 3e 84 31 25 3d 00 be aa 3e
       -0.23724975 0.37745833 0.040330425 0.33348083
000090 b4 b3 99 be eb 80 d5 3d 87 f8 7a be 30 0c a7 3d
       -0.30019915 0.1042498 -0.24508868 0.081566215
0000a0 6e e7 9c 3e c2 b8 8c 3e cf 05 30 3e 66 4e 41 be
       0.30645317 0.2748471 0.17189716 -0.18877563
0000b0 b4 c0 e7 bd cf 27 89 3e 6a 47 39 3e 0b fa 7f be
       -0.11316052 0.26788184 0.18093649 -0.24997728
0000c0 6d 24 df bc a8 a5 84 3c c9 99 2b 3e fe 51 9b 3e
       -0.027239049 0.016192272 0.16757883 0.30335993
0000d0 3e 76 86 bd e0 ed 81 3d c1 6a ed 3c 33 6c 2b be
       -0.06565522 0.06344199 0.028981568 -0.16740493
0000e0 c5 da 08 3e ac 2f db bd 6f 3b 1b be 5e a3 82 3d
       0.13364704 -0.10702452 -0.15159391 0.06378816
0000f0 8a 46 42 3d 88 87 a1 3d fa 25 a8 3d b2 cc d9 3d
       0.047430553 0.07887179 0.082103685 0.10634746
000100 ba c2 7e be 24 29 aa 3d 5a ae b0 3e cc be 8a 3e
       -0.2487897 0.08308628 0.3450802 0.2709869
000110 e8 3a 12 ba 53 98 95 bd 5f c2 20 3e bc 31 97 3e
       -0.0005578236 -0.07304444 0.15699147 0.29530132
000120 28 39 be 3b 0e 13 b4 bd 84 49 45 be 01 1f 96 bd
       0.0058051534 -0.08792697 -0.19266325 -0.07330132
000130 5f b9 ee bd ee df 1e 3e 34 69 2a 3e 9d 63 88 be
       -0.116564505 0.1551511 0.16641694 -0.266385
000140 9a 3b 8a 3d aa 22 a3 3e 65 08 9b 3d 8b ef 35 3e
       0.06749649 0.31862384 0.075699605 0.1776716
000150 81 07 e2 bd 62 d0 bc bc 23 56 f2 bd d4 eb cd bc
       -0.110365875 -0.023048583 -0.118328355 -0.025136866
000160 96 11 32 bd cf 04 11 3e b7 46 3a be 72 6e c6 3d
       -0.043473803 0.1416199 -0.18191038 0.096890345
000170 ba 2a 59 be ea 9a 11 3e 19 1d 33 bd 96 c2 4c 3e
       -0.21207705 0.14219251 -0.04372892 0.19996104
000180 fa bf 25 be 18 48 c8 3a 28 d3 79 be 9b 2e 8f 3e
       -0.16186514 0.0015280275 -0.24396956 0.27965245

rnn.weight_hh_l1 f4 [10, 10]
000000 d6 58 6d be 1b 5f 94 3e fc f1 e4 3d 7c 48 90 3e
       -0.2317842 0.2897881 0.11178967 0.281803
000010 d4 46 7d bd b2 5e 82 3e 82 20 cf bd f5 dc 41 3e
       -0.061835125 0.25462872 -0.10113622 0.18931945
000020 35 0f d6 39 56 a6 1f be 66 8f 84 be ae ef 42 be
       0.0004082859 -0.15590796 -0.25890654 -0.19036743
000030 81 05 5e bd c5 4c 3d be 4b de 27 bc 53 72 4f bd
       -0.054204468 -0.18486317 -0.01024587 -0.050646137
000040 7c a5 cd 3d 75 47 28 3e 19 12 5c be 21 2f 6e 3d
       0.10041329 0.16433509 -0.21491279 0.058150414
000050 ef 89 2d be 22 6f 99 3e 4f 1c 21 3e 24 d6 05 bd
       -0.16947149 0.299676 0.15733455 -0.032674924
000060 95 8e 58 be 87 ea 2e be 50 a2 37 3e 06 d8 6f be
       -0.2114814 -0.17081653 0.17933011 -0.2342225
000070 bf f6 97 be ca 21 8a be ce cf ac 3e 89 16 7b 3e
       -0.2968044 -0.26978904 0.33752292 0.24520315
000080 43 9c 99 3e dc ec 80 3e 19 28 54 3e 97 46 d9 3d
       0.3000203 0.2518071 0.20718421 0.10609167
000090 95 d1 42 3e 9a e9 56 be e1 e5 96 3e 68 b7 b7 be
       0.19025262 -0.2098755 0.2947226 -0.35882115
0000a0 94 82 af 3e 83 21 e8 3d 30 e2 91 be 32 d2 38 be
       0.3427931 0.11334517 -0.2849288 -0.18048933
0000b0 6f 18 6a be 25 1f e4 3c d7 fb 44 be 88 f3 ee 3c
       -0.22860883 0.027846882 -0.19236694 0.02916886
0000c0 3e d3 3c 3d d7 61 aa be 90 b3 8f 3d 9b e3 67 3e
       0.046099894 -0.3327777 0.07016671 0.22645418
0000d0 23 66 9b be e9 f3 4f be 38 f8 d0 3e b5 b8 8b 3e
       -0.30351362 -0.20307888 0.40814376 0.27289358
0000e0 d9 2f c1 be a7 85 ae 3e 65 1b d4 3e 58 0e 07 3d
       -0.37731817 0.34086344 0.4142715 0.032972664
0000f0 a9 36 2c be 63 75 68 3e 0b ee af bd 50 bf 2b be
       -0.16817726 0.2270103 -0.08590325 -0.16772199
000100 9b 70 1e 3e 99 44 36 bb a0 60 ef 3c 86 7a 61 be
       0.15472643 -0.0027811883 0.02922088 -0.22019395
000110 38 18 85 be 34 79 6c 3a 15 98 96 bd 4b 5e 01 be
       -0.2599504 0.0009020746 -0.07353226 -0.12633626
000120 b3 18 ec 3c a3 73 85 3e 58 0e 5a 3e 35 ac 4d 3e
       0.028820371 0.26064786 0.21294534 0.20085223
000130 6d 8d ae bd 0f 48 f5 bc 8a 8a 86 bd 22 32 7e 3d
       -0.085230686 -0.029941587 -0.06569393 0.06205953
000140 50 e2 cc 3d a7 3c e6 bd 31 82 8d be 1f 4f 96 be
       0.10004103 -0.11242037 -0.2763839 -0.2935724
000150 f9 b4 9b 3e 02 46 b6 3e 47 c5 7a be 18 56 1b 3e
       0.3041151 0.35600287 -0.24489318 0.15169561
000160 a5 ba 3f 3c fe 93 4b be d2 8a 08 be 7d e5 88 be
       0.011702214 -0.19880673 -0.13334206 -0.26737586
000170 25 ab 3a 3e fa d8 7e be 77 02 b8 be 54 fc 42 bc
       0.18229349 -0.24887457 -0.3593938 -0.01190098
000180 ed ca 06 3e af 78 99 3e 6a af 67 be 79 1d ae 3d
       0.13163348 0.29974887 -0.22625509 0.08501715

rnn.bias_ih_l1 f4 [10]
000000 dd a3 1c be 9f 8b 57 be 12 8b 1e 3e 0a 38 10 be
       -0.15296884 -0.21049355 0.15482739 -0.14083877
000010 26 3c 5f be 9c 0e 36 bc e2 34 8b be 74 05 50 bd
       -0.21800289 -0.011111882 -0.27188784 -0.05078645
000020 06 f2 2a 3d 8c e7 68 3d
       0.041734718 0.056861445

rnn.bias_hh_l1 f4 [10]
000000 12 83 21 3e 29 22 2e bd 6c b9 30 be 75 85 89 3e
       0.15772656 -0.042513046 -0.17258233 0.26859632
000010 04 d2 bb 3d 22 50 2b 3e b2 ba f3 3b 84 78 b5 bd
       0.09170917 0.16729787 0.0074380273 -0.08860877
000020 c8 3d 40 bc 94 46 18 3e
       -0.01173348 0.14870673

rnn.weight_ih_l2 f4 [10, 10]
000000 b8 0e 17 be c2 50 67 be b1 c0 8f be 89 0b 6a 3e
       -0.14751709 -0.225894 -0.280767 0.22855963
000010 99 b1 9d 3e 69 a8 84 be 23 10 0c bd c5 1c 87 3e
       0.3079956 -0.25909737 -0.034195077 0.26389137
000020 a0 5e 17 be 28 75 0e be 13 ad c6 3d fd ae 9a 3c
       -0.1478219 -0.13911879 0.0970098 0.018882269
000030 a1 28 58 be 94 4a 69 3e a4 6e 1c bc d9 86 91 3e
       -0.21109249 0.22782356 -0.009547863 0.28423193
000040 d6 30 86 bd 6e 25 57 3e 4d 5d b9 be ca 74 35 3d
       -0.065522835 0.21010372 -0.36203995 0.04430083
000050 83 6d cd 3e 71 63 66 3e 36 a0 b0 be 13 2a 1e 3e
       0.40122613 0.22498871 -0.3449723 0.15445738
000060 63 cf a7 bd 6b 51 85 3e 1c c3 29 be 94 98 05 3e
       -0.08193853 0.2603868 -0.16578335 0.13046485
000070 4b 0e b8 3e 57 fd b1 be 38 ea 41 3e 00 74 75 3e
       0.35948405 -0.34763595 0.18937004 0.23970032
000080 22 ad a1 3e a2 44 82 be 85 6f 3d 3e 30 6c c8 be
       0.31577402 -0.25442988 0.18499573 -0.3914504
000090 a7 17 5f be c9 81 de be a4 08 c1 be 2a 0c 29 be
       -0.21786366 -0.43458393 -0.37701905 -0.16508546
0000a0 3f b8 8d 3e 59 a2 99 3d 24 d6 18 3c 81 c6 94 bd
       0.2767963 0.075016685 0.009328399 -0.07264424
0000b0 64 b6 25 3e e1 a8 65 be bd 66 ed bc e1 2b 11 3e
       0.16182858 -0.22427703 -0.028979653 0.14176895
0000c0 eb 5c 0c 3c 9b 6a 4c be 97 bc 2c be ca c7 1a 3d
       0.008567075 -0.19962542 -0.16868816 0.03778819
0000d0 19 2f 12 3e 22 f2 f0 bd d9 44 14 3e cb 78 89 be
       0.14275779 -0.11764933 0.14479388 -0.2684997
0000e0 81 63 da 3d e4 39 d7 3d 84 63 b6 be 23 12 e1 3c
       0.1066351 0.10509089 -0.356228 0.027474469
0000f0 0c 37 a9 be 5e 52 75 3e 88 16 98 3d e7 8c 08 bd
       -0.3304981 0.23957202 0.074261725 -0.0333375
000100 f1 ef a7 be 5b 47 a1 bd af 35 49 3e 99 4f a8 be
       -0.32800248 -0.07874938 0.19649385 -0.32873228
000110 00 80 0b be b1 93 ae 3e e7 69 3c bd 07 ed d1 bd
       -0.13623047 0.34097055 -0.045999434 -0.102502875
000120 66 83 a1 3c da 04 be be 35 eb 19 3e 05 ab ed be
       0.019715976 -0.37113076 0.1503113 -0.4641954
000130 c2 93 60 bd 1a ca 1d be db 3e 55 be 47 de ce 3c
       -0.054828413 -0.15409127 -0.20824759 0.025252474
000140 78 2c b0 be b3 be 5f bd eb 72 9f 3e d8 b1 2d be
       -0.34408927 -0.054625224 0.31142363 -0.16962373
000150 01 b1 0b be 83 75 05 be 13 92 68 bc b9 05 15 be
       -0.1364174 -0.13033108 -0.014194983 -0.14552964
000160 88 04 d0 bd b6 14 af 3c 2a 4e df 3d 2a 51 ea bd
       -0.10157114 0.02137218 0.109035805 -0.11441262
000170 9d b9 11 be 51 7c 91 3e 14 7e 12 3e 91 8a 05 bd
       -0.14230962 0.28415158 0.14305907 -0.03260285
000180 8f 52 11 be db fe c0 3e 13 26 12 3e e8 4c 48 be
       -0.1419165 0.3769444 0.14272337 -0.19560587

rnn.weight_hh_l2 f4 [10, 10]
000000 b3 f4 11 bd 56 0f 8d bd 00 5e 5e 3e 35 00 51 be
       -0.035633754 -0.06887691 0.21715546 -0.20410235
000010 0b c9 92 be 0a e9 99 bd 41 33 58 3e ab a1 99 be
       -0.2866901 -0.07515152 0.21113302 -0.30006155
000020 6b 2a c1 bd 67 84 93 3d 11 af a8 3d 84 26 a9 be
       -0.09431919 0.07202988 0.08236516 -0.33037198
000030 0e d6 b0 bd 43 67 4a be 96 a3 0a be 00 57 61 3d
       -0.08634578 -0.19765954 -0.13538966 0.05501461
000040 08 a8 90 3e d9 5e a0 bd fd 7a 28 be a7 0d ae 3d
       0.28253198 -0.07830591 -0.16453166 0.08498698
000050 7b 3f 71 bd 6d 03 3b be 8d 41 c3 bc 39 26 38 3d
       -0.05889843 -0.18263026 -0.023834968 0.044958327
000060 34 8b ce bd 45 68 ef be 09 59 10 be bc 60 1a 3e
       -0.10085145 -0.4675924 -0.14096464 0.15075964
000070 c0 17 e6 3d 0a 67 d6 3e a3 92 fc bc b6 31 ff bd
       0.11234999 0.41875488 -0.03083164 -0.124606535
000080 78 6c 19 3e 61 f5 b4 3e 06 3e ee 3d 37 d5 b8 bd
       0.14982784 0.3534346 0.11632924 -0.090250425
000090 96 5a 81 3e 26 ce 9f 3e 0a e2 95 3e 3f 75 b5 3c
       0.25264424 0.31211966 0.29274017 0.022150634
0000a0 65 19 8b 3e dd 6d 9f 3d af d3 0b 3e 05 f4 a6 bd
       0.27167812 0.07784627 0.1365497 -0.08152012
0000b0 68 db 1b be 0b aa 92 be db 20 18 be 19 7a 7e 3e
       -0.15220416 -0.28645357 -0.14856283 0.24851264
0000c0 8f 28 66 3d 87 74 56 be b8 f8 b1 3d 81 c4 0f 3e
       0.056191023 -0.20942889 0.086900175 0.14039804
0000d0 f0 dd 97 bd fc 5c 90 3d 0d a2 26 3e d8 83 15 bd
       -0.07415378 0.07048985 0.16272755 -0.03650269
0000e0 e6 85 4c 3e 6f a2 0e 3e 4a 32 ad 3d 67 9a d9 be
       0.19972953 0.13929151 0.084568575 -0.42500612
0000f0 93 d1 ef 3c 9f 48 a9 be ea 0c cc 3d 66 c7 a7 be
       0.029274737 -0.33063218 0.09963401 -0.32769316
000100 25 ad 58 be ec 35 09 3e 9a 50 45 3e b9 63 9d bd
       -0.211598 0.13399476 0.19269028 -0.07685036
000110 8d c2 7e 3e cd b8 45 be 36 43 4e be fe ae 73 be
       0.24878903 -0.19308777 -0.20142826 -0.23797223
000120 63 db 64 bd 1a 08 49 bd 6a b0 93 bc 7f 13 22 3e
       -0.055873286 -0.049079992 -0.018028457 0.1582775
000130 72 67 86 3e 66 24 35 be fb d6 9d 3e d7 6b d2 be
       0.26250798 -0.17689666 0.3082808 -0.410979
000140 97 73 71 3e 32 77 7e bd dd 13 ad be 04 41 de 3e
       0.2357925 -0.062125392 -0.33804217 0.43408978
000150 d0 cc ab be f9 fc dd bd db ca 9d bd c5 93 7f be
       -0.33554697 -0.10839266 -0.07704707 -0.24958713
000160 17 a6 51 3d 7c bc 62 be 81 37 aa bd 18 8a 57 3e
       0.051183786 -0.22142214 -0.08311368 0.21048772
000170 17 17 76 3d 42 f5 61 be 04 45 0a be 1c 3c 83 bd
       0.060080614 -0.22066215 -0.1350289 -0.06407949
000180 ae 1b c9 bd 87 37 84 3d aa d6 4f 3e 40 fb 24 bc
       -0.098197326 0.064559035 0.20296732 -0.010069668

rnn.bias_ih_l2 f4 [10]
000000 96 df 8b 3e ca 3f 98 be 8f 18 3e 3e 67 e5 5b be
       0.2731902 -0.29736167 0.18564056 -0.21474229
000010 23 b4 9d 3e 0e 82 52 bc 96 02 c1 bd d7 63 49 3e
       0.30801496 -0.01284839 -0.09424321 0.19666992
000020 94 ce 6f 3e 1a 78 69 3e
       0.23418647 0.22799721

rnn.bias_hh_l2 f4 [10]
000000 9c bf 46 3e d8 62 56 3d 70 6a 47 bd b0 4f 20 be
       0.1940903 0.05234036 -0.04868549 -0.15655398
000010 bd 30 87 3e 44 97 1e 3c 01 47 19 be 3d bc 21 be
       0.26404372 0.009679619 -0.14968492 -0.15794463
000020 a4 44 98 be 46 2c ff bd
       -0.2973987 -0.12459616

linear.weight f4 [1, 10]
000000 61 33 a8 be 1c b7 ef 3d 2b 90 2c be f9 a2 65 3e
       -0.328517 0.11704847 -0.1685187 0.2242545
000010 1d 8a 86 be 27 ab 12 3e 2b 39 83 3e 2a 0b 6a 3e
       -0.26277247 0.14323102 0.25629553 0.22855821
000020 6d 86 70 3e 35 f5 9a be
       0.2348878 -0.30265203
