Time-Series---Forecasting/Results/periodic/model7.pth (torch, 33549 bytes, 9 tensors)

rnn.weight_ih_l0 f4 [50, 1]
-0.07121538 -0.11238199 -0.116163224 0.05339333 0.011961145 -0.026368085 -0.07858615 -0.07894979
0.1451271 0.13671069 -0.12578578 0.026461614 0.017009763 -0.006470574 -0.16027103 0.06420467
-0.07029765 -0.14564593 -0.08036686 0.026377868 0.041602243 0.07300586 -0.10181603 0.0995493
-0.06914308 -0.01469219 0.07960515 0.0054041087 -0.09234072 0.015986187 -0.072606266 -0.058431644
0.13482136 0.028162437 -0.084377445 0.10544356 -0.08919394 -0.1397109 0.11300282 0.056686748
0.027449217 0.052776743 -0.12525943 -0.018283956 0.08245474 -0.0944292 0.1483171 -0.13840833
0.14701062 0.091107264
00000000: 5fd9 91bd 8728 e6bd fce6 edbd f7b2 5a3d
00000010: aef8 433c e201 d8bc c7f1 a0bd 6db0 a1bd
00000020: 339c 143e e3fd 0b3e fdcd 00be 07c6 d83c
00000030: 0f58 8b3c 1c07 d4bb 171e 24be bd7d 833d
00000040: 37f8 8fbd 3524 15be 6197 a4bd 6616 d83c
00000050: 1d67 2a3d 1984 953d ec84 d0bd 81e0 cb3d
00000060: e39a 8dbd 83b7 70bc 0608 a33d f314 b13b
00000070: 221d bdbd 77f5 823c 98b2 94bd 0556 6fbd
00000080: 9c0e 0a3e e9b4 e63c 15ce acbd cbf2 d73d
00000090: 50ab b6bd 6010 0fbe 066e e73d 5d30 683d
000000a0: 2edd e03c 6d2c 583d 0244 00be 3cc8 95bc
000000b0: 08de a83d 1964 c1bd 70e0 173e eaba 0dbe
000000c0: f489 163e 7296 ba3d

rnn.weight_hh_l0 f4 [50, 50]
0.042795528 -0.08025238 0.019325059 0.083718956 0.09027313 0.0074700997 -0.065687746 -0.0945229
0.06272334 0.082310475 -0.11361596 -0.07106081 0.17157036 -0.052327156 -0.13492353 -0.15577248
0.09582921 0.10917975 0.007195818 -0.048058607 -0.08782703 -0.016669251 0.046630334 0.10413832
0.1581237 0.12640557 0.01576249 0.01667976 0.1783218 -0.09046995 0.010049164 0.09983189
0.08090631 -0.003231545 -0.09190609 0.10110021 0.109367 -0.07787834 -0.020077245 0.113542676
-0.23846504 0.03910285 -0.020978443 -0.030680934 -0.1069805 0.041879896 0.11714749 0.06997967
0.08716795 -0.022312129 -0.010919487 0.07260421 -0.07190732 -0.19088559 -0.027216278 0.019765763
-0.18088478 0.15496613 0.039906245 -0.0025560604 -0.036056694 -0.075114034 -0.0024908392 -0.022470716
0.09800431 -0.047086384 0.09088881 0.13984466 0.08106557 0.0770016 -0.04981846 -0.0855868
-0.091089696 0.01736191 0.21066637 -0.0012985491 0.033261582 0.00089888845 -0.03525409 -0.034227833
0.092330426 0.075147934 0.018169666 0.118343584 0.025728563 0.10879594 -0.056813277 -0.0890206
-0.0962163 -0.20940052 0.11356058 -0.11015963 0.17559358 -0.055823557 -0.13405201 0.010088797
-0.07381487 0.120525315 -0.041387647 -0.12452539 -0.13271391 -0.049400277 0.034322403 -0.009584415
-0.03771459 -0.0754447 -0.11405375 -0.10553807 -0.14959764 0.03502764 -0.08957611 -0.0129454555
0.052343585 0.11002754 -0.07355031 -0.031491037 0.079677984 -0.05001576 0.084145255 0.02588727
-0.039246477 -0.11180326 0.12777309 0.05981258 0.05683076 -0.051148932 0.06944723 -0.10528933
-0.061902355 0.068641715 0.057605654 -0.036710005 -0.028798768 0.007497886 -0.09364699 -0.006268511
0.066062875 -0.010209421 -0.026560169 -0.11378191 -0.022078458 0.118276685 0.12778322 0.0064278482
0.08060925 -0.08199591 -0.07909127 -0.05312008 -0.001376672 0.020670878 0.022050798 -0.031855218
0.08437199 0.10970259 -0.11488487 -0.02678029 0.07175407 -0.05488784 0.076641895 0.018307654
-0.14780451 0.021709796 0.045627423 0.08650833 0.08190841 -0.036374647 -0.11216291 -0.05873041
-0.07560333 -0.018892951 0.02751497 -0.07367364 -0.10640719 0.12033217 -0.018752746 0.10530327
-0.0520891 -0.07050205 0.059332475 -0.09663691 0.03963602 -0.14306805 0.047475345 -0.07344822
-0.13047656 -0.07901128 0.10582707 -0.12116927 0.09700064 0.16965018 0.09594081 -0.08432622
0.04474305 0.10037624 -0.07945486 -0.004284549 0.037327133 -0.0417303 0.012508976 0.0040171538
0.13978408 0.016764577 -0.009136921 0.11800733 0.0017351863 -0.025812458 0.09954356 0.1105684
0.03651338 0.082606815 -0.083919376 0.02675374 0.09915859 0.0014965372 0.026582897 -0.13247794
-0.122846425 0.0060188496 -0.13888499 0.11308842 -0.1395257 -0.034777224 -0.087889664 0.019340927
0.1153632 -0.02210331 0.14745165 -0.07248111 0.14372836 -0.053034164 -0.08083476 -0.062815554
-0.12570217 -0.07002235 0.06725391 -0.01786946 -0.13902955 -0.038410697 0.028027378 0.016391957
-0.12615134 -0.0122369705 -0.11824175 -0.1146426 0.006322014 0.044428986 -0.088932574 -0.11323583
-0.036644705 0.11077516 -0.03201972 -0.06526785 0.1337727 0.061660223 -0.118578576 -0.024278969
00000000: 5d4a 2f3d 5c5b a4bd 964f 9e3c d874 ab3d
00000010: 1ee1 b83d bdc7 f43b 4c87 86bd 3995 c1bd
00000020: 1875 803d 6592 a83d 7caf e8bd 5488 91bd
00000030: 24b0 2f3e 0055 56bd 6529 0abe d282 1fbe
00000040: 1b42 c43d a299 df3d e5ca eb3b 1ad9 44bd
00000050: a8de b3bd f48d 88bc 73ff 3e3d 7946 d53d
00000060: 2eeb 213e 7670 013e 5620 813c fea3 883c
00000070: fd99 363e 4f48 b9bd 40a5 243c a974 cc3d
00000080: 35b2 a53d 54c8 53bb 4339 bcbd a00d cf3d
00000090: cefb df3d ae7e 9fbd 0979 a4bc 1089 e83d
000000a0: 2e30 74be 4f2a 203d fcda abbc 9556 fbbc
000000b0: 9818 dbbd 418a 2b3d 06eb ef3d 8051 8f3d
000000c0: 1c85 b23d edc7 b6bc a6e7 32bc 84b1 943d
000000d0: 2544 93bd 8377 43be acf4 debc cfeb a13c
000000e0: dc39 39be 71af 1e3e bb74 233d 9483 27bb
000000f0: 2fb0 13bd 63d5 99bd 593d 23bb 8214 b8bc
00000100: 7cb6 c83d a7dd 40bd ea23 ba3d 7033 0f3e
00000110: b505 a63d 04b3 9d3d 710e 4cbd 2248 afbd
00000120: 3c8d babd 903a 8e3c edb8 573e 1434 aaba
00000130: 4c3d 083d 62a3 6b3a 9866 10bd 7c32 0cbd
00000140: bc17 bd3d 29e7 993d 8dd8 943c 1f5e f23d
00000150: b5c4 d23c 68d0 de3d 0ab5 68bd 6f50 b6bd
00000160: 0d0d c5bd 176d 56be 7392 e83d 5f9b e1bd
00000170: cece 333e 3ea7 64bd ee44 09be 7b4b 253c
00000180: 402c 97bd fad5 f63d 1886 29bd 2b07 ffbd
00000190: 28e6 07be f257 4abd a695 0c3d f307 1dbc
000001a0: 9d7a 1abd c082 9abd 0395 e9bd 5824 d8bd
000001b0: 2030 19be 2579 0f3d ae73 b7bd 2d19 54bc
000001c0: 3a66 563d 1e56 e13d 8ca1 96bd bffc 00bd
000001d0: 362e a33d 53dd 4cbd 5954 ac3d 8a11 d43c
000001e0: eac0 20bd 1cf9 e4bd f3d6 023e 09fe 743d
000001f0: 5fc7 683d 8b81 51bd 593a 8e3d efa1 d7bd
00000200: 538d 7dbd 0794 8c3d e8f3 6b3d 3b5d 16bd
00000210: 65eb ebbc d4b0 f53b fec9 bfbd 1568 cdbb
00000220: f94b 873d 6a45 27bc b694 d9bc 7d06 e9bd
00000230: e2dd b4bc 0c3b f23d 9bd9 023e b3a0 d23b
00000240: 7616 a53d 79ed a7bd 9bfa a1bd 7194 59bd
00000250: 7271 b4ba f955 a93c e0a3 b43c 9e7a 02bd
00000260: 39cb ac3d c0ab e03d c248 ebbd 5762 dbbc
00000270: ccf3 923d 12d2 60bd 6df6 9c3d eff9 953c
00000280: 115a 17be bed8 b13c d2e3 3a3d 482b b13d
00000290: 99bf a73d 95fd 14bd abb5 e5bd 4c8f 70bd
000002a0: ebd5 9abd 64c5 9abc 1367 e13c 35e2 96bd
000002b0: 03ec d9bd b670 f63d 5c9f 99bc 3ea9 d73d
000002c0: 615b 55bd 6163 90bd 9c06 733d 93e9 c5bd
000002d0: 6159 223d 6e80 12be 8275 423d 056c 96bd
000002e0: a69b 05be aad0 a1bd ddbb d83d 9827 f8bd
000002f0: 46a8 c63d c7b8 2d3e 9e7c c43d 3ab3 acbd
00000300: 7d44 373d 0f92 cd3d 3bb9 a2bd 6765 8cbb
00000310: 56e4 183d 64ed 2abd 73f2 4c3c 54a2 833b
00000320: 8f23 0f3e de55 893c 06b3 15bc d4ad f13d
00000330: 316f e33a a674 d3bc 7edd cb3d af71 e23d
00000340: 0e8f 153d c32d a93d ecdd abbd a92a db3c
00000350: a913 cb3d 7527 c43a 60c4 d93c 4ca8 07be
00000360: e896 fbbd c539 c53b de37 0ebe e79a e73d
00000370: d3df 0ebe 9072 0ebd 7fff b3bd dd70 9e3c
00000380: 8b43 ec3d 0012 b5bc 91fd 163e fa70 94bd
00000390: 872d 133e 5a3a 59bd b28c a5bd 71a5 80bd
000003a0: 12b8 00be e167 8fbd 6bbc 893d f962 92bc
000003b0: c35d 0ebe 8954 1dbd ac99 e53c 6d48 863c
000003c0: d12d 01be 937d 48bc bb28 f2bd bdc9 eabd
000003d0: e628 cf3b 2bfb 353d 4822 b6bd 30e8 e7bd
000003e0: c218 16bd 16de e23d 1c27 03bd 27ab 85bd
000003f0: b6fb 083e 6e8f 7c3d 53d9 f2bd b0e4 c6bc

rnn.bias_ih_l0 f4 [50]
-0.11776629 -0.06381116 -0.060241483 -0.056184024 -0.045177404 0.13888314 -0.08286288 0.035507247
0.037231266 0.04342063 0.1510333 0.054784592 -0.11729734 0.12707631 0.10479376 -0.043107696
0.07143065 0.0073019397 0.021979194 -0.008667588 -0.093219 0.104536735 -0.14456792 -0.14253668
-0.026120152 0.03921697 0.015990451 0.14245164 -0.055792015 0.07659029 -0.14853995 -0.11306503
0.0052817836 -0.07463973 0.09702324 -0.11528392 0.052973934 0.041681696 0.02466208 0.05616685
0.01487821 -0.15018237 0.07609545 -0.09512633 0.06503088 0.07211523 0.0530261 0.16945462
-0.021023845 0.14239492
00000000: 742f f1bd 6daf 82bd c6bf 76bd 3821 66bd
00000010: f10b 39bd 6237 0e3e 03b4 a9bd 0c70 113d
00000020: d07f 183d d5d9 313d 79a8 1a3e cf65 603d
00000030: 9639 f0bd 4b20 023e 1c9e d63d b291 30bd
00000040: 3c4a 923d 1c45 ef3b b60d b43c 8002 0ebc
00000050: 9ae9 bebd 5b17 d63d 9d09 14be 23f5 11be
00000060: eef9 d5bc f9a1 203d 68fe 823c d8de 113e
00000070: 2b86 64bd 5fdb 9c3d db1a 18be a38e e7bd
00000080: d012 ad3b b7dc 98bd 1fb4 c63d fa19 ecbd
00000090: 32fb 583d 6dba 2a3d 2108 ca3c 360f 663d
000000a0: bcc3 733c 68c9 19be eed7 9b3d 98d1 c2bd
000000b0: e92e 853d 26b1 933d e531 593d 8385 2d3e
000000c0: 333a acbc f9cf 113e

rnn.bias_hh_l0 f4 [50]
0.036529608 0.021422885 -0.11879778 0.0066651898 -0.06816971 0.0875407 -0.03603774 -0.014427332
-0.14861342 -0.031369448 0.05679822 -0.051874142 0.05281445 0.028749246 0.15606298 -0.16667159
-0.050773587 0.040325977 0.078125715 -0.097961776 -0.11904008 0.14009194 -0.07363885 -0.10035681
-0.036405917 -0.08715571 0.091052264 0.15076508 -0.046047933 -0.009828977 -0.050436933 -0.03412386
-0.062907785 0.11564036 -0.009658079 0.025897643 -0.060635075 -0.07175707 0.060712017 -0.13893904
-0.12896396 0.035803713 -0.063821584 -0.049842134 -0.020209327 -0.01340622 -0.06360317 0.13884163
0.052477527 0.13149907
00000000: 12a0 153d 0c7f af3c 404c f3bd aa67 da3b
00000010: 909c 8bbd 8a48 b33d 4f9c 13bd 9e60 6cbc
00000020: 1e2e 18be 407d 00bd 40a5 683d fb79 54bd
00000030: f753 583d 8a83 eb3c f9ce 1f3e f5ab 2abe
00000040: f7f7 4fbd da2c 253d 6000 a03d 2fa0 c8bd
00000050: 49cb f3bd 4374 0f3e f7cf 96bd df87 cdbd
00000060: 5f1e 15bd b17e b2bd 9c79 ba3d 2962 1a3e
00000070: c29c 3cbd b809 21bc f596 4ebd 76c5 0bbd
00000080: ccd5 80bd dad4 ec3d eb3c 1ebc 4b27 d43c
00000090: 7c5c 78bd 5ff5 92bd 2aad 783d 0946 0ebe
000000a0: 210f 04be eaa6 123d e4b4 82bd 4427 4cbd
000000b0: 088e a5bc c3a5 5bbc 6142 82bd 802c 0e3e
000000c0: adf2 563d b1a7 063e

rnn.weight_ih_l1 f4 [50, 50]
-0.18115337 -0.14227599 -0.0023196975 -0.14735538 -0.08228635 0.105163366 0.08410087 -0.01711097
-0.13284686 -0.11077484 0.17048423 0.09691876 0.034936965 -0.08045231 0.1536134 -0.091732614
0.08489789 -0.01995429 -0.11214877 0.04195155 -0.05413989 -0.03084915 -0.03908484 -0.16398677
0.1002079 0.006095417 -0.114875175 0.10178832 -0.052575465 0.020027546 0.10091241 -0.0715341
0.005020096 0.13660268 0.15255913 -0.028861262 -0.077537365 -0.052945472 0.057619784 0.09555685
0.08594194 -0.031483628 -0.06500548 0.00864571 -0.021639735 -0.047649637 -0.009495532 0.10801391
-0.016812691 -0.07953186 -0.0028105588 0.0146211535 -0.11658138 -0.15074185 -0.14182223 0.02038595
0.01999246 0.1505567 -0.18047345 -0.13240853 0.094090655 -0.013994942 -0.11542852 -0.0632643
-0.027968124 -0.055392627 0.10587966 -0.018384507 0.12901826 0.07683923 0.032949053 -0.07323278
-0.0112912115 -0.210464 -0.15659441 0.056070413 -0.1204952 -0.14110842 -0.10253549 -0.08252948
-0.036527336 -0.09151136 0.073987976 -0.0018583403 0.07438297 -0.08494402 -0.015715813 0.084082
-0.04013967 -0.025056543 -0.021425584 0.0384168 0.03187235 -0.027541764 -0.119987965 -0.071145214
-0.07743984 0.16068298 -0.13536353 0.052836876 -0.11910718 -0.0019090594 -0.07690124 0.114375256
-0.077811636 -0.12361125 0.0116313305 0.014129585 -0.0060167266 -0.083110735 -0.039844293 0.11229009
0.031944904 -0.0028607843 -0.11757481 -0.0010133089 -0.031168358 -0.0826139 -0.11973583 -0.0024438326
0.09073987 -0.13327697 -0.104651295 -0.023743324 -0.01915186 -0.12981458 -0.057426438 0.112056494
-0.13982098 0.10589243 0.063555 0.022445833 -0.10472087 0.11818933 0.12462995 -0.029052714
-0.021014398 0.10745359 0.1279881 0.11698061 0.16810383 -0.020747261 -0.0580196 -0.06944494
-0.08708145 -0.06112475 -0.09399808 -0.021929925 0.05182678 0.105334274 0.021949694 -0.07865747
-0.0046528615 0.051692713 -0.050786536 -0.017975966 -0.094643585 0.059394743 -0.11017337 0.08847988
-0.12702711 0.15809062 -0.13874337 -0.13073775 0.05820486 -0.024611821 0.08796528 0.13555512
-0.08239195 0.09986154 0.08618049 -0.06945567 0.16195163 -0.06492586 0.06880061 -0.05416019
-0.09938066 -0.04901727 -0.12308078 -0.04596277 -0.045888633 0.09404045 0.04043369 -0.11135619
0.11093844 -0.0125725325 0.14474711 0.014526307 -0.1218469 0.12995942 0.042501345 -0.06582829
0.11970283 -0.0018225352 -0.060869034 -0.16504528 -0.016758949 -0.11948292 -0.046004716 -0.10058962
-0.14132778 -0.022564262 0.04197743 0.04243772 -0.030279811 -0.028598186 -0.054177154 -0.05550501
-0.10210591 -0.08804454 -0.08341742 0.05807319 0.01839459 -0.027891662 0.1137832 -0.026878634
-0.12896805 -0.064558856 -0.10124457 -0.072788194 0.03897119 0.022414923 0.0746624 -0.13192654
0.026797052 0.099384084 -0.02911395 0.12330627 0.033095445 0.11637867 -0.105550125 0.021231178
-0.027542891 0.0164771 -0.08968568 0.012852567 -0.037472952 0.017546864 -0.017033018 -0.06392605
-0.0387584 -0.009551907 0.12595075 0.022984605 -0.0019968213 -0.061130602 0.09583493 0.1410615
-0.09693201 -0.11555914 -0.10611463 -0.10745028 0.06357857 -0.041992515 0.09641148 0.10162877
00000000: 4580 39be ccb0 11be 1106 18bb 54e4 16be
00000010: bf85 a8bd e45f d73d 143d ac3d 4e2c 8cbc
00000020: 0209 08be ebdd e2bd 6b93 2e3e 587d c63d
00000030: 101a 0f3d 2ec4 a4bd d54c 1d3e 4fde bbbd
00000040: f2de ad3d 2e77 a3bc 41ae e5bd 63d5 2b3d
00000050: cac1 5dbd 5bb7 fcbc 6d17 20bd 26ec 27be
00000060: cd39 cd3d 10bc c73b ad43 ebbd 6576 d03d
00000070: 5f59 57bd cf10 a43c 2aab ce3d 7880 92bd
00000080: 9e7f a43b 93e1 0b3e 7638 1c3e 746e ecbc
00000090: e9cb 9ebd 5add 58bd b902 6c3d 4fb3 c33d
000000a0: 5402 b03d faf4 00bd 9821 85bd bca6 0d3c
000000b0: d045 b1bc 442c 43bd 2693 1bbc 6636 dd3d
000000c0: c5ba 89bc 9ae1 a2bd 5a31 38bb 908d 6f3c
000000d0: 38c2 eebd 125c 1abe d939 11be 7000 a73c
000000e0: 3ac7 a33c 892b 1a3e 08ce 38be 1a96 07be
000000f0: 9ab2 c03d 0b4b 65bc ca65 ecbd b790 81bd
00000100: 681d e5bc 61e3 62bd 6fd7 d83d 1b9b 96bc
00000110: 5d1d 043e e35d 9d3d 96f5 063d 11fb 95bd
00000120: c6fe 38bc e083 57be 495a 20be 17aa 653d
00000130: 30c6 f6bd ba7e 10be 21fe d1bd 3705 a9bd
00000140: b09d 15bd 4f6a bbbd 0287 973d 8e93 f3ba
00000150: 1956 983d 21f7 adbd 73be 80bc 2f33 ac3d
00000160: 7f69 24bd 6143 cdbc b584 afbc ef5a 1d3d
00000170: 958c 023d 449f e1bc 40bc f5bd 95b4 91bd
00000180: c798 9ebd 148a 243e bd9c 0abe 7b6b 583d
00000190: 77ee f3bd 6739 faba 667e 9dbd 933d ea3d
000001a0: b55b 9fbd e527 fdbd 5691 3e3c c67f 673c
000001b0: f627 c5bb f635 aabd c533 23bd 59f8 e53d
000001c0: a9d8 023d ff7b 3bbb 10cb f0bd 01d1 84ba
000001d0: c954 ffbc 7a31 a9bd 0f38 f5bd b528 20bb
000001e0: d3d5 b93d c279 08be 6b53 d6bd 5c81 c2bc
000001f0: 5de4 9cbc 1dee 04be fc37 6bbd e07d e53d
00000200: 3b2d 0fbe 21de d83d 2029 823d 53e0 b73c
00000210: e577 d6bd 3f0d f23d fd3d ff3d f5ff edbc
00000220: 6326 acbc a110 dc3d 500f 033e 8893 ef3d
00000230: 6923 2c3e 29f6 a9bc f6a5 6dbd 2639 8ebd
00000240: c257 b2bd f25d 7abd 1182 c0bd 63a6 b3bc
00000250: 5148 543d 7fb9 d73d d8cf b33c 2b17 a1bd
00000260: 0877 98bb bdbb 533d 8b05 50bd 5542 93bc
00000270: 7fd4 c1bd e747 733d 93a2 e1bd f034 b53d
00000280: 6513 02be 82e2 213e be12 0ebe 1ee0 05be
00000290: 3868 6e3d bb9e c9bc 2427 b43d f6ce 0a3e
000002a0: 1cbd a8bd 3584 cc3d 667f b03d c63e 8ebd
000002b0: a6d6 253e d9f7 84bd 56e7 8c3d 13d7 5dbd
000002c0: 1688 cbbd 55c6 48bd c711 fcbd 7543 3cbd
000002d0: b8f5 3bbd 4898 c03d cc9d 253d b70e e4bd
000002e0: b133 e33d 06fd 4dbc 9638 143e bfff 6d3c
000002f0: de8a f9bd 1514 053e e415 2e3d fcd0 86bd
00000300: c226 f53d 22e2 eeba cf51 79bd a101 29be
00000310: 104a 89bc 76b3 f4bd 716f 3cbd ee01 cebd
00000320: 3bb8 10be b0d8 b8bc 87f0 2b3d 2dd3 2d3d
00000330: 5e0d f8bc be46 eabc dde8 5dbd 3959 63bd
00000340: e71c d1bd b250 b4bd c1d6 aabd 27de 6d3d
00000350: 40b0 963c 0e7d e4bc 2b07 e93d 9530 dcbc
00000360: 3310 04be 6f37 84bd 5059 cfbd fa11 95bd
00000370: 41a0 1f3d 809f b73c 9ae8 983d c017 07be
00000380: 7e85 db3c e289 cb3d 6180 eebc ff87 fc3d
00000390: 178f 073d f157 ee3d aa2a d8bd 02ed ad3c
000003a0: a1a1 e1bc fcfa 863c 20ad b7bd 9393 523c
000003b0: 3d7d 19bd 71be 8f3c d488 8bbc a9eb 82bd
000003c0: 21c1 1ebd 9a7f 1cbc 3cf9 003e 364a bc3c
000003d0: 1add 02bb 1564 7abd 1b45 c43d 6d72 103e
000003e0: 4a84 c6bd 45aa ecbd a152 d9bd e40e dcbd
000003f0: 7b35 823d 5800 2cbd 6273 c53d bf22 d03d

rnn.weight_hh_l1 f4 [50, 50]
0.083505996 -0.021395193 -0.013429471 0.016135372 -0.033310477 0.08737912 -0.043480616 0.096850395
-0.10804332 -0.1054203 -0.14453791 -0.013608382 -0.089511186 0.00975402 -0.09463932 0.06898318
-0.024934007 0.068754084 0.021678912 0.0073819603 -0.066216365 -0.11209203 0.029969245 -0.09030282
0.07354866 0.05975495 -0.03391649 0.11344761 0.04552439 -0.08950968 -0.036080725 -0.10235966
-0.025387106 -0.02208032 0.004772566 0.01677217 0.040860195 0.12411633 0.03399669 -0.02543839
-0.067700006 0.12748015 -0.017946 -0.014089116 -0.04673156 0.07026021 -0.032525837 -0.020222902
0.026329333 -0.07970478 0.15436481 0.14191112 0.057645105 -0.13099834 -0.12117535 -0.09405069
0.07987672 0.07073892 -0.030298235 -0.11345222 0.044349175 0.062338814 -0.062989 -0.06477852
0.017294366 0.02465904 -0.1122358 -0.008810485 0.15448791 0.060657125 -0.12141528 -0.033792116
0.11809864 -0.012800851 -0.108862214 0.14893901 0.13230471 -0.044865485 0.048677903 -0.15894929
0.06276935 0.012463331 0.095108666 -0.006868866 0.12793279 0.027162276 0.015245541 0.12901567
-0.0151377395 -0.10160302 -0.06664231 -0.101959296 -0.07906478 0.060613062 0.05324359 -0.097633146
0.055576205 0.032064147 -0.08030819 0.11948729 0.12811905 0.08684211 0.13677844 0.05339501
0.056042373 0.059046976 0.1434039 0.12989673 0.11789122 -0.038588673 -0.074832015 0.15544957
0.103061624 0.14138061 -0.094682164 -0.09030259 0.11286192 0.12088527 0.14791411 0.12068914
0.0121662095 0.13232371 0.07650482 0.039937664 -0.064581685 -0.12776463 -0.05448033 0.055393398
0.18266548 0.04128393 -0.009928408 0.07471581 0.039244324 -0.12873375 0.023785755 -0.089566424
0.038919643 -0.16315635 0.18435518 -0.10637638 0.079767056 -0.18729478 -0.027266838 0.039328568
-0.103693575 0.07348672 -0.12737161 -0.06165598 -0.014292105 -0.05094519 -0.12995423 0.08088414
0.0644347 0.009704958 0.1570654 0.1612977 -0.14382711 0.11153317 0.016203802 -0.063502304
0.12999287 -0.09753211 -0.1311231 0.046879224 -0.11952276 0.09891477 -0.1834922 0.0229312
-0.054125402 0.048967075 0.035016414 -0.10475552 -0.104839966 0.060107555 -0.13942096 0.05472245
0.021762336 -0.107828446 0.032126855 -0.009300282 0.12519445 -0.02104769 0.11022144 -0.01983614
0.11507806 -0.0069687166 0.21247591 -0.0009892421 -0.015141136 -0.11296951 -0.13152267 0.18385199
0.038676113 -0.048115574 -0.05713977 -0.0016906493 0.079280935 0.15773769 -0.068891354 0.007190273
-0.10532346 -0.070994064 -0.14675172 -0.022007998 -0.084163934 -0.10026309 -0.09031876 0.10339217
0.096062556 0.0836015 -0.019520905 -0.052490477 -0.034422494 -0.110642396 -0.097057216 -0.13956346
0.10560313 0.106943466 -0.09546449 -0.06272811 0.12680292 -0.10060375 0.03430825 0.0791501
-0.034353845 -0.05578823 0.12169244 -0.15015876 0.026961844 0.12493866 -0.035629105 -0.06293716
-0.057738137 -0.019772224 -0.067873344 -0.15195799 0.037553832 0.053270977 0.092463665 -0.027844893
-0.021876499 0.06453635 0.017950749 0.006227999 0.08606759 -0.15218022 -0.008927927 -0.0290803
0.12093377 0.058733333 0.034982838 -0.10375426 -0.11797434 0.072581254 0.08623548 -0.0450847
00000000: 3105 ab3d f944 afbc 4907 5cbc 542e 843c
00000010: 9170 08bd d3f3 b23d bb18 32bd 8059 c63d
00000020: d145 ddbd 99e6 d7bd bf01 14be b1f5 5ebc
00000030: a451 b7bd 53cf 1f3c 43d2 c1bd 0e47 8d3d
00000040: 6742 ccbc f1ce 8c3d f997 b13c 5fe4 f13b
00000050: 729c 87bd 8290 e5bd 1082 f53c aff0 b8bd
00000060: aea0 963d 9bc1 743d 04ec 0abd 3857 e83d
00000070: c877 3a3d da50 b7bd 62c9 13bd f1a1 d1bd
00000080: 9ff8 cfbc cae1 b4bc 2f63 9c3b ca65 893c
00000090: 055d 273d b430 fe3d 1d40 0b3d 2c64 d0bc
000000a0: 4da6 8abd 288a 023e 7d03 93bc 09d6 66bc
000000b0: 9869 3fbd 96e4 8f3d d039 05bd 80aa a5bc
000000c0: 9db0 d73c 423c a3bd cf11 1e3e 2651 113e
000000d0: 461d 6c3d 6e24 06be c82a f8bd a69d c0bd
000000e0: 6896 a33d 91df 903d 0134 f8bc a359 e8bd
000000f0: 7ba7 353d fc56 7f3d 6000 81bd 9aaa 84bd
00000100: eaac 8d3c c101 ca3c e2db e5bd da59 10bc
00000110: 1432 1e3e 9b73 783d 93a8 f8bd 9a69 0abd
00000120: b3dd f13d a9ba 51bc 27f3 debd 7883 183e
00000130: e37a 073e dfc4 37bd 7b62 473d 9ac3 22be
00000140: 388d 803d 0033 4c3c 55c8 c23d 3914 e1bb
00000150: d000 033e 6c83 de3c 6fc8 793c af1c 043e
00000160: 4804 78bc 3f15 d0bd c37b 88bd 09d0 d0bd
00000170: b7ec a1bd 6745 783d f315 5a3d e3f3 c7bd
00000180: e0a3 633d b255 033d 9f78 a4bd c1b5 f43d
00000190: a431 033e 47da b13d a60f 0c3e bab4 5a3d
000001a0: b08c 653d 3edb 713d 79d8 123e a603 053e
000001b0: f470 f13d 280f 1ebd 8741 99bd 2c2e 1f3e
000001c0: f911 d33d 14c6 103e b9e8 c1bd 90f0 b8bd
000001d0: 2624 e73d b292 f73d cc76 173e de2b f73d
000001e0: c854 473c de7f 073e 8fae 9c3d ad95 233d
000001f0: 6743 84bd bbd4 02be c426 5fbd 30e4 623d
00000200: a90c 3b3e 5719 293d c3aa 22bc 9a04 993d
00000210: a8be 203d c8d2 03be 58da c23c 9a6e b7bd
00000220: 346a 1f3d 7512 27be 9bc7 3c3e dcdb d9bd
00000230: e95c a33d 34ca 3fbe b45e dfbc fe16 213d
00000240: 4c5d d4bd 3580 963d b46d 02be fb8a 7cbd
00000250: 6f29 6abc e7ab 50bd b912 05be 96a6 a53d
00000260: 57f6 833d 8b01 1f3c c1d5 203e 392b 253e
00000270: 6a47 13be 816b e43d d6bd 843c 7f0d 82bd
00000280: da1c 053e eabe c7bd 2245 06be 6e04 403d
00000290: 59c8 f4bd d493 ca3d 61e5 3bbe 36da bb3c
000002a0: 99b2 5dbd b391 483d 5f6d 0f3d 108a d6bd
000002b0: 56b6 d6bd 5733 763d 5ec4 0ebe a624 603d
000002c0: ed46 b23c 29d5 dcbd 7397 033d 3660 18bc
000002d0: f932 003e 356c acbc c7bb e13d 677f a2bc
000002e0: 0cae eb3d d559 e4bb 4993 593e 75a9 81ba
000002f0: 8712 78bc 8f5c e7bd e1ad 06be b243 3c3e
00000300: d86a 1e3d d614 45bd 640b 6abd c798 ddba
00000310: 0b5e a23d fd85 213e e916 8dbd 629c eb3b
00000320: d4b3 d7bd 5665 91bd 1546 16be 1e4a b4bc
00000330: 245e acbd bc56 cdbd 0bf9 b8bd 46bf d33d
00000340: 72bc c43d 4337 ab3d 4eea 9fbc 4100 57bd
00000350: 9afe 0cbd 7b98 e2bd efc5 c6bd b9e9 0ebe
00000360: 7446 d83d 2d05 db3d e382 c3bd 9877 80bd
00000370: a0d8 013e 5709 cebd cf86 0c3d 7319 a23d
00000380: 9eb6 0cbd 3382 64bd e339 f93d 38c3 19be
00000390: 16df dc3c d7df ff3d d3ef 11bd 33e5 80bd
000003a0: d37e 6cbd 5cf9 a1bc 2e01 8bbd e09a 1bbe
000003b0: 0cd2 193d ab32 5a3d 975d bd3d f91a e4bc
000003c0: 5836 b3bc a22b 843d 730d 933c 3e14 cc3b
000003d0: 3444 b03d 22d5 1bbe 7146 12bc cf39 eebc
000003e0: 20ac f73d 5d92 703d 2a4a 0f3d 1d7d d4bd
000003f0: 889c f1bd 7ba5 943d 3a9c b03d bcaa 38bd

rnn.bias_ih_l1 f4 [50]
-0.009695619 0.16765048 0.042320877 -0.088034526 -0.03536132 -0.075024046 -0.04062532 -0.08032598
0.0713212 -0.08615872 -0.15245792 0.07308199 -0.04792412 -0.13004121 -0.03946483 -0.11225073
-0.013619591 -0.020327475 -0.08282955 -0.008609286 -0.099294566 0.12940389 -0.10280774 -0.06287187
0.10847845 0.06204903 0.10915259 -0.04313294 -0.11716293 -0.1289306 0.13979852 0.04665227
0.013485614 0.13065544 -0.0682935 0.050992887 0.13078941 -0.05094091 0.13622864 0.075889
0.010708733 -0.07316039 -0.0837642 0.100235544 -0.042250015 -0.09681697 0.11971948 0.006057158
0.027047968 -0.10586782
00000000: 60da 1ebc 91ac 2b3e a858 2d3d 724b b4bd
00000010: 08d7 10bd 35a6 99bd bc66 26bd f381 a4bd
00000020: d910 923d fc73 b0bd ee1d 1cbe 03ac 953d
00000030: 154c 44bd 8629 05be e0a5 21bd b6e3 e5bd
00000040: b424 5fbc ce85 a6bc 8aa2 a9bd f60d 0dbc
00000050: f35a cbbd 7482 043e dd8c d2bd f8c2 80bd
00000060: f329 de3d 2027 7e3d 658b df3d 2aac 30bd
00000070: 1ef3 efbd 6206 04be 5827 0f3e 7316 3f3d
00000080: c4f2 5c3c 8aca 053e 76dd 8bbd ebdd 503d
00000090: a9ed 053e 6aa7 50bd 857f 0b3e b16b 9b3d
000000a0: af73 2f3c 1dd5 95bd 918c abbd 4b48 cd3d
000000b0: 5a0e 2dbd fa47 c6bd 7d2f f53d 207b c63b
000000c0: b393 dd3c 3ad1 d8bd

rnn.bias_hh_l1 f4 [50]
0.15593679 0.103074186 0.05319074 0.021488193 -0.06711497 0.11597658 0.07123235 -0.0112605635
0.034448892 -0.10602902 -0.12805565 0.022878285 0.117448665 0.1098302 0.037983652 -0.1345711
0.02862176 -0.12044248 0.16198337 -0.09660673 -0.0235554 0.13984711 0.100527264 0.07122519
0.16038917 -0.061756533 -0.10428206 0.07476602 0.054565195 -0.1773482 0.13352878 -0.121774495
-0.052739546 -0.030860111 0.08683533 -0.121704616 0.06646954 -0.06617965 0.0962507 0.0934521
0.12667684 -0.05210876 0.13907593 0.13949674 0.059297144 0.111223735 0.16141294 0.06450355
-0.09595832 0.0027478163
00000000: e5ad 1f3e 8f18 d33d 89de 593d 0208 b03c
00000010: 9373 89bd 2185 ed3d 44e2 913d 3a7e 38bc
00000020: 481a 0d3d be25 d9bd 0521 03be 3e6b bb3c
00000030: ed88 f03d a8ee e03d bf94 1b3d 02cd 09be
00000040: 2e78 ea3c 8caa f6bd f8de 253e c0d9 c5bd
00000050: 41f7 c0bc 1534 0f3e 3de1 cd3d 83de 913d
00000060: 0f3d 243e 6bf4 7cbd d591 d5bd ed1e 993d
00000070: c17f 5f3d c49a 35be c5bb 083e e864 f9bd
00000080: 6c05 58bd 58ce fcbc b9d6 b13d 4540 f9bd
00000090: 2f21 883d 3289 87bd 161f c53d d163 bf3d
000000a0: 93b7 013e ff6f 55bd ec69 0e3e 3cd8 0e3e
000000b0: 90e1 723d 45c9 e33d 6f49 253e 701a 843d
000000c0: cc85 c4bd b514 343b

linear.weight f4 [1, 50]
-0.11590851 -0.14400499 0.0268175 0.04774422 -0.1172909 -0.057310965 0.13630238 -0.13329941
0.018835116 0.10055156 0.10418454 0.04244626 -0.025910454 0.013529324 -0.03808074 0.08682684
0.16953713 0.05479525 -0.121708654 -0.07740063 -0.10263014 -0.12165897 -0.121074274 0.15046147
-0.12477982 -0.057865217 -0.056802213 0.11633344 0.042996217 0.12826045 -0.1156975 -0.11485964
-0.088727206 -0.11474637 -0.06913524 0.09611874 0.002029308 -0.12406581 -0.15209486 -0.075179346
0.000655606 0.06716091 -0.042128693 -0.09339917 0.05101938 0.09651042 -0.16370982 0.015315407
-0.10847533 -0.09712045
00000000: 7161 edbd 0b76 13be 60b0 db3c 718f 433d
00000010: 3636 f0bd e7be 6abd da92 0b3e a47f 08be
00000020: 1a4c 9a3c faed cd3d b45e d53d 21dc 2d3d
00000030: 2942 d4bc 19aa 5d3c 8dfa 1bbd 45d2 b13d
00000040: 249b 2d3e fc70 603d 6342 f9bd 3984 9ebd
00000050: c02f d2bd 5728 f9bd caf5 f7bd 9212 1a3e
00000060: 908c ffbd 1404 6dbd 70a9 68bd 3a40 ee3d
00000070: cd1c 303d b556 033e d0f2 ecbd 883b ebbd
00000080: 9cb6 b5bd 2500 ebbd c796 8dbd e7d9 c43d
00000090: 23fe 043b 3716 febd c1be 1bbe a1f7 99bd
000000a0: f9dc 2b3a a98b 893d 238f 2cbd 1048 bfbd
000000b0: b3f9 503d 41a7 c53d 8ca3 27be 79ed 7a3c
000000c0: 5028 debd 16e7 c6bd
