Time-Series---Forecasting/Results/periodic/model15.pth (torch, 366868 bytes, 5 tensors)

rnn.weight_ih_l0 f4 [300, 1]
000000 25 48 5f 3d 90 8b 2f bd 09 a2 1a 3d 63 76 76 bd
       0.05451216 -0.042857707 0.037752185 -0.060171496
000010 ed 7e 46 3d 90 ed d4 3c 4e 36 3e bd dd 07 2a 3c
       0.04846089 0.025992185 -0.046438508 0.010377851
000020 96 eb 96 3c 4d 58 4d 3d 2d 62 2d 3d fe 09 56 bc
       0.018422883 0.05013304 0.042329956 -0.013063906
000030 79 f1 ea bc 98 19 06 bc a4 23 98 bd d5 ce 64 bb
       -0.028679596 -0.008184813 -0.07428673 -0.003491332
000040 74 32 8b bd 96 ec 2e 3c e2 17 8a bd ec 38 83 bd
       -0.067967325 0.010676524 -0.067428365 -0.06407341
000050 c3 0f 91 bd 64 ac 20 bb 4f 10 43 3c 70 5d 72 bd
       -0.070830844 -0.0024516815 0.011905744 -0.05917114
000060 c1 64 31 bd ce 9e 9f 3c 44 0f 2a bd 8e 7e ad 3c
       -0.043308977 0.019484904 -0.041518465 0.02117851
000070 5e f0 7e bd a9 14 ff bc 30 d8 08 3d e2 30 f6 bc
       -0.06224095 -0.031137781 0.033409297 -0.030052606
000080 8e fc e5 bb 24 23 65 3d e2 2a 57 bd df 19 3b 3d
       -0.0070186323 0.055941716 -0.05253113 0.04567897
000090 1c 83 8e 3d d1 f5 ba 3c cf 4b 5f bd 03 2e 60 bd
       0.06958601 0.022822293 -0.054515656 -0.05473138
0000a0 a7 2d e6 bc a5 34 8f bd 1a 56 4f bd 34 1b 1f bd
       -0.02809794 -0.06992463 -0.050619222 -0.038844302
0000b0 2c ca 13 3d ba 72 22 3d d3 9d 38 3b a7 af bf bc
       0.036081478 0.039660193 0.0028170242 -0.023399187
0000c0 51 ea 97 bd 32 83 01 3d 23 9f 77 3d 3c 62 b8 bb
       -0.07417739 0.03161926 0.0604545 -0.005626945
0000d0 e5 01 48 bc b0 47 dd bc 0e cc 14 bb 51 61 57 bd
       -0.012207483 -0.027011722 -0.0022704634 -0.052583043
0000e0 21 3a ea 3c f0 21 77 bd 87 33 77 bd 6d 5a 8f 3d
       0.028592171 -0.0603351 -0.060351875 0.06999669
0000f0 9e 6e 9e 3d 5e 2a a5 3c ad 1c b7 3c 15 36 c2 3c
       0.07735942 0.020161804 0.02235254 0.023707429
000100 bf 2a d5 3c 2a 7f 3f bd 97 50 98 bc ea 3b 82 3c
       0.02602136 -0.046752132 -0.018593116 0.01589771
000110 52 95 c8 3c e9 1a 13 bd 7a e6 22 3d ca ac 9a 3b
       0.024485264 -0.035914335 0.03977058 0.004720305
000120 e4 bd 0e 3d ef e6 1d 3d d0 6e 38 bd 24 3d 70 3d
       0.034849063 0.038550314 -0.045027554 0.05865206
000130 9e f1 83 bd f8 af 59 bd 24 e8 25 bd 2f d0 ed bb
       -0.06442569 -0.053146333 -0.04050459 -0.0072574834
000140 45 75 91 3c 25 b9 2c 3d e5 70 4d 3c 3c 4d e3 3c
       0.017756114 0.042168755 0.012539123 0.02774679
000150 93 3d 93 bd 17 31 14 bc d2 d8 6d bd 8a 93 24 3b
       -0.07189479 -0.009044907 -0.058068104 0.0025112354
000160 6e bb 3f 3d 2e 75 2d 3b 44 e8 71 bd 16 49 14 bd
       0.046809606 0.002646755 -0.059059396 -0.036202513
000170 24 de 9d 3c c8 51 7a bd d4 a2 61 bd 6e 4d 90 bc
       0.019270964 -0.06111315 -0.055086926 -0.017615046
000180 43 73 2b bd 1e ef 7a 3d 54 2b 2b 3d 2a 18 21 3c
       -0.04185797 0.061263196 0.041789368 0.009832421
000190 5e e9 93 bd 6e f5 bb bc 1d 34 42 bc 09 db cc bc
       -0.07222246 -0.022944178 -0.011853245 -0.025006788
0001a0 0c 92 39 3c 25 a0 7d 3d 88 e5 ca bc f2 83 00 bd
       0.011326324 0.061920304 -0.024767652 -0.031375833
0001b0 98 0a 22 3c 67 de 21 3c 1c df 7d bd fb 1e 88 bc
       0.009890221 0.009879685 -0.06198035 -0.016616335
0001c0 a7 e4 fc 3c d3 08 7a bc c9 bf 6d 3d ad 29 1a 3d
       0.030870749 -0.015260893 0.05804423 0.0376374
0001d0 6a 98 11 bd 8c 58 f5 3b 01 a3 0c bd 67 4e 46 bd
       -0.035545744 0.0074873623 -0.03433514 -0.048414614
0001e0 20 16 1d 3c 17 95 93 3b 2e bc 43 3d cb 30 22 bd
       0.009587795 0.004503857 0.047786884 -0.039597314
0001f0 7c f4 21 3d bb 23 68 3d 2a ea 83 bd a6 01 e6 bc
       0.0395398 0.0566747 -0.064411476 -0.028076958
000200 4a 2f f8 3c e7 01 63 3d 2d b0 23 bc 66 ff 6d 3c
       0.030295987 0.055421736 -0.009990734 0.014526224
000210 a1 44 b2 3c f2 ae 31 bc e6 20 20 3c e1 54 6c 3c
       0.02176124 -0.010844933 0.009773469 0.014424534
000220 77 30 30 3b b8 4c 46 3d 8c d3 67 3d d9 32 35 3d
       0.0026884356 0.04841301 0.05659823 0.044237945
000230 3a 8e 77 3d 16 87 9a bd 3d fd 7f bd 04 5a 11 bd
       0.060438372 -0.07545297 -0.062497366 -0.035486236
000240 6d 67 5e bd f1 b1 39 bd 05 1c 83 bd 2c dd ad 3c
       -0.054297853 -0.045335714 -0.06401829 0.021223627
000250 15 e8 72 bd df 0b ae bb 73 26 96 bd 06 fd 09 3c
       -0.059303362 -0.0053114737 -0.07331552 0.008422142
000260 fb d0 cf 3c 1c fa 4d 3c 14 ae 03 3c 3e a8 39 bd
       0.025368204 0.012571838 0.008037109 -0.045326464
000270 2b bb 97 bc 18 0e 75 bd 99 bb 36 bd bd 60 20 3d
       -0.018521866 -0.059827894 -0.0446125 0.039154757
000280 07 1a 63 bd 2b a5 8d bc a8 89 0b bd 45 bf d9 bb
       -0.055444743 -0.017290672 -0.034066826 -0.0066451156
000290 c7 dc 3a 3d ad 32 2a bd 75 af 6c 3d 9d 8d 36 bd
       0.045620706 -0.041552234 0.057784516 -0.044568647
0002a0 d5 13 d0 3c 29 06 0c bc ee 47 2f 3d d5 96 15 bd
       0.025400082 -0.008546391 0.042793207 -0.036520798
0002b0 4f 53 15 3d 38 be a8 3d 31 e1 38 3d 3b 1b 17 bc
       0.036456402 0.08239406 0.045136634 -0.009222801
0002c0 17 3d 7a 3d d0 e9 6c 3d b5 3e 0c 3d 68 4a 09 bd
       0.061093416 0.05784017 0.03423949 -0.033518225
0002d0 6d 1c 19 3c 4c 00 9e 38 b9 09 51 3c 1f 15 40 bd
       0.009345156 7.5340824e-05 0.012758666 -0.046895143
0002e0 0c 28 a6 3b 44 f7 4a 3d f6 b4 f7 3c 65 cf 8f bd
       0.005070692 0.049552217 0.030237656 -0.07021979
0002f0 a3 80 50 3b 4d 15 4b 3d fb e4 08 bd 00 bb 5d 3d
       0.0031814955 0.04958086 -0.033421498 0.054133415
000300 6f 9b 8a bd b2 6f 2e bc e0 ff a9 3c 5b b2 7c 3d
       -0.06767928 -0.010646747 0.020751894 0.06169353
000310 cb 91 82 3c fb b0 4a 3d 11 de 21 bc d4 6b 18 3d
       0.01593866 0.049485188 -0.009879605 0.037212208
000320 1a db 88 3d ad 1f 4a bd aa 63 5e 3d 4f 10 34 bd
       0.06682415 -0.049346615 0.054294266 -0.043960866
000330 14 1f 3c bc 2c 3a 64 bd 67 05 4a bb 33 92 31 3d
       -0.011482019 -0.05571954 -0.0030825974 0.043352317
000340 15 86 0a bd c2 79 48 3d 06 37 66 3c 68 0a 8e 3d
       -0.033819277 0.048944242 0.014051205 0.069355786
000350 f3 37 23 3c 31 e8 91 bd 59 71 1a 3d ca 85 6e bd
       0.00996207 -0.07124365 0.037705753 -0.05823306
000360 37 01 1d bc 64 ce 02 bd 1f cb 16 3d f6 4c 0f 3d
       -0.009582809 -0.03193511 0.036814805 0.034985505
000370 76 6b e8 39 56 23 a8 3c ed 9d 15 bd b3 3c 2f bd
       0.00044330553 0.020524662 -0.036527563 -0.042782497
000380 2d 38 14 bc dc 53 0f bd 2e 60 01 3d ab b5 97 bb
       -0.0090465965 -0.034992084 0.031585865 -0.004629811
000390 0a 55 9a 3b 9c 9c 2f 3d a4 9e 69 bd fa 90 43 bc
       0.0047098445 0.042873964 -0.057036057 -0.011936421
0003a0 98 ef 37 3d fa e1 7d bd 5d b4 3c bd 54 af 0b bd
       0.04490623 -0.061983086 -0.046070445 -0.034102753
0003b0 8e 82 2f bd 44 1a 08 3b e9 f9 54 bc d3 02 74 bd
       -0.042849116 0.0020767609 -0.012999036 -0.059573006
0003c0 36 3f 44 3d ee e9 65 3d df 93 eb 3c de 93 8b 3d
       0.047911845 0.056131296 0.028757034 0.06815313
0003d0 49 d3 4e bc a9 ac a5 bb 0a bb 60 3d 6f 56 f5 bb
       -0.0126236165 -0.005055983 0.054865874 -0.0074871103
0003e0 99 85 95 3c 60 2e ca bb 37 fb 1f bd bb 5e 34 3c
       0.01825218 -0.006170079 -0.039057937 0.011008914
0003f0 a8 50 a2 bd 3b a0 81 bc c0 66 5b bd 19 27 b2 3c
       -0.0792554 -0.015823474 -0.053564787 0.021747159

rnn.weight_hh_l0 f4 [300, 300]
000000 47 04 a1 3b 27 51 c2 bb 5a c5 af bc 1b c5 4d bd
       0.00491384 -0.0059300843 -0.02145641 -0.050236803
000010 ed da 93 3c 09 13 28 3d af 17 f3 3b db d5 26 3d
       0.018048728 0.04103378 0.007418595 0.040731292
000020 43 f9 60 3c 58 c4 0a bd 15 c3 0f 3d 78 64 47 bd
       0.013731304 -0.033878654 0.035098154 -0.0486798
000030 9a 93 0c 3d 0c 9e 88 3b 2c d9 95 3c e9 03 3b bd
       0.03432045 0.0041692313 0.018292032 -0.045658026
000040 dd 18 5c bd 4f 26 82 3b a5 8e 76 bd 62 45 73 3c
       -0.05373465 0.003971852 -0.06019463 0.014848085
000050 8a 8c ad 3c 1d 9c 9c bc d5 15 fd b9 98 05 5e 3d
       0.021185178 -0.01911741 -0.00048272187 0.054204553
000060 12 76 40 bb d5 a1 9c bc b7 b7 46 bd 07 c1 9b 3c
       -0.002936725 -0.019120136 -0.048515048 0.019012941
000070 11 84 90 bc 3a 85 d2 3c 2f 87 65 3d 3e a7 c7 bc
       -0.0176411 0.025698293 0.056037124 -0.02437174
000080 92 0f 8b 3d 3c da 74 3d 3a e8 72 3d 83 16 11 3c
       0.06790079 0.059778437 0.0593035 0.008855465
000090 55 7e 8b 3c 0d 19 23 3d b8 1c 98 3c 1e 88 16 bb
       0.017028013 0.039818812 0.018568382 -0.0022969316
0000a0 75 1e 63 bd bd 96 14 bd 66 9a c3 bc 04 81 60 bd
       -0.055448968 -0.036276568 -0.023877334 -0.05481054
0000b0 f5 a2 1a 3c 3e 03 34 bd 7b 22 01 3d 97 99 be bb
       0.009438266 -0.043948404 0.031527024 -0.005816649
0000c0 a8 56 0a bd 74 1a 72 bd 35 44 e5 bc 57 6a b0 3c
       -0.033774048 -0.05910726 -0.027986625 0.021535082
0000d0 9c ca 00 3b f1 d5 74 3c 7f 48 32 ba e1 94 5a 3c
       0.0019652015 0.014943586 -0.0006800964 0.01334116
0000e0 0e b6 1e 3d bd e8 9d bc 5f 70 f3 bc be 92 b8 3c
       0.03874784 -0.019276017 -0.029716669 0.02253091
0000f0 ac bb 1d 3d 88 3c b4 3c 01 a6 3a bd ad a5 74 3d
       0.038509056 0.02200152 -0.04556847 0.059728313
000100 33 b0 5a 3d ba 37 59 3d 03 59 b7 bc 91 59 e4 3c
       0.053390693 0.05303166 -0.022381311 0.02787474
000110 37 57 24 bd 10 3b 3e 3d 27 98 a9 bc 3c bd be bb
       -0.040122237 0.046443045 -0.020702435 -0.0058208983
000120 85 29 46 3d 1f d7 21 bd f9 a2 82 3d 1c 6b 15 3d
       0.04837944 -0.039511796 0.06378741 0.0364791
000130 b9 8e 5b bd 68 8a 86 3c 78 05 8b 3d e4 c4 64 3c
       -0.053602908 0.01642342 0.067881525 0.013962958
000140 cc 96 88 bb 28 5e 86 3b 90 15 22 bd e9 70 5e 3d
       -0.004168367 0.00410058 -0.039571345 0.0543069
000150 6e de 5f bd 4c f2 5d 3d 2d 05 33 bc 3d 95 b7 bc
       -0.054655485 0.05418615 -0.010926527 -0.02241003
000160 f7 b0 73 3c 5a d8 d1 3c 4a b0 5f 3d a7 7f 17 bd
       0.014873735 0.02561586 0.05461148 -0.036986973
000170 f1 d2 de 3b 8f 40 3d bd 37 90 e4 3c 0d 74 f9 bc
       0.0068000485 -0.046204146 0.027900798 -0.030450845
000180 3b 08 5f bd e1 df e3 3a 7b 44 16 bd 2a 56 3c 3d
       -0.05445121 0.0017385447 -0.0366864 0.04598061
000190 b9 66 6e bc 79 bd 75 3d 79 ee 35 bd 4e 3f 09 3d
       -0.014550858 0.05999515 -0.04441688 0.033507638
0001a0 1e a7 4d bd bf 03 68 bd ea c5 a0 3c ea c1 c8 3b
       -0.050208203 -0.056644198 0.019625623 0.006126632
0001b0 42 33 b9 3b 5c 3e 1b 3d 55 10 0d bd 98 51 7e 3c
       0.0056518624 0.037901267 -0.034439404 0.015522383
0001c0 bd ff 17 bd 33 54 d2 3c de 88 43 bd cf de f5 3c
       -0.037109125 0.025674915 -0.04773795 0.03001347
0001d0 1b cb 35 3d d9 43 45 bb bb cc 64 3d c1 71 16 bd
       0.04438315 -0.0030100255 0.05585931 -0.036729578
0001e0 cd c3 2a bd e8 64 3b 3b ad 52 6b bd b0 03 33 bd
       -0.041690636 0.002859408 -0.057451893 -0.04370469
0001f0 df 71 02 3d 0f 2b 5d 3d 7c 17 4e 3c b1 56 9e bc
       0.031846877 0.053996142 0.012578841 -0.019328447
000200 a0 0c 31 bc 70 1d 19 3d 9d 83 de bc 3b b2 d4 3c
       -0.010806233 0.03738159 -0.027162367 0.025963893
000210 95 0d cb bc fa 19 7b 3d 71 47 62 bd 07 a6 29 3d
       -0.02478675 0.06130407 -0.055243913 0.0414181
000220 de c0 26 bd 74 0f c1 bc e4 65 9a bc 89 95 b1 3c
       -0.040711276 -0.023566939 -0.018847413 0.02167775
000230 3a 4e 0e bc 8b 0d 1b 3d 85 df 28 3d 72 8d 1e bd
       -0.008685643 0.037854712 0.04122879 -0.03870911
000240 8b 42 ac bb be fa 0e 3d 99 d7 2d 3d 38 58 9a bc
       -0.005256956 0.034907095 0.042441938 -0.018840894
000250 9f de 22 bd c3 9b 95 b9 6a c5 60 3d 0c 61 38 3d
       -0.03976309 -0.00028535546 0.05487577 0.045014426
000260 97 1d 43 bd 69 3c a1 3b 0b 2e 83 3d f9 15 f3 3c
       -0.04763564 0.0049205315 0.064052664 0.029673563
000270 46 91 be 3b ca 06 69 bc c8 5a 37 3b e4 13 61 ba
       0.005815658 -0.01422281 0.0027977694 -0.0008586033
000280 10 c8 bf bc e7 85 b7 3a 14 cc 45 3c 2c d4 e5 bc
       -0.023410827 0.0014001698 0.012072582 -0.028055273
000290 c7 94 3a 3d 61 97 6e bd ce 26 1b 3d 57 01 0b 3d
       0.04555204 -0.058249835 0.037878804 0.033936825
0002a0 55 b9 94 bc 8a 64 0c 3d 32 c5 15 3d 31 03 16 bc
       -0.01815478 0.03427557 0.036565013 -0.009156034
0002b0 cd a1 aa bb f2 ad 24 bc 07 21 3b bd 17 58 8d 3b
       -0.0052072764 -0.010051237 -0.045685794 0.0043134796
0002c0 c1 ac ab bc 1e 37 79 3d 03 39 06 3a 78 52 0a bd
       -0.020956399 0.06084358 0.000512019 -0.033770055
0002d0 03 6f 78 bb 2d 3a 19 3d 69 45 41 bd 42 8f c6 bc
       -0.0037907965 0.037408996 -0.047185335 -0.024238233
0002e0 3a d3 1a 3d 2c 06 44 3c 73 3e ba 3c 14 76 7e bd
       0.037799098 0.011964362 0.022734856 -0.062124327
0002f0 a1 36 de 3c 45 e1 f4 bc bf 46 ca bc 6f ee 65 3d
       0.027125658 -0.029892573 -0.024691937 0.05613559
000300 34 3e 30 bd f4 e3 09 3d 0f 86 1c 3d 4b 52 d5 bb
       -0.04302807 0.03366466 0.038213786 -0.006510054
000310 9f 3a 72 3d 2e 2a 3d 39 29 0c 5e 3d 2d f9 a5 bc
       0.059137937 0.00018040158 0.054210816 -0.020260418
000320 52 5d f6 bc 45 55 3b 3d ab 06 2c bd 36 4e 0e bd
       -0.030073795 0.045735616 -0.041998547 -0.034742557
000330 6d 0e e5 bc bc 12 45 3d f1 a1 70 3c f2 f5 5a bb
       -0.02796098 0.04811357 0.014687047 -0.0033410755
000340 b0 fd 91 3c d2 84 6e bb 2b 61 a4 bc 03 91 3e 3c
       0.017821163 -0.0036395085 -0.020065865 0.011631253
000350 35 b8 64 bc 8b f2 aa 3c af 9a 18 bd e1 06 c8 bc
       -0.013959934 0.020867607 -0.037256893 -0.024417343
000360 d9 8b 5f 3d 1d e3 06 3b b8 2e 64 3c c6 e6 0b 3d
       0.05457673 0.0020582147 0.013927154 0.03415563
000370 d4 4f 48 3d 55 ba 6c bc 91 5a 07 bd a0 8f f7 3c
       0.048904255 -0.014448722 -0.033045355 0.030219853
000380 25 f9 11 3d d9 fc 1d 3d 79 07 dd bc 38 3f c9 b9
       0.035637993 0.038571212 -0.026981102 -0.0003838481
000390 75 8d 22 bd 35 32 0e 3d a7 37 80 3c a1 24 0a 3d
       -0.039685685 0.03471585 0.015651537 0.03372634
0003a0 1d 09 74 3c 6a 27 60 3d 91 dc 48 3d c0 5e 3a 3d
       0.014894751 0.05472509 0.049038474 0.045500517
0003b0 6b 31 ab 3c 8c 4e 5f bd 7e 0b 5e 3d d5 40 66 bd
       0.020897588 -0.054518268 0.05421018 -0.056214172
0003c0 d7 db 4a 3d b2 61 45 bc 4a 15 5a bc b0 35 7f bd
       0.049526062 -0.012047218 -0.01331074 -0.06230706
0003d0 f3 6d e6 bc 95 f2 19 bd c6 96 37 bd bb 3e 11 bd
       -0.0281286 -0.03758486 -0.044821523 -0.035460215
0003e0 a6 e8 4d 3c e7 af 1e 3c 8d dd ff bc 0b f7 20 bd
       0.012567675 0.009685493 -0.031233573 -0.0392981
0003f0 ef ea df 3c 43 dc b6 bc 7b 40 05 3d 81 df 6a 3d
       0.027333705 -0.022321826 0.032532196 0.057342056

rnn.bias_ih_l0 f4 [300]
000000 7c d9 38 3d 96 94 ce 3c 03 0b 7c bc c2 5e 20 bd
       0.045129284 0.025217336 -0.015383485 -0.039152868
000010 46 cd 72 bc d5 bf 9a bd 87 d7 ba 3c 7a 1d d3 bb
       -0.014819449 -0.0755612 0.02280785 -0.006442723
000020 ce 78 7b bb fc 77 61 3c 52 67 bf 3d 2f 4c d2 3b
       -0.0038371566 0.013761517 0.09345879 0.006417773
000030 60 03 41 bd 4b 9e dd 3c e4 53 0b bd 64 ba 38 3b
       -0.04712236 0.027053019 -0.03401555 0.002818727
000040 31 6d 1a bd 05 de 67 3d 26 01 20 bd dc f8 85 3c
       -0.03770179 0.05660822 -0.039063595 0.016354017
000050 ee cb 69 3d 00 94 e0 3d 97 5b 1a 3d 5b 48 81 bd
       0.057079248 0.10965729 0.037685003 -0.06312629
000060 e8 34 15 3d 8d e8 70 bd 67 16 8f 3d e4 7a 31 bd
       0.03642741 -0.058815528 0.06986695 -0.04333009
000070 d7 b0 3f bd eb 17 bf 3c 71 3b 3c bd 25 91 71 3d
       -0.046799507 0.023326835 -0.045955125 0.05897631
000080 da 10 88 3d b5 5c a2 3c 88 82 68 3d 1f bd 11 bd
       0.06643839 0.019819597 0.05676511 -0.03558075
000090 ce 5c e1 bc 0d 01 e3 3c b2 58 03 3c 29 6e 0e 3c
       -0.027510073 0.027710462 0.008016752 0.008693256
0000a0 cb bf 6f 3d 0f fd d3 bb 2b 9d 08 bd f3 63 58 3d
       0.058532517 -0.006469376 -0.033353012 0.052829694
0000b0 37 48 76 bc 2d 09 3b 3d 58 a4 1e bd 15 1a 15 bd
       -0.015031866 0.045663048 -0.03873095 -0.036401827
0000c0 cc c0 39 bc db 31 4c bc 2e b1 4b 3d cd 5e 43 bd
       -0.01133747 -0.012463058 0.04972952 -0.04769783
0000d0 d6 ac 51 3d 0b 31 11 bd 1f d3 80 bd 3a 48 f6 bb
       0.05119022 -0.03544716 -0.06290268 -0.0075159343
0000e0 20 a1 09 bd 6f 7b 78 b9 83 23 88 3d c9 fa f9 bc
       -0.033600926 -0.00023697106 0.06647398 -0.030515091
0000f0 73 11 2f bd 6e 82 22 bd 9c 7f 0b 3d b2 a4 37 bd
       -0.04274125 -0.03967517 0.034057245 -0.0448348
000100 8a 3d ed bc 94 8c a8 3c 7e d4 63 bd 36 82 0b 3c
       -0.028960008 0.020574845 -0.05562257 0.008514931
000110 a8 6d 1c bd d2 08 2a 3c e6 db 2b bd e2 ea a9 3a
       -0.038190514 0.0103780795 -0.04195776 0.0012963677
000120 fd 98 0a ba b1 8a 2e bc 4d 91 10 3d fd f4 6d bd
       -0.0005287079 -0.010653184 0.03529482 -0.058094967
000130 e2 93 9f bc 70 37 5e bd dc b3 87 bc 2c 93 b9 bc
       -0.019479696 -0.054252088 -0.016565256 -0.022653185
000140 aa 38 8c bc f5 df 79 bc 4b 66 26 3d a8 10 70 bd
       -0.017116863 -0.015251149 0.040624898 -0.058609635
000150 92 7e 30 3d f3 68 56 3d 6e 13 6a bd b7 92 2c 3c
       0.043089457 0.05234618 -0.057147436 0.010533026
000160 7f cf 6a 3d 01 03 35 bd 24 58 70 3d e9 55 15 bd
       0.05732679 -0.044192318 0.058677807 -0.036458883
000170 89 26 16 bd c5 60 37 bd b9 e4 4d 3b f8 9c 4b bd
       -0.036657844 -0.04477002 0.0031416847 -0.049710244
000180 95 2c 46 3c bb 8e af bc f7 36 a0 bc c2 d0 9d bc
       0.01209559 -0.021430364 -0.01955746 -0.019264583
000190 f1 4f fd bc b5 93 d4 3c 08 16 81 3a 93 19 d2 bc
       -0.030921908 0.025949338 0.0009848485 -0.02564696
0001a0 ff 65 4e bd 1b 85 a0 3c 66 5f 30 bc 48 01 a0 bc
       -0.05039024 0.01959472 -0.010764932 -0.019531861
0001b0 d8 59 f2 3c ab 29 31 3d 81 f9 28 3a b1 84 aa 3d
       0.029583856 0.04325263 0.00064458704 0.0832609
0001c0 79 a8 bf 3c 07 25 01 bd 9a 71 ef bc 98 9d 59 3d
       0.023395764 -0.031529453 -0.029228974 0.05312881
0001d0 16 16 e5 3c d9 9b 08 3d a0 44 7e bd 85 ce 13 3c
       0.027964633 0.033351753 -0.062077165 0.009021406
0001e0 7c c1 50 bd d1 ec f1 3c 5f 5c 10 3d a5 b8 a2 bd
       -0.05096577 0.029531868 0.035244342 -0.079453744
0001f0 cf bf 1f bc f3 8e 54 bd ae d4 6e 3d e0 74 b4 3c
       -0.009750321 -0.05189414 0.058308296 0.022028387
000200 87 f6 e6 3c f0 98 e6 3c 5b 48 7a bd cb 03 81 bd
       0.028193725 0.028149098 -0.06110416 -0.062995516
000210 30 42 84 bd b5 06 b6 3b cf 87 20 bd 92 36 25 bd
       -0.06457937 0.0055549988 -0.039192017 -0.040335245
000220 79 3a fa 3a 11 6b 07 3d d2 18 e5 3a 35 25 90 3c
       0.0019090913 0.03306109 0.001747871 0.017595867
000230 a4 8f 2d bd 84 77 9c 3d 85 f2 7b 3c a6 3f 00 3d
       -0.042373314 0.07639983 0.015377645 0.0313107
000240 b6 32 26 bd dd 5f 22 bd d0 0a 46 3d 17 40 51 bd
       -0.040575705 -0.039642204 0.048350155 -0.05108651
000250 df 81 c2 bc ad 90 58 3d b0 d2 11 3d 50 82 45 bd
       -0.023743568 0.05287235 0.035601318 -0.04821998
000260 39 74 be 3c cd 60 34 3c c5 b7 b3 bc a0 45 0f 3d
       0.023248779 0.011009407 -0.021938214 0.03497851
000270 53 4b 38 bd 95 87 83 bb 89 a8 6f 3d 76 01 f6 ba
       -0.04499371 -0.0040139654 0.058510337 -0.0018768746
000280 4c e5 74 bc 0c 02 ff bc 0d 6d 3e bc 9f 0a 1c 3d
       -0.014947247 -0.031128906 -0.011622679 0.038096067
000290 3f d6 65 bd 41 d0 97 bc 26 b1 4a 3c 35 bd 6d bd
       -0.056112524 -0.01853192 0.012371337 -0.05804177
0002a0 50 51 c6 bc ea f7 b9 3c 7c 62 ba 3c ed 8c 3d bd
       -0.024208695 0.022701222 0.02275204 -0.046276975
0002b0 6e fb e6 3c 2c 61 8c bd 85 89 af bc 93 04 98 3d
       0.028196063 -0.068544716 -0.02142788 0.074227475
0002c0 63 a6 fc 3c 1d d2 41 3d a6 ba 92 bc 4f 43 9f 3c
       0.030841058 0.04731952 -0.017911267 0.019441275
0002d0 d1 78 59 3d 6e 3b 7a 3c 50 a1 53 bd d4 5f 36 bd
       0.053093735 0.015272958 -0.05166751 -0.044524983
0002e0 52 c0 2d bd 42 a2 a2 3c 90 c9 7c 3b cf 9d c0 bc
       -0.04241974 0.019852761 0.003857229 -0.023512749
0002f0 4b 91 1d b9 dc bc 12 bd 82 52 e0 bc a8 a8 88 3d
       -0.00015026813 -0.03582464 -0.027383093 0.066727936
000300 ab 58 29 bd f0 d8 ea bc 20 5c 99 bd d8 4b d8 3b
       -0.041344326 -0.028667897 -0.074882746 0.006600838
000310 8f 65 a5 bc a1 31 59 3c 6e ca 68 3d 9f 25 20 3d
       -0.020190028 0.013256461 0.056833677 0.03909838
000320 e9 ce 9e bd 73 ee 34 3d 12 b1 47 bd 22 f4 06 3c
       -0.07754309 0.044172715 -0.04875285 0.008236917
000330 9b b8 3d 3d 9b a1 78 3c 79 a4 77 3d 13 ad b6 3b
       0.04631863 0.0151752485 0.060459588 0.0055748313
000340 ea fb 75 bc 5e 21 6a bd 86 a8 b8 bc ac eb f8 3c
       -0.015013674 -0.057160728 -0.022541296 0.030385815
000350 6a 8e d8 3b 54 71 cd 3c c8 dc 42 bd 51 65 fe b8
       0.006608774 0.025078453 -0.047573835 -0.000121305355
000360 2c d5 2d 3d 36 c5 6e bc 75 9a 50 bd 41 39 4f 3d
       0.042439625 -0.014573386 -0.05092855 0.05059171
000370 78 b4 42 bd d2 0e 7d 3d db fb 43 3d 64 62 0a bd
       -0.04753539 0.061781712 0.04784761 -0.03378524
000380 ac c9 71 bc 8e dd 01 bd b4 ed 93 bc f9 a0 85 3d
       -0.014757555 -0.03170543 -0.018057682 0.06524844
000390 0a 4a 2a 3d 2e dd 29 3d 18 22 da bc 67 be 34 3d
       0.041574515 0.0414707 -0.026627585 0.044126894
0003a0 6e f3 7c 3d 2b de 9e 3c 19 13 82 bc 68 d7 3c b9
       0.06175559 0.019393047 -0.015878247 -0.00018009322
0003b0 fe d1 9a 3c 94 2a 51 3c c5 54 05 bd 46 6f 41 3d
       0.01889896 0.012766499 -0.032551546 0.04722526
0003c0 8c ee 23 bc 19 41 6c 3d aa 8f 0e bc d8 a8 9c bc
       -0.0100056045 0.05767927 -0.008701244 -0.01912348
0003d0 65 08 11 3d aa 61 ef bb 82 a8 76 bd fa 95 1b bd
       0.035408396 -0.0073053436 -0.060219295 -0.037984826
0003e0 55 1f b2 bc 30 6d 91 bb 48 f0 f8 3c fb cf 83 3c
       -0.021743456 -0.004438065 0.030388013 0.016090384
0003f0 8d 7c 3f 3d 0e dc b4 bc 4d c2 b2 bc 96 e4 aa bc
       0.04674964 -0.022077587 -0.021821165 -0.020860951

rnn.bias_hh_l0 f4 [300]
000000 7b fa 17 3d 11 c7 5d 3d b5 4e 17 bd 9a 8a 73 3d
       0.03710411 0.054144923 -0.036940295 0.059458353
000010 70 51 55 3d 5a 0f 0c bd a3 b9 5e 3d ce 0f 40 bd
       0.052079618 -0.034194328 0.054376256 -0.046890073
000020 35 20 6d bd 12 c7 6b 3c b9 d9 91 3d 05 aa 76 3a
       -0.057892043 0.014390724 0.071216054 0.000940949
000030 68 e8 54 bc 42 32 81 bd 9d 2b a0 3b 3a 0a 48 bd
       -0.012994863 -0.06308414 0.0048880116 -0.048837878
000040 24 65 5d 3d 1c 28 5a bd 8e 1b 3b 3c 92 0f 0f bc
       0.054051533 -0.053260908 0.011420144 -0.00873174
000050 fc 89 e4 bc cc 2a ea 3c 04 08 b9 bc c9 12 a9 bc
       -0.027897827 0.02858486 -0.02258683 -0.02063884
000060 33 d7 02 bd 69 04 ff 3a 6b 6e 96 3d dd 20 57 bd
       -0.03194351 0.001945627 0.07345279 -0.052521575
000070 74 a1 53 bd 22 e2 6e bc 31 b3 e9 bb f2 9a 25 bd
       -0.051667646 -0.014580281 -0.007131957 -0.04043097
000080 16 21 8b 3c f5 8e 73 3c 03 10 ac bb 46 80 2c 3c
       0.01698355 0.014865627 -0.005250932 0.01052863
000090 75 88 4f bc 33 aa c8 bc 94 70 f1 3b 78 51 79 3d
       -0.012666811 -0.02449522 0.0073681567 0.06086871
0000a0 08 c0 4a 3c 25 9b 4a 3d 8f 62 33 bc 96 1c 5f bb
       0.012374885 0.049464364 -0.010948791 -0.0034044138
0000b0 85 f0 8c 3c de 76 90 bc 49 d5 00 bb 40 0e 3b bd
       0.017204532 -0.017634805 -0.0019658378 -0.045667887
0000c0 5d 27 21 bd b6 12 ae bc 15 06 c1 b9 6f ce d4 3b
       -0.03934418 -0.021249156 -0.0003681636 0.0064943354
0000d0 9c 04 b6 3b 29 fc 4a 3b 23 34 3b bd 52 10 15 3d
       0.0055547487 0.0030973053 -0.04570402 0.036392517
0000e0 e3 f8 55 3d 27 d7 5a 3d 51 02 1c 3d fc f1 ed 3c
       0.05223931 0.05342784 0.038088147 0.029046051
0000f0 90 56 85 bd b2 1a 85 3c 3d ae 60 bd df 8e b6 3c
       -0.06510651 0.01624808 -0.054853667 0.022284923
000100 0e 05 42 bd f4 49 7e bc bd 06 49 bc 40 bf 23 bd
       -0.0473681 -0.0155205615 -0.012269673 -0.039977312
000110 fe 5a e0 3c 7d 80 8e 3d 76 ba 75 bd 01 f3 35 3d
       0.027387138 0.06958101 -0.059992276 0.0444212
000120 dc be 28 3c e1 05 8e ba f3 20 c4 3c e4 6f 80 bd
       0.010299411 -0.0010835492 0.023941493 -0.062713414
000130 7f 08 51 bd fa 49 a7 bc 80 1e 52 3d cc 5e 8b bc
       -0.051033493 -0.020421017 0.05129862 -0.017012976
000140 62 cd 7d bc 81 32 ca 3c 89 db 05 3d 4a e9 1d bc
       -0.015490862 0.024682285 0.03268007 -0.00963814
000150 04 02 1b ba 74 53 3f bd 61 a5 d6 bb 57 c1 73 3c
       -0.0005913081 -0.046710446 -0.0065504764 0.014877639
000160 89 0b 14 bd 00 dd fc 3c 80 1d 86 ba e7 4a e2 3c
       -0.036143813 0.0308671 -0.001023218 0.027623607
000170 78 14 1a bc bc e1 6b 3c d2 59 ab bc 75 44 b5 bb
       -0.009404294 0.014397081 -0.020916853 -0.0055318424
000180 96 33 2a 3d fc bd f4 3c 33 87 b4 bc 3e 36 f6 3c
       0.041553102 0.029875748 -0.022037124 0.030055162
000190 16 53 9a 3c 73 31 a1 3c b6 fc 53 bd 62 dc 85 3d
       0.018838447 0.0196769 -0.051754676 0.06536175
0001a0 9d ef 1c bd 24 b2 d1 3c e6 69 c6 bb 57 c9 92 3c
       -0.03831445 0.02559764 -0.0060551045 0.017918272
0001b0 fe b2 2d bd 76 cc e0 bc 91 31 9b 3c 45 a9 8c 3d
       -0.04240703 -0.027441245 0.018944534 0.06868223
0001c0 c5 c3 1c bc 86 6d d0 bc ad 0d 4a bd 94 e8 22 bd
       -0.0095681595 -0.02544285 -0.04932945 -0.039772585
0001d0 63 b0 25 3d 1e f2 86 bd da 12 c4 3c 5d a4 bc bc
       0.04045142 -0.06589149 0.02393477 -0.023027593
0001e0 00 17 9d b9 4f 8d 4e 3a 78 21 46 3c 0b 45 85 bc
       -0.0002996251 0.0007879333 0.0120929405 -0.016268274
0001f0 94 13 0f 3d ad 7c ab bc b3 85 1a bd d0 33 66 3d
       0.03493078 -0.020933473 -0.03772516 0.056201756
000200 da 77 3e bd 22 19 3a bd d5 23 29 3d d6 77 96 bd
       -0.046501018 -0.045434125 0.041293938 -0.07347076
000210 ed 9f a3 3b 88 f3 21 3d c2 c5 5e 3c 12 6e 2d 3c
       0.00499343 0.03953889 0.013596954 0.010585325
000220 84 28 32 bc 52 38 a6 3c 96 f9 36 3c f8 46 01 3d
       -0.0108739175 0.020290527 0.011167904 0.03156182
000230 64 01 ef bc c0 cb c8 3b 61 7e 08 bd fd 32 80 3c
       -0.029175468 0.0061278045 -0.03332365 0.015649313
000240 c5 f9 69 bd 03 9f de bc 0f 9c 3b 3b c5 54 4d bd
       -0.057122964 -0.027175432 0.0028626954 -0.05012967
000250 3f eb f4 bc e0 b8 44 3d 6a 61 fa 3c b8 92 e9 3c
       -0.02989733 0.048027873 0.030564029 0.028512344
000260 0f 28 9d 3c b4 de 30 3c 93 be 82 3d 98 33 1b 3d
       0.01918414 0.010795284 0.063840054 0.037891
000270 40 33 2b b8 12 b1 38 bc 59 85 24 3d 0b aa 67 3d
       -4.0817307e-05 -0.011272686 0.040166233 0.05655865
000280 e0 d1 26 3c 45 38 85 3c 8e 9e 59 3d c5 b2 36 3d
       0.010181874 0.016262183 0.053129725 0.04460408
000290 21 04 47 bc 31 39 a9 3c 2b 9e 8a 3d 0d f2 33 3c
       -0.0121469805 0.020657154 0.067684494 0.010983002
0002a0 65 86 36 bd 47 c9 15 bd b4 bd 4d 3c c0 c0 db 3b
       -0.044561762 -0.036568906 0.012557436 0.006706327
0002b0 25 dc 15 3d 0b ae af bd 49 16 23 3d 87 cd c1 bc
       0.0365869 -0.08578118 0.039816175 -0.023657573
0002c0 41 6a 56 bd 17 2c 21 3d 39 3a ad 3c c6 ea 59 bc
       -0.052347425 0.039348688 0.021145927 -0.013300603
0002d0 7e 05 28 3b b9 61 f5 3c 11 8f 01 bc 19 8f 34 3d
       0.002563804 0.029953824 -0.007907645 0.04408178
0002e0 5b 1a 07 bd 1a eb 16 ba 06 15 9c 3c af d0 5a bd
       -0.03298412 -0.0005757079 0.019052994 -0.053421672
0002f0 28 c8 75 bb 62 aa 0f bc 71 65 20 bc b7 23 19 3c
       -0.0037503336 -0.00876865 -0.0097898105 0.009346894
000300 46 dd f8 3c a7 f8 21 3c a7 fa 63 bd a9 a3 27 bd
       0.030378949 0.0098859435 -0.055658963 -0.040927563
000310 04 ec 48 bd c0 3f ca 3c bd 6c f3 3c 9a 9c d4 bb
       -0.049053207 0.024688601 0.029714936 -0.006488395
000320 d5 1b 9c bd 21 39 71 3c f3 c6 26 bc 1b 0f 64 3d
       -0.07622496 0.014723093 -0.010179269 0.05567847
000330 bc b7 48 bd d6 19 4a bd d1 03 8c 3d 12 e7 67 3c
       -0.049003348 -0.049341045 0.068366654 0.014154213
000340 83 e9 49 3d 73 9a 6f ba 02 de 99 3c a1 8f c5 bc
       0.04929496 -0.0009140141 0.01878262 -0.02411634
000350 f9 22 77 3d 86 e0 26 bd 05 d8 52 bd 26 1e d7 bc
       0.060336087 -0.040741466 -0.051475544 -0.026259493
000360 4a ef c3 3d d9 4a 73 3c 54 9c a8 3c f0 fc fb bc
       0.09567125 0.014849388 0.020582356 -0.030760258
000370 03 85 26 bd a5 0f 34 3d 7c c7 3d bc 8f 7c bc bc
       -0.040654194 0.043960232 -0.011583205 -0.023008613
000380 82 89 92 bc b1 c5 3c 3d 24 ea 39 3d bb 0e 56 3d
       -0.017887834 0.04608697 0.04538931 0.05226014
000390 21 a9 41 bd fe 79 43 bb 69 a2 0f 3c 02 18 1e 3c
       -0.047280435 -0.0029827352 0.008766749 0.009649279
0003a0 50 77 ee 3a 47 63 3a bd 08 41 f6 3c 06 43 a4 bc
       0.0018193517 -0.045504835 0.030060306 -0.02005149
0003b0 ed ea 1b bd 56 98 4f 3d 65 11 19 3d 14 93 14 bd
       -0.03806584 0.05068239 0.037370104 -0.036273077
0003c0 22 12 e1 3c 3d bd 83 3d f7 de 02 bd 95 95 58 bd
       0.027474467 0.06432579 -0.031950917 -0.052877028
0003d0 d8 4a 4c bd 07 12 47 3c 89 3b 0e bd 12 33 7a bc
       -0.049876064 0.012150294 -0.034724746 -0.015270965
0003e0 79 55 78 3d 3f 8b 5b 3b 84 3f 33 bc 22 8b f0 3c
       0.060628388 0.0033499745 -0.010940436 0.029363219
0003f0 e4 e0 96 3d 76 34 06 3d 98 b2 ef bc ca 4e 7c bd
       0.07367113 0.032764874 -0.029259965 -0.061598577

linear.weight f4 [1, 300]
000000 06 4d 12 bd 3c 8c 6e bd 93 72 27 3d 7b fb 86 bd
       -0.035717987 -0.058239207 0.04088075 -0.06590935
000010 2e 96 8d bb a6 4f d5 3c 65 34 f6 bc c4 f3 34 ba
       -0.0043208813 0.026038956 -0.03005428 -0.0006902779
000020 a2 32 1b 3d 0e 9e fd 3b 27 27 94 bd 88 8e ed 3b
       0.037890084 0.007739789 -0.0723403 0.007249657
000030 85 10 75 bd 5a 53 1e 3d b4 f5 55 bd e2 58 70 bc
       -0.059830207 0.03865371 -0.052236274 -0.014669629
000040 2c c4 96 bb 93 85 6a 3c 80 1e 54 bd fc a8 b7 bc
       -0.004601022 0.014314073 -0.0517869 -0.022419445
000050 e2 06 31 bd 73 8f 12 bd bd 76 5e 3d 36 ee f1 bc
       -0.043219455 -0.035781335 0.054312456 -0.029532533
000060 eb 2c a3 3c ba 96 90 3c 06 3e a0 bd 5e 21 2f 3d
       0.01991888 0.017649997 -0.0782433 0.04275643
000070 6f 8c 6a b9 18 2a 06 3d 6d 31 61 3d 86 c1 83 bc
       -0.00022368295 0.032754987 0.054978777 -0.01608349
000080 e1 32 0d 3c 9d a8 ac 3b 0c 57 0c bd d8 45 7d 3c
       0.0086180875 0.0052691237 -0.034262702 0.015458547
000090 7d 43 70 3c c0 a5 44 3d 4f 42 54 bb de 83 97 bd
       0.014664528 0.048009634 -0.0032388156 -0.073981985
0000a0 92 f1 90 bc 19 61 49 bd ac 74 2e bd f6 da 14 3a
       -0.017693315 -0.049164865 -0.042591736 0.00056783797
0000b0 6e ff 8b 3d 72 e8 d8 3c 59 91 3b bc 73 eb 7a 3d
       0.06835829 0.026478026 -0.011448228 0.061259698
0000c0 04 16 88 bc 99 e2 6d 3d 21 a2 c4 3c 84 81 15 bd
       -0.01661206 0.05807743 0.02400309 -0.03650047
0000d0 31 ba f2 3b 4b c8 c7 3c 98 36 7c 3d 28 56 d5 3c
       0.0074074497 0.0243875 0.061575502 0.026042059
0000e0 00 37 aa 3b 40 99 04 bd 55 54 b0 bd b6 9f 1e 3d
       0.005194545 -0.032372713 -0.08609835 0.03872653
0000f0 40 a1 91 3d 42 76 90 bc f8 42 0d 3d 2c a3 90 3c
       0.07110834 -0.017634515 0.034487695 0.017655931
000100 9f f0 4d bc 07 ed 2b 3c 84 9a 1e bc 05 1f ef bc
       -0.012569576 0.010493523 -0.009680394 -0.029189596
000110 4b 9f e6 b9 1b cf 96 bd 85 f9 68 3d 20 d2 cf 3c
       -0.000439877 -0.07363721 0.056878585 0.02536875
000120 0e 44 27 bc d1 e8 bd 3c 85 16 c5 bc c6 1c 5b 3d
       -0.010209097 0.023182305 -0.02405859 0.053494237
000130 1f 1c 37 bd da 57 eb bc 67 5d 54 bd 41 ff 02 bd
       -0.044704553 -0.028728414 -0.051846888 -0.03198171
000140 4f 6f 7d 3d 3b 36 d7 3b 8c 5e 54 3d 38 e5 ac bc
       0.06187373 0.006567744 0.05184798 -0.021105394
000150 ff 94 5f bd 8e 42 d9 3c 67 be 86 3d 86 e1 3f bd
       -0.054585453 0.026520994 0.06579285 -0.046845935
000160 28 96 0c bd 6c a8 20 bd 95 54 f1 bc f3 c5 98 bc
       -0.034322888 -0.03922312 -0.029459277 -0.018649077
000170 17 33 d5 bb 15 e4 e1 bb bd 62 a7 bc 40 0f 0d 3d
       -0.0065063345 -0.0068936446 -0.020432824 0.03443837
000180 e5 e3 95 bd f0 19 51 3d 67 a7 7b 3d 5e 02 09 bc
       -0.07318858 0.051050127 0.061438944 -0.008362381
000190 9a b4 46 bd 30 e5 93 bd 23 d3 05 3c aa 28 86 bd
       -0.04851208 -0.072214484 0.008168015 -0.06550725
0001a0 28 80 1e 3d 7e 42 60 3d ee 48 38 3d d3 40 86 bc
       0.038696438 0.054750912 0.044991426 -0.016388332
0001b0 ca ee b2 bc 67 ad 43 bd c8 5e 89 bc 6b 3f 92 bd
       -0.02184238 -0.04777279 -0.016768828 -0.07141002
0001c0 b2 f4 2d bc 1b 3a 1f bd ec d6 7e 3d 36 39 57 3c
       -0.010617422 -0.038873773 0.062216684 0.013136199
0001d0 01 62 f4 3c c9 db 1a 3d 74 8a 3d 3d 09 11 32 3d
       0.029831888 0.03780726 0.046274617 0.043473277
0001e0 2a 0c 72 bc af 11 44 3c 6a e8 81 3c 7a 45 06 3c
       -0.014773408 0.011967107 0.015857894 0.008195275
0001f0 c6 b1 a0 3b 94 2c c3 bc 87 0b 73 bb 9c eb 83 bd
       0.0049040047 -0.023824967 -0.0037085728 -0.06441423
000200 b5 84 3d 3b c8 6a 75 3d 75 99 48 3d 87 6c 8f 3d
       0.002891821 0.059916288 0.048974473 0.07003122
000210 58 9c dd 3c f2 b7 aa bb 16 fb 3a 3d 77 8f 4b bb
       0.02705209 -0.0052099163 0.04564961 -0.0031060854
000220 b6 12 ba bc 1d 1c 68 bc 51 e7 4c bc be 50 c2 3a
       -0.022714 -0.014166859 -0.012506322 0.0014825088
000230 53 1d 34 3d da ec 7e bd a6 60 40 bd 69 8c e6 3c
       0.04397328 -0.062237598 -0.04696717 0.028143125
000240 4a ca b8 bb 2f 96 73 bd b3 8f c8 ba cd e9 59 3d
       -0.005639349 -0.059469398 -0.0015301615 0.053201485
000250 d4 68 78 3c 14 c8 19 bd 1c 8e 03 bc 9f 86 a5 bc
       0.015161712 -0.037544325 -0.008029487 -0.020205794
000260 72 c1 00 3d 95 39 7c 3b 5d 18 b6 bc 10 2b 04 bd
       0.031434484 0.003848647 -0.022228414 -0.03226763
000270 1f 3b b0 3c 4a 2c 32 3d 1c 9f 8d bd fd 40 bd bc
       0.021512566 0.04349927 -0.06915113 -0.023102278
000280 33 35 93 bd b6 47 75 bd 5c 15 84 bd 96 aa 7b 3c
       -0.07187881 -0.059882842 -0.064493865 0.015360495
000290 6b c3 ac 3a b8 f7 57 bd 54 4c 48 bd 60 bd 9e bc
       0.0013180798 -0.052726477 -0.048900917 -0.01937741
0002a0 86 c7 4f 3d da e3 8e 3c aa 25 40 3d b5 db f0 bc
       0.05072739 0.017442632 0.04691092 -0.02940164
0002b0 fb 52 2f bd 2e d7 d9 3c 6f e5 ac bc 8b 76 60 bd
       -0.042803746 0.026591863 -0.021105496 -0.05480055
0002c0 53 4e 54 3d 97 70 02 bc c6 1c f6 bc 85 b5 90 3b
       0.05183251 -0.007961414 -0.030043017 0.00441617
0002d0 6c d5 3a 3d 5b 66 3f 3d 6e 7b 8d bb 6e 80 77 bc
       0.04561369 0.046728473 -0.0043176925 -0.015106304
0002e0 cd 33 49 3d 1f a2 bb bc 77 83 0b bd 0b 8f 2c bc
       0.049121667 -0.022904454 -0.03406092 -0.010532151
0002f0 95 55 de 3c 6d 9a 97 3d f6 7b 8b 3b 96 b2 38 bc
       0.027140418 0.07402501 0.0042567207 -0.011273047
000300 b0 56 6e bd 69 36 98 bc c2 3a 8f 3d 4b f5 3f 3d
       -0.05818814 -0.018580632 0.06993629 0.04686479
000310 f6 10 94 3c e4 c1 21 bd 0a 87 d3 bc 32 b5 38 3b
       0.018074494 -0.03949155 -0.025821228 0.0028184173
000320 ee 2b 65 3c be c5 9d bd 9b 60 6d 3d f1 bf 6c 3c
       0.013987524 -0.07703732 0.05795346 0.014450059
000330 1b be 1a bd 13 09 78 bb 84 e9 71 bd 84 f0 04 bd
       -0.037778955 -0.0037847206 -0.05906059 -0.032455936
000340 20 3c 6b bd 8f 42 27 3d d6 79 40 bd d8 46 be 3c
       -0.057430387 0.04083496 -0.04699119 0.02322714
000350 7f 1a 00 bd 8a 82 1a bd fa 25 e9 3c 73 ed 3b bd
       -0.03127527 -0.037722148 0.028460491 -0.045880746
000360 b6 0c 9b bd c4 d6 67 3d 7f be b4 b9 5e 76 1a bd
       -0.07570784 0.0566013 -0.00034474206 -0.03771054
000370 a2 38 a3 bc 74 29 34 bd 7e 4a ca bc f2 51 c9 bc
       -0.019924466 -0.043984845 -0.024693724 -0.024575207
000380 dd e3 ab 3c 06 f7 14 3d f1 c0 b5 bc c9 63 6c bd
       0.020982677 0.036368392 -0.022186728 -0.05771235
000390 b3 31 28 3c 69 89 38 3b bb 2a 3c bd eb 96 7c bc
       0.0102657555 0.0028158075 -0.04593919 -0.015416841
0003a0 8c eb 4a bd 26 6c b7 bb f5 e0 cb bc 15 88 1d bd
       -0.04954104 -0.005597609 -0.024887541 -0.038459856
0003b0 9f 56 36 3d ac c8 27 bd ad 5c 8e bc 57 4f 87 bd
       0.044516202 -0.04096286 -0.017378176 -0.0660693
0003c0 d6 6e 3f bd 26 86 46 bd 7d fb f3 3c 9c 85 6b 3d
       -0.04673656 -0.048467778 0.029783005 0.057500467
0003d0 b1 29 0f 3d a6 05 96 bc 7c a2 80 3d d3 dc c4 bc
       0.03495187 -0.01831324 0.062809914 -0.024031078
0003e0 9b 89 0d 39 c5 d0 72 bd b1 be 3f bd cc 6e 53 bc
       0.0001349807 -0.05928113 -0.046812717 -0.012904834
0003f0 b2 51 6b bd ac 9f 4b bd 0b b0 07 bd c7 d5 8a b9
       -0.057450958 -0.04971282 -0.033126872 -0.00026480688
