Time-Series---Forecasting/Results/periodic/model19.pth (torch, 44621 bytes, 5 tensors)

lstm.weight_ih_l0 f4 [200, 1]
0	0x3c9c9344	0.01911319
1	0xbd6a092a	-0.057137646
2	0xbc8b33a1	-0.016992392
3	0x3da8c923	0.08241489
4	0x3d81a7ca	0.06330831
5	0x3db5843c	0.08863112
6	0xbd8bad10	-0.068201184
7	0xbd9370bf	-0.07199239
8	0x3dbded95	0.09273831
9	0xbe0b43e1	-0.13600112
10	0xbc349de7	-0.011023975
11	0xbd8eb0d3	-0.0696732
12	0xbe21ac06	-0.15788278
13	0x3e13a057	0.14416634
14	0xbdf25feb	-0.11834701
15	0x3ce49cab	0.027906736
16	0xbcf36d5f	-0.029715238
17	0x3d66b8d9	0.05632863
18	0x3dd93dad	0.10607467
19	0xbd2c57bf	-0.04207587
20	0xbdcc518b	-0.099764906
21	0xbde53ab9	-0.11192841
22	0x3d90598c	0.0704833
23	0x3d287ff2	0.041137643
24	0xbdb3f73a	-0.08787389
25	0xbd26b6a4	-0.040701523
26	0x3d5866e0	0.052832484
27	0x3c3fc957	0.011705718
28	0x3d0d1bba	0.03445027
29	0x3cff3ebd	0.031157846
30	0xbcb58964	-0.02216024
31	0xbdde2bce	-0.10848199
32	0x3d80dadf	0.06291746
33	0xbda4697a	-0.080279306
34	0xbe00da17	-0.12583195
35	0x3db91cb7	0.0903868
36	0xbcb897e4	-0.022533365
37	0x3e09c5ee	0.1345441
38	0x3ce1b979	0.02755426
39	0x3c92a6d6	0.01790182
40	0xbda4e987	-0.08052354
41	0x3df4f702	0.119611755
42	0x3e0ee831	0.13955761
43	0x3d9080a6	0.07055788
44	0x3d9096b8	0.07059997
45	0xbe08ffd3	-0.13378839
46	0x3c62e6d7	0.013848982
47	0x3b0b6bb6	0.0021273918
48	0x3d7a1da5	0.061063427
49	0x3dbfb092	0.0935985
50	0x3d0e3623	0.034719598
51	0x3da63794	0.081160694
52	0xbe27eabf	-0.16398142
53	0xbe1961f1	-0.14978768
54	0x3e1584fd	0.14601512
55	0xbbe6a372	-0.007038527
56	0xbd013c47	-0.031551626
57	0xbd57d28a	-0.05269102
58	0x3de27d8a	0.11059101
59	0xbdb3c9d9	-0.08778734
60	0xbb0b9e8a	-0.0021304213
61	0x3dad516b	0.08462795
62	0xbd2ed812	-0.04268653
63	0x3dac1f80	0.08404446
64	0xbb97bdf3	-0.004630798
65	0x3db26f61	0.0871265
66	0x3dd3f707	0.10349851
67	0xbd94cc1c	-0.07265493
68	0xbe16320d	-0.1466753
69	0x3daa7bd1	0.08324397
70	0x3dc9c03a	0.098511174
71	0x3d7f93c1	0.06239677
72	0x3d500f0d	0.050795604
73	0xbdd89529	-0.10575325
74	0x3d2ea6cd	0.042639542
75	0x3dc4628c	0.09589109
76	0xbd302e0d	-0.043012667
77	0xbdc8be9c	-0.09801981
78	0x3df5a871	0.11995018
79	0xbd4e8dab	-0.050428074
80	0x3bd60b80	0.0065321326
81	0xbd8bd579	-0.06827826
82	0xbd883422	-0.066505685
83	0xbd550b94	-0.052012995
84	0x3de15436	0.1100239
85	0xbd47b6fd	-0.048758496
86	0x3e121948	0.14267457
87	0xbd898d3e	-0.06716393
88	0xbd80268b	-0.062573515
89	0xbdea6f1d	-0.114469744
90	0xbcc663ce	-0.024217512
91	0x3d29705a	0.041366912
92	0xbdd9c8e5	-0.10634021
93	0x3e002f16	0.12517962
94	0x3e0470b7	0.12933622
95	0x3d9cdbc3	0.07659104
96	0xbd55baf1	-0.052180234
97	0xbd810086	-0.06298928
98	0xbdbd773b	-0.09251257
99	0x3e0d10d6	0.13775954
100	0x3d52804c	0.051391885
101	0x3dfa93db	0.122352324
102	0xbe05b2f9	-0.13056554
103	0x3da9644e	0.08271085
104	0x3de1d728	0.11027366
105	0xbe1e4257	-0.15454994
106	0x3d4efbf4	0.05053325
107	0xbb946116	-0.004528175
108	0xbdf307f0	-0.11866748
109	0x3dd7ba18	0.105335414
110	0xbda40633	-0.08008995
111	0x3d3a98f1	0.045556013
112	0x3cc898c0	0.0244869
113	0xbe1b44f8	-0.15163028
114	0x3dff1cf7	0.124566965
115	0xbc869544	-0.016428597
116	0x3dc0d961	0.09416462
117	0x3d798761	0.060920123
118	0x3d0bbe8e	0.034117274
119	0xbcc014a6	-0.023447346
120	0x3c50eeb5	0.012752225
121	0xbdeef5ab	-0.11667951
122	0xbdfc6cc8	-0.12325436
123	0x3e127715	0.14303239
124	0xbcbe5d41	-0.023237826
125	0xbdc15add	-0.09441159
126	0xbe03e204	-0.12879187
127	0x3dc7c7fe	0.09754942
128	0x3e10e039	0.14148034
129	0xbb381f56	-0.002809485
130	0xbda3b5d0	-0.07993662
131	0xbd67f8bc	-0.056633696
132	0xbe0b5aa0	-0.1360879
133	0x3de3e96e	0.111285076
134	0x3e0f89cc	0.14017409
135	0x3d5bc59b	0.053655248
136	0xbcca70b9	-0.024711953
137	0x3deb925d	0.11502526
138	0xbe1c1b64	-0.15244824
139	0xbdd318c8	-0.10307461
140	0xbe12f6c3	-0.14351945
141	0xbc800822	-0.015628878
142	0xbdb9e293	-0.09076419
143	0xbd88cd04	-0.066797286
144	0x3e28506f	0.16436933
145	0x3d9ae273	0.07562723
146	0xbe18fef4	-0.14941007
147	0xbb849e8d	-0.004047221
148	0x3cac4ebd	0.02103364
149	0x3dcc26e2	0.09968354
150	0xbdb32ff1	-0.087493785
151	0x3e245916	0.16049609
152	0x3bc93239	0.00614002
153	0xbc349424	-0.011021648
154	0xbc137e40	-0.009002268
155	0x3cc43b47	0.023954047
156	0xbe093e31	-0.1340263
157	0xbc91615a	-0.017746616
158	0x3ddbd8f1	0.10734738
159	0x3c28e6bb	0.010308917
160	0x3dfa4b28	0.12221366
161	0xbcf60695	-0.030032435
162	0xbdf5145b	-0.11966773
163	0x3d2a83b7	0.04162952
164	0xbd367600	-0.044546127
165	0x3c8ea4fa	0.017412651
166	0xbdff0795	-0.12452618
167	0x3e12d86e	0.14340374
168	0x3db777a8	0.089583695
169	0x3ceb2826	0.028705668
170	0xbd39b889	-0.045342002
171	0xbe0a2149	-0.1348926
172	0x3e0c9d94	0.13731986
173	0x3d9b4a9e	0.075825915
174	0x3cc453e4	0.023965783
175	0x3dc0d810	0.09416211
176	0xbc162252	-0.009163456
177	0xbd128387	-0.035769965
178	0xbd874b94	-0.06606212
179	0xbdb1d80b	-0.08683785
180	0xbd90518e	-0.07046805
181	0x3e2433dc	0.16035408
182	0xbe1b3967	-0.15158616
183	0xbd9d6316	-0.07684915
184	0xbdb978e3	-0.090562604
185	0x3d838b9c	0.06423113
186	0x3d8808e4	0.06642321
187	0xbcec8f49	-0.028876917
188	0xbc97fa2c	-0.018551908
189	0xbd4e0196	-0.05029448
190	0xbdf8209c	-0.12115595
191	0xbdb93e0b	-0.09045037
192	0x3df4566e	0.11930548
193	0xbd88cdad	-0.066798545
194	0x3dcf152d	0.10111461
195	0x39ddb187	0.00042284673
196	0x3c178f25	0.009250437
197	0x3d9197b7	0.071090154
198	0x3e133afc	0.1437797
199	0x3dd7a320	0.105291605

lstm.weight_hh_l0 f4 [200, 50]
0	0x3d88657a	0.0665998
1	0x3e1b29ac	0.15152615
2	0xbbd25b7b	-0.0064195967
3	0x3d51f565	0.051259417
4	0xbdc8f75b	-0.09812804
5	0xbe2d8e79	-0.1694888
6	0xbcdc3a02	-0.026883129
7	0x3d3a87a3	0.04553951
8	0x3db699ec	0.08916077
9	0xbc91cb0b	-0.017797014
10	0x3d7d5469	0.061848078
11	0x3db42b05	0.08797268
12	0xbd8c4699	-0.06849403
13	0x3d54a35d	0.051913608
14	0xbd989314	-0.07449928
15	0x3e0a954e	0.13533518
16	0x3e0336bd	0.1281385
17	0xbdf8489d	-0.12123225
18	0xbdd8e905	-0.1059132
19	0xbe0c86fa	-0.13723364
20	0xbe2e5f7a	-0.17028609
21	0xbca6986a	-0.020336349
22	0x3daa8aa8	0.08327228
23	0xbd2612ee	-0.040545397
24	0x3dda9cb4	0.1067442
25	0xbdc9c7da	-0.09852572
26	0xbcb1572b	-0.02164801
27	0xbd1abdcf	-0.03777867
28	0x3e0010c5	0.12506397
29	0xbdfc5a1e	-0.12321876
30	0x3db06011	0.08612073
31	0xbe2d6725	-0.16933878
32	0xbd91b24b	-0.07114085
33	0x3d3eb18d	0.046556044
34	0x3d54e422	0.051975377
35	0xbdc2592c	-0.094896644
36	0x3dc15b55	0.09441248
37	0x3dcd3df3	0.100215815
38	0x3d58ae5a	0.05290065
39	0x3c47b293	0.0121885715
40	0xbd5c7c6e	-0.053829603
41	0xbdd60694	-0.104504734
42	0x3d550b64	0.052012816
43	0x3ca208c6	0.019779574
44	0x3d864470	0.06556022
45	0xbd81474b	-0.06312426
46	0x3d71b225	0.059007782
47	0x3dc4a341	0.09601451
48	0x3be239e9	0.006903876
49	0xbca4c9bd	-0.020115728
50	0x3e0b94f6	0.13631043
51	0x3df5eebd	0.12008426
52	0x3bd38ec4	0.006456228
53	0x3caa1336	0.020761114
54	0x3dba7802	0.09104921
55	0xbe213461	-0.15742637
56	0xbd2b68e2	-0.04184807
57	0x3e038e19	0.12847175
58	0x3e2d8e6f	0.16948865
59	0x3db68a44	0.08913091
60	0xbe165c3b	-0.1468362
61	0xbd76654f	-0.06015521
62	0x3da513fc	0.08060452
63	0xbde07097	-0.10958975
64	0xbdf8d72e	-0.12150417
65	0xbdd34901	-0.10316659
66	0x3b43aa1f	0.0029856039
67	0xbe0a395a	-0.1349844
68	0x3e14818b	0.14502542
69	0xbde6d1e9	-0.11270506
70	0xbce04856	-0.027378242
71	0x3d4dcfc0	0.050246954
72	0x3c63952e	0.013890548
73	0x3dde2d7c	0.10848519
74	0xbde626fd	-0.11237905
75	0xbe25d3f4	-0.16194135
76	0x3e2bdaaa	0.16782632
77	0x3d7f0caf	0.062267955
78	0x3dd69944	0.10478452
79	0x3d440631	0.047857467
80	0x3db2d785	0.08732513
81	0xbd467085	-0.04844715
82	0x3d228162	0.03967417
83	0xbdbbb06b	-0.091645084
84	0xbcf30bde	-0.029668745
85	0x3e2b6bd3	0.1674035
86	0xbbe83e86	-0.0070875315
87	0xbd1058c4	-0.035240903
88	0x3dbc0a00	0.09181595
89	0x3e01953e	0.12654588
90	0x3cac08c6	0.021000277
91	0xbdb9140c	-0.09037027
92	0x3e2ef2de	0.17084834
93	0xbcd70846	-0.026249062
94	0x3e0fe2cc	0.1405136
95	0xbe0f710e	-0.1400797
96	0xbd6aaa10	-0.05729109
97	0xbe27d530	-0.16389918
98	0xbdba583b	-0.0909886
99	0xbdd1cd10	-0.10244191
100	0xbd58b837	-0.052910056
101	0xbde19dcc	-0.110164255
102	0xbcfd98a8	-0.030956581
103	0x3cdb9d83	0.026808506
104	0xbe186232	-0.14881209
105	0xbe015044	-0.12628275
106	0xbd7495d7	-0.05971321
107	0xbb13df9d	-0.0022563704
108	0xbd97bbe1	-0.07408882
109	0xbd973ad3	-0.07384267
110	0xbdd8e711	-0.105909474
111	0xbe13a6ab	-0.14419048
112	0x3c8bb432	0.017053697
113	0x3dace1e1	0.084415205
114	0x3dac3976	0.08409397
115	0x3e2419c2	0.16025451
116	0xbe26a97c	-0.1627559
117	0xbd23adc4	-0.039960638
118	0x3d82298b	0.0635558
119	0x3de0e885	0.109818496
120	0x3cedf830	0.02904901
121	0x3d4dca2f	0.050241645
122	0x3d6b6160	0.05746591
123	0xbd91c5a6	-0.071177766
124	0x3b0906f2	0.002090868
125	0xbd78030a	-0.060549773
126	0xbd20a5a4	-0.039220467
127	0x3cf2c389	0.029634254
128	0xbd1204f2	-0.035649247
129	0xbe0c62da	-0.13709584
130	0x3d5b01d7	0.05346855
131	0x3b4abd69	0.003093565
132	0x3bb265f8	0.0054442845
133	0x3d2b74ec	0.041859552
134	0x3d26a845	0.040687818
135	0x3b9c0785	0.0047616386
136	0xbe03c090	-0.12866426
137	0x3db392e4	0.087682515
138	0x3ce5deed	0.0280604
139	0x3c9bd269	0.01902123
140	0x3e19b289	0.15009512
141	0xbda9da38	-0.08293575
142	0x3d20f047	0.039291646
143	0xbc93e73c	-0.018054597
144	0x3cdbc387	0.026826633
145	0x3ae639e7	0.0017564864
146	0x3e04b3e7	0.12959252
147	0xbd6b6195	-0.05746611
148	0xbcc3e1b1	-0.023911329
149	0x3de8e727	0.11372214
150	0x39d1834d	0.00039961413
151	0xbce6eea8	-0.028189972
152	0x3e3d0fe7	0.18463098
153	0xbe2fb9fe	-0.17160794
154	0x3caf1b34	0.021375276
155	0xbd77afc8	-0.060470372
156	0xbdd1619e	-0.10223697
157	0x3d6dd4c0	0.058064222
158	0x3dd6e280	0.1049242
159	0x3d0aaf81	0.03385878
160	0x3d9c571b	0.076338015
161	0xbdc306fe	-0.09522818
162	0x3cc820d5	0.024429718
163	0xbe1030c3	-0.14081101
164	0xbe15b963	-0.146215
165	0x3cd9be08	0.026579872
166	0xbd9f99f5	-0.07793037
167	0xbd19b855	-0.03752931
168	0xbd32f4eb	-0.043690603
169	0xbe2c8ae1	-0.16849853
170	0xbce1356b	-0.027491292
171	0xbcc28620	-0.023745596
172	0xbdb95d3d	-0.09050987
173	0xbdc8ee5f	-0.09811091
174	0xbc9ecaf1	-0.01938388
175	0xbc85893c	-0.01630079
176	0x3e325941	0.1741686
177	0xbb3d1a61	-0.0028854834
178	0x3dbd32f5	0.09238235
179	0xbe184560	-0.14870214
180	0xbd08ef48	-0.03343132
181	0xbdecdd3a	-0.11565633
182	0xbda706e4	-0.08155611
183	0xbe37e685	-0.1795903
184	0xbdc348b0	-0.095353484
185	0x3c58ff95	0.013244529
186	0xbc78d8ea	-0.015188435
187	0xbb795874	-0.0038047107
188	0x3d86ffc6	0.06591754
189	0xbd82b90e	-0.06382953
190	0x3d6a0244	0.057131067
191	0xbd5a4a88	-0.053293735
192	0x3e21cdb6	0.15801129
193	0x3ddcaa96	0.10774724
194	0x3de96d27	0.11397772
195	0x3c67698a	0.014124284
196	0x3bd4e20c	0.0064966734
197	0x3dca5407	0.09879308
198	0xbdec7cce	-0.11547242
199	0xbdcb0080	-0.09912205
200	0xbdb8ea34	-0.09029046
201	0x3c28195a	0.0102599505
202	0xbddf84b9	-0.10913987
203	0xbdb7f407	-0.089820914
204	0xbccfdaa2	-0.025372807
205	0xbdc372b7	-0.095433645
206	0x3e0af6e4	0.13570744
207	0xbc6a780f	-0.014310851
208	0xbd96e4f0	-0.07367885
209	0xbcecdf90	-0.028915197
210	0xbd83c259	-0.06433553
211	0xbd857579	-0.06516547
212	0xbc88f928	-0.01672037
213	0xbc390535	-0.011292745
214	0xbda23c62	-0.07921673
215	0xbe04df86	-0.12975892
216	0x3d9047ac	0.0704492
217	0xbcc41aba	-0.023938525
218	0x3de59577	0.11210149
219	0x3d938c88	0.072045386
220	0xbd18653c	-0.03720592
221	0xbdac93e5	-0.08426646
222	0x3df31bbc	0.11870524
223	0x3e1b712a	0.15179887
224	0xbce44b8e	-0.027868059
225	0xbc133bf9	-0.008986467
226	0xbdfde950	-0.123980165
227	0x3db4974f	0.08817922
228	0x3d9df3a3	0.07712486
229	0x3dbcb3c4	0.09213975
230	0xbd873e45	-0.06603674
231	0xbd0b753c	-0.03404735
232	0x3bd3c1ad	0.006462297
233	0xbd155a31	-0.036462966
234	0x3c3ce654	0.011529524
235	0x3cfa00de	0.030517992
236	0x3d8e393f	0.069445126
237	0x3d9866d2	0.074414864
238	0xbd54df18	-0.05197057
239	0xbb130689	-0.0022434315
240	0x3dbaeb76	0.09126942
241	0xbd591ded	-0.053007055
242	0x3dd818b3	0.10551586
243	0x3cc4d966	0.024029445
244	0xba6429c4	-0.00087037333
245	0x3e0360e6	0.12829933
246	0xbd7db4ba	-0.061939932
247	0x3db716e0	0.0893991
248	0x3de551da	0.111972526
249	0x3d15d238	0.036577433
250	0x3e18fc67	0.14940034
251	0x3e2671d8	0.16254365
252	0x3cf072f9	0.029351698
253	0x3d881956	0.066454574
254	0xbd0649b2	-0.032785125
255	0xbdc5aff7	-0.09652703

lstm.bias_ih_l0 f4 [200]
0	0xbcf35572	-0.02970383
1	0xbd15acf6	-0.0365419
2	0x3e1ab815	0.15109284
3	0x398ec4d5	0.00027231002
4	0xbdb57421	-0.088600405
5	0xbdd9a1d6	-0.10626571
6	0xbc09f323	-0.008419785
7	0xbc64b1ed	-0.013958436
8	0xbdfedc77	-0.12444394
9	0xbd74a17e	-0.059724323
10	0x3d005e34	0.03133984
11	0x3e1798e1	0.14804412
12	0x3e154807	0.14578258
13	0x3ded1b45	0.11577467
14	0x3d31c204	0.04339792
15	0x3df06287	0.117375426
16	0x3d4a31af	0.04936379
17	0xbd72ea5a	-0.059305526
18	0x3d0d0ce8	0.034436136
19	0xbd430136	-0.047608577
20	0x3dd8af93	0.10580363
21	0xbd954109	-0.07287795
22	0x3da5de8a	0.080990866
23	0x3aa62f08	0.0012678811
24	0xbd5ba3bc	-0.053622946
25	0x3cb6effb	0.022331228
26	0x3df21e46	0.118221804
27	0x3ce68bba	0.028142799
28	0x3dd91d22	0.1060126
29	0x3dd0fb5d	0.10204194
30	0xbd9b9527	-0.07596808
31	0x3c4450d7	0.011982164
32	0xbd46eaf6	-0.04856392
33	0x3a4c3162	0.0007789341
34	0x3e270eee	0.16314289
35	0xbd958eae	-0.073026046
36	0xbd074f90	-0.03303486
37	0x3d1661e1	0.03671444
38	0x3dbc2cd3	0.09188237
39	0x3d7d8da2	0.06190265
40	0xbd890d40	-0.0669198
41	0x3d9b1dcf	0.07574045
42	0xbd6166b1	-0.055029575
43	0xbd01ba50	-0.031671822
44	0x3e029a63	0.12754206
45	0x3dfd74d8	0.12375802
46	0x3dbbb473	0.09165277
47	0x3d82f13c	0.06393668
48	0x3e23e0ac	0.16003674
49	0x3e03778b	0.12838571
50	0xbdbeae32	-0.09310569
51	0x3ce25f34	0.027633287
52	0x3db26442	0.08710529
53	0x3dc948e7	0.09828358
54	0x3daa6cd4	0.083215386
55	0xbca29fd6	-0.019851606
56	0xbdac0a97	-0.08400457
57	0xbda94f2d	-0.08267055
58	0xbd2bbd4e	-0.041928582
59	0x3e330379	0.17481793
60	0x3de402d4	0.11133352
61	0xbdf9bb00	-0.121938705
62	0xbc8e8401	-0.017396929
63	0xbd3f43cb	-0.04669551
64	0x3ad3a537	0.001614726
65	0x3e26afb3	0.16277961
66	0xbb7d96fb	-0.0038694728
67	0xbd15386a	-0.036430754
68	0x3da0a117	0.078432254
69	0xbd59a743	-0.05313803
70	0x3c6fba76	0.014631858
71	0x3e0eaa3b	0.13932125
72	0xbdca038d	-0.098639585
73	0xbcd7afc8	-0.026328936
74	0x3c5ce787	0.013482935
75	0x3dd99e6e	0.10625921
76	0xbd715158	-0.058915466
77	0x3da99f51	0.0828234
78	0xbd750480	-0.059818745
79	0x3e0985e9	0.13429989
80	0xbd53c1b4	-0.0516984
81	0x3dcd41ed	0.1002234
82	0x3d3bddda	0.04586587
83	0xbd21c8cb	-0.03949813
84	0x3df81d65	0.121149816
85	0x3d9f009b	0.07763787
86	0x3cc9651d	0.024584347
87	0x3dffde7c	0.124936074
88	0x3e143280	0.14472389
89	0xbbce1b57	-0.0062898803
90	0xbd890ef0	-0.06692302
91	0x3e254c82	0.16142467
92	0xbd2535fa	-0.04033468
93	0x3ced5ca9	0.028974848
94	0xbdb4079e	-0.08790515
95	0x3d4c0ca7	0.049816754
96	0x3db6d893	0.08928027
97	0xbccaf531	-0.02477512
98	0xbd96a437	-0.0735554
99	0x3d91fb6d	0.07128034
100	0xbdbec38c	-0.09314641
101	0xbd8ed84b	-0.06974848
102	0x3be72155	0.007053534
103	0xbdd4aaa6	-0.10384111
104	0x3ddcd89c	0.107835025
105	0xbddf5e8b	-0.109067045
106	0xbd80b269	-0.06284029
107	0x3d4653b2	0.04841966
108	0x3e19544b	0.14973561
109	0xbd1c4856	-0.038154922
110	0xbdd21a6c	-0.10258946
111	0xbdf3bb13	-0.11900916
112	0x3e2ce97b	0.1688594
113	0xbdf44bb0	-0.11928499
114	0x3abcc638	0.0014402336
115	0x3d99d72e	0.075117454
116	0xbdd297d0	-0.10282862
117	0xbcd61f75	-0.026138047
118	0x3d7ef7c0	0.06224799
119	0x3d0b746b	0.03404657
120	0x3c2ca111	0.010536448
121	0x3e08969e	0.13338706
122	0xbc7f0d57	-0.015567145
123	0xbd7f9b83	-0.062404167
124	0xbd7520ea	-0.059845842
125	0xbe246da1	-0.16057445
126	0xbd966c6f	-0.07344901
127	0xbd7e909b	-0.062149625
128	0x3dcaeb11	0.099081166
129	0xbe044d3c	-0.12920088
130	0x3deb9afc	0.1150417
131	0xbdd80191	-0.10547174
132	0x3e06c117	0.13159595
133	0xbde81f86	-0.113341376
134	0xbda55f16	-0.08074777
135	0x3e1001a1	0.14063121
136	0xbd40cd1a	-0.0470706
137	0x3e1c3823	0.1525579
138	0xbdd89e4b	-0.10577067
139	0x3e144dde	0.14482829
140	0x3dacf9b3	0.08446064
141	0x3de9a17c	0.11407754
142	0x3dc43b78	0.09581655
143	0x3e053794	0.13009483
144	0xbd963681	-0.073346145
145	0xbda3a96f	-0.07991301
146	0xbc6d5213	-0.0144849
147	0xbc87f508	-0.016596332
148	0x3dac5589	0.08414752
149	0xbbbaa189	-0.005695526
150	0x3e2503a0	0.16114664
151	0x3c21c967	0.009874678
152	0x3d302284	0.043001667
153	0xba9f5acb	-0.0012157796
154	0x3c636eee	0.013881428
155	0x3cdbbff2	0.026824925
156	0x3d575e0e	0.052579932
157	0x3d878aea	0.06618293
158	0xbc351237	-0.011051706
159	0xbc833d4b	-0.016020438
160	0x3dae698f	0.085162275
161	0x3d22c967	0.039742853
162	0xbdbddaec	-0.09270272
163	0xbdc17b26	-0.09447317
164	0xbd1f33aa	-0.03886763
165	0x3dad0d0c	0.08449754
166	0x3d0fcf33	0.03510971
167	0x3e04240a	0.12904373
168	0x3c0b1484	0.008488778
169	0xbd42dfa3	-0.047576558
170	0xbc3ee92b	-0.011652271
171	0xbd859d62	-0.06524159
172	0xbdcb749a	-0.09934349
173	0xbd55fef3	-0.05224509
174	0x3db58593	0.08863368
175	0x3da1f086	0.07907204
176	0x3da9d5e8	0.082927525
177	0x3da46fef	0.08029162
178	0x3c9fcc4b	0.019506594
179	0xbd2d3e2d	-0.042295624
180	0xbd8d265d	-0.06892083
181	0x3dedb3fa	0.116065934
182	0xbb9f20a2	-0.004856185
183	0xbd65acb7	-0.056072917
184	0x3d80981e	0.06279014
185	0xbda65177	-0.08121007
186	0xbdbe5250	-0.092930436
187	0x3c42ef63	0.011897895
188	0x3d201547	0.03908279
189	0xbcf57b47	-0.02996601
190	0x3c5fefdc	0.013668027
191	0xbae5e45d	-0.0017539371
192	0x3b643f67	0.003482783
193	0xbd905900	-0.070482254
194	0x3d959b6d	0.07305036
195	0x3dc74224	0.09729412
196	0x3e12fa06	0.14353189
197	0x3de60666	0.11231689
198	0xbdbbc1cb	-0.091678225
199	0x3e13f6f1	0.1444967

lstm.bias_hh_l0 f4 [200]
0	0x3d71ca11	0.059030596
1	0x3da98358	0.08277005
2	0x3ce15734	0.027507402
3	0xbd9344e5	-0.07190875
4	0xbdba9c79	-0.09111876
5	0xbcab5235	-0.020913223
6	0xbcc7cb96	-0.02438907
7	0x3da7978f	0.081832044
8	0xbe0071d6	-0.12543425
9	0x3c67c68c	0.014146458
10	0xbdcbf452	-0.0995871
11	0xbd9becea	-0.07613547
12	0x3dec59cf	0.11540567
13	0x3d2a30c5	0.041550416
14	0xbddb3323	-0.10703113
15	0xbbfc8a80	-0.00770694
16	0xbe0706ed	-0.13186236
17	0xbdddb1bf	-0.10824918
18	0x3dba24d9	0.090890594
19	0xbcc70670	-0.024295062
20	0xbdcbd8f2	-0.099534884
21	0xbd2a8ef6	-0.041640244
22	0xbd19ecff	-0.037579533
23	0x3be4b7f3	0.0069799363
24	0x3e08ae7a	0.13347808
25	0x3ce7b969	0.028286653
26	0xbcd7ad29	-0.026327686
27	0x3e022753	0.12710313
28	0xbdb89457	-0.090126686
29	0x3e17a09f	0.14807366
30	0xbdeaa43f	-0.11457109
31	0x3e13236e	0.14368984
32	0x3caeaf8e	0.021323945
33	0xbd8348d3	-0.064103745
34	0x3d36e9b5	0.044656474
35	0x3cdc092e	0.026859846
36	0x3cf98f00	0.030463696
37	0x3db71f26	0.08941488
38	0xbd837612	-0.064190045
39	0xbd76edda	-0.060285427
40	0xbdb6550e	-0.08902942
41	0xbcac3be1	-0.021024646
42	0xbe190199	-0.14942016
43	0x3df0b2d5	0.117528595
44	0xbd33cfc7	-0.043899324
45	0x3e27ccc7	0.1638671
46	0x3e1352e6	0.14387092
47	0x3de647e6	0.11244182
48	0x3e0a19bc	0.1348638
49	0x3ddcc6bb	0.10780092
50	0xbd0ce581	-0.03439856
51	0x3d9672a3	0.07346084
52	0xbd7506c9	-0.059820924
53	0x3c8d8c38	0.017278776
54	0xbcfba220	-0.030716956
55	0x3dc84abb	0.09779879
56	0xbd2d8dd7	-0.042371597
57	0x3dd91120	0.105989695
58	0x3d9307d1	0.07179225
59	0xbd91b33f	-0.071142666
60	0xbdcbc6f8	-0.0995006
61	0xbdedc62d	-0.11610065
62	0xbcf2b6b5	-0.029628137
63	0x3c4a6c65	0.012354945
64	0xbd230a06	-0.03980448
65	0x3d218539	0.03943369
66	0x3c9b6da9	0.018973188
67	0xbd4efa1d	-0.050531495
68	0x3c1a4008	0.00941468
69	0x3e01868b	0.1264898
70	0x3d0af580	0.033925533
71	0x3e1f6de5	0.15569265
72	0xbe071a06	-0.13193521
73	0xbd4dcfc6	-0.050246976
74	0x3dd5ca10	0.10438931
75	0xbd5cd597	-0.053914633
76	0x3da5325e	0.080662474
77	0x3e2a98c4	0.16659838
78	0x3dc816ab	0.097699486
79	0x3ce18296	0.027528089
80	0xbd788746	-0.06067588
81	0x3d8e5f92	0.06951822
82	0x3cbf7e57	0.023375673
83	0xbcce10d3	-0.025154507
84	0x3d8234e4	0.06357744
85	0x3e01c15f	0.12671421
86	0xbd140a1d	-0.036142457
87	0x3e10160e	0.14070913
88	0x3af01139	0.001831568
89	0xbd6d4f2c	-0.057936832
90	0xbd8f2b4c	-0.0699068
91	0x3d28b00b	0.041183513
92	0xbd4b74cf	-0.049671944
93	0xbcbd9758	-0.023143455
94	0xbc186c36	-0.009303143
95	0x3daf8314	0.08569923
96	0x3deaabd6	0.11458556
97	0xbd785221	-0.0606252
98	0x3e2484a1	0.16066219
99	0xbc94330b	-0.018090745
100	0x3e024ba0	0.12724161
101	0x3dd5efda	0.10446139
102	0x3e022a33	0.1271141
103	0x3db902da	0.09033747
104	0xbdce9e69	-0.10088808
105	0xbe058ba8	-0.13041556
106	0xbe1ae382	-0.1512585
107	0x3b9fff4c	0.0048827287
108	0xbd451084	-0.048111454
109	0xbdaa05ac	-0.08301863
110	0xbda61209	-0.08108909
111	0x3dc1ea53	0.09468522
112	0x3dcac7e5	0.09901408
113	0xbd816036	-0.06317179
114	0xbd9654c6	-0.07340388
115	0x3d91fe49	0.07128579
116	0x3c9f25b7	0.019427164
117	0xbe0e43bf	-0.1389303
118	0x3ddd94df	0.108194105
119	0xbd6fb3df	-0.058521148
120	0x3cf3c7ad	0.029758299
121	0x3dd7c5b0	0.10535753
122	0x3baa65a8	0.0052001067
123	0xbd8545bd	-0.06507442
124	0xbe1efb7a	-0.15525618
125	0xbdd6f627	-0.104961686
126	0x3de48554	0.11158243
127	0x3dcb34a6	0.09922151
128	0x3d23849f	0.0399214
129	0x3d658cf7	0.056042638
130	0x3e0c4f00	0.13702011
131	0xbd0864cc	-0.033299252
132	0x3c37e5c1	0.011224211
133	0x3c973cdf	0.018461643
134	0x3afd122c	0.0019307784
135	0x3cf87a2a	0.03033169
136	0xbe0a9694	-0.13534003
137	0xbda4df3a	-0.080503896
138	0x3bb38e31	0.005479597
139	0xbab1954b	-0.0013548521
140	0xba5ddac3	-0.0008463079
141	0x3e132b80	0.14372063
142	0x3d4465b7	0.047948565
143	0xbe07dd63	-0.13268046
144	0x3e1b2a24	0.15152794
145	0xbd86e327	-0.065862946
146	0x3dc64abc	0.09682223
147	0xbe21b499	-0.15791549
148	0xbe0653e7	-0.13117944
149	0x3de2ffcc	0.11083946
150	0x3da520fd	0.08062933
151	0x3b2fb961	0.0026813375
152	0x3e281f0f	0.16418098
153	0x3d1da06c	0.03848307
154	0xbcf4e48e	-0.02989414
155	0xbd18cd8d	-0.037305404
156	0x3e01f40d	0.12690754
157	0xbc6f4244	-0.014603201
158	0xbd42c0d7	-0.047547188
159	0xbd66e21f	-0.05636799
160	0xbdb058f4	-0.086107165
161	0xbda4f824	-0.080551416
162	0x3e1fa463	0.15590052
163	0x3de39914	0.11113182
164	0x3d88c592	0.066783085
165	0x3d657386	0.056018375
166	0xbdb94a30	-0.09047353
167	0xbd4306c6	-0.04761388
168	0x3d62e515	0.05539425
169	0xbc4524c7	-0.012032694
170	0xbe03cd8b	-0.12871377
171	0xbdc8a47c	-0.09796998
172	0xbd441a57	-0.047876682
173	0xbd7cbba8	-0.0617024
174	0xbd1f9736	-0.038962565
175	0xbd3ca67a	-0.046057202
176	0xbaa66662	-0.0012695307
177	0x3e16733b	0.14692394
178	0x3e2d3dad	0.16918059
179	0x3df9953c	0.12186667
180	0x3d70494e	0.05866366
181	0x3db9bbe4	0.090690404
182	0x3e27bc22	0.1638036
183	0xbce9fa33	-0.028561687
184	0x3dbd0cc2	0.09230949
185	0x3cc4c1cf	0.024018196
186	0x3d5a464d	0.0532897
187	0x3dd5772e	0.10423122
188	0x3d7a2b60	0.061076522
189	0x3e0a4831	0.13504101
190	0x3caf7dbd	0.021422261
191	0x3e158df5	0.14604934
192	0xbc843fc9	-0.016143696
193	0xbd4c06cb	-0.049811166
194	0x3d06b049	0.032882962
195	0x3d2b25c6	0.04178407
196	0x3e2cfe83	0.16893964
197	0x3df8569b	0.12125894
198	0xbc46503d	-0.012104091
199	0xbdd93ab0	-0.10606897

linear.weight f4 [1, 50]
0	0x3d31c00f	0.043396052
1	0x3df9beba	0.12194581
2	0xbde01bc3	-0.10942795
3	0x3d118ea8	0.03553644
4	0xbddb6263	-0.10712125
5	0xbe0dc339	-0.13844003
6	0x3e296c07	0.16545115
7	0xbc6f473d	-0.014604387
8	0x3d710359	0.058841083
9	0x3d8341ed	0.06409059
10	0xbdfb3c78	-0.12267393
11	0xbdf0f599	-0.11765594
12	0xbd9c5469	-0.076332875
13	0xbdac4c62	-0.08413006
14	0xbda46022	-0.080261484
15	0x3dfaffba	0.12255807
16	0xbdee1e45	-0.11626867
17	0xbdc92f6d	-0.09823499
18	0xbd778d47	-0.060437467
19	0xbdf98259	-0.12183065
20	0xbdb007f5	-0.08595268
21	0xbe18aff3	-0.1491087
22	0x3db2e7c5	0.08735613
23	0x3dfd87fa	0.12379451
24	0xbde9483f	-0.11390733
25	0x3c32e77e	0.01091945
26	0xbdf3a41e	-0.11896537
27	0x3dedad9c	0.11605379
28	0x3d29366b	0.041311663
29	0x3e13b078	0.14422786
30	0x3d5bee28	0.05369392
31	0xbded90f7	-0.115999155
32	0xbde909b8	-0.11378807
33	0x3d76ea02	0.06028176
34	0x3df3b2ea	0.118993595
35	0x3e0c24d2	0.13685921
36	0xbe105862	-0.14096215
37	0x3ce76f5c	0.028251342
38	0xbd3c695a	-0.04599891
39	0xbe2c2bc4	-0.1681357
40	0xbe0ca429	-0.13734497
41	0xbe1f4b85	-0.15556152
42	0x3dd4df84	0.10394195
43	0xbe2e2de0	-0.17009687
44	0xbc782c48	-0.015147276
45	0x3d993925	0.074816026
46	0xbd2edce2	-0.04269112
47	0xbe10455a	-0.14088956
48	0xbdc036e2	-0.09385468
49	0x3d33c4a1	0.04388869
