Time-Series---Forecasting/Results/periodic/model8.pth (torch, 54285 bytes, 13 tensors)

rnn.weight_ih_l0 f4 [50, 1]
00000000: 4bfa 51bd 6fcb 35bd a349 183d ab3d d23d
00000010: 0bc0 85bc f26e d2bd f49b ae3d ced9 6cbd
00000020: 5f2c 0f3c d3f1 cc3c a773 7a3b a628 e2bc
00000030: 9e11 eebd eaf1 1abd 9e91 543d 2427 513d
00000040: d676 373c 49d8 213d 3eb9 10be 8e1a 963d
00000050: 9d3a adbd 334b a33c 05ab 2cbd f7c1 fdbc
00000060: 65a1 7fbd d115 9ebd 5c5d 3b3d ebc5 d1bc
00000070: 1b30 653d fc6e 2bbd 9ed2 9aba e2bf 1b3d
00000080: b05b c0bd 41aa 93bd f217 0f3e 6e3e ab3d
00000090: 5ec9 763d 2191 ff3d cd83 dfbd 006e 833b
000000a0: 5f62 d33d 926a cdbd dda5 87bd afa5 9c3d
000000b0: 0025 143e a4ec fabd 43eb 68bd 3574 923d
000000c0: edcb ab3d 25cb d4bc
-0.05126409 -0.044383463 0.0371796 0.102656685 -0.016326925 -0.102750674 0.085258394 -0.057824902
0.008738606 0.025017655 0.0038215907 -0.027607273 -0.11624454 -0.037828363 0.051896684 0.051062718
0.011197766 0.039512906 -0.14133164 0.07329284 -0.08458445 0.019933319 -0.042155284 -0.030976279
-0.062409777 -0.07719005 0.04574333 -0.02560707 0.05595408 -0.04185389 -0.0011812036 0.03802479
-0.09392488 -0.07210208 0.13973978 0.08361517 0.060250632 0.12478853 -0.10913811 0.0040109158
0.10321497 -0.10030092 -0.06623433 0.07648789 0.1446724 -0.12252167 -0.056864988 0.07151071
0.08388505 -0.025975773

rnn.weight_hh_l0 f4 [50, 50]
00000000: 6430 6b3e e404 6a3e addf 8fbc de01 883d
00000010: 9567 c63c a51f 223e 4ef0 46bd 9106 08be
00000020: d32a 22be dce2 84be 6515 fb3d 0224 993d
00000030: d0d5 19bd 8f0b 5fbd b2ba 2b3e 638e 10bd
00000040: e689 4e3d 0ebb 25bc 890a 08bd a303 d6bd
00000050: cfc5 3c3e 4194 103e 33a1 debd a0c0 d8bd
00000060: afb2 06bd 59ff 043d 3a95 53bd 5deb 2e3e
00000070: d1f1 bbbd 4903 76bd bc2c dabd 75e6 553e
00000080: 7869 253e d7cf 033e 5f92 aebd 2037 6c3c
00000090: 5b61 00bd c19e 9d3d 8ddb c4bc ef9a fcbd
000000a0: c0fa c8bd 09f2 823c 7097 cf3d 8b13 84bd
000000b0: 0847 ef3d 7b0d d9bd 7f49 5fbd db4d 26be
000000c0: 91d1 2e3c 03ca 65bd 6198 893d cb3c a83b
000000d0: 5ca5 9dbd 6f84 573d 1108 fd3d b60d 01bb
000000e0: a7cd f23c fe1a 6abd 1e75 18bd 8e83 99bc
000000f0: f082 c0bc 9d55 e43c 2c7c ed3d f7d8 64bd
00000100: 11fb 153e 0d39 3f3c 4cd8 f53d 4aa1 bf3d
00000110: a167 e53d 7225 b53d a492 f13b d41c 283c
00000120: 384c 25be d7c5 20be 9121 00be ace9 193e
00000130: 275e 4a3d d995 423e 989a 173d a232 73bb
00000140: 49f3 f5bd d876 233e d93a b5bc 3c26 9c3d
00000150: e4f4 083c 8030 e13d ff0b c93d a3b4 5ebd
00000160: ffe3 1b3d 033d 56bc 7667 20bd 9c0f e83d
00000170: 6707 063e eb1e d7bd ea17 81bd c1b6 133e
00000180: 5661 973c 707e 1abd 29ce 2ebd af43 1dbe
00000190: 2636 4f3d d7e1 aa3d 95ed 00be f906 293d
000001a0: d204 863d f6ec 62bc 3140 083d 7412 3ebd
000001b0: 6533 763b 0e93 51bc e980 9cbd 8c52 b3bd
000001c0: 3bfc 14be a313 f7bd 36b9 6dbc 7abd 873d
000001d0: ee9c 2ebd eabb 96ba 8dd3 df3d 42f1 96bd
000001e0: c0d9 003e a131 eabd e39b 8fbd 6122 b13d
000001f0: b373 233d 4748 58bd 1b9c 523d 5d70 00be
00000200: 24dc 94bd 6eb3 01be 0bb1 aabc cdc0 e4bd
00000210: 0cb7 dd3d 60f0 04be 62fb 403d 356b 813d
00000220: cac2 113e 73db f6bc 01c4 a23c 2ea1 eb3c
00000230: 9aa8 b03c b948 f3bd 9065 be3c 7884 02be
00000240: b99d 4f3d 4ab2 003e 804d 123e f5f2 023e
00000250: 61fb 8c3c c32f c1bc f67f 8abc 16db fb3d
00000260: 6d4b be3d 2657 d73d 88f8 d4bc ef0f 473d
00000270: 7e3b 973d f4e4 203d 88dc d3bd f4d7 14be
00000280: cb3b b43d e4cb b23c 26ed e8bd 2df3 a5bd
00000290: bf94 06bc 4020 94bb 3421 a5bd 9865 1e3e
000002a0: eb97 dcbb 0de6 93bd 291e 8fbb 0e67 203d
000002b0: c5fd 34bb 2a63 f2bc 0460 d03d 24a0 843d
000002c0: ba9f 663d 1a71 acb9 fb20 85bc 4ab4 18bd
000002d0: 5746 94bc ce5a dd3d 3114 95bc 5d20 18bd
000002e0: f382 15bc e497 913d de5a 63bc 733f 43bd
000002f0: 4323 02be 5511 1b3d 0f34 583d 3087 8abd
00000300: 79b6 a2bd e2b8 133e 6520 363d 3eea a93d
00000310: be55 413d 6d3e 653a 4a62 0e3c f742 313d
00000320: d5a1 c83d 735f ed3d 2a9d 4b3d 4cad d7bc
00000330: 63ca 123e 2408 9a3d 9940 93bd b47f 28bd
00000340: 1811 6abc eba4 26bd 8603 34bd 8650 3a3d
00000350: bd5f 0bbb 83e9 083d 2736 d53d 1078 643c
00000360: e667 78bd cf35 fdbd f8c2 c8bd ac70 96bc
00000370: f650 11bd d9ea 043c d333 f2bc 705c 003e
00000380: 1b51 493c fe81 e73d d5d4 15be e005 dd3d
00000390: 4c7a e43d 4dcf e03d f085 293c 7d3b 603d
000003a0: 7533 7d3d 9858 7b3c 5fa8 813d 1a59 a0bc
000003b0: 4628 29bc 5f15 a53d a041 6cbd 49ac 00bc
000003c0: 1da3 c3bc 90bb d83c a791 19bc b3cc 813d
000003d0: 7661 f2bd 2b9b 733b 0599 4abd 1dcd fd3d
000003e0: ed88 eb3d 0d68 b6bb 7bf2 b93d 9845 9abc
000003f0: a40e 593c c464 403d 727f 8b3d b9eb 823b
0.22967678 0.22853428 -0.017562712 0.06640981 0.024219314 0.15832384 -0.048569016 -0.13283755
-0.15836649 -0.2595433 0.1225994 0.07477571 -0.037557423 -0.054454383 0.16770437 -0.03529204
0.05042448 -0.010115398 -0.033213172 -0.104499124 0.18434833 0.14119054 -0.1087059 -0.10583615
-0.03288525 0.03247008 -0.051655985 0.17081971 -0.09176982 -0.060061727 -0.10653064 0.20888694
0.16153514 0.12872253 -0.08524012 0.01441744 -0.031342845 0.076962955 -0.024030471 -0.12334239
-0.09813452 0.015984552 0.10136306 -0.0644904 0.1168347 -0.10598274 -0.05451345 -0.16240637
0.010670082 -0.056100857 0.06718517 0.0051342 -0.076975554 0.052616533 0.12355054 -0.001969201
0.029639078 -0.057154648 -0.037221067 -0.018739488 -0.023499936 0.027872855 0.115959495 -0.055870976
0.14646555 0.011671317 0.12004146 0.09356935 0.11201406 0.08845033 0.0073722173 0.010260779
-0.16142356 -0.1570047 -0.12512805 0.15030545 0.049406197 0.19002475 0.037012666 -0.0037109037
-0.120092936 0.15963304 -0.022122787 0.0762448 0.008359168 0.10995579 0.09816741 -0.054371487
0.03805923 -0.01307607 -0.039161168 0.11331102 0.13088761 -0.10503944 -0.06303389 0.14425184
0.01847903 -0.037718236 -0.04267708 -0.1535785 0.05058875 0.08343857 -0.1259063 0.041266415
0.06543888 -0.013850441 0.033264343 -0.046404317 0.0037567255 -0.012791408 -0.07641775 -0.08755979
-0.14549343 -0.12064292 -0.01450949 0.06627937 -0.04263013 -0.0011500095 0.10929022 -0.07370235
0.12583065 -0.11435247 -0.07012155 0.086491354 0.03990526 -0.052803304 0.051418405 -0.12542863
-0.07268551 -0.12666103 -0.020836374 -0.11169586 0.10825929 -0.12982321 0.047114737 0.06319276
0.14234462 -0.030133938 0.019868853 0.02876338 0.02156477 -0.11879105 0.023241788 -0.12745845
0.050687525 0.12568012 0.14287376 0.12787993 0.01720971 -0.023582345 -0.01690672 0.12297647
0.0929173 0.10514669 -0.025997415 0.04859918 0.07384394 0.039280847 -0.103447974 -0.14535505
0.08800467 0.021825738 -0.113733575 -0.08103023 -0.008214175 -0.004520446 -0.080629736 0.15468442
-0.006731977 -0.07221613 -0.004367609 0.03916078 -0.0027617079 -0.0295883 0.101745635 0.06475857
0.05630467 -0.00032890664 -0.016251078 -0.037281312 -0.018099947 0.10808335 -0.018198105 -0.03714024
-0.009125459 0.07109049 -0.013876645 -0.04766793 -0.12708764 0.037858326 0.052784022 -0.06764066
-0.0794496 0.14425996 0.044464488 0.08296631 0.04720091 0.0008744959 0.008690426 0.043276753
0.09796492 0.11590471 0.04971043 -0.026327752 0.14335017 0.07521084 -0.071900554 -0.041137412
-0.014286302 -0.04068462 -0.043948673 0.04548695 -0.0021266781 0.03342582 0.10410719 0.013944641
-0.06064596 -0.12363779 -0.09802812 -0.018364273 -0.0354776 0.008112633 -0.029565727 0.12535262
0.012287403 0.11304091 -0.1463197 0.10792136 0.11156139 0.109770395 0.010346875 0.054744232
0.06181665 0.015340947 0.06330942 -0.019573737 -0.010324543 0.08060717 -0.057679772 -0.007853576
-0.02388149 0.026456624 -0.009373105 0.063378714 -0.118349954 0.0037171345 -0.049462337 0.12392638
0.11500726 -0.005566603 0.090794526 -0.018832013 0.0132481195 0.046971098 0.06811418 0.0039953855

rnn.bias_ih_l0 f4 [50]
00000000: b2e8 bd3d a930 d93d 887c 153d 942b 133d
00000010: c095 a6bd be11 70bd 76ba 423c 0384 18bd
00000020: 7446 34bd 9c4f 86bd 3bf2 b6bd 4b1b 26be
00000030: e4a1 84bd b20b 68bd 6a4c 073d 9399 0b3e
00000040: 04ff f1bd d302 b7bc ecc8 01bd 12b1 0fbc
00000050: a529 bf3d 3d18 d2bd 215a 9d3d 6e02 4a3d
00000060: 7637 7bbc 154c 683b 18d8 5e3d d116 883d
00000070: 8432 81bd d25b 9fbd 451b 37bd 12ed acbc
00000080: 3ebe 9cbb 4ce3 50bd 5625 a7bd 1f78 c53d
00000090: d9db b23d 6802 ccbd a15c 5dbd 2ac1 413d
000000a0: 4831 fcbd 2040 31bd 9b24 a63d 4a38 ab3d
000000b0: 9085 e9bb 2934 983d 3939 94bd 0bfc bd3d
000000c0: 0ed7 cfbd 1c01 00be
0.09272899 0.10604984 0.036495715 0.03593023 -0.08134031 -0.05861067 0.011885276 -0.03723527
-0.0440125 -0.06558153 -0.089329205 -0.16221349 -0.06476191 -0.05665178 0.03303186 0.13632803
-0.118162185 -0.022340214 -0.031685755 -0.008770244 0.09334115 -0.10258529 0.07683206 0.049318723
-0.015333047 0.003544574 0.0544053 0.06644977 -0.06308463 -0.07781185 -0.04470374 -0.021109138
-0.004783421 -0.050998017 -0.08161418 0.09642052 0.08733339 -0.099613965 -0.054043416 0.047303356
-0.12314087 -0.043274045 0.08112451 0.08360346 -0.0071265176 0.07431824 -0.07237477 0.09276589
-0.1014844 -0.12500423

rnn.bias_hh_l0 f4 [50]
00000000: 0907 8b3d a820 8c3d c5c2 bf3b 7b6e d7bb
00000010: 2130 9cbd aabd 983c 5ef6 b5bd da0a d53d
00000020: a5e2 d73d 20bd d8bd 7c93 0abe 9cd7 b2bd
00000030: 4480 f23d c5f9 41bc 0fa2 5f3d 944c eb3d
00000040: a5bc e83d 0e06 f2bd cdc3 b0bc 44b3 8e3d
00000050: e217 a8bd 663b 02bd ff6e bfbd f08c 7cbd
00000060: 9e38 eebd f29c d93d 77bc 503d d7b2 213b
00000070: 436a a7bc 52d2 eebd a470 acbd 5d3c 85bd
00000080: 3685 ad3d c422 31bc 115a 9f3d b10b c2bd
00000090: cd3d a2bd 0375 c03d 2dca 33bc a6b1 4bbb
000000a0: 2d12 74bd b56f d7bd c331 3fbd e318 853d
000000b0: f441 50bd 45a5 9dbd 3d3e a63d 2056 373d
000000c0: ee6c 3abd b853 983d
0.06788451 0.06842166 0.0058520758 -0.0065744496 -0.07626367 0.018645126 -0.088848814 0.104024604
0.10541276 -0.10582948 -0.13532823 -0.087325305 0.11840871 -0.011839335 0.05459791 0.114892155
0.11364106 -0.11817561 -0.02157774 0.06967786 -0.0820768 -0.031794928 -0.09347343 -0.061657846
-0.116318926 0.10625638 0.050960984 0.0024673247 -0.020436412 -0.11661209 -0.08419922 -0.06505654
0.084726736 -0.010811511 0.07780851 -0.09474886 -0.07921944 0.09397318 -0.010973495 -0.0031081229
-0.059587646 -0.10519353 -0.046678316 0.064988874 -0.050844148 -0.07697538 0.0811734 0.04475987
-0.04551404 0.07437843

rnn.weight_ih_l1 f4 [50, 50]
00000000: 386c a9bd bf54 f3bb 8866 b93d a74a 01be
00000010: 0be8 133e f987 febd f011 a63b 4a16 c0bd
00000020: 1203 c5bd 7032 f33d 4acb 8d3c 5194 babc
00000030: 8318 c23d b4cd c93d 26d7 cdbd 3602 843d
00000040: 733b 983d e4fd 02bc a821 c6bc 5156 e43c
00000050: 51e4 a2bd c4f0 cf3d f16b ebbd dd17 a13d
00000060: dbd1 d63d dfdf 853d 1e60 17bc 211e 833d
00000070: 5f67 75bd 7928 9c3d 30da ce3d 7ed3 97bd
00000080: 58e5 1a3d 35cf 1e3d 2921 4f3d 20b9 8a3c
00000090: 920a bcbc 3294 0b3e 0345 c3bd a311 a4bc
000000a0: d360 01be c3c6 97bc 5bac 97bd 2b7c 51bd
000000b0: 1bc9 e1bc 26b3 57bd c69f e8bd bbad fe3d
000000c0: 6738 ca3d d917 943d 264e 033e 28dd 563d
000000d0: 7d03 e4bc 0214 2e3c d321 0e3d f423 98bd
000000e0: 8855 173d 4238 bf3c aa67 41bd 0167 d4bd
000000f0: 1351 bfbd 7c50 b63d 8c3a 313c 4b71 fcbd
00000100: bb76 98bd e673 043e db85 0b3e 880e ab3d
00000110: 27fb bd3d 7609 cbbd b1d8 bfbc f250 acbc
00000120: 3467 4e3d d54d 0d3e 081c 13be c852 183d
00000130: be7d b33d 1758 b63d 5dc3 86bc 498b 9fbd
00000140: 41d7 d43d 8f07 85bd 1bdd 833d 9203 fabd
00000150: 567c 3b3b 99ff 5ebd ee05 0f3e 9eef a73d
00000160: fef0 ccbd 1314 24bc 28db 883d 77d5 2b3c
00000170: 11b3 1bbd b909 c83d 2ef2 bd3d 41d8 12be
00000180: 5201 c23d dca3 9c3d 7562 933d 9b84 1d3c
00000190: 1de0 cebd e666 c03d 03f0 a7bd 14d2 b7bd
000001a0: 44a3 fa3d e305 fcbc 3126 0e3e 0689 bbbc
000001b0: 4247 46bd fd16 473d 46c1 873d de8d 113e
000001c0: f5d0 c5bd 148d 5fbd b4e1 113c cf85 3bbd
000001d0: 6a99 86bd e9dd 0c3e 4b51 f8bd b2f4 f43d
000001e0: 4396 ca3c c0c9 3ebd bf21 c2bb a30e a9bd
000001f0: d3ce c53d b47d 0bbe 3266 fcbd 9481 1fbd
00000200: f768 8dbd 8262 f43b 2f4a 9dbd 237f ea3d
00000210: f325 d3bb 1f71 983d 9767 22bd 7399 ef3d
00000220: 3df4 b2bd 7028 00be b28d e9bd 0f5d 54bc
00000230: a0d7 81bd 7852 243d df89 503d d07a 013e
00000240: 6119 d4ba 6927 39bd dedd 9f3d a27a 32bd
00000250: b0a5 82bd 236c 3cbd 21ce 9cbb ac79 e4bd
00000260: 41d4 d03c df15 cb3d c9c0 9b3c cb32 83bd
00000270: 50ce b4bb 7624 d2bd 9061 debd ce4d 4abc
00000280: a1af 123d c6ee ffbd 80a2 37bd 66d4 f2bd
00000290: cabd ee3d 1762 65bd f9db 0cbe 4a3f 49bd
000002a0: 1fd1 dc3c 950e 8a3d 4fdc a4bd 59ec 093d
000002b0: 57b1 bcbd c9ba 83bd ede4 813d e125 063e
000002c0: c4cb e93c 44b6 d8bd 1401 e03d cc47 503c
000002d0: df4b c03d 6515 7ebc 3bc7 09bd 07e6 31bc
000002e0: 95a3 8d3d 8464 3dbc 57ed a13d d3b6 c83d
000002f0: ee21 c8bd 1e8a d83d bfe5 15be 6a1f 2c3a
00000300: 1740 ddbc e5ed a63d 1b3b 0cbe 5e66 983d
00000310: 3d47 04bd 1c61 5abd 7ab5 3bbd 02ca 2e3d
00000320: 3608 c43d 1dda 063e 629e b03d f14a a3bd
00000330: 34c2 7ebd eb4c 74bb 81cd dbbd 916d dc3d
00000340: a87a 073e ff7f 6d3c 5733 8bbd 7d23 b63d
00000350: fde8 d83c e9a0 103d 3b52 78bd d52f 18bd
00000360: a32c 02bd b252 eebd d436 96bd 7d14 16bd
00000370: 8811 9b3d 22d2 bdbc f784 ec3d 71a2 88bd
00000380: 5ddf c5bd a0ad aabc 5cbd 643d abaf ac3d
00000390: 62db b83d be95 a43c 93e6 b33a 2824 5ebd
000003a0: ea95 45bd 8c8f 2e3d 0e9c 02be 790d 93bd
000003b0: 7969 853d d8a1 d33d 9e82 9dbd f903 003d
000003c0: 4dc5 3c3c cd89 d5bd a93a f13d 7f17 e3bd
000003d0: 2a6b 9dbd 61c3 51bd c221 d3bd a782 cebd
000003e0: 8d60 acbd 4eb0 033d 71ee 133b d650 f23d
000003f0: 7f4a 52bd 94fa 9ebd 4311 553d 3a31 dd3d
-0.08272594 -0.007425874 0.090527594 -0.12626134 0.14443986 -0.124282785 0.0050680563 -0.09379251
-0.09619726 0.118748546 0.01730885 -0.0227758 0.094773315 0.09853688 -0.10050802 0.06445734
0.07433214 -0.007995103 -0.02418597 0.02787319 -0.07953704 0.10153344 -0.114951976 0.0786588
0.104892455 0.06536841 -0.009239225 0.06402231 -0.059913035 0.07624907 0.1010021 -0.07413386
0.037816375 0.038771827 0.050568733 0.016933978 -0.022954259 0.13630751 -0.09534647 -0.020027941
-0.12634592 -0.018527394 -0.07405921 -0.051143806 -0.027561715 -0.052661084 -0.11358599 0.1243548
0.09874039 0.07231111 0.1282278 0.052457005 -0.027833695 0.010624887 0.034700226 -0.074287325
0.036946803 0.023342256 -0.047218002 -0.10371209 -0.093416356 0.0890207 0.010817181 -0.123262964
-0.07444521 0.12934837 0.1362528 0.08352381 0.09276419 -0.09913914 -0.023418756 -0.021034691
0.05039139 0.13799222 -0.14366162 0.03718832 0.08764218 0.089035206 -0.016450578 -0.077902384
0.10392619 -0.06495582 0.06438657 -0.12207712 0.0028608046 -0.054442976 0.13967106 0.082
-0.10006903 -0.010014552 0.06682426 0.010487906 -0.038012568 0.097674794 0.09274708 -0.14340307
0.09472908 0.07648441 0.071965136 0.009614135 -0.1010134 0.09394626 -0.082000755 -0.08975616
0.12238172 -0.030764526 0.13881756 -0.022892486 -0.0484078 0.048605908 0.06628661 0.14214274
-0.09658996 -0.054577902 0.0089039095 -0.045781907 -0.0657223 0.13756527 -0.121248804 0.119607344
0.024729853 -0.046579123 -0.005924433 -0.08254745 0.09658589 -0.1362217 -0.1232418 -0.038941935
-0.06904786 0.007458032 -0.07680165 0.11450031 -0.006443733 0.07443451 -0.039649572 0.1169919
-0.08737991 -0.12515426 -0.11403979 -0.01296164 -0.06339955 0.04011771 0.050912734 0.12644506
-0.001618188 -0.0452036 0.0780599 -0.043573983 -0.06379259 -0.046001565 -0.0047853147 -0.111560196
0.025491836 0.09916281 0.019012826 -0.06406172 -0.0055177584 -0.102608606 -0.10858452 -0.012347652
0.035812024 -0.12496714 -0.044832706 -0.11856918 0.11657293 -0.05600175 -0.13755788 -0.049132623
0.026955185 0.067410626 -0.08049833 0.033672664 -0.092135124 -0.06432111 0.06342492 0.13100387
0.028539546 -0.105816394 0.10937706 0.01271243 0.09389471 -0.015508031 -0.033637267 -0.010858065
0.069159664 -0.011559609 0.07906597 0.09800496 -0.097720966 0.10573219 -0.14638422 0.00065659604
-0.0270081 0.081508435 -0.13694422 0.074414 -0.0322945 -0.053315267 -0.045827366 0.04267312
0.095718786 0.13169141 0.08623959 -0.07973278 -0.062196925 -0.0037277292 -0.10732556 0.10763086
0.13230383 0.014495849 -0.06796902 0.088934876 0.026478285 0.035309706 -0.060625296 -0.03715499
-0.03178085 -0.11636867 -0.073346764 -0.036640633 0.07571703 -0.023171488 0.115487985 -0.06671608
-0.09661744 -0.020834744 0.05584465 0.084319435 0.09026219 0.020090934 0.0013725333 -0.0542337
-0.048238672 0.042617366 -0.12754843 -0.07180304 0.06514258 0.103336036 -0.07690929 0.03125379
0.01152165 -0.10426674 0.11778767 -0.11088466 -0.076864555 -0.05121172 -0.10309173 -0.10083514
-0.08416853 0.03215056 0.0022572542 0.118318245 -0.051340576 -0.07762638 0.052018415 0.10800405

rnn.weight_hh_l1 f4 [50, 50]
00000000: 2965 bcbd b429 ff3d dc3e dbbd e891 a03d
00000010: 0bc3 08bd 54e7 b63d 0ea6 45bd 65df 14bd
00000020: 2bf9 163d 2b74 4f3d 4849 913d 1565 94bb
00000030: 067e 753c 435f 09be a094 153e e45a d4bb
00000040: d9a1 fd3d 9470 5cbb 5d5a 3e3d 6941 d83d
00000050: 24f1 6bbd b580 863d 9d85 0a3e 5446 16bc
00000060: 10a1 b13d 8fce a6bd 841b a3bd 6204 a4bc
00000070: 839f 1abd 0f79 d4bd 8c85 5cbd 95e4 8abb
00000080: fde3 293d d065 843d 6acb 9ebd 27b3 a73b
00000090: 9f26 11be 6ade 0a3d 6cab 04bc da35 ddbd
000000a0: 37ee ab3c 4635 063e 37ec 143e f7f2 a3bd
000000b0: ad5d 89bd 024b 923c f647 053d 4f2b cabd
000000c0: 794b c2bd eb28 2e3d ee57 113d 1712 3fbc
000000d0: dcd7 9c3d dfd1 e6bd 013a 89bd 8816 ef3d
000000e0: 5409 b5bd 7665 d93d 4eb0 a0bc 02bd 9cbd
000000f0: b74a 62bd 94dc 343c 7de6 3b3c fa60 fa3c
00000100: ed41 b4bd 64ea 80bd 14bf 02be e8e5 053d
00000110: d7d4 61bd 6b86 913d 5fb0 a1bc 72e8 8cba
00000120: d439 f7bc a547 e5bc 0751 0d3d ff68 313c
00000130: 40b1 563d da75 733d 57e3 583d b6a2 dd3d
00000140: 4583 d7bd 1e19 5c3a 3293 f9bd 0564 20bd
00000150: 1e17 dc3d f9f7 b1bd bd39 c6bd 5f26 323d
00000160: 3425 e23d 65ab 80bb 9d24 72bd cb17 663b
00000170: 5de2 9bbd 1266 ec3d 1fa2 c43d d587 8a3d
00000180: 4c0b 093e 5d88 ab3d ebf7 943b 484d e1bd
00000190: 30ad 27bd 22fb 943a 9156 e03d fc06 edbd
000001a0: 3ea4 9e3d dffd e0bb 87a2 6bbd 68d0 abbd
000001b0: 684d f73d e961 34bd c710 a73d e1d2 853b
000001c0: 46fb c2bd 3799 4bbd 20bc ca3c a403 7cbd
000001d0: 0d1b 01bc 9ea1 963d 09c3 bbbd f330 09be
000001e0: fbfd b4bd 4545 66bd 7d83 d23c 314c af3d
000001f0: cf39 f43d a36d 003e 6a04 0c3e b9f4 fcbd
00000200: 8abe 7b3d 62f4 25bd cfd1 d3bc b754 8d3d
00000210: 2dec 00be 8e11 60bd a01a 1c3e e3f1 893d
00000220: 5060 663d 0fcd 8e3d 3c05 a5bd b3fc 113d
00000230: 09fc 7f3d ae43 143e b0d4 81bd 86b5 97bc
00000240: 009b c73d 0c45 16be 16e0 843d 7dc8 0a3d
00000250: d354 573d b046 153e af6a f7bb 2bb5 e93d
00000260: e7ab 283d 7378 b33d 9469 123e f2d4 d9bd
00000270: fee3 cdbd 382a b03c 82c1 723d 5644 f73b
00000280: 3860 d23d 9818 75bb f642 9bbd 543f fe3d
00000290: 566e 503d 34c1 d0bd 8fec 92bc d8a9 65bd
000002a0: 16f6 5cbb baba ae3b 7849 60bd b0ea ce3d
000002b0: 9ba7 843c 3244 06be 48bf febd e727 583d
000002c0: 4d6b 19be e9aa c33d d352 5cbc e5f7 dd3d
000002d0: 68e5 87bd 6509 9abc 3965 013e f743 803d
000002e0: 657f b33d 3b90 abbd 98db 0ebe b250 053e
000002f0: 0322 043e 3996 cabd f51b 803d 3d46 893c
00000300: 595b 88bd 6feb 6f3c 6786 d7bd 3323 afba
00000310: 98e3 d5bd 9bbb 3e3c 6c32 d43d 097c b5bd
00000320: 5e94 333d 16fe 6e3d 1ff3 0bbe 6710 163d
00000330: 9430 0abe efca 973d f71d 08be b62d 4fbd
00000340: 08cf 58bd 07cb 563c a570 8bbc 63c7 e7bd
00000350: b093 1ebd eff6 c83d 5d79 03bc f26a a53d
00000360: d62d 6b3b 31aa 093e 92e2 ec3d f530 f93d
00000370: 158d eebc 5f27 343d 2216 e23c 217e bc3d
00000380: 483d c93d 4411 01be 58f3 ea3d c559 01be
00000390: ef9d 03be 6038 62bc 68ef dbbc 0a65 aa3d
000003a0: c0ce e23d 3025 843d a386 ad3d 030d a43d
000003b0: 21e2 01be d14c a63d 6b98 8d3b 70e7 d03d
000003c0: d871 8ebc 4f8d c63d b815 fb3b ac4c 89bc
000003d0: dc54 b5bd fd1c a7bd 5f58 09be cc18 053e
000003e0: 02b6 a4bd f596 77bd 40f7 68bd 01ae 163d
000003f0: 5e11 8d3d ee8b d03d 936f 18bd bbb0 cabd
-0.09198982 0.12459126 -0.10705349 0.078403294 -0.033389132 0.08930841 -0.048254065 -0.036345858
0.03685872 0.050647896 0.070940554 -0.0045286515 0.01498366 -0.13415246 0.14607477 -0.0064805616
0.123843856 -0.0033636438 0.046472896 0.10559351 -0.057603016 0.06567518 0.13527532 -0.009172041
0.08673298 -0.08144867 -0.079642326 -0.020021621 -0.03774978 -0.103746526 -0.053838298 -0.004238675
0.041477192 0.06464732 -0.07753642 0.005117792 -0.14174889 0.033903517 -0.008097511 -0.10801287
0.020987613 0.1310626 0.14543234 -0.08005326 -0.0670732 0.017858032 0.03253933 -0.09871542
-0.094870515 0.04251949 0.035484247 -0.011662028 0.076583594 -0.112704985 -0.067005165 0.11674219
-0.0883967 0.10615055 -0.019615319 -0.07653238 -0.055247035 0.011038918 0.011468527 0.03056382
-0.08801637 -0.062947065 -0.12768203 0.03268996 -0.05513462 0.07105716 -0.01973742 -0.0010750426
-0.030178942 -0.027988264 0.0345011 0.010828256 0.052415133 0.059438564 0.052951183 0.1082205
-0.105230846 0.0008396077 -0.121862784 -0.039157886 0.10746597 -0.08689875 -0.096789815 0.043493625
0.11042252 -0.003926682 -0.05911695 0.0035109397 -0.07611535 0.11542906 0.09601235 0.06764189
0.13383216 0.083756186 0.0045461557 -0.11001068 -0.04093665 0.0011366347 0.10954011 -0.11573598
0.077461705 -0.0068662013 -0.057528045 -0.0838936 0.12075311 -0.044038687 0.08157497 0.0040839766
-0.09520583 -0.049706664 0.024747908 -0.06152691 -0.007879985 0.07355045 -0.091680594 -0.13397579
-0.088375054 -0.056218404 0.025697464 0.08559454 0.119250886 0.12541823 0.13673559 -0.12351365
0.06146101 -0.040516265 -0.02585688 0.06900924 -0.12590094 -0.05470424 0.15244532 0.06735589
0.056244195 0.069727056 -0.08057639 0.035641383 0.06249622 0.14478943 -0.06339395 -0.018519174
0.09746361 -0.14674777 0.064880535 0.033882607 0.05257113 0.14577746 -0.0075505595 0.11411508
0.041179564 0.08763208 0.14298087 -0.10636319 -0.10053252 0.021504506 0.059266575 0.007545988
0.102722585 -0.0037398692 -0.07581131 0.12414423 0.050886475 -0.101931006 -0.017935066 -0.05607018
-0.0033716015 0.005332318 -0.054757565 0.10103357 0.016193202 -0.13111952 -0.12438828 0.05277243
-0.14982338 0.09554083 -0.013447481 0.10838298 -0.06635553 -0.018803308 0.1263627 0.06262963
0.08764533 -0.08377119 -0.13950956 0.13019064 0.129036 -0.09891934 0.062553324 0.016757125
-0.06658048 0.014643534 -0.10523682 -0.0013361931 -0.10443801 0.011641408 0.1036118 -0.088615485
0.043842666 0.058347784 -0.13666962 0.036636736 -0.13495094 0.074117534 -0.1329268 -0.050580703
-0.052931815 0.013109929 -0.017021487 -0.11317327 -0.038715065 0.09812724 -0.008024541 0.08077039
0.0035885475 0.13443829 0.11566652 0.12167541 -0.029120008 0.04398286 0.027598444 0.09203745
0.098261416 -0.12604243 0.114721954 -0.126319 -0.12853216 -0.013807386 -0.026847556 0.08320053
0.11074591 0.064524055 0.084729455 0.08010294 -0.12683918 0.0812012 0.004321148 0.10200393
-0.01738827 0.09694921 0.007662501 -0.016760193 -0.08854076 -0.08159826 -0.13412617 0.1299774
-0.08042528 -0.0604467 -0.05687642 0.036787037 0.06888078 0.101829395 -0.03721578 -0.0989699

rnn.bias_ih_l1 f4 [50]
00000000: b08c 88bd ab24 b2bc 26fc b3bc 7e83 083e
00000010: 0435 9d3d 2d77 81bd b2fd 7cbd d8f0 d93d
00000020: 89d8 4e3c cfd6 88bd 9d56 023e 8637 ca3d
00000030: 660a e6bb 5c26 92bd 5f51 9dbd d507 0f3c
00000040: 8a53 3abd e27b 3cbd 7d93 18be 5120 163e
00000050: 4ee1 dc3d 2665 df3d cf1a d9ba a0f6 783c
00000060: 3af6 2d3c f2a3 68bd b0bd 4bbd 3b52 d43d
00000070: 325c d9bd 2261 9ebd 61b7 fb3c 0c44 9ebd
00000080: 1a6e 4f3d 991d f43d a237 ffbd 7b34 8dbd
00000090: d505 b33b ad9c a23d 5c15 1d3e 5682 073d
000000a0: 3878 043e 61af 02be a92d 4fbd cc57 f5bc
000000b0: 732f febd 1b28 e73d c3b8 adbd 4550 113e
000000c0: ec6b 9c3d 528a 4bbd
-0.06667459 -0.021746 -0.02197082 0.1333141 0.076761276 -0.06321559 -0.06176538 0.106416404
0.012624868 -0.066815965 0.12728353 0.098738715 -0.0070202826 -0.07136223 -0.07681536 0.008729895
-0.045489825 -0.04601658 -0.14900012 0.14660765 0.10785161 0.109079644 -0.0016563776 0.015195519
0.010617787 -0.056796975 -0.049741447 0.10367247 -0.10613288 -0.0773337 0.03072709 -0.07727823
0.05064211 0.11919708 -0.12461783 -0.068947755 0.0054633417 0.0794004 0.15340179 0.033083282
0.12936485 -0.12762214 -0.050580654 -0.029949091 -0.12411394 0.112869464 -0.08482506 0.14190777
0.07637772 -0.04969246

rnn.bias_hh_l1 f4 [50]
00000000: 8344 863d 98fd 64bd e0f0 88bd 8491 d6bd
00000010: 1fe0 fb3d 9eb4 063e acca fbbc 3d97 04be
00000020: b484 09be 3017 ca3d 0ce1 c1bd c13f ec3d
00000030: 1367 5dbd 4c40 7c3d 3b35 f1bd cdb9 8abc
00000040: c6ff fdbd 3c55 a53d db0c ebbd 6b4f d2bc
00000050: 4bf8 2ebd aa55 0d3e 12e5 bcbd faea c53d
00000060: ae08 4d3d 3bd2 c1bd b39b 01be 2281 47bd
00000070: c37a c93d 6924 9a3c 1b24 4dbd 7fbf d6bd
00000080: 2d45 4cbd 3c88 803d 7dd3 da3d 5b8d 223e
00000090: 8746 3a3d 2921 0cbe 37fd 10bd 1171 1ebe
000000a0: 1b78 813d f325 0dbe 1cb5 4dbe 5101 c93d
000000b0: 0438 2abd 0272 0e3e 8794 ecbd a1a1 d83d
000000c0: 46e1 8fbd bcfe 223d
0.06556036 -0.05590591 -0.06686568 -0.10476974 0.12298607 0.13154837 -0.03073629 -0.12948318
-0.13429528 0.09867704 -0.094667524 0.115355976 -0.054053377 0.061584756 -0.11777731 -0.0169343
-0.124023005 0.08072898 -0.11477061 -0.025672635 -0.04271726 0.1380221 -0.09223379 0.09663959
0.050057106 -0.094639264 -0.12657051 -0.048707135 0.09837868 0.01881619 -0.05008326 -0.10485744
-0.04987066 0.06275985 0.106848694 0.15874235 0.045477416 -0.13684525 -0.035397734 -0.15472819
0.063217364 -0.13784008 -0.20088619 0.09814704 -0.041557327 0.13910678 -0.11551767 0.10577703
-0.070253894 0.039793715

rnn.weight_ih_l2 f4 [50, 50]
00000000: eb6a bfbd 4bdc 8cbd c15b 1bbe 5406 013c
00000010: eef7 613d d38b 70bc 983a 20be d5ce d4bd
00000020: aae0 4fbd 6bbe a13a f4fd 823d 47b5 063e
00000030: 2489 dd3d db0f 8abd 5053 0bbe fce3 873a
00000040: 71e8 1cbe edbf 123d 81c4 b7bd a045 d73d
00000050: 0272 6f3d dec3 2c3e 1f3a 88bd c2e4 273d
00000060: 90f5 eebd 764e 2dbe a8b8 0c3e 55de 6b3e
00000070: 297c 293d 450b 59be 3955 d0bd 51e3 b83d
00000080: 3c77 63bd b010 973d e7af a0bd f479 01bb
00000090: 8dfe f73c 4357 e8bd 7490 543d 7759 45be
000000a0: 784d 483e 71d1 6ebe 33bd 0b3d 3f46 d13d
000000b0: 81bf 36be aea1 9fbd b750 313d 2e43 46bd
000000c0: 1b91 6b3d 74e9 a5bd 255a 143e 2f88 bfbc
000000d0: 126e 02be af0b 45bd 4b77 c1bd a99c 833d
000000e0: fac4 983d 2911 983d c9ef 103e e52d aabd
000000f0: ff2d 023b f94b a2bc c92a 113e 90f0 a53d
00000100: c139 f7bd 031a eabd 6af0 c63d cc41 6d3d
00000110: 60d7 ffbd 76e6 abbd 670d 7439 ee59 4b3d
00000120: ae67 85bd e396 4bbd ffb1 07be 22c6 ed3d
00000130: d0c0 b83d d332 fcbd e521 46bd 21de a9bd
00000140: d290 e9bd 7ade 023e 850b fdbd cfab 03be
00000150: f0a1 0abe 6698 5ebd 88ea 97bd 3ebb 21bd
00000160: 47c6 c4bc a58d 19bd c154 f4bd 57df 0abd
00000170: b75f b8bd 1f3d 883d 3f4c e2bd ae65 11bd
00000180: f58a a93d 5b1b e83d 8913 03bc 835a 793d
00000190: 7c35 e33d 1b08 103e 22d7 f6bd 1092 df3d
000001a0: fbc6 6dbd db79 8ebc 9305 ff3d 7507 c53d
000001b0: 7c7c 053e 7594 c1bd ee10 453d ffbf 0f3d
000001c0: 113b c43d 2257 88bd bc40 a73d 1260 3bbd
000001d0: 8615 b4bc 4ffa a03c c7cb e9bd 46fb 873d
000001e0: cbf7 80bc ccb9 07be 36d2 b1bd c1f5 5c3d
000001f0: 5a34 53bd bed0 863d bcbb d73d cc9e a1bd
00000200: 40c8 673c f75a db3d 7bda dabd 89d4 c8bd
00000210: c423 3a3b acf5 03be 150d dd3d 2d2a e5bd
00000220: 3cc1 0e3e 7934 80bd 9676 a0bd 5aa1 6ebd
00000230: f89a c13d bb9d c5bc 0d68 6fbc cca3 883d
00000240: e990 05be 7567 0bbe e922 8d3c d073 ee3d
00000250: c523 a2bc 16c1 43bd f882 e7bd 4520 b2bc
00000260: 5f66 fcbc ea08 533d 4930 d53d 362a d3bd
00000270: 6956 f1bc c095 b6bd 9a76 95bd 0702 a73d
00000280: ed94 e8bd 5b85 a63d 9630 8ebd c207 cebd
00000290: c96b 8c3d 3a11 f93d 2e1c 08be e53b 2ebd
000002a0: 6776 1f3d 5973 eabd aaa0 8bbd 40e0 653c
000002b0: 0226 e33d ccab 0b3e 47fc f4bd f3a4 06bd
000002c0: 84f0 9e3d 26f4 fabd 904f 4ebd c5dc c7bd
000002d0: 3598 f4bd 5a09 0e3c d32e f63c 8e9f b73d
000002e0: 2f5d 04be c83d d6bd 0359 923c d530 1f3d
000002f0: 4033 eb3d 7720 143e 604b a6bd f153 193e
00000300: af40 a2bd d4b9 a53d 9a04 9dbd e10e afbd
00000310: 2f1b 073e e82a 5d3d d3d1 e43d 5ffc df3d
00000320: 49bb 6b3c 1af2 983d 1944 cebc e455 05be
00000330: a124 903d 3b03 a93b 101c 433b b828 95bd
00000340: 5966 8e3d f9da b63d 46ef 0a3d cd0d 853d
00000350: c332 193e b74c 243d de64 24bc 72c4 97bc
00000360: bf60 e8bd 835b fb3c 546d 87bc a51f c53d
00000370: 31ab 3cbd f0c9 143e 6928 df3d 597e b23d
00000380: 704e bcbd 805c b2bd d313 833d 6613 543e
00000390: 4776 00be 19d5 40be 7e38 efbd 86c8 833d
000003a0: 9c23 793d 3bc4 4f3e 6530 21be 0ede 6a3d
000003b0: bdeb c8bd f549 f63c bb87 76bd 61b4 febb
000003c0: ba86 3c3e 6386 f4bd 8154 703c 6778 dc3d
000003d0: f68c 6ebd ae58 b63d e5f4 843c 7637 a23d
000003e0: 09f5 b8bd c7af d8bd 63e4 c7bd e057 c4bd
000003f0: ff1c d8bd 2334 613d d658 153d cb32 0a3d
-0.09346565 -0.06877955 -0.1517172 0.007875044 0.055168085 -0.014681774 -0.15647352 -0.103910126
-0.050751366 0.0012340074 0.06396094 0.1315509 0.10817173 -0.067413054 -0.13606 0.0010367627
-0.15323044 0.035827566 -0.08973027 0.10511327 0.058458336 0.16871592 -0.06651711 0.040989645
-0.11667931 -0.16924462 0.13742316 0.23034032 0.041378174 -0.21195705 -0.10172505 0.09027732
-0.055533633 0.0737623 -0.07846051 -0.0019756528 0.030272746 -0.11344769 0.051895574 -0.1927241
0.19560802 -0.23322083 0.03411598 0.102184765 -0.1784649 -0.0779451 0.043289866 -0.04840391
0.05751143 -0.08101168 0.14487512 -0.023380367 -0.12737301 -0.048106845 -0.094465815 0.06426365
0.07459445 0.07425148 0.14153971 -0.08309535 0.0019863842 -0.019811617 0.14176477 0.08102524
-0.120715626 -0.114307426 0.09713824 0.057924077 -0.124922514 -0.08393566 0.00023274646 0.04964631
-0.06513916 -0.049704444 -0.13251494 0.116100565 0.09021151 -0.123143815 -0.048372168 -0.08294321
-0.114045754 0.1278018 -0.12355713 -0.12858509 -0.13538337 -0.054344557 -0.0741778 -0.03948521
-0.024020327 -0.0374886 -0.11930228 -0.0339044 -0.09002631 0.06652283 -0.11049699 -0.03549736
0.08278457 0.11333343 -0.008000263 0.060877334 0.11094186 0.14065592 -0.12052752 0.10916531
-0.05805109 -0.01739209 0.12452235 0.09620563 0.13035768 -0.09452144 0.04811185 0.03509521
0.095815785 -0.06657244 0.08166644 -0.045745917 -0.02198292 0.019650606 -0.114158206 0.066397235
-0.015743157 -0.1325447 -0.08682673 0.053945307 -0.0515636 0.06582783 0.10533854 -0.07891616
0.014146864 0.107107095 -0.10686203 -0.09806163 0.0028402666 -0.12886685 0.10793511 -0.11189685
0.139409 -0.06260008 -0.078351185 -0.058259346 0.09453386 -0.024123063 -0.01461221 0.06671867
-0.1304356 -0.13613684 0.01722856 0.11643183 -0.019792447 -0.047791563 -0.11304277 -0.021743903
-0.030810533 0.051522173 0.104096 -0.103107855 -0.029460149 -0.08915281 -0.07298012 0.081546836
-0.1135653 0.08130904 -0.06942861 -0.100600734 0.06856496 0.12161489 -0.13292 -0.04253759
0.038931277 -0.11447782 -0.068177536 0.014030516 0.11091234 0.13639754 -0.119621806 -0.03287215
0.077607185 -0.12253599 -0.050368845 -0.09758905 -0.11943094 0.008669222 0.030051624 0.089659795
-0.12926172 -0.104610026 0.01786471 0.03886493 0.114843845 0.1446551 -0.081198454 0.14973427
-0.07922494 0.080920845 -0.07666893 -0.0854776 0.13193963 0.053995997 0.11172833 0.10936808
0.014387914 0.07468052 -0.025178956 -0.13021046 0.070382364 0.005157856 0.0029771365 -0.07283157
0.06953115 0.089284845 0.033919595 0.06496773 0.1496077 0.040112223 -0.010033814 -0.01852629
-0.11346578 0.030683285 -0.016531624 0.09625176 -0.0460617 0.14530158 0.108963795 0.08715505
-0.09194648 -0.08709049 0.064002655 0.20710525 -0.12545119 -0.1883129 -0.11680697 0.06434731
0.060824975 0.202897 -0.15741117 0.057340674 -0.098105885 0.030064562 -0.060188036 -0.0077729677
0.18410769 -0.11939695 0.014668585 0.107651524 -0.0582399 0.08903633 0.016230056 0.079207346
-0.09031112 -0.10580402 -0.09760358 -0.09587073 -0.105524056 0.054981362 0.036461674 0.033739846

rnn.weight_hh_l2 f4 [50, 50]
00000000: 9145 653c 863a c63d 733d 123e 797d b5bd
00000010: 9c1f 523e a7dc ebbd 3436 bdbb e006 433e
00000020: 0418 10be 5a4f cabd bbb5 05be b1ed d7bd
00000030: 1a05 963d ad06 6d3d 9c0a 40be 2b89 523d
00000040: eeb7 bdbc 9198 2bbd 78cf 843d 51c7 5abd
00000050: 9a2a 4abd a19e 0ebe 2704 093d 0d2b 25be
00000060: 2bd3 e83c aa68 883d bda4 803d c78e 37be
00000070: 3ded 193e 535c eb3b a695 dbbd b1d0 783d
00000080: 8bd2 733d b69b bd3d 6588 aebd fd03 143d
00000090: c455 893d 4ae3 ef3d 850c 8cbd 18e7 6cbc
000000a0: 14c2 47be d280 103e b0be ed3d 10b5 803d
000000b0: a0ac b93b 8608 ccb9 a2c2 07be c470 b1bd
000000c0: 7042 24bd 5d55 03be ed48 813d 12d8 033e
000000d0: 6c86 c7bd 7c20 c43d 8f83 a6bd 0c8f f13d
000000e0: 1374 59bd 6e3f 053e 84e7 85bd 9a1a c03d
000000f0: 7584 dc3d cb59 9bbb 38a6 7a3d aea4 923d
00000100: 3450 f03d dfe2 813d 5892 dfbd 1771 e33d
00000110: a04a d7bd 0d3c b2bd d16d 31bd 36b5 2c3a
00000120: 9979 2ebd 2dcc 843d 66f7 e63d 3cc4 013e
00000130: b58e 90bd 9409 fa3c d494 143e 754a c1bd
00000140: 5730 ccbd 9bc2 003e cecb 103d 6472 b0bd
00000150: 7d20 f1bd f49b f7bd a6ca 353d c15e e73d
00000160: 6b56 e63d f6fd 113e 48e8 933d 2289 8c3d
00000170: 7e6e 09be ba72 123d ee30 8cbc d49e b73d
00000180: 0c4c 61bc 051c 523d 36f0 813d 1a75 423c
00000190: 7c86 cd3d 4964 c9bd 2251 3f3d c636 033e
000001a0: 4058 443c 638f a13d abd4 29bc 6bdb d03d
000001b0: 2e80 15be 276a 6b3b b908 fe3c 10db f1bd
000001c0: 40de e83c 1524 cd3d a550 c0bd a5e0 723d
000001d0: 35b3 95bd cf4d a5bd 295e aebd cc39 653d
000001e0: b540 19bd 6b4f 8d3d 81f7 85bd 7cc7 ea3d
000001f0: 6636 9bbd d3e8 213d 3f54 5cbd 9981 a5bd
00000200: 8cf0 d0bd 4a4d a03d fb16 00be 4bf5 bebd
00000210: 2e13 0bbe 3694 c93d 7d15 cfbd eca5 993d
00000220: a347 193c 7c97 ee3d 6857 1c3d 6a39 04bd
00000230: 50a1 013d 24b7 2fbd 6fe4 47bd 3ea8 c2bd
00000240: cbfb 04be 5772 d13d a158 de3d 4440 9b3d
00000250: de84 a23d fcc9 5f3d b174 c43b c8db b5bd
00000260: 608b f4bd bd62 43bd 5fee 8dbd 9553 a6bd
00000270: 4155 1dbd 1edf b73d 26bd 143e db43 c23d
00000280: 8fb6 903c 6178 34bd fd94 8b3d 9fcc c0bd
00000290: 370a 123d 81aa 6b3a 2062 62bd 64ee 193d
000002a0: 4956 8abd 68f1 bb3d 0411 b9bb 090a 8bb9
000002b0: 5104 d23b 41d3 ae3d 407c febd 61d6 b73d
000002c0: f8e0 8bbd f323 ba3d 4ed0 b43c 2fa4 98bc
000002d0: f588 dc3d f7ea bd3d b48e 103d d279 a6bc
000002e0: 2fa3 703d 98e8 a43d 91ba fdbd afc1 193d
000002f0: b4c4 253d 4eeb 39bd a7ad a9bd d355 7bbd
00000300: 9cdb 9fbd d026 b03d 4426 0b3e 0a68 8e3d
00000310: 8f9f 0dbd 6c32 083e 9e1a 1b3d aebe 83bc
00000320: d70f 113d ee85 fe3d 782c fa3d 2c52 7a3d
00000330: 5b11 a33c e600 ae3c 89bb 2c3e 13a8 353e
00000340: 861a 16be 48a2 d33d 34ee 4d3a aa7a 0d3e
00000350: ae4a 1cbe cd98 193d a453 813d 5957 0b3d
00000360: 15ae 0abe a41a bf3d e673 93bd 23cd 813c
00000370: 29b2 a73c 2db3 24be c5aa 4c3d 2b52 23be
00000380: cdc5 2bbe 0a85 16bd 9ac7 503e e6ec f1bc
00000390: 3a42 39bc c3ef 19bd 2d41 0b3c d23c e13d
000003a0: 8037 d83d d9ed e8bc 5337 d4bd f213 19bd
000003b0: 77df 8d3c c96a 12bd 4877 133e 582d de3d
000003c0: 3d55 0dbe bb5e 7fbd f750 ed3d eeb3 f4bd
000003d0: 6d56 113e cd05 913b 7bea c73d 027b 1a3e
000003e0: fc03 d5bd 56bc 103b 72d0 febd 250a c9bd
000003f0: b71b ce3b 9caf f3bd 4d3e fd3d a992 0cbd
0.013993637 0.09679131 0.14281254 -0.08861823 0.2051987 -0.115166955 -0.005774284 0.19045591
-0.14071661 -0.09878416 -0.13057606 -0.10543383 0.07325192 0.057867695 -0.18754047 0.051400345
-0.023158994 -0.041893546 0.06484884 -0.05341274 -0.049357034 -0.139277 0.033451226 -0.16129704
0.028421005 0.06660588 0.06281421 -0.17925559 0.15031905 0.0071826368 -0.107219025 0.0607459
0.05952696 0.09258215 -0.08522109 0.036136616 0.067058116 0.11713274 -0.068383254 -0.014459394
-0.19507629 0.14111641 0.116086364 0.06284535 0.0056663305 -0.00038916263 -0.1325784 -0.086640865
-0.040102422 -0.12825532 0.063127376 0.12875393 -0.09742436 0.095765084 -0.081305616 0.11794862
-0.053089213 0.13012478 -0.06538299 0.09380074 0.10767452 -0.0047409288 0.061193675 0.071603164
0.117340475 0.063421 -0.10916585 0.111055546 -0.105122805 -0.0870286 -0.04331762 0.0006588282
-0.042596433 0.06484256 0.11277656 0.12672514 -0.07058469 0.030522145 0.14509898 -0.0943803
-0.099701576 0.12574236 0.035350613 -0.08615568 -0.11773775 -0.120902926 0.044382714 0.1129737
0.11246952 0.14257035 0.072220385 0.068620935 -0.13421056 0.035753943 -0.017113175 0.08965841
-0.013751041 0.051296253 0.06344645 0.0118687395 0.100354165 -0.09833581 0.046708234 0.12813863
0.011983931 0.07888677 -0.010365645 0.10198101 -0.14599678 0.0035921426 0.031010019 -0.11809361
0.02842629 0.10016648 -0.09390382 0.05929627 -0.07309572 -0.080714814 -0.085140534 0.055963323
-0.037415225 0.068999134 -0.06541348 0.1146383 -0.07578735 0.03952868 -0.05379128 -0.080813594
-0.10202131 0.07827242 -0.12508766 -0.0932413 -0.13581535 0.09842722 -0.101115204 0.0750235
0.009355458 0.11649987 0.038169295 -0.032281317 0.03164798 -0.042899266 -0.048801836 -0.09504746
-0.12986676 0.10226887 0.10856748 0.07580617 0.07935499 0.054635987 0.005995356 -0.088798106
-0.11940646 -0.047701586 -0.06930231 -0.08121411 -0.038411383 0.08978103 0.1452528 0.09485599
0.017665176 -0.044060115 0.06815527 -0.094140284 0.035654273 0.00089899456 -0.05526936 0.037580863
-0.06754739 0.09176904 -0.0056477804 -0.00026519623 0.006409206 0.08536387 -0.124260426 0.089764364
-0.06830019 0.09088888 0.022071984 -0.018632976 0.1076831 0.092733316 0.035292342 -0.02032176
0.058749374 0.08052176 -0.123891 0.037538227 0.040470794 -0.04539042 -0.08285075 -0.061361145
-0.07805559 0.08601153 0.13588816 0.069534376 -0.034575995 0.13300484 0.03786718 -0.016082134
0.035415497 0.12427889 0.12215513 0.06111352 0.019905737 0.021240663 0.16868414 0.17739896
-0.14658555 0.10333687 0.00078556244 0.13816324 -0.15262863 0.037499238 0.06314781 0.034018848
-0.1354297 0.09331253 -0.0719984 0.015844887 0.020470696 -0.16083975 0.049967546 -0.15949313
-0.16774674 -0.03674797 0.20388642 -0.029531907 -0.011307294 -0.03758217 0.008499426 0.10997929
0.10557461 -0.028433727 -0.10362115 -0.037372537 0.01731847 -0.03574637 0.14400971 0.108484924
-0.13802047 -0.0623462 0.115877084 -0.11948381 0.14193125 0.0044257403 0.097615205 0.15085986
-0.104011506 0.0022084913 -0.124421015 -0.09816388 0.006289925 -0.11898729 0.123653986 -0.034319554

rnn.bias_ih_l2 f4 [50]
00000000: 4397 88bd e084 d63d c74e 093e be0b a3bb
00000010: dffc 243e 1841 b9bd c79c a6bd 6efa ddbd
00000020: 6575 af3d d640 f8bd eec1 043e 28ca 62bd
00000030: c90b 30bd a2c0 80bd 18de 023d 0998 b5bd
00000040: 34cd 8a3d 22d4 c83d a61f 63bc 8282 02bc
00000050: af60 cf3c 4579 153d 727b 9abb da2d febd
00000060: a3b4 f1bd be9c c8bc 181c ec3c 5250 15bd
00000070: 3f65 033e 0dd5 43bd b047 0fbe 2d64 d53c
00000080: 2f30 823d 551f ba3c ac48 313c 8c91 0ebd
00000090: b7a7 533d a53f df3d 98a6 19bd 40f7 33bd
000000a0: 47ff 693c 2df0 d4bd 1837 bdbc eeaf e4bd
000000b0: 0a5d 063d 5d92 7dbd 594d c93c d896 28be
000000c0: a152 46bc bcc1 013e
-0.06669476 0.10474563 0.13408957 -0.004975765 0.16112088 -0.09045619 -0.08135372 -0.10838781
0.08567313 -0.121217415 0.12964603 -0.055368572 -0.04297999 -0.06286742 0.031950086 -0.08866889
0.06777421 0.09806086 -0.013862526 -0.007965686 0.025314657 0.036492605 -0.004714423 -0.12411089
-0.11802032 -0.024488803 0.02882199 -0.036453553 0.12831591 -0.047810603 -0.1399219 0.026048744
0.063568465 0.022720018 0.010820549 -0.034806773 0.051673617 0.10900811 -0.03751239 -0.043936968
0.014282054 -0.103973724 -0.02309756 -0.111663684 0.032803573 -0.06190716 0.024573015 -0.16463792
-0.012104661 0.1267156

rnn.bias_hh_l2 f4 [50]
00000000: d36a 9b3d ab46 7b3c 1398 f53c 3424 6cbd
00000010: 950c 88bd d0e8 1abe 6975 f93d 284e 0f3e
00000020: 8c41 50bd 4156 813d fbaf 653d 6e78 5bbd
00000030: 45ef f6bd 2caf dd3d 9940 c93c 0a7f 2a3e
00000040: 3bd3 dabd 0a45 19bd 0515 3a3c a7fc 6b3d
00000050: 5fc6 583d 3e57 513d e568 203e 7c38 13be
00000060: fc36 16be 27f2 3d3d 9db3 083e 2eeb a1bc
00000070: 4040 583d 8ff6 cdbb 6c79 d93b eaf8 28be
00000080: 1c34 fcbd 17b7 5fbd 6e5e 21bc 79ad 8fbd
00000090: 879f 0abc c989 bebc cbf4 02be f0f8 95bc
000000a0: 9f21 23be 3b86 2f3d c729 a83d fd67 debd
000000b0: 05bb 0fbd a0e5 e7bd 746c 88bd 2d0f c73d
000000c0: d4b9 0c3e b1dd 283e
0.075887345 0.015336673 0.029979741 -0.057651713 -0.06643025 -0.15127873 0.12180597 0.13994658
-0.05084376 0.0631528 0.05607603 -0.053581648 -0.12057356 0.10824427 0.024566935 0.16650024
-0.1068482 -0.037419356 0.0113575505 0.057613995 0.052923556 0.05110859 0.15665014 -0.14377016
-0.14669412 0.046373513 0.13349767 -0.019765463 0.05279565 -0.0062854956 0.006636789 -0.16501203
-0.123146266 -0.054617967 -0.009849174 -0.07015509 -0.008460886 -0.02325906 -0.12788694 -0.01830718
-0.15930794 0.04285262 0.082110934 -0.10859678 -0.035090465 -0.11323094 -0.06661311 0.097196914
0.13742763 0.16490819

linear.weight f4 [1, 50]
00000000: 68fc 7ebc 07a8 ffbd 3edf 3fba 2982 02bd
00000010: 40e4 50bd 14e9 fc3d d1d9 08be f159 f83d
00000020: ceea 0d3e 1950 edbb 1100 06bd 7080 843d
00000030: 6c27 94bd b23f 38bc 6480 963c 9fdd 3cbd
00000040: e5e3 ca3d b6f3 f5bd f198 983d 07b2 70bb
00000050: 15f6 113e be8e 193e c40f c6bd 53de c13d
00000060: 04f1 943d 9ff7 1abd 3ab6 92bd f95b a5ba
00000070: d566 9dbd 0213 973c 8d67 9c3c 3540 1a3e
00000080: 1259 d73d 4f41 c53d 223a f2bd 14af 743c
00000090: 88b4 86bd 8527 fabd 20c3 063e ce78 f4bd
000000a0: 7dfe 333d 74d7 153e 4f13 fe3c 7a5b 3fbd
000000b0: 1d06 aa3d a09b 18be a0e0 c63d 1616 b73d
000000c0: 015e c1bd c23b 98bd
-0.015563108 -0.124832205 -0.00073193375 -0.03186241 -0.050998926 0.123491436 -0.1336434 0.1212653
0.13859102 -0.0072422144 -0.032714907 0.0646981 -0.072340816 -0.011245655 0.018371768 -0.04610979
0.09906749 -0.12009375 0.07451046 -0.0036727206 0.14254029 0.14995858 -0.09670976 0.09466233
0.072725326 -0.037833806 -0.07163663 -0.0012615911 -0.07685629 0.01844168 0.019092346 0.15063556
0.10515036 0.09631597 -0.11827494 0.01493432 -0.06577402 -0.12214569 0.13160372 -0.11937104
0.04394387 0.1463297 0.031015066 -0.0467181 0.08301947 -0.14903116 0.097108126 0.089397594
-0.09441758 -0.07433273
