Time-Series---Forecasting/Results/periodic/model10.pth (torch, 124756 bytes, 9 tensors)

rnn.weight_ih_l0 f4 [100, 1]
0	0xbd8ab7ab	-0.06773313
1	0x39183d47	0.00014518677
2	0x3cc30452	0.023805771
3	0xbd78c386	-0.06073334
4	0xbd97955c	-0.07401535
5	0xbd56d0b9	-0.052445147
6	0xbd69b9de	-0.057062022
7	0x3daf4264	0.08557585
8	0x3d804476	0.06263058
9	0x3d0f6535	0.035008628
10	0x3cc2de65	0.023787687
11	0x3d8b52ba	0.06802888
12	0xbb220322	-0.0024721106
13	0xbba82296	-0.005131076
14	0x3ce3f9d1	0.027829083
15	0x3d73cf60	0.05952394
16	0x3d456491	0.04819161
17	0x3d568f42	0.052382715
18	0xbbf38139	-0.007431176
19	0xbd942398	-0.072333515
20	0xbc8481da	-0.0161752
21	0xbd8b50b9	-0.06802506
22	0x3c2cacb8	0.010539226
23	0xbbc1b1eb	-0.005911102
24	0xbc2dd1b5	-0.01060908
25	0x3d8adda5	0.067805566
26	0xbda7f344	-0.08200696
27	0x3da30630	0.079601645
28	0xbace2509	-0.001572759
29	0x3d51fb64	0.051265135
30	0x3d818216	0.0632364
31	0xbdcf167a	-0.10111709
32	0x3a1415e7	0.00056490157
33	0x3d496aeb	0.04917423
34	0xbd9fcd40	-0.0780282
35	0xbd9f1041	-0.07766772
36	0x3d376409	0.044773135
37	0x3d9f275b	0.07771178
38	0xbd202048	-0.039093286
39	0x3d07d02d	0.033157516
40	0x3da839ea	0.08214171
41	0x3d9164f1	0.07099331
42	0x3dc30ae2	0.0952356
43	0x3d59303e	0.053024523
44	0x3d580690	0.052740633
45	0x3dab53aa	0.08365567
46	0xbd0b246e	-0.03397029
47	0xb8d7bcbb	-0.00010287153
48	0x3c372776	0.011178842
49	0xbd56ee38	-0.052473277
50	0xbc3248b6	-0.010881593
51	0x3b16d58f	0.0023015474
52	0xbd043e58	-0.032286018
53	0xbd2bf79e	-0.041984193
54	0x3a9bbce7	0.0011881859
55	0xbda23f4b	-0.079222284
56	0xbd8581cc	-0.065188974
57	0x3d4fde96	0.050749384
58	0x3d51fec0	0.05126834
59	0xbd1cb5f8	-0.038259476
60	0xbb774dc6	-0.0037735566
61	0xbd902dc1	-0.07039977
62	0xbd9d1319	-0.07669658
63	0x3d8841be	0.06653164
64	0x3d3623e7	0.044467833
65	0xbd9caa4c	-0.07649669
66	0x3d8cdf1b	0.068784915
67	0x3da794df	0.08182692
68	0x3dabfc67	0.08397751
69	0xbc9ae884	-0.0189097
70	0x3ce3dd12	0.027815375
71	0xbd0c1c7f	-0.034206863
72	0xba8cc9ad	-0.0010741256
73	0x3d1e7cfc	0.038693413
74	0xbb82e1df	-0.003994211
75	0xbdad437b	-0.084601365
76	0xbd8b791f	-0.068102114
77	0xbd32d4ae	-0.04365986
78	0xbccc7e13	-0.02496246
79	0xbdae7acf	-0.08519518
80	0xbd890b0a	-0.06691559
81	0x3d84b12b	0.064791046
82	0x3c1d0b72	0.009585248
83	0xbdad2e04	-0.084560424
84	0xbd1dc7d3	-0.038520645
85	0xbcbff509	-0.023432272
86	0xbd303e8b	-0.043028396
87	0xbd80988b	-0.06279095
88	0x3beddff7	0.0072593647
89	0x3d3a5255	0.045488674
90	0xbd501a5d	-0.050806392
91	0xbd595585	-0.053060073
92	0xbd2b4353	-0.041812252
93	0x3dbfea54	0.093708664
94	0xbc8fd2ed	-0.017556632
95	0xbc37b2b4	-0.01121204
96	0x3cc5c306	0.024140846
97	0x3ca4653a	0.0200678
98	0x3dbbe12e	0.09173809
99	0xbd759ace	-0.059962086

rnn.weight_hh_l0 f4 [100, 100]
0	0xbd5fcf69	-0.05464116
1	0x3bae1c1e	0.0053134104
2	0xbdc7f941	-0.09764338
3	0x3d1b4568	0.037907988
4	0xbd8e645c	-0.06952736
5	0xbb9b5467	-0.004740286
6	0xbdafee2e	-0.08590351
7	0xbd506f31	-0.05088729
8	0x3d93fde7	0.072261624
9	0xbca1d955	-0.019756952
10	0x3d90865a	0.070568755
11	0x3d6485c0	0.055791616
12	0x3bffc70f	0.007805712
13	0x3d1b3e2f	0.0379011
14	0xbc417e03	-0.011809829
15	0x3d9783b1	0.07398165
16	0xbbae1686	-0.0053127436
17	0xbd0d125f	-0.03444135
18	0x3c34af3c	0.011028107
19	0x3c87b0c7	0.016563786
20	0xbdb790f2	-0.08963193
21	0xbdb85143	-0.089998744
22	0x3ce97514	0.02849821
23	0x3d4e89bf	0.050424334
24	0x3d8a84a3	0.0676358
25	0xbd935e11	-0.07195676
26	0x3d227e1e	0.039671056
27	0x3c096b45	0.008387391
28	0xbd6c33f9	-0.057666752
29	0x3dcddbfe	0.10051726
30	0xbd383d6c	-0.04498045
31	0x3dc559e7	0.09636288
32	0x3d38ec6a	0.045147337
33	0x3d9879e3	0.07445123
34	0xbd7a9ab6	-0.0611827
35	0xbd3b82be	-0.045778982
36	0xbdb08601	-0.08619309
37	0x3da8c0c7	0.08239894
38	0x3d859d0b	0.06524094
39	0x3c68f415	0.01421835
40	0xbdb8e3e8	-0.09027845
41	0x3d763be7	0.06011572
42	0x3da9415a	0.08264418
43	0xbd11695f	-0.03550088
44	0x3d8f34fd	0.069925286
45	0x3d8279e9	0.06370909
46	0x3ddc5266	0.10757904
47	0x3dbf0848	0.093277514
48	0x3d8dbdae	0.06920944
49	0x3d6841ae	0.056703262
50	0x3da0799b	0.078356944
51	0xbd7e92cd	-0.06215172
52	0x3d188dda	0.037244655
53	0xbc36f682	-0.0111671705
54	0x3d3e43f0	0.04645151
55	0x3cc713dd	0.024301464
56	0xbd9d53e1	-0.07682014
57	0xbd81a849	-0.06330926
58	0xbd9da83f	-0.07698106
59	0xbda843e2	-0.082160726
60	0x3d33ea8b	0.04392485
61	0x3c377e8f	0.0111996075
62	0xbcea355a	-0.028589893
63	0x3dbbcb89	0.091696806
64	0xbc37b2e3	-0.0112120835
65	0x3c5cd606	0.013478762
66	0xbc3d962a	-0.011571446
67	0x3c668717	0.014070294
68	0xbda85244	-0.08218816
69	0xbdb6e044	-0.08929494
70	0x3daf6e73	0.085659884
71	0xbc8a0dba	-0.016852248
72	0xbda08590	-0.07837975
73	0xbd1d8464	-0.038456336
74	0xbcfe1055	-0.031013647
75	0x3d2eaba6	0.042644165
76	0xbda0a42b	-0.078438126
77	0x3d271649	0.040792737
78	0xbd4a6d73	-0.049420785
79	0xbc97d09c	-0.01853209
80	0xbd1606da	-0.036627628
81	0x3d4de92c	0.0502712
82	0x3d03d29f	0.032183286
83	0x3d775c46	0.060390733
84	0xbd91bb54	-0.07115808
85	0x3da78634	0.08179894
86	0x3cfc53f0	0.030801743
87	0x3dbd5577	0.09244817
88	0x3d9dd925	0.07707433
89	0x3cde1603	0.027110105
90	0x3dc6e4ea	0.09711631
91	0x3db8a462	0.090157285
92	0x3d7636ad	0.060110737
93	0xbc5cdceb	-0.013480405
94	0xbd9b4819	-0.07582111
95	0xbdbbb544	-0.09165433
96	0x3cd4b505	0.025965223
97	0x3dafd330	0.08585203
98	0x3ba49a47	0.005023274
99	0x3ce98796	0.028507035
100	0x3d6d9bda	0.05800996
101	0x3ca9d5cb	0.020731827
102	0x3d664eb5	0.056227405
103	0xbcdbc554	-0.026827492
104	0xbd183eb4	-0.037169173
105	0xbd8acf56	-0.067778274
106	0xbd6bbc4a	-0.057552613
107	0x3d984803	0.0743561
108	0xbc29965d	-0.010350791
109	0xbdbad2c1	-0.09122229
110	0x3d369bca	0.044582166
111	0xbcec5b04	-0.028851993
112	0xbd97042b	-0.07373842
113	0x3cabd9ba	0.020977844
114	0xbd0f28ef	-0.034951147
115	0xbd271f86	-0.040801547
116	0xbda430e1	-0.080171354
117	0xbd19072e	-0.037360363
118	0x3d48cfee	0.049026422
119	0xbdbf1a50	-0.093311906
120	0x3c6bc4d9	0.014390194
121	0x3d5b9047	0.05360439
122	0xbca5cd2f	-0.02023944
123	0x3d3470f8	0.044053048
124	0xbda961a7	-0.08270579
125	0x3d6db847	0.05803707
126	0x3d6dc481	0.05804873
127	0x3c6e11e9	0.014530637
128	0x3dae84ce	0.08521424
129	0xbde2dfde	-0.110778555
130	0xbdccc128	-0.09997779
131	0xbd2e3e3f	-0.04253983
132	0xbd462661	-0.048376445
133	0xbd958416	-0.07300584
134	0xbd2ac7f6	-0.041694604
135	0xbd5807bf	-0.052741762
136	0xbd7d8e6f	-0.061903413
137	0x3d2ed07f	0.042679306
138	0x3d52c7b5	0.051459987
139	0xbd0bae06	-0.03410151
140	0x3d2451d4	0.0401171
141	0xbdbc0e70	-0.09182441
142	0xbcd9db85	-0.026593933
143	0x3c88d3b8	0.016702518
144	0x3cb74eb9	0.022376405
145	0x3d724bcd	0.05915432
146	0xbdaa3780	-0.08311367
147	0xbd2fb1e2	-0.04289425
148	0x3d00fe47	0.031492498
149	0xbda01958	-0.07817334
150	0xbd19bf04	-0.037535682
151	0xbd7ef23f	-0.062242743
152	0x3daeb6a2	0.08530928
153	0xbbc32c1d	-0.0059561864
154	0x3d93bfc9	0.072143145
155	0x3d8e8462	0.06958844
156	0x3d405848	0.04695919
157	0xbdf43ba3	-0.11925437
158	0x3dc07634	0.093975455
159	0x3c92b7d2	0.017909918
160	0xbd34f5b9	-0.044179652
161	0x3d76e8e0	0.06028068
162	0xbd980ce4	-0.07424334
163	0x3d50f047	0.051010396
164	0x3d9fb68b	0.07798489
165	0x3c01b03e	0.007915555
166	0xbc7d6575	-0.015466084
167	0x3d5e9ae9	0.054346953
168	0x3d8c6cdc	0.06856701
169	0x3c85399d	0.016262824
170	0xbcf57ca9	-0.02996667
171	0xbda1e59a	-0.07905121
172	0xbdb298b3	-0.08720531
173	0xbbf31f31	-0.00741949
174	0x3c8c1d01	0.017103674
175	0xbdc43659	-0.095806785
176	0xbc81e1f7	-0.015854819
177	0xbda820c2	-0.08209373
178	0x3d7e0d65	0.062024493
179	0xbd18a4c3	-0.037266504
180	0xbcecaf00	-0.02889204
181	0xbd9f1db0	-0.07769334
182	0xbddd7740	-0.10813761
183	0xbc604955	-0.013689359
184	0xbdda5d19	-0.10662288
185	0xbd3c5013	-0.045974802
186	0xbc312540	-0.010812104
187	0xbd9a8e09	-0.07546622
188	0x3d429156	0.047501884
189	0xbcf90379	-0.030397164
190	0x3a059206	0.00050953066
191	0xbd7750e4	-0.060379878
192	0x3cde2fdc	0.02712243
193	0x3d2ab9f0	0.04168123
194	0xbc3e6d94	-0.011622805
195	0x3d275f23	0.040862214
196	0xbcedc090	-0.029022485
197	0xbd13ed9b	-0.03611527
198	0xbda5497f	-0.08070659
199	0x3d79ebf7	0.06101605
200	0xbdb11d34	-0.08648148
201	0xbd199d34	-0.037503436
202	0x3caae826	0.02086265
203	0x3dbf3600	0.093364716
204	0x3d9b249d	0.07575343
205	0x3d9d3557	0.076761894
206	0x3d5c46ff	0.053778645
207	0xbd9a9412	-0.075477734
208	0x3d895c53	0.067070626
209	0x3d2a235a	0.04153762
210	0x3d39f6f8	0.045401543
211	0x3db38657	0.08765858
212	0xbd8e4d50	-0.0694834
213	0xbdb9bd13	-0.09069266
214	0xbb5204ee	-0.0032046395
215	0xbaba2f17	-0.0014204708
216	0xbd0e2b77	-0.03470942
217	0x3b58bb89	0.0033070764
218	0x3d55d456	0.052204452
219	0x3d51b935	0.051202018
220	0xbd821b66	-0.06352882
221	0x3d08bc43	0.033382665
222	0x3cd5bd6a	0.026091296
223	0x3d7beaa7	0.06150308
224	0x3dabd20e	0.08389674
225	0x3d802650	0.062573075
226	0xbd0cd428	-0.034382015
227	0x3d7cdc10	0.061733305
228	0x3c8b84ee	0.01703116
229	0x3d8558b8	0.065110624
230	0x3d8e505a	0.069489196
231	0xbd624e51	-0.05525047
232	0xbd2a0e9b	-0.041517835
233	0x3cec7858	0.028865978
234	0xbdc3c6be	-0.095593914
235	0x3bd252e3	0.0064185723
236	0xbc5cf619	-0.013486409
237	0xbd1c2673	-0.038122606
238	0xbd3c669c	-0.045996293
239	0xbcb6b703	-0.022304064
240	0xbdab55cd	-0.083659746
241	0xbc16c1fb	-0.009201522
242	0x3db302e9	0.087407894
243	0xbd84c5c1	-0.06483031
244	0xbce1f236	-0.027581315
245	0xbdbde2f2	-0.09271802
246	0xbd89742d	-0.06711612
247	0x3c9d0c11	0.019170793
248	0xbd533788	-0.05156663
249	0x3cf57c07	0.029966367
250	0xbd94a589	-0.07258136
251	0xbbc3c933	-0.0059749126
252	0x3da94ba6	0.08266382
253	0x3d7bbed8	0.0614613
254	0x3d742c88	0.05961278
255	0xbdbe3618	-0.09287661

rnn.bias_ih_l0 f4 [100]
0	0x3d742241	0.05960298
1	0x3db1e31b	0.08685895
2	0x3c7f0a2b	0.015566389
3	0xbca3683e	-0.019947167
4	0xbdb0f01b	-0.086395465
5	0x3c1f866a	0.009736637
6	0x3d494249	0.04913548
7	0xbdba6dcc	-0.09102973
8	0x3d009955	0.03139623
9	0xbd712174	-0.058869794
10	0xbc4d4c08	-0.012530334
11	0xbda2d496	-0.07950704
12	0x3d013ab7	0.031550135
13	0x3d057d37	0.032590117
14	0x3d78bcbb	0.060726862
15	0x3bdb459e	0.0066916486
16	0x3daae0b4	0.0834364
17	0xbcd02b37	-0.025411231
18	0x3d7046dd	0.05866133
19	0x3cedf929	0.029049473
20	0x3cfa6e4e	0.030570175
21	0xbc823a5a	-0.015896965
22	0x3d598888	0.053108722
23	0xbd018873	-0.03162427
24	0xbd596203	-0.053071987
25	0xbd4c2a83	-0.04984523
26	0xbd2efe39	-0.042722914
27	0x3d131871	0.03591198
28	0x3d71b484	0.059010044
29	0xbd290854	-0.041267708
30	0x3d2c328a	0.042040385
31	0x3d8d71f7	0.06906503
32	0x3d2b1fb4	0.04177828
33	0xba282fc9	-0.0006415812
34	0xbdce1003	-0.10061648
35	0xbca902cd	-0.020631218
36	0xbc0c662b	-0.008569281
37	0xbc1c65dd	-0.0095457705
38	0x3d841249	0.064488
39	0xbca75bd2	-0.020429526
40	0xbd0c4deb	-0.034253996
41	0x3cde926e	0.027169432
42	0xbd838ec3	-0.06423714
43	0xbc428f69	-0.011875012
44	0xbdb49afa	-0.08818622
45	0xbd86e684	-0.06586936
46	0x3c393115	0.011303206
47	0xbcf9e445	-0.030504355
48	0x3d83991e	0.06425689
49	0x3db128ac	0.08650336
50	0x3d847fbf	0.06469678
51	0xbd5bf573	-0.053700875
52	0xbdcf47d1	-0.1012112
53	0x3ce09762	0.027415935
54	0x3cb79091	0.022407802
55	0xbcbd5691	-0.023112567
56	0x3d5034f5	0.050831754
57	0x3d471e56	0.048612915
58	0xbdc11264	-0.09427336
59	0x3b1b330c	0.002368155
60	0xbd9df013	-0.07711806
61	0xbd481851	-0.048851315
62	0x3c4cd141	0.012501062
63	0xbd9b5315	-0.07584206
64	0xbd2110e3	-0.039322745
65	0xbc0059d2	-0.007833915
66	0xbd66616f	-0.056245264
67	0x3b978274	0.0046237055
68	0x3d8f839b	0.070075236
69	0xbd2726a2	-0.040808327
70	0xbd9fc443	-0.07801106
71	0x3d5f8570	0.054570615
72	0x3cfe118e	0.03101423
73	0x3da0973d	0.078413464
74	0x3d2f9d3b	0.042874556
75	0x3cc05b2c	0.023480974
76	0x3db5cc3a	0.08876844
77	0xbdb45222	-0.08804728
78	0xbcb8929d	-0.022530848
79	0xbdadded9	-0.084897704
80	0x3d9a7751	0.07542289
81	0x3d73e5dc	0.059545383
82	0x3d339578	0.043843716
83	0x3d4485e5	0.047979254
84	0x3b5d2bcb	0.0033748026
85	0xbcc9cde8	-0.024634317
86	0xbd236b58	-0.039897293
87	0xbc87ac2e	-0.016561594
88	0xbdb767f9	-0.08955378
89	0x3cba99c0	0.022778392
90	0x3db58afa	0.08864398
91	0x3d62e4a0	0.055393815
92	0x3d1c6ed5	0.038191635
93	0xbc05c99f	-0.008165746
94	0xbd3ee31f	-0.04660332
95	0x3c8b5947	0.017010344
96	0x3d45e870	0.048317373
97	0x3dd30866	0.10304336
98	0x3d2bc4fb	0.041935902
99	0xbbd44b91	-0.006478735

rnn.bias_hh_l0 f4 [100]
0	0x3c3f19b8	0.011663847
1	0x3be56aa9	0.0070012403
2	0xbdac44b1	-0.08411539
3	0xbc9698bc	-0.018383376
4	0x3d726e0e	0.059186988
5	0xbaf19a6e	-0.0018432864
6	0x3cc2e2b0	0.023789734
7	0xbd23d58e	-0.039998583
8	0xbd29df0c	-0.04147248
9	0x3cf9e6d0	0.030505568
10	0x3d6bcb29	0.057566795
11	0x3d7cb1d5	0.06169303
12	0x3cbcd4f4	0.023050763
13	0x3d494813	0.049141
14	0x3b2368fa	0.0024934397
15	0x3d8a10da	0.067414954
16	0x3cbfc42b	0.02340897
17	0x3dab99dc	0.08378956
18	0xbd805fd7	-0.0626828
19	0x3d72c180	0.059266567
20	0x3d5d3f96	0.05401572
21	0x3ca72e29	0.020407753
22	0x3d8a635c	0.067572325
23	0x3df08d8a	0.117457464
24	0xbd6635ec	-0.056203768
25	0x3d1606ce	0.036627583
26	0xbda2ed3d	-0.07955406
27	0xbd6a8bf0	-0.05726236
28	0xbdb8f646	-0.09031348
29	0x3d5f77cd	0.05455761
30	0xbdad1612	-0.08451475
31	0x3d9298f1	0.071580775
32	0xbd6d790c	-0.057976767
33	0xbd2c6551	-0.04208881
34	0x3cabba3b	0.020962825
35	0xbcab8fc0	-0.020942569
36	0xbd1c7d26	-0.03820529
37	0x3a591982	0.0008281694
38	0xbcf20ba2	-0.029546563
39	0x3babc1eb	0.0052416227
40	0xbd63c8db	-0.055611473
41	0xbc67d977	-0.014150969
42	0xbccca802	-0.024982456
43	0x3da8bb9a	0.08238907
44	0x3d4976ab	0.049185436
45	0xbdb48704	-0.08814815
46	0x3da35d2c	0.079767555
47	0xbba4b6b1	-0.0050266613
48	0xbda0d640	-0.07853365
49	0xbd28beed	-0.041197706
50	0xbc7f34ce	-0.015576554
51	0xbd980f09	-0.07424743
52	0xbd809a14	-0.06279388
53	0xbd731c7f	-0.059353348
54	0xbda91a0e	-0.08256923
55	0xbaa4e3f3	-0.0012580141
56	0xbd532941	-0.051553015
57	0x3dce5042	0.10073902
58	0x3c626266	0.013817405
59	0xbd555945	-0.052087087
60	0x3d4a794c	0.049432084
61	0x3dbe77c8	0.0930019
62	0xbdb83686	-0.089947745
63	0x3d3c716c	0.046006605
64	0xbbf6488c	-0.0075159725
65	0x3d79b2e6	0.060961626
66	0x3d0dede8	0.034650713
67	0x3d6db426	0.05803313
68	0xbd6b71ca	-0.057481565
69	0x3d9aa47b	0.075509034
70	0xbc078d6d	-0.008273465
71	0x3d0135c3	0.03154541
72	0x3c57528b	0.013142238
73	0xbd48b362	-0.048999198
74	0xbc8f3c7f	-0.017484901
75	0x3cc821c3	0.024430161
76	0xbdc275ea	-0.094951466
77	0x3dadb897	0.08482473
78	0x3d57ee80	0.052717686
79	0x3dad0721	0.08448625
80	0xbdb930a3	-0.0904248
81	0x3d3e008a	0.046387233
82	0x3bc0106d	0.005861333
83	0x3bee41f3	0.0072710454
84	0x3d8a1070	0.067414165
85	0x3d0ee54d	0.034886647
86	0xbc3a2bbe	-0.011362968
87	0x3dbaab46	0.09114699
88	0x3d3c8cf2	0.046032853
89	0x3d86a962	0.06575276
90	0x3db9be98	0.09069556
91	0x3cdca5a9	0.026934462
92	0x3d9e9cc6	0.07744746
93	0xbd29955c	-0.041402206
94	0x3dac44c5	0.08411554
95	0xbd5b2e62	-0.05351103
96	0x3d2fa082	0.04287768
97	0xbd179743	-0.03700949
98	0x3b9d332b	0.0047973595
99	0xbca23efe	-0.019805428

rnn.weight_ih_l1 f4 [100, 100]
0	0xbc18fbf5	-0.009337415
1	0xbde02c82	-0.10945989
2	0xbcf9afd6	-0.030479353
3	0x3c5823ae	0.0131921
4	0xbd8a9792	-0.06767191
5	0xbc023960	-0.00794825
6	0xbda2367b	-0.079205476
7	0x3d266344	0.04062201
8	0x3bfccf3c	0.007715134
9	0x3d61ba10	0.055109084
10	0xbdd11e3a	-0.102108434
11	0xbd712862	-0.058876403
12	0x3b23d8fe	0.0025001164
13	0xbcd770cd	-0.026298905
14	0x3d8124bc	0.06305835
15	0x3cfb4ec8	0.030677214
16	0xbd0f7969	-0.035027895
17	0xbd464b1b	-0.04841147
18	0x3c686035	0.014183094
19	0xbc8f1408	-0.017465606
20	0xbccb8c23	-0.024847096
21	0x3d6054bb	0.054768305
22	0x3d95a7ea	0.07307418
23	0xbc083d02	-0.008315327
24	0x3dae84bb	0.0852141
25	0x3d68b7a0	0.056815743
26	0x3d27ba80	0.040949345
27	0x3da10a23	0.078632616
28	0xbd4c05f8	-0.04981038
29	0x3d838936	0.06422655
30	0x3caa0eba	0.020758975
31	0xbd58b2a2	-0.052904733
32	0xbd7db466	-0.06193962
33	0xbdae746b	-0.08518299
34	0xbafc7cbf	-0.0019263251
35	0x3b082105	0.0020771634
36	0x3d958daf	0.073024146
37	0xbd05cd89	-0.032666717
38	0x3d244d60	0.040112853
39	0x3c933f06	0.017974388
40	0x3bb1f304	0.005430581
41	0xbbb6a207	-0.0055735144
42	0x3b7d9ea6	0.0038699298
43	0xbda376b5	-0.07981626
44	0xbda97758	-0.08274716
45	0xbda2e268	-0.0795334
46	0x3dcea092	0.1008922
47	0xbbf06490	-0.0073362067
48	0x3be486e2	0.006974087
49	0x3d13a710	0.036047995
50	0xbd737fb9	-0.059447978
51	0xbde1a402	-0.1101761
52	0xbd2fe1a7	-0.04293981
53	0xbdc80a7f	-0.09767627
54	0xbb0a7fe9	-0.002113337
55	0x3c4f2542	0.01264316
56	0x3c1146b7	0.008866957
57	0xbdb207d5	-0.086929
58	0xbc28c7d3	-0.010301548
59	0xbdaef62d	-0.08543048
60	0xbce5ad41	-0.028036715
61	0x3d97fa8b	0.07420834
62	0x3d841f8f	0.06451332
63	0xbc8cce3e	-0.017188188
64	0x3cd04231	0.025422188
65	0xbc8d5fa7	-0.017257525
66	0xbdcc3ce1	-0.09972549
67	0x3bbd12f0	0.00577008
68	0xbd6e9b1e	-0.0582534
69	0xbc9b266d	-0.018939221
70	0xbdb20a3b	-0.086933576
71	0x3c60e1ff	0.013725757
72	0xb88b46b0	-6.641203e-05
73	0xbd797667	-0.060903933
74	0x3d8fc972	0.070208445
75	0xbd89b0c8	-0.067231715
76	0x3c87a726	0.016559195
77	0xbb7594af	-0.0037472656
78	0x3de9899e	0.114032015
79	0xbcf80ded	-0.030280078
80	0x3d18f068	0.037338644
81	0xbdad1cc1	-0.0845275
82	0x3d7ece7b	0.062208634
83	0x3d029a21	0.03188527
84	0xbd0d1411	-0.034442965
85	0xbd8e2532	-0.06940688
86	0xbc35ed9b	-0.011104013
87	0x3d473d20	0.048642278
88	0x3daa0852	0.08302368
89	0x3cd6e9fd	0.026234621
90	0xbc751a63	-0.014959904
91	0x3dda8f0d	0.10671816
92	0x3d2f1e07	0.042753246
93	0x3d871a76	0.06596844
94	0xbd9a195d	-0.07524369
95	0xbd93086e	-0.07179342
96	0xbc98db5c	-0.018659286
97	0x3c2b02ae	0.010437651
98	0x3d81268c	0.0630618
99	0x3d088df6	0.03333851
100	0x3ce20a0f	0.027592687
101	0x3ae5fab7	0.0017546032
102	0xbdaf082f	-0.08546483
103	0x3cfc1c2d	0.030775154
104	0x3cfa0840	0.030521512
105	0xbd73d6ff	-0.059531208
106	0x3dabd82d	0.08390842
107	0xbd4cd0db	-0.050003868
108	0xbcc50769	-0.024051385
109	0xbda2c610	-0.07947934
110	0x3d869535	0.06571428
111	0x3dc320df	0.09527754
112	0x3c161bca	0.009161899
113	0xbd9e5d59	-0.077326484
114	0xbc3594f1	-0.011082874
115	0xbd9d53f6	-0.0768203
116	0xbdba55d2	-0.090984
117	0x3dbbb90f	0.091661565
118	0xbc15cc39	-0.009142929
119	0x3d10c6cf	0.03534585
120	0xbd1d2ec9	-0.038374696
121	0xbdc91b1f	-0.09819626
122	0x3cdd0d06	0.02698375
123	0x3daa3d39	0.083124585
124	0xbd959a45	-0.07304815
125	0xbd17d08a	-0.037064113
126	0xbd418061	-0.047241572
127	0xbc51d40c	-0.012806904
128	0x3dd3db04	0.10344508
129	0xbdb0e139	-0.08636708
130	0xbd3eb60e	-0.04656034
131	0xbdb9b7ac	-0.09068236
132	0xbd8764f9	-0.06611056
133	0x3b691993	0.0035568222
134	0x3db6c1cd	0.08923683
135	0x3db335fa	0.087505296
136	0x3d89b482	0.06723882
137	0xbd9a83de	-0.07544683
138	0xbbc4b6b8	-0.006003227
139	0xbce30860	-0.027713954
140	0xbd3befc8	-0.04588297
141	0x3dc2233f	0.09479379
142	0x3cc5f684	0.0241654
143	0xbdab5745	-0.08366255
144	0xbdb0b306	-0.08627896
145	0xbcaf8e50	-0.021430165
146	0x3dac7a37	0.08421748
147	0x3d24af7f	0.04020643
148	0x3dba042e	0.090828285
149	0x3c8311cc	0.015999697
150	0x3d9638b5	0.07335035
151	0xbb361ea2	-0.0027789255
152	0xbd8ba2d0	-0.068181634
153	0x3dac6453	0.08417573
154	0x3d0ce417	0.03439721
155	0xbda7f89a	-0.08201714
156	0x3dba90b8	0.09109634
157	0x3bcb84c4	0.0062108953
158	0x3cdf10c7	0.02722968
159	0x3d5c7dc0	0.053830862
160	0x3cc00d69	0.023443894
161	0xbce78259	-0.028260397
162	0xbdd1233d	-0.10211799
163	0xbd1fca8a	-0.039011516
164	0xbb98aa5f	-0.0046589817
165	0xbcadb319	-0.021203564
166	0xbd16db6f	-0.036830362
167	0xbcee97f2	-0.029125188
168	0xbd070c6c	-0.03297083
169	0x3d724b86	0.059154056
170	0x3cb03050	0.021507412
171	0xbcf1b78e	-0.029506471
172	0xbc03caab	-0.008043925
173	0xbdba64e3	-0.09101274
174	0x3dd960f8	0.106141984
175	0x3dbae458	0.09125584
176	0x3b239332	0.0024959561
177	0xbd702073	-0.058624696
178	0x3d6f22e7	0.058382895
179	0xbd76ccba	-0.060253836
180	0xbdac613c	-0.084169835
181	0x3d4265bc	0.047460303
182	0xb87c7295	-6.0188195e-05
183	0xbd6f031f	-0.058352586
184	0x3d89db74	0.067313105
185	0x3da6b910	0.081407666
186	0xbd9ae833	-0.0756382
187	0x3d796c2a	0.06089417
188	0x3d962c8a	0.07332714
189	0x3da47784	0.08030608
190	0xbd3296b6	-0.04360076
191	0x3c4caaeb	0.012491922
192	0x3d5e0c8c	0.054211184
193	0x3dbe4731	0.092909224
194	0x3d2a0b8b	0.041514914
195	0xbc59c1ad	-0.013290805
196	0x3c95b616	0.018275302
197	0xbd0766ec	-0.03305714
198	0x3c931527	0.017954422
199	0xbd6e576b	-0.058188837
200	0x3dc28e84	0.09499839
201	0xbd81616b	-0.06317409
202	0xbc218fd4	-0.009860951
203	0x3bd9552f	0.006632469
204	0x3db6df91	0.08929361
205	0x3d5ddeab	0.05416743
206	0xbbfbc166	-0.007682967
207	0xbc87532b	-0.01651915
208	0x3c5b67ef	0.013391479
209	0xbcf1ec0d	-0.029531503
210	0xbdb77036	-0.089569494
211	0xbc9450c8	-0.018104926
212	0x3dbd9a7f	0.092579834
213	0x3daa81bd	0.08325527
214	0xbd888c1c	-0.06667349
215	0xbd481548	-0.04884842
216	0x3d4c64e8	0.04990092
217	0x3d9471f4	0.07248297
218	0x3d511db9	0.051053736
219	0xbd3fcd49	-0.046826635
220	0x3db8d0f2	0.09024228
221	0x3bd0c736	0.006371404
222	0xbc8cc518	-0.017183825
223	0x3d22eccf	0.03977662
224	0xbda31f04	-0.079649
225	0x3d8d74c7	0.06907039
226	0x3d8f170c	0.06986818
227	0xbdc4c188	-0.09607226
228	0x3d9db809	0.077011175
229	0x3c91bf45	0.0177914
230	0x3d6df09f	0.058090802
231	0x3c268ed2	0.010165887
232	0xbdb26c38	-0.08712047
233	0xbd80c5c0	-0.06287718
234	0xbdbb8f68	-0.09158212
235	0x3c445658	0.011983477
236	0x3c903343	0.017602568
237	0x3b822766	0.003971982
238	0xbd98f5c8	-0.07468754
239	0xbd1d988e	-0.038475566
240	0x3ca02215	0.019547502
241	0xbd968b02	-0.073507324
242	0x3d433fda	0.047668315
243	0x3db88e31	0.09011496
244	0xbd8da755	-0.06916682
245	0x3da5f0b4	0.08102551
246	0x3d8216ae	0.06351982
247	0x3d2fb877	0.04290053
248	0xbba92710	-0.0051621273
249	0x3d3b5b24	0.045741215
250	0xbdc0df0f	-0.09417545
251	0x3bbb5edd	0.0057180957
252	0xbc866e0a	-0.016409893
253	0xbd4940ff	-0.04913425
254	0x3d3087ca	0.04309825
255	0x3d8161ee	0.06317507

rnn.weight_hh_l1 f4 [100, 100]
0	0xbcbe1b09	-0.02320625
1	0xbdd3c7d8	-0.103408515
2	0x3dd09823	0.10185268
3	0xbdb8f3e8	-0.090308964
4	0xbb58d606	-0.0033086552
5	0x3dac668f	0.08417999
6	0x3d2d8a93	0.042368483
7	0x3d46aa39	0.04850218
8	0xbca2ef23	-0.01988942
9	0x3cd08fe6	0.025459241
10	0x3beb9feb	0.0071906946
11	0x3d596177	0.053071465
12	0x3db4bda4	0.088252336
13	0x3d8190ad	0.06326423
14	0xbdaa1503	-0.08304789
15	0x3d3a5c0c	0.04549794
16	0x3d983692	0.074322835
17	0x3d88069d	0.066418864
18	0x3d3271eb	0.043565672
19	0xbd9d0c39	-0.07668347
20	0xbda28bef	-0.079368465
21	0xbd89d1ab	-0.06729444
22	0x3d322a3d	0.043497313
23	0xbc999113	-0.018745935
24	0x3d743ec5	0.059630174
25	0xbcbd7dec	-0.023131333
26	0x3d8c3eda	0.068479255
27	0x3db327e6	0.087478444
28	0xbd89d446	-0.06729941
29	0x3c8a3f81	0.016875984
30	0xbd16fee6	-0.036864184
31	0xbdb92ee8	-0.0904215
32	0x3daf712a	0.08566506
33	0x3d3c352e	0.045949154
34	0x3d7869fb	0.060647946
35	0x3dc39a34	0.09550896
36	0xbd3bbcab	-0.045834225
37	0xbd3e3dbc	-0.046445593
38	0x3d9bb775	0.07603351
39	0xbd9a6917	-0.075395755
40	0xbda5949d	-0.08084986
41	0x3dc2289a	0.094804004
42	0x3cc0c25a	0.023530174
43	0x3da055dd	0.07828877
44	0x3ca199b8	0.01972662
45	0x3da8c13c	0.082399815
46	0xbdb292e5	-0.08719424
47	0x3d0ee22d	0.034883667
48	0x3d36d875	0.044640023
49	0xbc3bf38a	-0.011471638
50	0x3c8aa595	0.016924659
51	0x3cf5c90f	0.030003099
52	0x3a1a5576	0.00058873685
53	0xbdac2101	-0.084047325
54	0xbdaa196e	-0.083056316
55	0x3d1fe22c	0.039034054
56	0xbcaed9fb	-0.021344176
57	0xba827297	-0.0009952363
58	0xba5d893a	-0.00084509293
59	0x3cb42b03	0.021993166
60	0x3dc57089	0.09640605
61	0xbc310f92	-0.010806935
62	0x3d26a82d	0.04068773
63	0x3d9f45c9	0.07776982
64	0xbd85ca91	-0.06532777
65	0x3b60d207	0.0034304874
66	0xbd6d9436	-0.058002673
67	0x3da389a1	0.07985235
68	0x3d3e601a	0.04647837
69	0x3c7f4651	0.01558073
70	0xbc1db24d	-0.00962503
71	0x3d161572	0.036641546
72	0xbd95c9f3	-0.073139094
73	0xbda93025	-0.08261136
74	0x3d23defc	0.040007576
75	0xbaf3c6aa	-0.0018598635
76	0xbdd668ef	-0.10469233
77	0x3cd310bc	0.025764816
78	0x3d945e40	0.07244539
79	0xbd8d5900	-0.06901741
80	0x3c595e67	0.013267136
81	0x3da65cda	0.08123179
82	0x3b9acba3	0.0047239824
83	0x3a8a4771	0.0010549856
84	0x3d202c60	0.03910482
85	0xbc1e75b2	-0.009671615
86	0xbda37e3b	-0.07983061
87	0x3db8fd5a	0.09032698
88	0xbdf09ece	-0.117490396
89	0xbdbe307c	-0.092865914
90	0xbd7c3cb5	-0.061581332
91	0xbdad1c1c	-0.08452627
92	0x3c330b4d	0.010927987
93	0xbd1f8923	-0.038949143
94	0x3d686b32	0.056742854
95	0x3d4d10de	0.050064914
96	0xbd5640d1	-0.052307907
97	0xbc07c9c2	-0.008287849
98	0x3d437c23	0.047725808
99	0xbd6886c5	-0.05676915
100	0xbb051e28	-0.0020312164
101	0x3d0cff5a	0.03442321
102	0x3db86625	0.090038575
103	0x3d85b9b8	0.06529564
104	0xbdbec078	-0.09314054
105	0x3d0eccad	0.034863163
106	0x3db3492a	0.08754189
107	0x3d9893b5	0.07450048
108	0x3cc97cab	0.02459558
109	0x3db3263b	0.08747526
110	0xbd6fffe3	-0.058593642
111	0x3bc1bfa4	0.005912738
112	0x3d7f3d10	0.062314093
113	0x3bda154d	0.0066553713
114	0xbdcd40ee	-0.1002215
115	0xbdd24195	-0.10266415
116	0x3d3e8b01	0.046519283
117	0x3d567cdd	0.052365173
118	0x3af12cde	0.0018400212
119	0x3dac65be	0.08417843
120	0x3d9979a7	0.074939065
121	0xbc184f45	-0.009296243
122	0x3c40d2a1	0.011768968
123	0xbd484371	-0.048892442
124	0xbd6169d7	-0.055032577
125	0xbdb0bed7	-0.0863015
126	0x3dbc6b64	0.09200171
127	0xbbfbe08d	-0.0076866806
128	0x3d884842	0.06654407
129	0xbdd3d768	-0.1034382
130	0x3c84b511	0.01619962
131	0xbc855cc2	-0.016279582
132	0x3d4fff94	0.050780848
133	0xbd475be6	-0.048671626
134	0xbd0513ab	-0.03248946
135	0x3dc5c264	0.09656218
136	0xbc82a008	-0.01594545
137	0x3daa359c	0.083110064
138	0xbda3d4e9	-0.07999594
139	0xbd644bcd	-0.05573635
140	0x3d8d673c	0.06904456
141	0xbd98069b	-0.07423135
142	0x3dc2fd77	0.09521001
143	0x3be746c6	0.0070579974
144	0x3da80925	0.08204869
145	0xbd8eecd4	-0.06978765
146	0xbd3bacb2	-0.045818992
147	0x3dba8712	0.09107794
148	0x3d115729	0.035483513
149	0xbd89abf9	-0.06722254
150	0xbdbd254a	-0.09235628
151	0x3d627849	0.055290494
152	0x3da687fe	0.08131407
153	0x3cd78e00	0.026312828
154	0xbcb48de0	-0.022040308
155	0xbd64e408	-0.05588153
156	0x3d6c4408	0.057682067
157	0xbdc247ad	-0.09486327
158	0xbd47ae41	-0.048750166
159	0xbd589914	-0.05288036
160	0x3d469ff2	0.04849238
161	0xbd266f91	-0.04063374
162	0x3dc5b431	0.096535094
163	0xbbfdf83f	-0.0077505405
164	0x3d75805e	0.059936874
165	0x3cfa39be	0.030545112
166	0x3db735ff	0.08945846
167	0x3d742ecb	0.059614938
168	0xbdd92ebe	-0.106046185
169	0xbd1ea4a7	-0.038731243
170	0xbcbd8833	-0.023136234
171	0x3d7fbc8e	0.06243568
172	0xbd226802	-0.03964997
173	0xbd58b135	-0.052903373
174	0x3d9aadb6	0.07552664
175	0x3d19cfa2	0.03755153
176	0xbc7c1c21	-0.015387566
177	0x3d7c912e	0.06166189
178	0xbd932a9a	-0.0718586
179	0xbdb5da3b	-0.08879515
180	0x3c81fd2b	0.01586779
181	0x3c8df910	0.017330676
182	0xbd899e82	-0.06719686
183	0x3d684624	0.056707516
184	0x39e173e2	0.00043001684
185	0x3d16b3e9	0.03679267
186	0xbdb73211	-0.08945096
187	0xbd4fdaac	-0.05074565
188	0x3ce8f44c	0.028436802
189	0x3d50f6ad	0.0510165
190	0x3dcc0a82	0.09962942
191	0xbd7c8f22	-0.06165994
192	0xbd0cc41d	-0.034366716
193	0xbb426f82	-0.0029668515
194	0x3cafc87e	0.021457907
195	0x3cb0248e	0.021501806
196	0x3d3f8064	0.046753302
197	0xbd1b1737	-0.037863936
198	0xbd274854	-0.04084046
199	0x3d3a40ce	0.04547196
200	0xbd68a3c2	-0.056796797
201	0xbd4cbcd0	-0.049984753
202	0x3ca16efd	0.019706244
203	0x3c3c27c2	0.011484088
204	0x3da8249a	0.08210106
205	0xbda479bc	-0.080310315
206	0xbcef2d24	-0.02919633
207	0x3cbea13b	0.02327024
208	0x3d2f1ca9	0.04275194
209	0x3cbcb17a	0.023033846
210	0xbd49591e	-0.049157254
211	0xbd4b99ba	-0.049707152
212	0xbdc53c69	-0.09630663
213	0x3bd8c041	0.0066147153
214	0xbd87e0da	-0.06634684
215	0x3dd9a6af	0.106274955
216	0x3cb1336a	0.021630961
217	0x3dbb9b6c	0.09160504
218	0x3c0ab2bc	0.008465465
219	0xbc355544	-0.011067692
220	0xbd21d12d	-0.039506126
221	0x3c16d471	0.009205923
222	0xbd8f1218	-0.06985873
223	0xba72e078	-0.0009265016
224	0x3cc22d68	0.023703292
225	0xbc9869f7	-0.018605215
226	0x3d5930a3	0.0530249
227	0x3cd2d4ee	0.025736298
228	0x3cde22b4	0.027116157
229	0x3dcec55a	0.100962356
230	0x3dd8147b	0.10550781
231	0x3da85c41	0.08220721
232	0x3db66562	0.08906056
233	0xbd1fbb36	-0.038996898
234	0x3d6c0ed4	0.05763133
235	0xbdac0b99	-0.084006496
236	0x3bf6b9b6	0.0075294627
237	0xbd612026	-0.0549623
238	0xbda31480	-0.079628944
239	0x3d905d4e	0.070490465
240	0x3cc0b6f7	0.023524744
241	0xbcb52c20	-0.022115767
242	0x3d8f15d5	0.06986586
243	0xbd7cf9fa	-0.061761834
244	0x3d2ccd6b	0.04218809
245	0xbb99227b	-0.0046733
246	0xbd648c21	-0.0557977
247	0x3d39b40b	0.045337718
248	0xbdbc020c	-0.09180078
249	0x3db5c874	0.08876124
250	0xbdcdbe4a	-0.100460604
251	0x3da4cf27	0.08047324
252	0xbb3433f9	-0.0027496798
253	0x3d4764c5	0.048680086
254	0x3d11ce05	0.035596866
255	0x3dcb923c	0.09940001

rnn.bias_ih_l1 f4 [100]
0	0x3cfddff2	0.030990575
1	0x3d684a9e	0.056711785
2	0xbd76c346	-0.06024482
3	0x3d513ce7	0.05108347
4	0x3d846a30	0.06465566
5	0xbd6cab8f	-0.0577808
6	0x3d250668	0.040289313
7	0x3d7bb87d	0.06145524
8	0xbd9308f0	-0.07179439
9	0xbcdde1a2	-0.02708513
10	0x3d793067	0.060837176
11	0x3d9fcbfb	0.07802578
12	0x3db8c742	0.090223804
13	0xbaf2b310	-0.00185165
14	0x3c3f5b51	0.011679486
15	0xbd689f75	-0.056792695
16	0xbd39bd76	-0.0453467
17	0xbd444af3	-0.04792304
18	0xbd8bfa9c	-0.06834909
19	0xbca772fc	-0.020440571
20	0xbb367509	-0.0027840754
21	0xbd9d2ab1	-0.07674158
22	0xbaf0b917	-0.0018365708
23	0x3d0a8e63	0.033827197
24	0x3cdaac3e	0.02669346
25	0xbd51f5a5	-0.051259656
26	0x3d68fe27	0.056883004
27	0x3d635641	0.05550218
28	0xbcf969f0	-0.030446023
29	0xbdad38e2	-0.08458115
30	0xbd9e6236	-0.07733576
31	0x3db5b896	0.088730976
32	0xbdd25534	-0.102701575
33	0xbc49f54c	-0.01232655
34	0xbd68eb7d	-0.056865204
35	0xbd5eb6fa	-0.05437372
36	0x3dc572a2	0.09641005
37	0x3d072712	0.032996245
38	0xbd587d37	-0.05285379
39	0xbda934a9	-0.08261997
40	0xbc8a405f	-0.016876398
41	0x3d7cdd55	0.061734516
42	0x3d8a7e36	0.06762354
43	0x3b3d019c	0.002884007
44	0x3da48189	0.08032519
45	0x3ddd3e02	0.10802843
46	0xbd594059	-0.053039882
47	0xbc8d62c7	-0.017259015
48	0x3cb9dac2	0.02268732
49	0x3dc29d43	0.095026515
50	0xbd6a0924	-0.057137623
51	0x3dcf42d2	0.10120167
52	0xbd67d224	-0.05659689
53	0x3d34e417	0.044162836
54	0xbd0a79bc	-0.0338075
55	0x3d9d9385	0.07694153
56	0xbc9d3f10	-0.01919511
57	0xbd9b6f80	-0.07589626
58	0x3caa7b50	0.020810753
59	0x3c320a7c	0.0108667575
60	0xba7193f7	-0.0009215469
61	0x3b66c6df	0.0035213751
62	0x3d5bf115	0.05369671
63	0x3dd779a9	0.10521252
64	0xbd8d6396	-0.0690376
65	0x3d64b0cb	0.055832665
66	0x3c1fe33b	0.009758766
67	0x3da70417	0.08155077
68	0x3ddc7bb3	0.10765781
69	0x3d34d48d	0.044148017
70	0x3c501fc4	0.012702886
71	0x3d9e263f	0.077221386
72	0xbd1ba7a3	-0.038001668
73	0x3c40592d	0.011740011
74	0x3cf0d8f0	0.029400319
75	0xbd0e3992	-0.034722872
76	0xbcd9c2ae	-0.026582088
77	0x3d85a9b1	0.06526507
78	0x3d5b8c91	0.05360085
79	0x3d94b019	0.072601505
80	0x3d88d7a1	0.06681753
81	0xbd1db699	-0.038504217
82	0x3d0fd88c	0.035118625
83	0x3d062d26	0.0327579
84	0x3bf2b95e	0.0074073514
85	0x3bb61723	0.0055569573
86	0x3d0476e5	0.03233995
87	0x3d94557e	0.07242869
88	0xbdd5fec0	-0.1044898
89	0x3d95ece7	0.07320576
90	0x3c008091	0.007843153
91	0x3dc0f7af	0.09422242
92	0x3d7230d5	0.0591286
93	0x3dadd750	0.08488333
94	0xbd55e165	-0.052216906
95	0x3da37d99	0.0798294
96	0x3bd51bf9	0.0065035787
97	0xbd1bb12b	-0.038010757
98	0x3dccda1e	0.1000254
99	0xbb6a677e	-0.0035767253

rnn.bias_hh_l1 f4 [100]
0	0xbd6852c2	-0.05671955
1	0xbd79c439	-0.060978148
2	0xbd874200	-0.066043854
3	0xbd574de0	-0.0525645
4	0x3cae02c0	0.021241546
5	0xbd052012	-0.032501288
6	0xbd60a32a	-0.054843105
7	0xbd438644	-0.047735468
8	0x3ded991c	0.11601469
9	0x3c78c358	0.015183292
10	0xbde6b983	-0.11265852
11	0xbde8b3f9	-0.11362452
12	0x3d7a2d1e	0.061078183
13	0x3d9eea69	0.07759554
14	0xbcf5dc93	-0.030012405
15	0xbdb2963c	-0.08720061
16	0x3db9af90	0.09066689
17	0xbdc256d1	-0.09489215
18	0xbc52bf79	-0.012863033
19	0x3cd6e09e	0.026230153
20	0xbd8a9a92	-0.06767763
21	0x3c92adae	0.017905083
22	0x3d29c3a2	0.041446336
23	0x3dbad6a3	0.0912297
24	0xbc17c4c0	-0.009263217
25	0x3d849cbb	0.064752065
26	0xbdad139e	-0.08451007
27	0xbda927d1	-0.082595475
28	0x3d41d341	0.047320608
29	0xbd78a8aa	-0.060707726
30	0xbcf42168	-0.029801086
31	0xbdb290d8	-0.08719033
32	0x3ca4b440	0.020105481
33	0xbdb5e5fa	-0.08881755
34	0x3b524002	0.0032081609
35	0x3df3d0f4	0.11905089
36	0x3c31bd09	0.010848292
37	0x3dbc2315	0.09186379
38	0xbda9c9a8	-0.08290416
39	0x3d1180d3	0.035523247
40	0x3933e3ab	0.00017155583
41	0x3c55cf1e	0.013049869
42	0xba72f34c	-0.00092678214
43	0x3ce978b8	0.028499946
44	0xbd318ff9	-0.043350194
45	0x3dcea7ab	0.10090574
46	0x3ac9a0a3	0.0015382956
47	0x3db38e5c	0.08767387
48	0xbdb0ea44	-0.086384326
49	0x3cdf9b3e	0.027295705
50	0xbcc1afab	-0.023643335
51	0xbc9ce2f4	-0.019151188
52	0x3bb7c676	0.005608375
53	0x3dc2fe9a	0.09521218
54	0x3c7d2a3d	0.015451965
55	0x3dbfcfb0	0.09365785
56	0x3d883f6a	0.0665272
57	0x3d12b0d2	0.03581316
58	0xbd02b98f	-0.031915244
59	0xbd8d62b1	-0.069035895
60	0x3d1a4818	0.03766641
61	0xbda23f78	-0.07922262
62	0xbd0ff368	-0.03514424
63	0x3ddd38b4	0.10801831
64	0xbc642deb	-0.013926963
65	0xbd931b67	-0.07182961
66	0x3d2fcd22	0.04292024
67	0xbd51b46e	-0.05119746
68	0xbd25e198	-0.040498346
69	0xbd5f662a	-0.05454079
70	0xbd8d2303	-0.068914436
71	0x3c998de2	0.018744413
72	0x3d864437	0.0655598
73	0x3de46074	0.111512095
74	0xbbf8f7db	-0.007597906
75	0xbdaa7587	-0.08323198
76	0x3bce6a29	0.0062992764
77	0xbc17b7ac	-0.009260099
78	0x3bd834f8	0.0065981112
79	0x3d983457	0.07431858
80	0x3bff8295	0.007797549
81	0xbc41a61c	-0.011819389
82	0x3b6aa81f	0.0035805774
83	0xbdcbc4d1	-0.09949649
84	0x3db25110	0.08706868
85	0xbd9cddd0	-0.07659495
86	0x3d9459f4	0.0724372
87	0xbc982d1e	-0.018576201
88	0xbcf56b8e	-0.029958513
89	0xbc12a968	-0.008951522
90	0xbc1ab887	-0.009443409
91	0x3d8daee5	0.06918124
92	0xbd231406	-0.039814018
93	0x3d21e632	0.039526172
94	0x3d9c291b	0.07625028
95	0xbc34b2fc	-0.011029001
96	0xbdb58eb4	-0.08865109
97	0xbc3c27fd	-0.011484143
98	0x3dcfd2bb	0.101476155
99	0xbd56c2ad	-0.05243175

linear.weight f4 [1, 100]
0	0xbd9e544d	-0.07730923
1	0x3ccd5072	0.025062773
2	0xbdc62569	-0.09675104
3	0xbd5187d1	-0.051154915
4	0x3ccfbec6	0.025359523
5	0x3d4c2889	0.049843345
6	0xbd5e9888	-0.054344684
7	0xbd5b0471	-0.053471033
8	0xbd7f1c21	-0.062282685
9	0xbd012bcf	-0.03153592
10	0x3d8ef973	0.069811724
11	0x3dafb042	0.085785404
12	0x3da094c2	0.07840873
13	0xbb862679	-0.0040939418
14	0x3a9edf3e	0.0012120975
15	0xbc918fdf	-0.017768798
16	0xbc3e87d4	-0.011629064
17	0x3da7d72d	0.081953384
18	0x3d1b9f1b	0.03799353
19	0x3dc591e8	0.0964697
20	0x3d94ebe8	0.07271558
21	0x3cb0bbf2	0.021573994
22	0x3dce3bad	0.10069976
23	0x3d45efca	0.048324384
24	0xbc215a1e	-0.009848146
25	0xbc4d1a41	-0.012518466
26	0x3dd3d3f6	0.10343163
27	0xbcc0aed6	-0.023520868
28	0xbbc76eb2	-0.006086194
29	0x3d7867f4	0.060646012
30	0xbc852ce9	-0.016256766
31	0xbdafb2de	-0.08579038
32	0x3d664eb5	0.056227405
33	0x3d6c3ad2	0.057673283
34	0x3d440a44	0.047861353
35	0xbdc2a7fd	-0.095046975
36	0xbdd42fd5	-0.10360686
37	0xbd90e581	-0.070750244
38	0x3d8097ff	0.06278991
39	0xbd3f98e6	-0.046776675
40	0xbd95844a	-0.07300623
41	0xbd9de200	-0.07709122
42	0xbb54bd9e	-0.0032461653
43	0x3c27892b	0.0102255745
44	0xbda66b57	-0.08125942
45	0xbc21490c	-0.009844076
46	0x3ced59fa	0.028973568
47	0xbcca87c1	-0.024722936
48	0x3db629cd	0.088946916
49	0xbd5d8672	-0.054083295
50	0x3b96330c	0.004583722
51	0xbd97354a	-0.07383211
52	0x3c58be4f	0.013228967
53	0xbda3a928	-0.07991248
54	0x3dc43f12	0.09582342
55	0xbcfbc2d9	-0.030732559
56	0xbdd9adbc	-0.1062884
57	0x3d3f4375	0.04669519
58	0x3d1b2315	0.037875254
59	0xbcc2f57d	-0.023798699
60	0xbd9e7043	-0.07736256
61	0xbd14832a	-0.0362579
62	0xbdbd0b57	-0.092306785
63	0xbdd13056	-0.102142975
64	0x3db5c909	0.08876235
65	0x3da35a69	0.07976229
66	0xbdd9dce0	-0.10637832
67	0xbd861c0b	-0.065483175
68	0xbd687dd2	-0.056760617
69	0x3ce8f1f1	0.02843568
70	0x3dcd86b2	0.10035457
71	0x3d87a30d	0.06622896
72	0x3c8909b0	0.016728252
73	0xbd801b04	-0.06255153
74	0x3cf22eb9	0.029563295
75	0xbd6e050f	-0.058110293
76	0x3dc3317a	0.09530921
77	0xbd317d47	-0.043332364
78	0xbc5bc29f	-0.0134131005
79	0xbddd4594	-0.108042866
80	0x3c4d6983	0.012537363
81	0xbd1d84db	-0.03845678
82	0xbd2ce445	-0.042209882
83	0x3dd3cf54	0.10342279
84	0x3daea55b	0.08527633
85	0xbd251ba1	-0.040309552
86	0x3d588a96	0.05286654
87	0x3d4959cb	0.0491579
88	0x3d8a7758	0.06761044
89	0x3b4c37be	0.0031161155
90	0x3cbe72dd	0.02324813
91	0xbd339e45	-0.04385211
92	0xbd8fe591	-0.07026208
93	0x3c4898a9	0.012243428
94	0xbc46b335	-0.012127687
95	0xbd4330eb	-0.047654074
96	0xbb07912a	-0.002068589
97	0x3bae1192	0.005312153
98	0xbd136555	-0.03598531
99	0x3d2b9a76	0.041895352
