Time-Series---Forecasting/Results/periodic/model5.pth (torch, 11277 bytes, 13 tensors)

rnn.weight_ih_l0 f4 [20, 1]
0	0xbe18c2e3	-0.14918093
1	0xbd781045	-0.06056239
2	0x3e08c596	0.13356623
3	0x3d072577	0.032994714
4	0x3e390595	0.18068536
5	0x3e6382c2	0.22217849
6	0xbdfb0ec6	-0.12258677
7	0x3da1a8c5	0.07893518
8	0xbe4ddc01	-0.20103456
9	0xbe6eeba7	-0.23332082
10	0xbe4c4a23	-0.19950156
11	0xbe33c60e	-0.1755602
12	0x3c79ff62	0.015258642
13	0x3d6f673c	0.05844806
14	0x3c1a5e59	0.009421908
15	0xbe1a76c4	-0.15084368
16	0xbdf27b52	-0.11839928
17	0x3e3ec2e1	0.18629028
18	0x3e4f631d	0.20252652
19	0xbe1c5503	-0.15266804

rnn.weight_hh_l0 f4 [20, 20]
0	0xbe41f8b4	-0.18942529
1	0x3da20fa5	0.0791314
2	0xbe162955	-0.14664204
3	0x3e56e38f	0.20985244
4	0xbe582887	-0.2110921
5	0xbc912003	-0.01771546
6	0xbe1ed865	-0.15512235
7	0x3e20f19e	0.1571717
8	0xbb64cb38	-0.0034911167
9	0x3dd7af0c	0.105314344
10	0x3e2d9723	0.16952185
11	0xbdb3a018	-0.0877077
12	0x3d8b35a0	0.067973375
13	0xbe12ab51	-0.14323165
14	0x3dec403f	0.115356915
15	0x3d2f01ab	0.0427262
16	0x3e089a29	0.13340057
17	0x3deac94d	0.11464176
18	0x3d617ae2	0.05504883
19	0x3d7a50a0	0.061112046
20	0xbe15063b	-0.14553158
21	0xbd1b0bbb	-0.037852984
22	0xbe4fa295	-0.20276864
23	0xbe20f43c	-0.15718168
24	0x3e140bee	0.14457676
25	0xbd89e1e7	-0.067325406
26	0x3d17a9f6	0.03702732
27	0x3a734c17	0.00092810526
28	0xbd04e163	-0.032441508
29	0xbd8258e7	-0.06364613
30	0x3cf7f6b0	0.030268997
31	0x3bc1418c	0.0058977064
32	0x3e042642	0.12905219
33	0xbb942ae4	-0.0045217145
34	0x3e6e5d60	0.23277807
35	0xbe4baf27	-0.19891034
36	0xbd3552b8	-0.04426834
37	0xbe4db45a	-0.2008833
38	0x3e465356	0.19367728
39	0x3e188b8d	0.14896984
40	0xbdfbb457	-0.122902565
41	0xbdc9409b	-0.09826776
42	0x3e1ee4cd	0.15516968
43	0x3c883034	0.016624548
44	0x3c38952b	0.011266033
45	0xbe40742d	-0.18794318
46	0x3e126a6b	0.14298408
47	0x3dcb87e6	0.0993803
48	0xbdee2818	-0.11628741
49	0xbe4a8958	-0.19778955
50	0xbe375a0d	-0.17905445
51	0x3cf51c43	0.029920703
52	0x3db5628f	0.08856689
53	0x3e47918d	0.19489117
54	0x3e1ba3a6	0.15199146
55	0xbe85516f	-0.2603869
56	0x3da769ad	0.08174453
57	0xbe11a4b8	-0.14222991
58	0x3e172e77	0.14763819
59	0xbdc5a41c	-0.09650442
60	0xbc4dd930	-0.012563989
61	0xbe1ffed7	-0.15624557
62	0x3dc38563	0.09546926
63	0xbe2a5491	-0.16633822
64	0xbe469810	-0.19393945
65	0x3df52363	0.1196964
66	0xbdf09c6b	-0.11748584
67	0x3cbdc5d2	0.023165617
68	0x3e3265f4	0.17421705
69	0xbe7d80cd	-0.24756165
70	0xbdea51d4	-0.11441389
71	0x3cbf0ae2	0.023320619
72	0x3ddb7b72	0.10716905
73	0x3d3c44db	0.045964103
74	0xbdce36e6	-0.10069065
75	0x3e35e954	0.17764789
76	0x3e3da57c	0.18520159
77	0x3d23cad9	0.039988372
78	0x3de90f5b	0.11379882
79	0x3d58bfe7	0.052917387
80	0xbe3833e0	-0.17988539
81	0x3e2950d9	0.16534747
82	0xbd44851f	-0.047978517
83	0x3dccff42	0.10009624
84	0xbd9f55d4	-0.07780042
85	0x3e412241	0.18860723
86	0xbda32e9d	-0.07967875
87	0x3d4a9e8b	0.049467605
88	0xbdb3494e	-0.08754216
89	0x3d9a1329	0.07523186
90	0xbdf6ea36	-0.12056391
91	0xbdcc3ae6	-0.099721715
92	0xbd9e4c2d	-0.07729373
93	0x3e09a16b	0.13440482
94	0xbd8fcef9	-0.07021899
95	0xbd8dc0fa	-0.06921573
96	0x3dad84be	0.08472584
97	0x3d77c737	0.06049272
98	0xbd809c13	-0.06279769
99	0xbcbc8bd2	-0.02301589
100	0x3e20cbba	0.15702716
101	0x3c8cc65f	0.017184434
102	0x3de4aca4	0.11165741
103	0x3e301a03	0.17197423
104	0x3e11d303	0.14240651
105	0xbe49c9fe	-0.1970596
106	0x3e103913	0.14084272
107	0x3e47fbb8	0.19529617
108	0xbcf886c1	-0.030337693
109	0x3dca7a19	0.098865695
110	0xbd9255ef	-0.07145297
111	0x3e0992af	0.13434862
112	0xbe3b16fb	-0.18270485
113	0x3e405f9d	0.18786474
114	0xbdaa36a1	-0.08311201
115	0x3e5d22c3	0.21595292
116	0x3e3651df	0.17804669
117	0x3cd6c629	0.026217537
118	0xbe27d6e9	-0.16390575
119	0xbe3d0c1a	-0.18461648
120	0x3dc5bde1	0.09655357
121	0x3dfe4e5a	0.12417288
122	0x3df4e0c9	0.11956937
123	0xbe30d02f	-0.17266916
124	0x3d099b86	0.033595584
125	0x3d1768c1	0.036965135
126	0xbdaf4a24	-0.08559063
127	0xbe10524d	-0.14093895
128	0xbd07ce37	-0.033155646
129	0x3cef0896	0.029178899
130	0xbe0d938d	-0.13825817
131	0x3e4f8dc4	0.20268923
132	0x3e4e3346	0.20136747
133	0xbdc15982	-0.094409004
134	0x3cae1c30	0.021253675
135	0xbe627f8a	-0.22118965
136	0xbdb591d4	-0.08865705
137	0x3e313e30	0.17308879
138	0x3e443bd2	0.19163445
139	0xbca2f8ff	-0.019894121
140	0xbe6487d5	-0.22317441
141	0xbdff9a16	-0.124805614
142	0xbdb02265	-0.0860031
143	0x3d1358c3	0.03597332
144	0x3e764192	0.2404845
145	0x3c7219c0	0.014776647
146	0xbde4968a	-0.111615255
147	0xbe420535	-0.18947299
148	0xbe01f7c6	-0.12692174
149	0xbd91d6da	-0.07121058
150	0xbc338e0e	-0.010959161
151	0x3d28ed06	0.04124167
152	0xbdfcee97	-0.12350195
153	0xbdf951e6	-0.12173824
154	0xbd97759c	-0.07395479
155	0xbd331b5d	-0.043727268
156	0xbe3d82f5	-0.18506987
157	0x3e5a20d1	0.21301581
158	0x3dcd615d	0.10028336
159	0x3d9bc896	0.07606618
160	0x3e31582f	0.17318796
161	0xbd4862eb	-0.04892246
162	0x3e27f8dc	0.16403526
163	0xbe01f8b8	-0.12692535
164	0x3da6f916	0.08152978
165	0xbe100645	-0.14064892
166	0x3e878e7e	0.264759
167	0x3b7c4abd	0.0038496696
168	0x3e3c52ea	0.18391004
169	0x3e220d91	0.15825488
170	0x3d231ad2	0.0398205
171	0xbcf0281c	-0.029316
172	0xbc5e6010	-0.013572708
173	0x3e09b9d2	0.13449791
174	0x3d9acf75	0.075591005
175	0xbe55b7c3	-0.20870881
176	0x3de2468c	0.11048612
177	0xbe0de6af	-0.1385753
178	0x3e2cff8b	0.16894357
179	0x3e3c385e	0.18380877
180	0xbda13c47	-0.07872825
181	0xbe1cd6e7	-0.15316354
182	0x3da657b6	0.08122198
183	0x3e026bfc	0.12736505
184	0x3e3f12f9	0.18659581
185	0x3e0d26d9	0.1378435
186	0xbe336136	-0.17517552
187	0x3d2a93e3	0.041644942
188	0xbd4b07a4	-0.049567834
189	0x3e6e04f4	0.23244077
190	0xbba72e57	-0.0051019597
191	0x3d8f0367	0.06983071
192	0xbc7d997f	-0.015478491
193	0x3df063ea	0.11737807
194	0x3dd71628	0.10502273
195	0x3e6e7b5a	0.23289242
196	0xbe002814	-0.12515289
197	0x3d8cf5be	0.06882809
198	0x3da4ce9a	0.080472186
199	0xbda2b1b8	-0.079440534
200	0x3e503ec2	0.2033644
201	0x3e419b60	0.18906927
202	0x3d85b615	0.0652887
203	0xbb3da62f	-0.0028938164
204	0xbe52878b	-0.20559518
205	0xbe4db264	-0.20087582
206	0x3c22f01b	0.009944941
207	0xbe1a83a3	-0.15089278
208	0xbdc328bd	-0.095292546
209	0x3d9bb76f	0.076033466
210	0x3e3c3f41	0.18383504
211	0x3c393983	0.011305216
212	0x3e1f6a8e	0.15567991
213	0xbdde6fb6	-0.10861151
214	0x3b600b60	0.0034186468
215	0xbddfb2b9	-0.109227605
216	0x3df51120	0.11966157
217	0x3d9304af	0.07178628
218	0x3cdbd60e	0.026835468
219	0x3dd51bf7	0.104057245
220	0x3e08e4fc	0.133686
221	0xbe2082d2	-0.15674904
222	0xbe103975	-0.14084418
223	0xbd74606c	-0.059662268
224	0xbe3a6e5f	-0.18206166
225	0x3a725ace	0.00092450983
226	0xbd9b369b	-0.075787745
227	0x3cd94303	0.026521211
228	0x3bea0027	0.0071411314
229	0x3d865e3e	0.06560944
230	0xbe0476f6	-0.12936005
231	0x3cbec9b0	0.023289531
232	0xbc54e480	-0.012993932
233	0x3e0dd4b4	0.13850671
234	0x3e28887e	0.16458318
235	0x3e220c92	0.15825108
236	0x3c1bd58f	0.009511366
237	0xbe116614	-0.14199096
238	0x3d8be883	0.068314575
239	0xbe0f26e8	-0.13979685
240	0xbd390a1a	-0.04517565
241	0xbe0e186b	-0.13876502
242	0x3e1d071e	0.15334746
243	0xbdf6ff4b	-0.12060412
244	0xbd19770b	-0.037467044
245	0x3e093fb5	0.13403209
246	0x3e155b19	0.14585532
247	0x3cbc0717	0.0229526
248	0xbdc61478	-0.09671873
249	0x3dce505a	0.100739196
250	0x3a893b97	0.001047003
251	0x3d2d233c	0.04226993
252	0x3be21330	0.00689926
253	0x3ddfb3c2	0.10922958
254	0xbdf7eb0b	-0.12105378
255	0xbe2824ea	-0.16420332

rnn.bias_ih_l0 f4 [20]
0	0xbcb3a9dc	-0.021931581
1	0x3da3d7ec	0.08000168
2	0x3e39e386	0.181532
3	0xbe44b233	-0.19208603
4	0xbe4b79b1	-0.1987064
5	0xbc23b88e	-0.009992732
6	0x3db81b96	0.089896366
7	0xbe64f797	-0.22360073
8	0xbd35c275	-0.0443749
9	0xbda88722	-0.082288995
10	0xbe1157bc	-0.14193624
11	0x3e1f5bb2	0.15562323
12	0x3cc38a8a	0.023869772
13	0xbe64bf36	-0.22338566
14	0xbd463301	-0.048388485
15	0xbe0ea9a6	-0.13931903
16	0x3c41d1ea	0.011829833
17	0xbd2c54c9	-0.042073045
18	0xbe557cee	-0.20848438
19	0x3ddb55a4	0.10709694

rnn.bias_hh_l0 f4 [20]
0	0x3e4c6847	0.19961654
1	0xbd29d85b	-0.0414661
2	0xbe19667b	-0.149805
3	0x3e2a8ea0	0.1665597
4	0xbe0793c7	-0.13239966
5	0x3dbfaa98	0.0935871
6	0x3bd8c0b2	0.006614768
7	0xbe25df71	-0.16198517
8	0x3e59fe01	0.21288301
9	0xbd2fc81c	-0.04291545
10	0xbe3656cc	-0.17806548
11	0x3c56563a	0.013082081
12	0x3e53eb73	0.20695285
13	0x3d4da97f	0.050210472
14	0xbd1fc010	-0.039001524
15	0xbd1f5e02	-0.038908012
16	0x3d8a0e10	0.067409635
17	0xbe0a0687	-0.13479052
18	0xbd1ab5a0	-0.037770867
19	0xbe26f8b9	-0.16305818

rnn.weight_ih_l1 f4 [20, 20]
0	0x3db0fa1c	0.086414546
1	0x3e2d18a7	0.16903935
2	0x3e27cb58	0.16386163
3	0x3e0bfde4	0.1367107
4	0x3e29b311	0.16572215
5	0x3e1253d5	0.14289792
6	0xbe13e55f	-0.14442967
7	0xbe79794c	-0.24362677
8	0x3d728cca	0.0592163
9	0xbe5aa239	-0.21350946
10	0x3e474da2	0.19463208
11	0x3e40f5ca	0.18843761
12	0xbdf2fc0f	-0.118644826
13	0x3da3094c	0.079607576
14	0x3e689d5e	0.22716281
15	0xbd60c5a2	-0.054875977
16	0xbe679517	-0.22615467
17	0xbb9d2f06	-0.0047968654
18	0xbe270989	-0.16312231
19	0x3e479ef0	0.19494224
20	0x3e1a7e8d	0.15087338
21	0xbe144a53	-0.14481477
22	0x3e3aba46	0.1823512
23	0xbe6792c5	-0.22614582
24	0x3e340f52	0.17583969
25	0xbe0a5a93	-0.13511114
26	0x3d9f35cd	0.077739336
27	0xbd739d76	-0.05947634
28	0x3e069959	0.13144435
29	0x3ccefa52	0.025265846
30	0x3d3ef4d5	0.04662021
31	0xbdb6db4a	-0.08928545
32	0xbe600521	-0.21876957
33	0xbc912fb8	-0.01772295
34	0x3dfede8a	0.1244479
35	0xbd296178	-0.04135272
36	0xbb7c0d99	-0.0038460253
37	0xbe4bf1e1	-0.19916488
38	0xbe779159	-0.2417654
39	0xbdde533b	-0.10855719
40	0xbc93ba45	-0.018033156
41	0xbe412e84	-0.188654
42	0xbcbe9702	-0.023265366
43	0x3d5f6e50	0.05454856
44	0x3d8fe277	0.070256166
45	0xbd10d0a5	-0.03535523
46	0x3da95382	0.08267881
47	0xbe422385	-0.18958862
48	0xbd7a1220	-0.06105244
49	0xbe1a28e6	-0.15054664
50	0x3e081bd8	0.13291872
51	0x3e1fd4fd	0.15608592
52	0x3e646f59	0.22308101
53	0xbe70e637	-0.2352532
54	0x3d32875a	0.043586113
55	0xbd41a961	-0.047280673
56	0x3d840955	0.064470924
57	0xbe1e2456	-0.15443549
58	0xbc1a1795	-0.009405036
59	0xbd3328ef	-0.04374021
60	0x3d8311d3	0.06399884
61	0x3e3d63da	0.18495122
62	0x3e65b8fe	0.2243385
63	0x3dd9f029	0.1064151
64	0xbe0391b8	-0.12848556
65	0xbd99ad00	-0.075037
66	0x3e7d6431	0.24745251
67	0xbd7de4f0	-0.06198591
68	0x3df2f1c4	0.118625194
69	0xbe82355b	-0.25431332
70	0xbe46438e	-0.19361708
71	0x3dc7b52e	0.09751354
72	0x3d22327a	0.03959892
73	0x3c8cc0b0	0.017181724
74	0xbddbbf8b	-0.10729893
75	0xbe364e09	-0.17803206
76	0xbe6a924c	-0.2290737
77	0xbe2a3a29	-0.16623749
78	0xbdd5137c	-0.10404107
79	0xbe2cbda1	-0.16869213
80	0xbe1828f9	-0.1485938
81	0x3df193e6	0.117957875
82	0x3e5ce60d	0.21572132
83	0x3e278a4b	0.16361348
84	0x3d5fc96b	0.054635447
85	0xbd082040	-0.03323388
86	0x3c54d9ff	0.012991427
87	0xbd91f0f8	-0.07126039
88	0x3e4b60aa	0.19861093
89	0x3d8692a4	0.06570938
90	0xbdafd9d5	-0.0858647
91	0xbc8504eb	-0.016237697
92	0x3d5b6315	0.05356129
93	0xbdc94661	-0.09827877
94	0xbe62ee2e	-0.22161171
95	0x3e1cd56d	0.1531579
96	0x3e1b4816	0.15164217
97	0xbd887da2	-0.066645876
98	0x3d97783e	0.07395981
99	0xbddcb962	-0.107775465
100	0x3d91fe7c	0.07128617
101	0x3d29f035	0.041488845
102	0x3e5f0288	0.2177831
103	0xbd0657f0	-0.032798707
104	0x3e272e3e	0.16326234
105	0x3ddd97de	0.10819982
106	0xbe23df2e	-0.16003105
107	0xbe417562	-0.18892434
108	0xbe59d225	-0.2127157
109	0xbdf751fe	-0.12076186
110	0x3e0db901	0.13840105
111	0xbe00a8aa	-0.1256434
112	0x3e2004ba	0.15626803
113	0x3d930634	0.071789175
114	0x3e3347bd	0.17507835
115	0xbda16e5a	-0.07882376
116	0xbd230f63	-0.039809596
117	0x3ce90fbf	0.028449891
118	0x3e3a1329	0.18171372
119	0x3d4a0a5d	0.04932629
120	0x3de54d85	0.11196426
121	0xbe3d29fd	-0.18473049
122	0x3e25ad4a	0.16179386
123	0xbcf0db5a	-0.02940147
124	0xbe27ac8e	-0.16374418
125	0x3e318b5a	0.17338315
126	0x3d7809bf	0.06055617
127	0x3d17a14c	0.03701906
128	0x3d7e5827	0.062095787
129	0xbc98a136	-0.018631559
130	0x3e42274d	0.18960305
131	0xbe24c67b	-0.1609134
132	0xbe1e1266	-0.15436706
133	0x3cfa1c28	0.030531004
134	0x3e4c1a08	0.19931805
135	0xbe49f08e	-0.1972067
136	0xbd1d89bc	-0.03846143
137	0xbc28797a	-0.0102828685
138	0xbdbaa146	-0.09112792
139	0x3a8960d3	0.0010481126
140	0x3d18149b	0.037129026
141	0xbe5e5282	-0.21711162
142	0x3cfebb8e	0.031095292
143	0x3d852e4d	0.06502972
144	0xbe4908d1	-0.1963227
145	0xbe2c0c97	-0.16801678
146	0xbc8c3e9d	-0.0171197
147	0xbe337f91	-0.17529131
148	0xbe0acf14	-0.13555557
149	0xbd909574	-0.07059756
150	0x3e14ab2d	0.14518423
151	0x3e3575ae	0.17720672
152	0xbe42c598	-0.19020689
153	0xbdc4b581	-0.096049316
154	0x3defc293	0.11707034
155	0x3db11f6f	0.086485736
156	0xbe69ce4f	-0.22832607
157	0x3e40fb7e	0.18845937
158	0x3da01b1a	0.07817669
159	0xbd118dc7	-0.0355356
160	0xbe45ed2b	-0.19328754
161	0x3e508e6c	0.2036683
162	0xbcc28ae9	-0.023747878
163	0x3da0834d	0.07837544
164	0xbe2cf1a7	-0.16889058
165	0xbe6b3785	-0.22970398
166	0xbdba7b97	-0.09105604
167	0xbe6b0356	-0.22950491
168	0x3d87818b	0.06616505
169	0xbd2fd209	-0.042924915
170	0xbcc4205f	-0.023941217
171	0xbe1a7092	-0.15082005
172	0x3c553fc3	0.01301569
173	0x3d396d5e	0.045270316
174	0x3e524b1f	0.20536469
175	0x3d9bf595	0.076152004
176	0x3d37bd90	0.044858515
177	0xbd55ee12	-0.052228995
178	0xbe533146	-0.20624265
179	0xbe4f34bc	-0.2023496
180	0x3ca6f3b7	0.020379884
181	0xbd2445d7	-0.040105667
182	0xbdff09ef	-0.124530666
183	0x3db2dda6	0.08733682
184	0xbe390eee	-0.18072101
185	0x3e089650	0.1333859
186	0xbdce154d	-0.100626566
187	0x3cec8c39	0.028875457
188	0x3dedbacb	0.116078936
189	0xbe16d454	-0.14729434
190	0x3db18dc3	0.08669617
191	0xbe5b352d	-0.21407004
192	0xbe3cddae	-0.18443939
193	0x3dbee7c2	0.09321548
194	0x3dea3e07	0.11437612
195	0xbe5013a7	-0.20319997
196	0x3e2a100c	0.16607684
197	0xbcdd710f	-0.02703145
198	0x3e1be0a4	0.15222412
199	0x3e455a4e	0.1927273
200	0xbe6a92cd	-0.22907563
201	0xbe3dafb5	-0.18524058
202	0xbe17dde0	-0.14830732
203	0xbe683eca	-0.22680202
204	0x3e4c4861	0.19949485
205	0x3e4ee660	0.20205069
206	0xbe12c19a	-0.14331666
207	0x3e69507c	0.22784609
208	0xbdda2dc0	-0.10653257
209	0xbdb81b8c	-0.08989629
210	0x3e40141f	0.18757676
211	0xbe291216	-0.16510805
212	0x3d297e23	0.04138006
213	0x3dce3115	0.100679554
214	0x3e089e8c	0.13341731
215	0x3d91168a	0.07084377
216	0x3b8717d0	0.0041227117
217	0x3d989a90	0.074513555
218	0xbe2b7f1a	-0.16747704
219	0xbd5f2b93	-0.054484915
220	0x3e0c363f	0.13692568
221	0x3dfd6581	0.12372876
222	0xbe1a3003	-0.15057378
223	0x3e3ac33b	0.18238537
224	0xbe3b75ca	-0.18306652
225	0xbe02c8a9	-0.12771858
226	0xbe3dd09f	-0.18536614
227	0xb9b7f074	-0.00035083632
228	0x3d9c9070	0.07644737
229	0x3dd1a138	0.10235828
230	0x3e2c56e4	0.16830021
231	0x3d795431	0.060871307
232	0xbc158463	-0.009125802
233	0x3cc9a752	0.024615917
234	0xbc92208c	-0.017837785
235	0xbc014799	-0.007890605
236	0xbe3b9d37	-0.18321691
237	0x3e3b3f24	0.18285805
238	0x3e2f53e6	0.17121848
239	0x3de2ca9c	0.11073801
240	0xbdb701ab	-0.08935865
241	0xbd0f2ae2	-0.034953006
242	0xbdf4e4fd	-0.119577385
243	0xbdab8185	-0.08374313
244	0xbdbf7b64	-0.09349707
245	0x3e533500	0.20625687
246	0x3d404537	0.04694101
247	0xbd52fe3b	-0.051511984
248	0x3cf718a8	0.030163124
249	0xbd2d5459	-0.04231677
250	0xbe5a6e1a	-0.21331063
251	0xbd90ae5d	-0.07064507
252	0xbcaa7477	-0.020807488
253	0xbd9c473e	-0.07630776
254	0x3d057ea4	0.032591477
255	0xbe45ecd3	-0.19328623

rnn.weight_hh_l1 f4 [20, 20]
0	0x3eac87b1	0.33697274
1	0x3d6c1d4e	0.057645135
2	0x3e54553f	0.20735644
3	0xbe4cf141	-0.20013906
4	0x3d311256	0.043230377
5	0xbd99c3c8	-0.075080454
6	0xbe40d2ae	-0.18830368
7	0xbe85d2f0	-0.26137495
8	0x3e8ab391	0.27090123
9	0xbb947a57	-0.0045311856
10	0xbd8d206b	-0.06890949
11	0x3adc1961	0.0016792231
12	0x3d996096	0.074891254
13	0xbd5a5e18	-0.05331239
14	0xbd52f13a	-0.051499583
15	0x3e743848	0.23849595
16	0xbe0dd1ec	-0.1384961
17	0xbe04769d	-0.12935872
18	0xbe34513e	-0.17609116
19	0xbe1cf2e3	-0.15327029
20	0xbe2d5dc7	-0.16930304
21	0x3cbf57a7	0.023357226
22	0x3e0c869b	0.13723223
23	0xbe05cdf0	-0.1306684
24	0xbdc9a77f	-0.098464005
25	0xbca4be8e	-0.020110395
26	0xbe0cb44a	-0.1374065
27	0xbe83a29b	-0.25709996
28	0x3dea3d69	0.11437494
29	0xbda81c81	-0.08208562
30	0xbc8adba3	-0.016950434
31	0xbe17f923	-0.14841132
32	0xbd9c28ae	-0.076249465
33	0xbd87afd9	-0.06625337
34	0xbe5d5634	-0.21614915
35	0xbe561d98	-0.20909727
36	0x3b8b17de	0.0042447885
37	0x3da77c63	0.08178022
38	0xbe11120f	-0.14167045
39	0x3d443aea	0.047907747
40	0x3e82a7c4	0.2551862
41	0xbd4f7e64	-0.050657645
42	0x3e664c37	0.22490011
43	0xbd58860f	-0.052862223
44	0xbc17144e	-0.00922115
45	0xbe21a483	-0.15785412
46	0x3c3827b9	0.011239939
47	0xbe49301c	-0.19647259
48	0x3e50e46d	0.20399638
49	0xbe7dee0a	-0.24797836
50	0x3d9c10ea	0.076204136
51	0x3defbe85	0.117062606
52	0x3e1fcd6b	0.15605704
53	0xbe27fdd2	-0.16405419
54	0xbe1e4846	-0.15457258
55	0x3e60caeb	0.21952407
56	0xbe71451f	-0.23561524
57	0xbdab8443	-0.08374836
58	0x3dc757d6	0.0973355
59	0xbe24f166	-0.16107711
60	0x3dd0bb0f	0.101919286
61	0x3df340d2	0.11877598
62	0x3d5f53e7	0.054523375
63	0x3e134aca	0.14383999
64	0x3e4a86d0	0.1977799
65	0x3e08de34	0.13366014
66	0x3d5d1d13	0.053982805
67	0x3d9ae2db	0.075628005
68	0x3e327994	0.17429191
69	0xbcaa209c	-0.020767502
70	0x3d68998f	0.05678707
71	0x3e0977d2	0.13424614
72	0xbc17db5f	-0.009268611
73	0xbd02a3c1	-0.03189445
74	0x3d023fb4	0.031799033
75	0xbe1e0de6	-0.1543499
76	0x3e885b0a	0.26631957
77	0xbd9112c4	-0.070836574
78	0x3e38423c	0.17994016
79	0xbe6fa6a7	-0.23403417
80	0x3e642c31	0.22282483
81	0x3e21b825	0.15792902
82	0xbdbfd6b2	-0.09367122
83	0xbe262e0b	-0.16228501
84	0x3e52d6f8	0.20589817
85	0x3d3379a3	0.043817174
86	0x3e06d75d	0.13168092
87	0x3e2123e4	0.15736347
88	0x3de2de01	0.110775
89	0x3dc3ec9c	0.09566614
90	0x3e5affe1	0.21386673
91	0xbd5176e3	-0.05113877
92	0xbdd075d0	-0.10178721
93	0x3e1b324f	0.1515591
94	0xbda65fc5	-0.08123735
95	0x3c1daa57	0.009623132
96	0x3e5b31ee	0.21405765
97	0xbe48aa9a	-0.1959633
98	0xbe60dbb3	-0.21958809
99	0xbddb883a	-0.107193425
100	0xbdfd3ce3	-0.12365129
101	0xbe47f61e	-0.1952748
102	0x3e440afe	0.19144818
103	0xbca8b44f	-0.02059379
104	0xbcc10e79	-0.023566471
105	0x3e351991	0.17685534
106	0xbccc2711	-0.024920972
107	0x3e4fbcd9	0.20286883
108	0xbe10f23b	-0.14154904
109	0x3e23425b	0.15943281
110	0xbd88f036	-0.066864416
111	0x3d0ad1f0	0.03389162
112	0x3dc2d47e	0.09513186
113	0x3e22de6a	0.15905157
114	0x3da3499c	0.07973024
115	0xbe55d98f	-0.20883773
116	0x3e889863	0.26678762
117	0x3d86764f	0.06565534
118	0x3d72ae54	0.059248284
119	0x3d0fb203	0.035081875
120	0xbc486bd9	-0.012232744
121	0x3db2057c	0.08692452
122	0xbe17a270	-0.14808059
123	0xbe5a06ba	-0.21291628
124	0x3e64b01d	0.22332807
125	0x3e19dc4f	0.15025447
126	0x3da2cc5b	0.07949134
127	0x3e184234	0.14869004
128	0x3dba765e	0.09104608
129	0x3dad14c1	0.08451224
130	0xbd9aeaab	-0.075642906
131	0x3ca81060	0.02051562
132	0x3e197806	0.14987192
133	0xbada8dc6	-0.0016674332
134	0x3e2effc9	0.17089762
135	0xbd93ef62	-0.07223393
136	0xbd384252	-0.044985123
137	0xbe6dd956	-0.23227438
138	0x3d650e66	0.055921935
139	0x3dc81a7d	0.09770677
140	0xbdf27d10	-0.1184026
141	0xbe5bfbb8	-0.21482742
142	0xbe479879	-0.19491757
143	0x3e1f311c	0.15546077
144	0x3b8108e9	0.0039378298
145	0x3e520410	0.20509362
146	0xbd31589b	-0.04329739
147	0xbba3620f	-0.0049860547
148	0x3e3adbdd	0.18247934
149	0x3d501b43	0.05080725
150	0xbe071134	-0.13190156
151	0xbe5b4a88	-0.2141515
152	0x3e1a299f	0.1505494
153	0x3d76a074	0.060211614
154	0x3e163909	0.14670195
155	0xba5360cc	-0.0008063435
156	0x3e1a671f	0.150784
157	0xbcdefb42	-0.027219418
158	0x3e285015	0.16436799
159	0x3e16ac5f	0.14714192
160	0x3da6b5d1	0.081401475
161	0x3e3d4fbe	0.1848745
162	0x3acfc408	0.0015851269
163	0xbdab107a	-0.08352752
164	0xbe712e4c	-0.23552817
165	0x3de08008	0.1096192
166	0x3d8358dc	0.06413433
167	0xbcc25945	-0.023724208
168	0xbdc2d53f	-0.0951333
169	0xbd9df314	-0.07712379
170	0xbe09ff2e	-0.1347625
171	0x3e4e9246	0.20172986
172	0xbd96a232	-0.07355155
173	0xbd89574b	-0.06706103
174	0xbe62a5e8	-0.221336
175	0x3e0a4abe	0.13505074
176	0xbe14cfb8	-0.14532363
177	0xbc90c4a2	-0.017671887
178	0xbce698f9	-0.028149115
179	0x3d3f9db4	0.046781257
180	0xbe02c9e7	-0.12772332
181	0x3dbdd801	0.09269715
182	0xbe5d9de6	-0.21642265
183	0xbd6384f6	-0.055546723
184	0xbba07e64	-0.0048978794
185	0xbe42eb51	-0.19035079
186	0x3e3f912a	0.1870772
187	0xba37f5bb	-0.00070175127
188	0xbdc31e37	-0.095272474
189	0x3e44bd98	0.1921295
190	0x3ce5ffa7	0.028076006
191	0xbdd3c811	-0.10340894
192	0x3e55a1ad	0.20862456
193	0x3e381e00	0.17980194
194	0x3e04d225	0.12970789
195	0xbdac02ac	-0.08398947
196	0xbc4133f8	-0.0117921755
197	0xbe2d0156	-0.16895041
198	0xbe214e62	-0.15752557
199	0x3c80c9b2	0.015721176
200	0xbdd16b68	-0.10225564
201	0xbcc7f05c	-0.024406604
202	0x3e6b8261	0.22998954
203	0x3e152598	0.14565122
204	0x3e020f06	0.12701043
205	0xbc0cfaf9	-0.008604758
206	0x3dca24f1	0.09870327
207	0x3e200824	0.15628105
208	0xbc5c8971	-0.013460503
209	0x3dde219e	0.10846256
210	0x3df2ba0e	0.11851893
211	0x3e3461c1	0.17615415
212	0xbd049641	-0.032369856
213	0x3e0ee181	0.1395321
214	0xbcbc68fe	-0.022999283
215	0xbe059529	-0.13045181
216	0xbe706bc3	-0.23478608
217	0x3dab9b05	0.08379177
218	0xbc6a1f5f	-0.014289706
219	0xbe489fd0	-0.19592214
220	0x3dc93bc5	0.09825853
221	0x3e1e1334	0.15437013
222	0x3d4bd1f4	0.049760774
223	0xbe16b99c	-0.14719242
224	0xbe0aa59f	-0.13539742
225	0xbe7026f1	-0.23452355
226	0xbe573705	-0.21017082
227	0xb93dc398	-0.00018097309
228	0x3d8209c1	0.06349517
229	0x3e3d6917	0.1849712
230	0x3dc77cd5	0.09740607
231	0xbd9c663f	-0.076366894
232	0x3d830340	0.06397104
233	0xbd1fea2b	-0.03904168
234	0xbe37de9b	-0.17956011
235	0x3df41821	0.11918665
236	0xbe5243eb	-0.20533721
237	0x3c6b109b	0.014347221
238	0x3e629efe	0.22130963
239	0x3df5baaf	0.11998498
240	0xbc222e8f	-0.009898796
241	0xbe330507	-0.17482387
242	0xbd907667	-0.070538335
243	0x3e0ccacc	0.13749236
244	0x3e42c7ae	0.19021484
245	0xbda4b7c7	-0.08042865
246	0x3d1dfa9b	0.038569074
247	0xbd7a0cb2	-0.061047263
248	0x3c93509b	0.017982772
249	0x3d8b533c	0.06802985
250	0xbe36c3c2	-0.17848113
251	0x3dda63ae	0.10663544
252	0x3e06e41c	0.13172954
253	0x3df3fe9e	0.11913799
254	0x3c000845	0.007814472
255	0x3b5c8015	0.0033645679

rnn.bias_ih_l1 f4 [20]
0	0x3e641ac4	0.22275835
1	0xbddd6a51	-0.10811294
2	0xbd015436	-0.03157445
3	0x3d221faa	0.03958098
4	0xbd99f321	-0.07517076
5	0x39679128	0.00022083952
6	0xbd43b546	-0.047780298
7	0x3d73a104	0.05947973
8	0x3d960e89	0.07326991
9	0xbd922b57	-0.07137173
10	0xbe2a5aa3	-0.16636138
11	0x3c62314b	0.013805698
12	0x3dae0df7	0.08498757
13	0x3d8110d6	0.06302039
14	0x3e25db25	0.16196878
15	0xbc87aa19	-0.016560601
16	0xbdbe13a9	-0.092810936
17	0xbe671ef7	-0.22570406
18	0x3e4ab7c6	0.19796667
19	0x3d27b39a	0.040942766

rnn.bias_hh_l1 f4 [20]
0	0x3d61f89f	0.055168744
1	0x3da8232d	0.08209834
2	0x3da416a1	0.080121286
3	0xbe19a1b1	-0.15003087
4	0x3e090fd5	0.13384946
5	0xbdecaacd	-0.11556015
6	0x3d705710	0.05867678
7	0x3c636b68	0.013880588
8	0xbe2965a9	-0.16542687
9	0xbe389f2b	-0.18029468
10	0x3d0deba8	0.034648567
11	0xbe2a1844	-0.16610819
12	0x3e2b1fb7	0.16711317
13	0x3d229c92	0.0397001
14	0x3d382b28	0.044963032
15	0xbd2ec7d8	-0.042671055
16	0x3dd95d64	0.10613516
17	0xbd728043	-0.05920435
18	0x3e21326f	0.15741895
19	0x3ca55f1a	0.02018695

rnn.weight_ih_l2 f4 [20, 20]
0	0xbd48b13c	-0.04899715
1	0x3ca9f1d5	0.020745197
2	0xbe1aa80a	-0.15103164
3	0x3bf4e8ee	0.0074740564
4	0xbe4def71	-0.20110871
5	0x3e2ccf66	0.16875991
6	0xbe6a37fa	-0.22872916
7	0x3cd609aa	0.026127655
8	0xbe4869b2	-0.1957157
9	0xbe460a1a	-0.19339791
10	0xbe0adc91	-0.13560702
11	0x3e7e7864	0.24850613
12	0x3d7aa2ef	0.06119054
13	0x3e013368	0.12617266
14	0xbd04af7b	-0.032393914
15	0x3d6871da	0.056749202
16	0x3dc0b62e	0.09409748
17	0x3e1e67e9	0.15469326
18	0x3e2729d6	0.16324553
19	0xbdb2fe36	-0.08739893
20	0x3d7f9939	0.062401984
21	0x3e1ecdeb	0.15508239
22	0x3e0518e5	0.12997778
23	0x3e1df579	0.15425672
24	0xbb3130b3	-0.0027037084
25	0x3daafe4a	0.08349283
26	0x3e49b586	0.19698152
27	0xbdfe24bb	-0.124093495
28	0x3e1fceb4	0.15606195
29	0x3e2ec9ad	0.1706912
30	0x3da51dc3	0.08062317
31	0xbe2d67f6	-0.16934189
32	0x3e3a3c34	0.18187028
33	0xbe447f18	-0.19189107
34	0xbd8bc38a	-0.068244055
35	0xbe0dc3e1	-0.13844253
36	0xbdbe24c8	-0.09284359
37	0xbe6c6f41	-0.23089315
38	0x3e438b13	0.19096021
39	0xbc9af771	-0.018916817
40	0xbdb6a19d	-0.08917544
41	0x3dada97a	0.08479591
42	0x3dd2b6d2	0.102887765
43	0x3da8e6cf	0.08247148
44	0xbd7725c9	-0.06033877
45	0xbdb0aff5	-0.08627311
46	0x3d024de3	0.03181256
47	0x3cb8698d	0.022511268
48	0x3e63a74e	0.2223179
49	0xbd4c543c	-0.04988502
50	0x3e031d2c	0.12804097
51	0xbe4c014d	-0.19922371
52	0x3da26b74	0.07930651
53	0xbe1a1780	-0.15048027
54	0x3caa9b68	0.020826057
55	0x3cc2940c	0.023752235
56	0xbe26e8c3	-0.16299729
57	0xbc9757f6	-0.01847456
58	0x3dff775a	0.124739364
59	0xbe37e920	-0.17960024
60	0xbda3f3c4	-0.08005479
61	0xbd494ad1	-0.049143616
62	0x3e261d74	0.16222173
63	0x3c859e70	0.0163109
64	0xbcc70d78	-0.024298415
65	0xbdb17a26	-0.08665876
66	0x3d686baa	0.0567433
67	0xbd059df8	-0.032621354
68	0xbe5e9027	-0.21734677
69	0x3c229081	0.009922148
70	0x3d137392	0.03599889
71	0xbdb1f389	-0.08689029
72	0x3e4e7aad	0.20163985
73	0x3e5b643f	0.2142496
74	0x3db55530	0.08854139
75	0xbdeaef86	-0.11471467
76	0xbe2f7f78	-0.17138469
77	0xbd2989e6	-0.041391276
78	0xbc9e966d	-0.019358838
79	0x3e3deb00	0.18546677
80	0xbe608366	-0.21925125
81	0x3e4e8257	0.20166908
82	0x3e7ebd16	0.24876818
83	0xbe44b69c	-0.19210285
84	0x3db15e10	0.08660519
85	0xbe206a88	-0.15665638
86	0xbe83e043	-0.25757036
87	0xbd35b4d4	-0.044361904
88	0xbd7d797a	-0.061883427
89	0xbdaf57b2	-0.085616484
90	0xbb9f3b76	-0.004859383
91	0xbcc7bc25	-0.024381706
92	0x3e1e5b45	0.15464504
93	0xbc2ae9ea	-0.010431746
94	0xbe7dc38f	-0.24781631
95	0xbe303708	-0.17208493
96	0x3df5fc4d	0.12011013
97	0x3e2835fa	0.1642684
98	0x3e129e61	0.1431823
99	0xbdfe4858	-0.12416142
100	0x3e20ff9b	0.15722506
101	0x3c4bcee9	0.012439468
102	0x3dfa1e96	0.12212865
103	0x3e2e5c55	0.1702741
104	0xbe310f4b	-0.1729099
105	0xbe2448bc	-0.16043371
106	0xbdf1141a	-0.11771412
107	0xbe191aa2	-0.14951566
108	0xbe7edca4	-0.24888855
109	0x3e3256e3	0.17415957
110	0x3e0409a7	0.12894307
111	0x3cd4c411	0.025972398
112	0x3e3007b5	0.1719044
113	0x3da4ca80	0.08046436
114	0xbe20e372	-0.15711764
115	0xbda3b52b	-0.079935394
116	0x3d7a2a13	0.06107528
117	0x3e36a9b5	0.17838176
118	0xbe22a19b	-0.1588196
119	0x3ce81653	0.028330958
120	0xbd475048	-0.048660547
121	0x3cb66412	0.022264514
122	0x3dcbd8e1	0.09953476
123	0x3e2f644c	0.17128104
124	0x3e4655f2	0.19368723
125	0x3e749bdf	0.23887585
126	0xbd07b07e	-0.0331273
127	0x3b48a0fb	0.003061353
128	0xbd3a5c60	-0.045498252
129	0x3e1d51f0	0.15363288
130	0x3e5f455d	0.21803804
131	0xbdc08e90	-0.09402192
132	0x3d53145f	0.0515331
133	0xbd0e0034	-0.034668162
134	0x3d94306c	0.07235798
135	0x3e20cc9f	0.15703057
136	0x3d5140ea	0.051087297
137	0xbde3e45b	-0.1112754
138	0x3e4749c7	0.19461738
139	0xbe78d761	-0.2430091
140	0xbe2b675a	-0.16738644
141	0xbd5d507f	-0.054031845
142	0x3cb3cd06	0.021948349
143	0xbd78f299	-0.060778234
144	0xbd408d7d	-0.047009934
145	0x3d98de6c	0.074642986
146	0x3e0060dc	0.12536949
147	0xbd853100	-0.06503487
148	0x3dfb27f4	0.1226348
149	0xbd9d9b1d	-0.07695601
150	0x3d7d4095	0.06182917
151	0x3c8e9c8c	0.017408632
152	0xbe263f71	-0.16235138
153	0x3e32ff50	0.17480206
154	0x3e30182f	0.17196725
155	0xbe6c97b2	-0.23104742
156	0x3e3d298f	0.18472885
157	0x3da0fa8a	0.078602865
158	0xbe0811bd	-0.13288017
159	0xbe02051b	-0.1269726
160	0x3e5d0c4a	0.21586719
161	0x3e546a0e	0.20743582
162	0x3c916f44	0.01775325
163	0xbd87f170	-0.066378474
164	0xbdef9653	-0.11698594
165	0x3ddeca9e	0.1087849
166	0x3db74a49	0.08949716
167	0x3cd255eb	0.025675735
168	0x3c62798d	0.013822925
169	0xbd985327	-0.07437735
170	0x3cc92277	0.024552567
171	0x3b53a658	0.0032295194
172	0x3d5e8cfa	0.054333664
173	0x3e5b5198	0.21417844
174	0x3e3e7207	0.18598185
175	0xbc97f635	-0.018550018
176	0x3da39feb	0.07989486
177	0x3dad54cb	0.084634386
178	0xbe639cfa	-0.2222785
179	0xbd64870d	-0.055792857
180	0xbd80399e	-0.062609896
181	0x3db8c73d	0.09022377
182	0xbe30c466	-0.1726242
183	0x3e311d33	0.17296295
184	0xbe455ab0	-0.19272876
185	0x3e251f40	0.16125202
186	0xbd0c0c43	-0.03419138
187	0x3d03f03a	0.03221152
188	0xbdafa2ed	-0.085759975
189	0xbe3a9683	-0.18221478
190	0x3ccf03e1	0.025270404
191	0x3e71e480	0.23622322
192	0x3d421267	0.04738083
193	0xbdf3cb54	-0.11904016
194	0xbd4a2a13	-0.04935653
195	0xbb838c7a	-0.004014549
196	0x3e16a526	0.14711437
197	0x3c85ae31	0.016318412
198	0x3e4b0126	0.19824657
199	0x3c10e7e9	0.008844354
200	0x3e12cf1f	0.14336823
201	0x3cbaa19e	0.022782143
202	0x3d4ce5fb	0.050024014
203	0x3da4d68a	0.080487326
204	0x3da0c467	0.07849961
205	0x3e3196b4	0.17342645
206	0x3d59cad2	0.05317194
207	0x3d465b39	0.04842684
208	0xbe6f64a8	-0.23378241
209	0x3e305039	0.17218103
210	0xbe1c6dda	-0.1527628
211	0xbe409a87	-0.18808948
212	0x3d369b54	0.044581726
213	0xbe14e11c	-0.14538997
214	0x3d029a9d	0.031885732
215	0x3dc4229b	0.09576913
216	0x3e6c9670	0.23104262
217	0xbe5f54b3	-0.21809654
218	0xbd82a0f7	-0.06378358
219	0xbe2b7214	-0.16742736
220	0x3d984e72	0.07436837
221	0x3e7eccce	0.24882814
222	0xbe2e4888	-0.17019856
223	0xbdaf3455	-0.085549034
224	0xbd1f9126	-0.038956784
225	0xbda28911	-0.079362996
226	0xbe3eed6b	-0.18645255
227	0xbe8367bd	-0.25665084
228	0x3e33e645	0.1756831
229	0x3e32ada5	0.17449053
230	0x3de33f30	0.110960364
231	0xbe21bcfb	-0.15794747
232	0xbd33a071	-0.04385418
233	0xbc72ba03	-0.014814856
234	0xbe13e29b	-0.14441912
235	0x3d93451e	0.071909174
236	0x3db3128f	0.08743774
237	0x3d761798	0.060081095
238	0xbd801a03	-0.06254961
239	0x3e2acb37	0.16679083
240	0xbbcc80a4	-0.006240921
241	0xbe231251	-0.15924956
242	0xbd2f7d15	-0.042843897
243	0x3e356347	0.17713653
244	0x3dd0967c	0.101849526
245	0xbdba3af3	-0.09093275
246	0xbd91106c	-0.0708321
247	0xbd9e83a4	-0.07739952
248	0x3e38d131	0.1804855
249	0x3e3ef37a	0.18647566
250	0xbe1c89b1	-0.152869
251	0x3e1b6402	0.15174869
252	0xbd7a29fc	-0.061075196
253	0x3b4cf9fe	0.0031276937
254	0xbe653809	-0.22384657
255	0x3d8927a4	0.06697014

rnn.weight_hh_l2 f4 [20, 20]
0	0xbe1640d8	-0.14673173
1	0x3e7b0d60	0.24516821
2	0x3d853237	0.06503718
3	0xbe7d65e8	-0.24745905
4	0xbdfb76d3	-0.12278523
5	0x3d8267e7	0.06367474
6	0x3cfcc963	0.030857747
7	0xbd9c153c	-0.07621238
8	0xbd999f97	-0.075011425
9	0x3de399b9	0.11113305
10	0xbd96e2cf	-0.07367479
11	0xbe1c7c2c	-0.15281743
12	0xbd707f76	-0.058715306
13	0xbe154e61	-0.1458068
14	0xbade690e	-0.0016968565
15	0xbcff16b9	-0.031138765
16	0xbe3893d8	-0.18025148
17	0x3b0d120f	0.0021525656
18	0xbd72387c	-0.0591359
19	0x3d7c1901	0.061547283
20	0x3d126e37	0.03574964
21	0xbe557a8a	-0.20847526
22	0x3cdf6248	0.027268544
23	0xbc5bc583	-0.01341379
24	0x3e18e582	0.149313
25	0x3e3f350d	0.18672581
26	0xbe41db85	-0.18931396
27	0xbdb0f5fd	-0.086406685
28	0x3d9fd816	0.07804887
29	0x3e49d75c	0.1971106
30	0x3e17dad2	0.14829567
31	0xbde9582c	-0.113937706
32	0xbe2ddd1e	-0.16978881
33	0xbc33d80d	-0.0109768035
34	0xbe397b4a	-0.18113437
35	0x3e45ad0c	0.19304293
36	0x3e360a2a	0.17777315
37	0x3e4dd8e2	0.20102265
38	0xbb341692	-0.0027479273
39	0xbaf61885	-0.0018775618
40	0x3caf1f18	0.021377131
41	0xbe646888	-0.223055
42	0x3e901a9e	0.28145307
43	0x3e53f8eb	0.20700423
44	0xbe2096d4	-0.15682536
45	0xbe7ae417	-0.24501072
46	0x3dfee4d7	0.124459915
47	0x3e7be806	0.24600229
48	0xbc98a990	-0.018635541
49	0xbdd35cff	-0.10320472
50	0x3e3afc68	0.18260348
51	0x3de8a0bf	0.11358785
52	0xbe2836c4	-0.16427141
53	0x3dc1ca81	0.09462453
54	0xbe333c4a	-0.17503467
55	0xbbfd25d9	-0.007725459
56	0xbe6613f5	-0.2246855
57	0xbe560082	-0.20898631
58	0x3e568c99	0.20952071
59	0xbd99110a	-0.07473953
60	0x3b88b893	0.0041723936
61	0x3da38aee	0.07985483
62	0x3de02d38	0.10946125
63	0xbd823ce7	-0.063592725
64	0x3d1aee67	0.037825014
65	0x3e1829d5	0.14859708
66	0x3d9e5e41	0.07732821
67	0x3e51c2a8	0.20484412
68	0x3e31fd7f	0.17381857
69	0x3e3ece5f	0.18633412
70	0x3e31eeea	0.17376295
71	0xbde68650	-0.11256087
72	0xbd4705ea	-0.048589624
73	0x3e5defec	0.21673554
74	0xbd6bcf0f	-0.057570513
75	0xbe314553	-0.17311601
76	0x3c7025a0	0.014657408
77	0x3dcae752	0.09907402
78	0xbd91b16d	-0.071139194
79	0x3e71d7f2	0.23617533
80	0x3d2d9a6c	0.042383596
81	0xbd1fd416	-0.03902062
82	0x3cde38dd	0.027126724
83	0xbe816ee3	-0.25279912
84	0x3d89a2ed	0.06720529
85	0x3da87833	0.08226051
86	0x3c80561b	0.015666058
87	0xbe35c4b7	-0.17750822
88	0xbbfcac65	-0.0077109807
89	0xbd2292a5	-0.039690632
90	0xbd5a3ebe	-0.053282492
91	0xbd70e62c	-0.05881326
92	0xbc77bad3	-0.015120226
93	0xbe0d63af	-0.13807558
94	0xbdab96dd	-0.08378384
95	0x3e72fdca	0.23729625
96	0xbd2c95bc	-0.042134985
97	0xbd13ff89	-0.03613237
98	0xb9b05183	-0.00033630067
99	0xbe17b92e	-0.14816734
100	0x3dc70f61	0.0971973
101	0xbb92815d	-0.0044709877
102	0xbd098b78	-0.033580273
103	0xbc2801f2	-0.01025437
104	0xbe2e93de	-0.17048594
105	0xbdedd9a6	-0.11613779
106	0x3d5e775a	0.05431304
107	0x3dfd8ac7	0.12379985
108	0x3e77622a	0.2415854
109	0x3db448f9	0.08802981
110	0xbcbab4c8	-0.022791281
111	0x3df9207c	0.12164399
112	0xbe4ca441	-0.19984533
113	0xbb71dc6d	-0.0036905066
114	0xbd32bdc7	-0.043638017
115	0x3d06d2ea	0.032915987
116	0x3d2fded1	0.042937104
117	0x3de11ca2	0.109917894
118	0x3db0919b	0.08621522
119	0xbd818a67	-0.06325226
120	0xbdbcdb8d	-0.092215635
121	0x3cb10168	0.021607116
122	0x3df40420	0.11914849
123	0x3d7d7bcd	0.061885644
124	0x3e023567	0.12715684
125	0xbdecb237	-0.11557429
126	0x3e07dfb2	0.13268927
127	0x3e657312	0.22407177
128	0xbde582b1	-0.11206568
129	0x3e0cb4ab	0.13740794
130	0x3d58df6c	0.052947447
131	0x3e31a799	0.1734909
132	0x3c955892	0.01823071
133	0x3c55b57e	0.013043759
134	0xbdfef81f	-0.12449669
135	0x3d9b1130	0.07571638
136	0xbdde2e7a	-0.108487085
137	0x3e0fc7f8	0.14041126
138	0x3e09ce74	0.13457662
139	0x3e850a82	0.2598458
140	0x3e208b1b	0.15678065
141	0xbe4390a8	-0.1909815
142	0x3e30fb4f	0.17283367
143	0x3e687e61	0.2270446
144	0x3db4fc20	0.088371515
145	0xbda4d221	-0.080478914
146	0x3e3ec13f	0.18628405
147	0x3cedbe7c	0.029021494
148	0xbe0b2d89	-0.13591589
149	0x3d1d6213	0.03842361
150	0x3dc28397	0.09497755
151	0x3e10c134	0.14136201
152	0xbdfcf662	-0.12351681
153	0x3e0dc296	0.1384376
154	0xbe10a29c	-0.1412453
155	0xbe006fba	-0.1254262
156	0xbe40a725	-0.1881376
157	0xbc4df41d	-0.012570408
158	0xbe6c8af5	-0.23099883
159	0xbddc4993	-0.10756221
160	0xbd76fa97	-0.060297575
161	0xbdc499b3	-0.09599628
162	0xbe65003f	-0.22363375
163	0x3db15b4e	0.08659993
164	0x3ca2c501	0.01986933
165	0xbe1747be	-0.14773461
166	0x3e337938	0.1752671
167	0x3c56d5df	0.013112514
168	0x3dba9ada	0.09111567
169	0x3e1b5ea4	0.15172821
170	0x3e0e1818	0.13876379
171	0x3e5cc130	0.2155807
172	0xbe009f76	-0.1256083
173	0xbe435570	-0.1907556
174	0xbdcfe397	-0.10150831
175	0x3e54e4cc	0.20790404
176	0x3db1182a	0.08647187
177	0xbd2456b6	-0.040121756
178	0xbe61ea85	-0.22062118
179	0xbdb9e7a1	-0.09077383
180	0x3e4e6fd9	0.20159854
181	0xbd2ebe71	-0.042662088
182	0xbdc9275e	-0.09821962
183	0xbde5e17c	-0.11224648
184	0x3e3d049f	0.18458794
185	0x3e4c8b91	0.19975115
186	0xbe8d98c4	-0.27655613
187	0xbe70a090	-0.2349875
188	0x3daacfa9	0.08340389
189	0x3e306dc2	0.1722937
190	0x3df87cba	0.12133165
191	0xbe0e9863	-0.13925318
192	0x3e03ffb4	0.12890512
193	0x3e1e87bc	0.15481466
194	0x3dc8a188	0.09796435
195	0x3e2d95c2	0.1695166
196	0x3d869fb9	0.065734334
197	0x3e0f9e69	0.14025272
198	0x3d2144c4	0.03937222
199	0x3e1fd1ac	0.15607327
200	0xbd8e8789	-0.06959445
201	0x3e251188	0.16119969
202	0x3daf18b9	0.08549637
203	0xbe3493d4	-0.17634517
204	0x3dd1c1a0	0.10242009
205	0xbe025759	-0.12728633
206	0x3e1f770b	0.15572755
207	0x3da3f19a	0.08005066
208	0xbe692cce	-0.22770998
209	0xbd3b3af0	-0.045710504
210	0x3e1051c4	0.14093691
211	0x3e083c4c	0.13304251
212	0xbe210620	-0.15724993
213	0x3dc58ac4	0.09645608
214	0xbe26307b	-0.16229431
215	0x3d6ae39f	0.057345983
216	0x3d43dd43	0.047818433
217	0xbd626530	-0.05527228
218	0x3e84c490	0.25931215
219	0xbb79b15c	-0.00381001
220	0xbdd9523a	-0.106113866
221	0x3e4fc8ff	0.20291518
222	0x3cd745cc	0.026278399
223	0xbd948308	-0.07251555
224	0x3e4d9ed8	0.20080125
225	0x3ab4749c	0.0013767662
226	0xbe7aec00	-0.2450409
227	0x3e1f4ade	0.15555903
228	0x3e0eeb94	0.13957053
229	0xbda5e474	-0.081002146
230	0x3e169f49	0.147092
231	0x3dcfdfaf	0.10150086
232	0xbb32290a	-0.0027185106
233	0x3e192ff7	0.14959703
234	0x3dc9783a	0.098373845
235	0x3e07a763	0.13247447
236	0x3e0d2fcf	0.13787769
237	0x3e159c0d	0.1461031
238	0xbda65ea5	-0.08123521
239	0xbc9958d6	-0.018719118
240	0xbdcc77d2	-0.099837914
241	0x3e15998e	0.14609358
242	0x3d81a764	0.06330755
243	0xbe2383dc	-0.15968269
244	0xbe0c25fd	-0.13686366
245	0xbd825681	-0.063641556
246	0x3da7e08c	0.08197126
247	0xbe53f848	-0.2070018
248	0x3dc4b3ae	0.09604584
249	0x3db166b4	0.08662167
250	0xbe0b4fcc	-0.13604659
251	0xbe1b78e0	-0.15182829
252	0x3e5f557c	0.21809953
253	0xbd82c5f8	-0.06385416
254	0xbe043de3	-0.12914233
255	0x3e5cb9ff	0.21555327

rnn.bias_ih_l2 f4 [20]
0	0xbcd9fde0	-0.026610315
1	0x3e352c83	0.17692761
2	0xbdb8b2bf	-0.09018468
3	0xbe135eb2	-0.14391592
4	0x3e5af79c	0.21383518
5	0xbd93b3f4	-0.07212058
6	0x3caa7225	0.020806381
7	0xbe459aa5	-0.19297273
8	0xbe0261da	-0.1273264
9	0x3da86b66	0.082236096
10	0xbe4348f3	-0.19070797
11	0x3d970b65	0.0737522
12	0x3d646dc0	0.05576873
13	0x3e4021fc	0.18762964
14	0x3c86d386	0.016458284
15	0x3e5b5636	0.21419606
16	0x3e2761cb	0.16345899
17	0x3d834192	0.06408991
18	0xbe2cfd71	-0.16893555
19	0x3e5a7094	0.21332008

rnn.bias_hh_l2 f4 [20]
0	0xbe074dec	-0.13213319
1	0x3b2071cb	0.0024481888
2	0xbd05ec21	-0.032695893
3	0xbde0ae59	-0.10970754
4	0xbdfeab69	-0.12435038
5	0xbd914aff	-0.070943825
6	0x3c193c77	0.009352795
7	0x3bdc806a	0.0067291753
8	0xbe4ebba5	-0.20188768
9	0x3e0115c2	0.12605956
10	0x3d1bb186	0.038011096
11	0xbccda983	-0.025105244
12	0xbe0658f0	-0.13119864
13	0x3e2a03be	0.1660299
14	0xbe1dbdbf	-0.15404414
15	0x3dba5c37	0.0909962
16	0x3e634533	0.22194366
17	0x3dbffccd	0.0937439
18	0xbe549c3e	-0.20762727
19	0x3e14c91c	0.14529842

linear.weight f4 [1, 20]
0	0xbd09ea1e	-0.033670537
1	0x3d6a9134	0.057267383
2	0xbd7b5a2e	-0.0613653
3	0x3e31136a	0.17292562
4	0xbe79cee8	-0.24395335
5	0x3df46c13	0.11934676
6	0x3e384912	0.17996624
7	0x3ddd6e19	0.10812015
8	0x3b93f86f	0.0045156996
9	0xbd9fd5d0	-0.078044534
10	0x3e54c042	0.20776466
11	0xbe5f30fd	-0.21796031
12	0xbddfa7c3	-0.1092067
13	0x3cad36e4	0.021144338
14	0x3d95da05	0.073169746
15	0xbe4aa168	-0.19788134
16	0xbd99ba69	-0.07506258
17	0xbe71a54e	-0.23598215
18	0x3df07b04	0.11742213
19	0x3e686281	0.22693826
