Time-Series---Forecasting/Results/local/model0.pth (torch, 44621 bytes, 5 tensors)

lstm.weight_ih_l0 f4 [200, 1]
00000000: 16e8 60bd 39a9 68bd c419 163d caf8 783e
00000010: caa8 e3bd a099 223d 28f3 413d 9bca ad3d
00000020: e219 5d3c ce49 02bd 297b 72be 5bc3 c73d
00000030: 0d9d b1bd fd6d b83d b2b7 093d ea3c 2ebd
00000040: 8af0 1dbe 8482 203e 4713 edbd c9a2 a1bc
00000050: d462 92bd e907 ccbc 60ef 973c e946 0ebd
00000060: 1cbb c1bd a0ef c9bd 09b0 2e3e 1dee 1f3e
00000070: 9826 093e 97ea 1f3c ce0d 77be 9681 4bbd
00000080: e440 0cbe 1a01 643d 820d ffbc b39b 20be
00000090: 43cd 59be f2a1 073e 2c52 9a3c 8a67 063e
000000a0: 3b68 eebd ca35 b7bc cf10 8ebe f280 8dbd
000000b0: 78a0 dabd 3e9d 98be 4548 4fbe 5995 943d
000000c0: f18b a7bc 23f7 003d e426 cd3d 26c7 263e
000000d0: 6128 24bd 7237 2b3e 5e59 11be f893 95bc
000000e0: c331 c6bc 245a 253e 7dfa 653d feb9 93bc
000000f0: 91a3 57be 2f14 e1ba cbab 05bd 0556 413e
00000100: f759 8abd a91d 143d 7129 c6bc cc4f 033e
00000110: 9ced bc3d ff49 963d 0773 8a3d d910 3a3d
00000120: c58a 083d ce48 e93c 9241 85bd c3aa 193e
00000130: 1f91 b2bc 053c c83d 2861 2c3d 8bfa b3bd
00000140: cca7 e4bd 1d43 5d3d 1391 f1bd 02df f93c
00000150: 54ea 9ebd f88a 56bc bf0a 46be e319 1e3e
00000160: dd3c 003e eab0 793d 21d7 94be 04c2 f6bc
00000170: 8255 f0bd bac0 553d c43c 6bbd 3e8c 87be
00000180: ae39 1cbd 3047 1ebd 25d1 1f3e cad0 be3c
00000190: e743 d53d f68b 84be 6f6f 583e 637e 2c3e
000001a0: e463 3cbd 9e4c f2bd a71e 11be a9dc 483e
000001b0: 0c1b 383e 6f98 11be 547c a2be 03a7 1cbe
000001c0: ed01 dc3d b60b a9bd 9e59 e43d 1571 083e
000001d0: dbc6 5a3d ba8a 353e 4a6f 2f3e a5ec 13be
000001e0: caec 3cbe 46e3 50be e90a efbd 8c12 25be
000001f0: 56d3 3c3e d5f7 823e b4f4 28be 7c20 263e
00000200: 9a8d 3b3e dd44 10bb ab44 c9bd 7ba5 e8bd
00000210: 7b28 f53d d7d9 a5bd a409 803e 57c1 78be
00000220: 77b2 69be 768a 20be 8349 0d3e 80ea 0dbe
00000230: 2800 30be fb4c 4cbe a4e0 9e3e cc7f e13d
00000240: 5664 b63c 6c6f 6c3e 532a 0bbe da33 0dbe
00000250: b32b 59be 1616 093e 9ba7 ad3c 78a5 b9bd
00000260: 3dc2 1e3e 7cd4 9f3e 49ad 62be 3235 a5bc
00000270: 2b86 c0bd b30c e33d 7f14 1bbe c9df 3a3d
00000280: eb07 38be 72be 7abd f4aa 5fbe ce4b f53c
00000290: 62c6 f4bb 6a62 853b f6cd 7dbe f50a 97bb
000002a0: 9275 fa3c a469 393e c083 063e c1c4 fc3d
000002b0: 2c68 823d 0f8d 96bc e8a9 e6bd cb25 dd3d
000002c0: d693 f4bc 6ec8 743d cf64 253e 8ce8 2c3e
000002d0: 7ea7 36be f7f8 a83d 4376 52be 545e 123e
000002e0: 44fa cfbd e74c 21be 74d8 99bd 212b 963c
000002f0: 03d1 233d 694b 773e 5a12 1dbe a072 3bbe
00000300: 663a 97be 7bff 763d aa43 1bbe 1c4b 8fbe
00000310: 5096 b1bd 8484 eb3c 79fc b13d fb05 9b3c
-0.054908834 -0.05680201 0.036645666 0.24313655 -0.11116178 0.03969729 0.047351032 0.084859096
0.0134949405 -0.031808667 -0.23679794 0.09754058 -0.08672533 0.090053536 0.03362245 -0.04253856
-0.1542379 0.15674788 -0.115759425 -0.019730942 -0.07147756 -0.024906116 0.01854676 -0.034735594
-0.094595164 -0.09860158 0.1705934 0.15618177 0.13393629 0.00976052 -0.2412636 -0.04968413
-0.13696629 0.055665113 -0.03113437 -0.15684395 -0.21269707 0.13245371 0.01883801 0.13125435
-0.11640974 -0.022364516 -0.277472 -0.0690936 -0.10675138 -0.29807466 -0.20242412 0.07255048
-0.020452471 0.031485688 0.100171834 0.16286907 -0.04007757 0.1672037 -0.14194247 -0.018259034
-0.02419365 0.16147667 0.056147087 -0.018033024 -0.2105849 -0.0017172153 -0.032634538 0.1888047
-0.06755441 0.0361611 -0.024189683 0.12823409 0.09225008 0.073383324 0.06760221 0.045426223
0.033335466 0.028477099 -0.06506647 0.15006547 -0.021797715 0.09777073 0.042084843 -0.08788022
-0.11164817 0.054019082 -0.11795249 0.030501846 -0.07759538 -0.013094656 -0.19340037 0.15439562
0.12523217 0.060959734 -0.2907038 -0.03012181 -0.11735059 0.05218575 -0.057430997 -0.26474184
-0.038140945 -0.03864211 0.15607126 0.023292918 0.10413342 -0.25888032 0.21136259 0.16845088
-0.0459937 -0.1183102 -0.14171849 0.19615425 0.17979068 -0.14218305 -0.3173548 -0.15298085
0.10742555 -0.08254187 0.111499056 0.13324387 0.0534123 0.17728701 0.17132297 -0.14445741
-0.18449703 -0.20399198 -0.11672003 -0.16120356 0.18439993 0.25579706 -0.16499597 0.1622333
0.18315735 -0.0022013702 -0.098275505 -0.11359688 0.11970612 -0.0809819 0.25007355 -0.24292503
-0.22821985 -0.15677819 0.13797574 -0.13858986 -0.1718756 -0.1995124 0.31030762 0.110107034
0.02226464 0.23089379 -0.13590364 -0.13789311 -0.21208076 0.13387331 0.021198085 -0.09064764
0.15503784 0.312168 -0.22136416 -0.020166967 -0.094005905 0.110864066 -0.15144537 0.045623574
-0.1797177 -0.06121678 -0.21842557 0.029943373 -0.007469938 0.0040705698 -0.24785599 -0.0046094605
0.03057364 0.18106705 0.13136196 0.12342215 0.063675255 -0.018377809 -0.11262876 0.10798224
-0.02985565 0.059761457 0.16151737 0.16885585 -0.1783733 0.08250611 -0.20552926 0.14293796
-0.10155156 -0.15751992 -0.07511988 0.018331112 0.03999425 0.2414986 -0.15339032 -0.18305445
-0.29536742 0.06030224 -0.1516253 -0.2798699 -0.08671248 0.028749712 0.086907335 0.01892375

lstm.weight_hh_l0 f4 [200, 50]
00000000: 9198 303d c34b d83d 364b 1f3c daee a1bd
00000010: 235f 1a3e 3152 883c 029d 283e edb8 d53c
00000020: e539 003d d4d8 c73d b2d7 b5bb 130f 18be
00000030: df79 ae3c 502e cfbd ad20 ce3d 4645 8b3d
00000040: 74e6 b0bd c6f6 afbd b952 ef3b 721a 03be
00000050: a982 cdbd c73f 71bd 2651 303d 1d80 2ebd
00000060: 47f4 cb3c cfc1 0dbe 559f dabc 0883 193d
00000070: 1f39 bf3d 15a6 033e 96c6 473d 5bfe f53c
00000080: 18ea bcbd 2c73 b9bd 2722 8f3d 79b6 cabd
00000090: 43cb bd3d 8bd2 1d3d eba7 0abc 1d74 e2bd
000000a0: 65f1 b03b 1d9e ea3d 1a1a 20be 7348 493d
000000b0: 700d b93c 4f90 f8bd 5fa7 9e3d 6799 773d
000000c0: cc3a 8e3d 6d5d 97bd fd23 cf3d bb4f 33ba
000000d0: b492 9b3c b476 7e3c a7da 863d 9e06 9a3d
000000e0: fd40 323e 5cbf 253e 4083 3dbe ecdf 973d
000000f0: a066 393e 7305 b43c 8c1b 61be 8322 e6bd
00000100: 7f73 093e 13c3 cb3d 196a 63be 484f 823d
00000110: c3bb 6f3d a241 eebc 410e a1bb 3bdf 7fbd
00000120: 52e6 19be d526 07be b287 8cbd 4f05 f23d
00000130: 2472 2fbe 0445 613d ea96 843c 61f0 1c3e
00000140: 47f3 893d ea4f d6bb 7316 6fbe 4b3b acbd
00000150: 9d21 7e3d b44d 663e e259 803e eae3 3abe
00000160: 3d81 dfbd 5a80 7bbe ad8b 323e 1bc4 263e
00000170: 66f3 d8bd 57f2 213e c85d 7d3d c0f5 98be
00000180: db07 dd3d 316c 5cbe 69f3 9ebd 0ca0 603d
00000190: a9c6 0ebe 8367 07bc 0f2c a03d 4670 c83d
000001a0: 40a7 ba3d add4 b93d c9f9 0fbd f177 84bd
000001b0: 1997 2ebd 896a 94bd 73a9 893c 0ded d53d
000001c0: 660c 16bd c3e4 5f3d b864 44bd 24ca 7f3d
000001d0: 80ea 2ebc 2c40 953c f3da d63d 1130 b53d
000001e0: 83dd 833d 7332 763d 1351 c53d 5752 433d
000001f0: d4a8 cb3d 9b67 bfbc bbc1 453d 1d32 a73d
00000200: a8a1 e13c f550 b6bd 6d7e 69bc 7956 a13c
00000210: a559 52bd 94f9 98bd 19e8 26be 7834 733d
00000220: 6a63 053e ff1b 8dbc b8f1 7cbb 6212 9bbb
00000230: e371 593d 53b4 6e3e 5042 56bd fc23 d2bd
00000240: d1f4 3a3d 2a87 a3bd e249 853d 26fa 11be
00000250: b79e bcbd 17f1 b3bc 16c8 0bbe 52ab d33d
00000260: c9a7 463c 25c5 033e 4525 4e3e cc27 4bbd
00000270: 5a70 673e 2b91 523c 39f9 8dbd 3ce1 edbc
00000280: d5c7 fd3d 08f9 0ebc 8c51 8cbe 9fab bdbd
00000290: f8a1 9c3b df01 94bc e0db a0be a2b4 bbbd
000002a0: d643 573e 683c 18bc b03c ad3d 6397 dfbd
000002b0: 1b92 16be 1b1e 813d ad30 41bd 5b18 9c3c
000002c0: 0f47 2bbe 59aa 073d e51f 223e e801 1fbd
000002d0: ac6c df3d e876 09bd 9b96 88be 0e85 203d
000002e0: d438 aabd 6958 1d3d 90d6 053e 844d a0bd
000002f0: 27b1 5cbc d9c6 e3bd fbee 4f3e f0ce a43e
00000300: 484b 3bbe 1022 d9bb 9eb3 5f3e 238f 34be
00000310: bddf b93d a6b5 353d b11d 06be 9aa0 003c
00000320: fb96 e9bd 74c3 243d 654d f0bb fc6b 4d3e
00000330: 2a78 96bc db8c 5fbb a43f 8dbd a8d1 273d
00000340: 5bf7 88bd c749 e93d 59ec aa3d 1bfb 7dbd
00000350: 302e 33bd 2ebd 1e3b 69c6 df3d 9cce 2c3d
00000360: 2df4 bc3d 25fc 8c3d 07c8 92bb 44a8 923d
00000370: 6248 e23d b375 71bb 0d5d a9bd c631 043e
00000380: 61ac dd3d 544a c0bd d2a5 bbbd bbf6 f13d
00000390: 014a d5bd 6c46 e4bc f330 c83c 595e 643d
000003a0: 6b86 afbd ad2a ebbd 7124 833d b214 1c3e
000003b0: 804d 96bd 6b9f bfbc 1ead 43bd 09fd 77bd
000003c0: 4451 9dbd e889 bd3d f437 623c c6d1 333e
000003d0: 742a bf3d 7a0b cb3d 23bd 82bc 1dd1 d73d
000003e0: 2222 28be cfae 083d 63c7 ba3d b3d7 fdbd
000003f0: 1a71 8fbd 95a9 91bd eb91 023d 0c7c 3cba
0.04311425 0.105613254 0.0097225215 -0.079068854 0.15075354 0.016640754 0.16466144 0.026089156
0.031305213 0.097581536 -0.0055493945 -0.148495 0.021298347 -0.10116255 0.10064826 0.06800322
-0.086377054 -0.0859199 0.0073035625 -0.12803057 -0.10034687 -0.058898713 0.04304614 -0.042602647
0.024896754 -0.13843463 -0.026687304 0.037478477 0.09337067 0.12856324 0.04877337 0.030028513
-0.09224337 -0.090551704 0.06988936 -0.09898085 0.09267285 0.038530868 -0.008462886 -0.11057303
0.00539987 0.11455939 -0.15634957 0.04914136 0.022589415 -0.121369 0.07746767 0.06044903
0.06944808 -0.073908664 0.10114286 -0.0006840189 0.018990852 0.015531231 0.065846734 0.075207934
0.17407604 0.16186279 -0.18507099 0.074157566 0.18105555 0.021975255 -0.21983165 -0.11237051
0.13422965 0.09949317 -0.22208442 0.06362778 0.058528673 -0.02908403 -0.0049150293 -0.06246875
-0.15029266 -0.13198407 -0.06861819 0.11817419 -0.17133385 0.05499746 0.016185243 0.15326072
0.067358546 -0.006540288 -0.23348407 -0.08409747 0.062043775 0.22490579 0.25068575 -0.18251005
-0.10913322 -0.24560681 0.17436095 0.16285746 -0.105932996 0.15815102 0.061857015 -0.29874992
0.10792514 -0.21525647 -0.077612706 0.054840133 -0.1394297 -0.008264425 0.078209035 0.097870395
0.09113932 0.09073768 -0.035150323 -0.064681895 -0.042624567 -0.072468825 0.016804432 0.104456045
-0.036632918 0.054661524 -0.047947615 0.062448636 -0.010676026 0.018219076 0.1049098 0.088470586
0.064387344 0.060106706 0.09634604 0.047685947 0.09944311 -0.023364833 0.04828046 0.08163855
0.027542904 -0.0890216 -0.014251334 0.019694554 -0.051355023 -0.07469478 -0.16299476 0.05937621
0.13026205 -0.017225264 -0.0038596224 -0.004732416 0.053087126 0.23310976 -0.052309334 -0.1026077
0.04564363 -0.07984765 0.06508233 -0.1425558 -0.0920996 -0.021965547 -0.13650545 0.10335411
0.012124964 0.12868173 0.20131405 -0.0495985 0.22601452 0.012851994 -0.06932301 -0.029038064
0.123916306 -0.008726366 -0.27405965 -0.0926125 0.0047800504 -0.018067298 -0.3141775 -0.09165312
0.21021971 -0.009291746 0.08458841 -0.109175466 -0.14704172 0.0630457 -0.04716556 0.019054582
-0.16726325 0.03312144 0.1583248 -0.038820177 0.109093994 -0.033560663 -0.26677403 0.03918939
-0.0831162 0.038414393 0.1307013 -0.07827285 -0.013469971 -0.111219116 0.20306008 0.3218913
-0.18290436 -0.006626375 0.21845862 -0.17632727 0.09075878 0.044362687 -0.13097264 0.00785079
-0.1140575 0.04022546 -0.007333445 0.20060724 -0.018367846 -0.0034111056 -0.06896904 0.04097143
-0.06687804 0.11391025 0.08345861 -0.06200705 -0.04374522 0.0024221647 0.109265156 0.042189226
0.0922626 0.0688403 -0.0044794115 0.07161 0.11048962 -0.0036843836 -0.08269701 0.12909612
0.10823894 -0.09389177 -0.09162487 0.11814638 -0.10414506 -0.027865611 0.024437403 0.05575404
-0.0857056 -0.11482749 0.06403435 0.1524227 -0.07339001 -0.023391446 -0.04777252 -0.060544048
-0.07681516 0.09254819 0.013807286 0.17560491 0.09334269 0.09914298 -0.015959328 0.10537932
-0.1641927 0.033369835 0.09120061 -0.12394657 -0.07003994 -0.07112423 0.03187744 -0.0007190115

lstm.bias_ih_l0 f4 [200]
00000000: 6118 96bc b1a1 493d c035 563e 45e4 033e
00000010: d9a1 cc3d 92dc d03c d9e2 fcba 7774 f13d
00000020: b099 74bd 4542 1ebd beb0 403e 49fc e9bd
00000030: fa06 c13d 23f1 47bb fd48 543c 28f6 64bd
00000040: 7b51 093e de65 203b d29c a13e 9223 bebd
00000050: f1d8 093c d97b 223e b6ae 0bbd acb3 953d
00000060: 061c d43c 7d3a de3c a707 6cbd 99da ddbc
00000070: 60aa 9fbd 213d 1dbd c58a d5bc 541a 743c
00000080: a83d cfbc 5623 693d 379b 70bd 81c9 8ebd
00000090: bc6a 933d 0c59 61bd ca6b a8bd 9eae 8fbd
000000a0: 8e3f 543c 231e 663d e876 503e 24c5 be3d
000000b0: c3f8 71bd 4ad2 e03c 4251 063e a23b 3f3d
000000c0: 4277 4cbd fcb3 67bd 4cfe 2b3d 8a82 993d
000000d0: 2cfa cebb 78a5 2b3c 9b88 0e3e 7c86 babd
000000e0: df47 0e3e a355 d6bc 78b6 ce3b c78d 12bd
000000f0: 4f2f 113e 034a 91bd 897c abbc 9b73 75bd
00000100: 536e 053e 6665 23bd 7a5d d43c 0eda 97bd
00000110: 9885 693d 320c 62bd a989 d5bc c938 fb3d
00000120: e48a f03c 713d aa3d c3f1 8abd ac28 ebbd
00000130: 38fb c9bd cc50 503a fd05 263e 5fb1 d03d
00000140: 169e 173d 722d 92bd 6caa 4cbd ee64 213c
00000150: 0f85 083e 8a00 473d 0002 ccbd 3d43 e23c
00000160: 285c 16bd f9fa 82bd 721e 42bc fec6 48bd
00000170: f314 8b3c e8c1 b6bd b796 05bd 41e9 bd3d
00000180: b7cb 083e f37c 98bd 74f4 bfbd 7842 173e
00000190: 39e5 ebbd be22 b6bd eb7e 6abc 40d2 eb3d
000001a0: 0bec 093e c838 7ebc 0ec7 053e d563 833d
000001b0: feab 98bd c7da b43d 518c 823d 6804 213d
000001c0: e148 71bd a1b1 2a3b 0a74 bdbd c4d8 0f3e
000001d0: be99 24be 5c71 0e3e d307 89bd a37a 8bbd
000001e0: 5a47 a6bc 16b6 ab3d e2ec e4bd 74c0 9d3d
000001f0: 9f5f 19bb 3ad2 0e3d e4b4 fcbc 8248 c73d
00000200: 5ac2 213e 2cf9 073d 11b6 143e 8c3b 323c
00000210: f621 ddbd b9cb 83bd a176 abbd e4d1 0c3e
00000220: 5e63 003e 56b6 b2bd 5bfa af3d a3c9 9abd
00000230: 021a 6e3d 0f99 033e 64e5 abbd 8474 7c3d
00000240: c477 c43d 3ec0 f8bc 612c 503d cb7e b03d
00000250: cd0b 05be 0a76 d6bd bce8 c6bc 109f 663d
00000260: 2510 423e 8db9 103e 56a9 7b3d 3663 f53d
00000270: 0d68 73bd 8e6f 5d3e 31a4 8d3d 2057 49bd
00000280: 3ae1 e83d a507 fb3d 04ea b03c 031a 043e
00000290: d941 8e3d 58a8 ccbd 6277 bcbd a5cf f33c
000002a0: 040a 953e a5bf d63d e402 c93c c1c1 da3b
000002b0: fb6a 65bd f12d d23d e7c4 483e a32d 0d3e
000002c0: 71fb e3bc bf68 af3d 2dab a6bd 42aa 953d
000002d0: d700 a03d 2a63 0f3e 0bed cabd 1ff7 153e
000002e0: 7ee2 91bd 8cd1 c0bd 5a3d 2b3e ff0b 123e
000002f0: 798c b8bd 347e be3d f9b2 123e 9684 8bbd
00000300: b1be 1a3e 5a2f f53d 7de9 2bbc 6566 0e3e
00000310: 73c9 04bd 7a10 193e c536 063e 731b f5bb
-0.018322172 0.049226467 0.20918941 0.12880047 0.099918075 0.025495801 -0.001929368 0.11789792
-0.05971688 -0.03863742 0.18817422 -0.11425073 0.09425159 -0.003050872 0.012956855 -0.055898815
0.13409989 0.002447478 0.31564957 -0.09284128 0.008413539 0.15867557 -0.034102164 0.0730966
0.025892269 0.027127499 -0.057624485 -0.027081775 -0.07796168 -0.038388375 -0.026067147 0.014898855
-0.025297955 0.056918465 -0.058741774 -0.069720276 0.07198092 -0.055016562 -0.08223684 -0.070157275
0.012954606 0.056181084 0.20357859 0.09314945 -0.05907513 0.027444024 0.13116935 0.04668773
-0.04991842 -0.05656813 0.041990563 0.074956015 -0.006316444 0.010476463 0.13919298 -0.09107682
0.13894604 -0.026163882 0.006308373 -0.03577974 0.14178203 -0.07094195 -0.020933406 -0.059924703
0.13030367 -0.039891623 0.02592348 -0.074146375 0.05701217 -0.05518741 -0.026066618 0.1226669
0.029363103 0.083125 -0.06784394 -0.11482367 -0.09862369 0.000794661 0.16213222 0.10190081
0.037015997 -0.07137574 -0.049967214 0.009850724 0.13332008 0.0485845 -0.09961319 0.027619952
-0.03670898 -0.063955255 -0.011848079 -0.0490179 0.016977763 -0.089237034 -0.032614436 0.09273005
0.13358961 -0.07445707 -0.093727976 0.1477145 -0.1151833 -0.08893345 -0.014312486 0.115147114
0.1346895 -0.015516467 0.13064215 0.06415526 -0.0745468 0.08830791 0.063744195 0.039310843
-0.058907393 0.0026045816 -0.09250648 0.14047533 -0.16074273 0.1391043 -0.066909455 -0.068105005
-0.020297695 0.083843395 -0.11177994 0.07702723 -0.0023402942 0.034868456 -0.030847974 0.09730627
0.15796795 0.033196613 0.14522578 0.010878455 -0.10797493 -0.064353414 -0.08372236 0.13751942
0.12537906 -0.08726184 0.085926734 -0.075579904 0.05813027 0.12851356 -0.08393362 0.061634555
0.09593156 -0.030365106 0.050823573 0.08617934 -0.12992783 -0.10471733 -0.024280898 0.056304038
0.18951471 0.14133282 0.06144079 0.119818136 -0.059425402 0.21624586 0.06916083 -0.049155354
0.113710836 0.122573175 0.021595962 0.12900548 0.06946153 -0.099930465 -0.09202458 0.029762099
0.29109204 0.10485772 0.024537511 0.0066759293 -0.056010228 0.10262669 0.19606362 0.1378694
-0.027829858 0.085649006 -0.08138118 0.07307865 0.0781266 0.14002672 -0.099084936 0.1464505
-0.07123278 -0.09414968 0.16722623 0.14262389 -0.09011168 0.09301415 0.14326085 -0.06812398
0.15111805 0.11971922 -0.01049268 0.13906248 -0.03241868 0.14947692 0.1310683 -0.007480079

lstm.bias_hh_l0 f4 [200]
00000000: ea09 153b 341b 053d 1d1f a63c 611d aabb
00000010: d757 163d 8b60 c03d 1700 903d ac7b 1b3e
00000020: eee6 663d 0787 2dbd 0879 cc3c d100 cbbd
00000030: bcf4 bcbd 7855 2d3e 8479 22bd b3c3 cb3d
00000040: a14a d33d c6e6 ae3d 45cc f93d 23a9 ccbd
00000050: fd2d 02bd 192a 43bd 00b3 f53d 0dfe 90bb
00000060: 88a9 ac3d 4eb8 c53d f3f1 b23d c029 473d
00000070: 3833 343d 3869 883d 6b27 b0bd e2db 3c3d
00000080: 6578 61bc c055 d43c ab71 a1bd 0f8a 043e
00000090: 1c6b dd3d e7aa 2e3e 90f4 90bb 3f61 50bd
000000a0: d9b0 a13d f063 133e a65b 2f3e 5c2a afbc
000000b0: fe1b 9dbd f447 893c 002c cbbd 4856 1b3e
000000c0: 67eb a93d 9d48 073e 3af4 a63d 0e9f d7bd
000000d0: 32e8 283e 37a1 433d 028e 4a3e f262 a6bd
000000e0: 357b 463d e41f 223d 395b df3d b9e3 c43d
000000f0: ea34 fc3b eb25 2dbd 9672 ed3d 0b8a 0e3e
00000100: 70dd 91bd f9c6 2d3c 6183 9f3c 1ef6 c53c
00000110: 163c 14be 9fe4 123e 9c57 233d b70c 893d
00000120: d075 c43c 9746 97bd 5497 8a3d f488 bb3d
00000130: 7bd8 be3d ef8e 86bd 096e 38bd 34b4 633d
00000140: 2b97 bcbd 35ee dbbd 6e93 663c bfb4 f7bd
00000150: 6ade 9f3d ba7b f7ba 7f30 913c 07bc 24bd
00000160: 01ac d83d 357f db3d ec5d 5cbc 6a74 6a3d
00000170: b641 0b3e 9f77 1c3d 85ab 123e 2ba4 503d
00000180: 9698 0e3e 756a 57bd 7549 d93c c4ef 2f3e
00000190: c23e 2b3d 9fe4 713d 97cc 9a3c e093 043e
000001a0: 5b8d d4bd 1a9b e5bc a496 083e c68f 51bd
000001b0: 2492 263d 8527 a7bd 5276 bb3d aaf9 04be
000001c0: 6a78 88bd b08a f6bd 1e7f f33d 06b6 71bd
000001d0: e281 66bd 2a89 acbc b004 033e a199 10be
000001e0: 4efb babd 8102 01be cbac 0f3d 1feb 4dbd
000001f0: c3fe fb3d 76c3 4b3d 402c 1ebe fec3 2a3d
00000200: 1f75 82bd c159 303e 92f3 ab3d cc59 b93c
00000210: e560 0dbe 26a3 78bd bf61 dbbd 1f46 093e
00000220: 1e23 103e 7d79 f8bd 788c 0ebe cd15 eabc
00000230: 6033 6b3c e257 213d 7f6c d1bd 6715 ec3c
00000240: 3f1a a7bc 7fa3 0fbe 346d cc3d ec99 d5bd
00000250: 98c9 e9bd a7b7 f73c 2e91 253e 7c23 3e3e
00000260: 0db6 68b9 b0dc c93d 4f76 a23d f5ed 913d
00000270: fff0 aa3c c1f4 5b3e 6a54 183e 18ea 9abc
00000280: 6333 7c3e 6962 033d 1b4a 72bc e2f7 2e3e
00000290: d433 94bc c723 a8bb 649e 123e 42d2 8f3d
000002a0: ce12 893e df6f 973d 9ea7 08bc 0d18 103e
000002b0: 3c0d 4abd f81f c2bc 1aac 743d d6de 34bc
000002c0: 9140 153e bd2f ff3d c28c b2bc 7bfc ce3d
000002d0: 1c13 fb3d 2e0b 013e fda9 e43c a831 c7bc
000002e0: 4c93 d43d ebc4 213d db55 b03d 9caa 003e
000002f0: 075c 8cbd a7f9 c7bc 6403 333e 3d0e ca3c
00000300: 1b0c 7e3d 3a81 9ebc 615d 1fbd 8d63 07bd
00000310: be4e 273e 012e 01bd c696 98bc b923 8c3c
0.0022741505 0.032496646 0.020278508 -0.0051914905 0.036704864 0.09393414 0.07031267 0.15183896
0.056372575 -0.0423651 0.024960056 -0.09912265 -0.09226367 0.16927135 -0.039666668 0.09949436
0.10316969 0.0854011 0.121971644 -0.09993198 -0.03178214 -0.04764757 0.11997032 -0.0044248165
0.08430773 0.09654294 0.087375544 0.0486238 0.04399416 0.06660694 -0.086012684 0.046108134
-0.013761614 0.025919795 -0.078830086 0.1294329 0.10811445 0.17057382 -0.0044236854 -0.05087399
0.07895059 0.14393592 0.17124805 -0.021382503 -0.07671355 0.016757943 -0.09920502 0.15169632
0.082968526 0.13211294 0.08152051 -0.10528384 0.16494825 0.04776117 0.19780734 -0.08124341
0.048457343 0.039581195 0.10906071 0.09613747 0.0076967375 -0.04227249 0.11594121 0.13919847
-0.07122314 0.010606521 0.019471826 0.02416521 -0.14476046 0.14345025 0.039878473 0.06691878
0.023981959 -0.07386511 0.06767145 0.09156981 0.09318634 -0.06570231 -0.045026813 0.055591777
-0.092085205 -0.10738794 0.014073236 -0.120950215 0.07806094 -0.0018881478 0.01772332 -0.04021838
0.10579682 0.10717622 -0.013450127 0.057239927 0.13599285 0.038200017 0.14323242 0.050937813
0.13925394 -0.05259176 0.026524285 0.17181307 0.041807897 0.05905592 0.018896384 0.12947035
-0.10378524 -0.02802806 0.13338715 -0.051162504 0.040666714 -0.081618346 0.09153427 -0.12985864
-0.06663592 -0.12038171 0.1188948 -0.05901148 -0.05627621 -0.021061499 0.12794757 -0.14121105
-0.09129964 -0.12598611 0.035076898 -0.050273057 0.12304451 0.049746953 -0.15446568 0.04169082
-0.06369995 0.17221738 0.08396067 0.022625826 -0.13806494 -0.060702465 -0.10712003 0.13405655
0.14075896 -0.12132547 -0.13920772 -0.028574849 0.0143555105 0.039390452 -0.10225772 0.0288188
-0.020398257 -0.14027213 0.09981766 -0.10429749 -0.11415404 0.03023894 0.16168663 0.18568224
-0.00022193063 0.09856546 0.07932722 0.07125465 0.020866869 0.21480085 0.14875951 -0.018910453
0.24628977 0.032076273 -0.014788176 0.17086747 -0.01809112 -0.005131218 0.14318234 0.07022525
0.2677216 0.073943846 -0.008340744 0.14071675 -0.049329028 -0.023696885 0.05973444 -0.011039456
0.14575411 0.12460277 -0.021795634 0.101067506 0.12259504 0.12601921 0.027913088 -0.02431567
0.10379657 0.039494436 0.08610126 0.12565082 -0.0685349 -0.024411036 0.17481762 0.024664992
0.062023263 -0.01934873 -0.038907412 -0.033053923 0.16338632 -0.031538013 -0.018626582 0.017106878

linear.weight f4 [1, 50]
00000000: 842a 5b3e b795 21be e382 603e 0add 0c3e
00000010: 377f 76bd 5f37 f6bd 55c5 eebc 79d5 7f3e
00000020: cd10 2d3e 3665 31be 9c19 15be ebe0 f6bd
00000030: f3db 303d 4dec 26bd 88da 8d3d 267b 0e3e
00000040: a2fc 823d f41d 383e a9d6 793e 55c2 2ebe
00000050: 3394 50be ef8a 3dbe e2f4 eebd 8377 07be
00000060: c9da 823e cd69 7c3e 2856 cbbd 0ffc 5a3e
00000070: 37a5 ce3d 92ea 303c 005d 17be 2172 8bbd
00000080: 6683 5c3d f45e ecbd 11f9 1a3e 438b 51be
00000090: ce0f b7bd 8b97 13be c57d de3d 80c8 49be
000000a0: 79cb c4bd cf8d 37be d977 dd3d b515 3b3e
000000b0: 03c6 30bd 6ba2 043e 4627 86bd b4ed e6bd
000000c0: 8f66 1ebe 5aae 813d
0.21402937 -0.15779768 0.2192493 0.13756195 -0.060179915 -0.1202228 -0.02914683 0.24983777
0.1690094 -0.17323765 -0.1456055 -0.120546184 0.04317851 -0.040752698 0.06926447 0.13914165
0.06395842 0.17980176 0.24398293 -0.1706632 -0.20369034 -0.1851003 -0.116678014 -0.13229184
0.25557545 0.24649735 -0.099285424 0.21385215 0.10090106 0.010798113 -0.1478157 -0.06808878
0.05383625 -0.11541548 0.15134074 -0.2046328 -0.089385614 -0.14413278 0.108638324 -0.19705391
-0.09609122 -0.1792519 0.10813875 0.1827 -0.04315759 0.12952583 -0.065504596 -0.11275807
-0.1546881 0.06332083
