Time-Series---Forecasting/Results/local/model4.pth (torch, 126541 bytes, 9 tensors)

lstm.weight_ih_l0 f4 [200, 1]
0	0x3d5a038a	0.05322603
1	0x3dd573c5	0.10422472
2	0xbd3549fb	-0.044260006
3	0xbec4b768	-0.38421178
4	0x3d44d7fc	0.04805754
5	0x3dd142f2	0.10217847
6	0x3e039764	0.1285072
7	0xbe905446	-0.28189296
8	0x3d11b1a4	0.035569802
9	0x3c857a1e	0.016293582
10	0x3da1e31a	0.07904644
11	0xbe406526	-0.18788585
12	0xba8f7fbf	-0.0010948105
13	0x3e679490	0.22615266
14	0x3e20ffd6	0.15722594
15	0x3c66951e	0.014073638
16	0x3cae5b7e	0.021283861
17	0xbd0f83c2	-0.035037763
18	0x3d0a7d30	0.033810794
19	0x3e6102f8	0.21973789
20	0xbe6b8910	-0.23001504
21	0x3e1efafe	0.15525433
22	0x3ddb0f9f	0.10696339
23	0xbb0052bb	-0.0019580561
24	0xbbd9e314	-0.0066493843
25	0x3e171b90	0.14756608
26	0xbe33fe58	-0.17577493
27	0xbe5c8e44	-0.21538645
28	0x3ddf058c	0.1088973
29	0xbe8c86a9	-0.27446488
30	0x3e61cbd0	0.22050405
31	0x3d0124f5	0.031529386
32	0xbc7d9535	-0.015477468
33	0x3d1a019a	0.037599184
34	0x3c67ce7b	0.01414835
35	0x3d51803b	0.05114768
36	0x3cfceb2e	0.030873861
37	0xbe1ba63c	-0.15200132
38	0x3cb439c1	0.022000195
39	0x3e6641c7	0.2248603
40	0xbe7f40e7	-0.24927102
41	0xbdd76c87	-0.10518747
42	0xbcf37aae	-0.029721584
43	0x3e168e92	0.14702824
44	0xbd6aad7a	-0.057294346
45	0xbde25d1c	-0.110529155
46	0x3d9a023b	0.07519957
47	0xbdd2d85f	-0.10295176
48	0x3df3a8b5	0.11897413
49	0xbd966ad6	-0.07344596
50	0xbddbc176	-0.10730259
51	0xbdf4772b	-0.11936792
52	0xbe016a19	-0.1263813
53	0xbe92c66f	-0.28667018
54	0x3e407344	0.1879397
55	0xbc3ddc62	-0.011588188
56	0x3d15d207	0.03657725
57	0xbe479058	-0.19488657
58	0x3c9a7f6b	0.018859586
59	0x3b7276f4	0.003699717
60	0x3ca700a6	0.020386051
61	0xbcfbaaea	-0.030721147
62	0xbe21c3d0	-0.15797353
63	0x3e65f5dc	0.22457069
64	0xbdc18235	-0.09448663
65	0xbe2debba	-0.16984454
66	0x3cfe4c96	0.031042378
67	0x3d388a2e	0.045053653
68	0x3dc912c3	0.09818032
69	0x3e3c509f	0.1839013
70	0x3a1ec90d	0.00060571806
71	0x3daf4ca2	0.085595384
72	0x3d31ff34	0.04345627
73	0xbdb528a1	-0.0884564
74	0x3e0ff230	0.14057231
75	0x3e1df734	0.15426332
76	0xbd8d6e7a	-0.06905837
77	0xbd5d3f10	-0.05401522
78	0xbba90d5d	-0.0051590637
79	0xbe00bc9f	-0.12571953
80	0x3e0c7238	0.13715446
81	0xbd9f46b3	-0.07777157
82	0x3d06b70f	0.032889422
83	0xbd27dfff	-0.040985104
84	0xbd983cb1	-0.07433451
85	0xbd47bce0	-0.04876411
86	0x3dd5e63c	0.10444304
87	0x3b622e45	0.0034512442
88	0x3d57befb	0.052672368
89	0x3e22b588	0.15889561
90	0xbc59e401	-0.013298989
91	0xbe20d385	-0.15705688
92	0x3da3c98f	0.079974286
93	0x3e035cba	0.12828341
94	0xbc89dffd	-0.016830439
95	0xbc86bf7f	-0.016448734
96	0x3e41e309	0.18934263
97	0xbdf48ecc	-0.11941299
98	0x3deb11b7	0.11477988
99	0xbe2c356a	-0.16817251
100	0xbe65414d	-0.22388192
101	0xbe0db6f2	-0.1383932
102	0xbdfe7243	-0.124241374
103	0x3e4de814	0.20108062
104	0xbe2db117	-0.16962086
105	0x3ddc86ee	0.10767923
106	0xbcae555c	-0.021280937
107	0x3ed67a35	0.41890112
108	0x3e53537d	0.20637317
109	0x3df2fca5	0.11864594
110	0x3e2dfb57	0.1699041
111	0x3d8c964d	0.06864605
112	0xbd98bb82	-0.07457639
113	0xbdb67927	-0.08909827
114	0xbd3fda1f	-0.046838876
115	0xbddda2ee	-0.10822092
116	0x3e48e8ba	0.19620028
117	0x3e15ef47	0.14642058
118	0xbe2913f7	-0.16511522
119	0x3e0023b5	0.12513621
120	0x3d5c6c3e	0.053814165
121	0xbe2d2882	-0.16909984
122	0xbdd3d205	-0.103427924
123	0x3e457f07	0.19286738
124	0x3e0a74c9	0.13521113
125	0xbdb016c9	-0.08598096
126	0xbdc46635	-0.09589807
127	0x3e4a6ec1	0.19768812
128	0x3e1135ce	0.14180681
129	0xbe9435da	-0.28947335
130	0xbd158342	-0.03650213
131	0xbdda6dd3	-0.106654786
132	0xbe3dba77	-0.18528162
133	0xbdb88fcc	-0.09011802
134	0xbe4fdabd	-0.20298286
135	0x3d21eba6	0.039531372
136	0xbdd8c02a	-0.105835274
137	0x3d55ec9a	0.052227594
138	0x3e7d7d1f	0.24754761
139	0xba7cf6e0	-0.00096498244
140	0x3e44939f	0.19196938
141	0x3c01b174	0.007915843
142	0xbe1afc90	-0.15135407
143	0xbde69e9e	-0.112607226
144	0xbdd9993e	-0.10624932
145	0xbe01ec25	-0.12687738
146	0xbe2d22f6	-0.16907868
147	0xbe129d5e	-0.14317843
148	0xbe24a46c	-0.16078347
149	0x3d94e7db	0.072707854
150	0x3cbc490f	0.022984056
151	0x3d286619	0.041112993
152	0xbe4717b1	-0.19442631
153	0xbee4630d	-0.4460682
154	0x3e20523d	0.15656371
155	0x3e0602cd	0.13087006
156	0x3e0c4886	0.1369954
157	0xbe836a5f	-0.25667092
158	0x3d0fb72e	0.035086803
159	0x3d9276ef	0.07151591
160	0xbd6d30e4	-0.057907954
161	0xbdfd75e0	-0.123759985
162	0x3ca1d2de	0.01975387
163	0x3d91f48c	0.07126722
164	0x3d0375ab	0.03209464
165	0xbe515ef0	-0.20446372
166	0x3d331dc0	0.043729544
167	0xbe2ff465	-0.17183073
168	0xbcbfc036	-0.023407083
169	0x3d4f52c1	0.05061603
170	0xbd7d908f	-0.06190544
171	0x3e1464f0	0.1449163
172	0x3dfa282e	0.12214695
173	0x3d5a5caf	0.053311046
174	0x3c36423d	0.011124191
175	0xbd18f52a	-0.03734318
176	0xbde81a28	-0.11333114
177	0xbe67a0fe	-0.22620007
178	0x3e197f3c	0.14989942
179	0xbe49d0cb	-0.19708554
180	0x3e92de08	0.2868502
181	0x3e10554c	0.14095038
182	0x3dcf4ea6	0.10122423
183	0x3d511aa4	0.051050797
184	0x3dd2a5ae	0.10285507
185	0x3e1f26ff	0.1554222
186	0x3e0c7d4a	0.13719669
187	0xbd93a74b	-0.07209643
188	0xbd1fb118	-0.03898725
189	0x3bee043f	0.00726369
190	0xbde33fc2	-0.11096145
191	0xbdc86405	-0.09784702
192	0xbde5b2e9	-0.11215765
193	0xbd279d2e	-0.040921383
194	0x3e4e6e5b	0.20159285
195	0xbcb227cd	-0.021747494
196	0x3d5d3ed5	0.054015
197	0xbcbd1646	-0.02308191
198	0x3d895ada	0.06706782
199	0xbeabe896	-0.33575886

lstm.weight_hh_l0 f4 [200, 50]
0	0x3e275f95	0.16345055
1	0x3e1264ca	0.1429626
2	0xbc7a8ce3	-0.015292379
3	0x3bfee614	0.0077788923
4	0xbe019189	-0.12653174
5	0x3d8059ee	0.06267153
6	0xbca7c56b	-0.020479878
7	0xbe0b1150	-0.13580823
8	0xbe179abe	-0.14805123
9	0x3db1a8b9	0.086747594
10	0x3e06d147	0.1316577
11	0xbdb694ed	-0.08915124
12	0x3d7db784	0.061942592
13	0xbde87b61	-0.11351658
14	0xbdbc30ba	-0.09188981
15	0x3ddb30c8	0.10702664
16	0x3dc38e33	0.09548607
17	0xbe354e58	-0.17705667
18	0xbcc7b5dd	-0.024378711
19	0x3cca7972	0.024716113
20	0xbe265ff1	-0.16247536
21	0xbdac9ba7	-0.08428126
22	0x3cf36e9a	0.029715825
23	0x3ae9dede	0.0017842909
24	0x3dd4777f	0.103743546
25	0xbd5764e6	-0.05258646
26	0xbb55b365	-0.0032608148
27	0x3d99909f	0.074982874
28	0xbccab637	-0.02474509
29	0xbd9b7124	-0.07589939
30	0xbb85081d	-0.004059805
31	0xbdd3dfa0	-0.103453875
32	0x3d5aa6ea	0.053381838
33	0xbd31cdfb	-0.04340933
34	0x3df8b222	0.12143351
35	0xbd961da6	-0.07329874
36	0x3dca2c26	0.09871702
37	0xbe0503bd	-0.12989707
38	0x3e1b1cc9	0.151477
39	0xbd81e52c	-0.06342539
40	0xbe33cdeb	-0.1755902
41	0xbdbff9ec	-0.09373841
42	0xbdc49c70	-0.096001506
43	0x3cf8a389	0.030351417
44	0xbdf59589	-0.11991412
45	0x3d8001b2	0.06250323
46	0x3cea5abe	0.028607722
47	0x3d3f1822	0.046653874
48	0xbe2a74a7	-0.16646062
49	0xbcbd6f68	-0.023124412
50	0xbc01397c	-0.0078872405
51	0x3e2694d9	0.16267718
52	0x3e151f12	0.14562634
53	0x3d544071	0.05181927
54	0xbd64550b	-0.055745166
55	0xbdddadf0	-0.108241916
56	0x3db669d2	0.089069024
57	0xbe151126	-0.14557323
58	0x3dd13e9f	0.10217022
59	0xbdc64917	-0.096819095
60	0x3e0059c6	0.12534246
61	0xbe2aa7a0	-0.16665506
62	0xbd69708b	-0.056992095
63	0xbd6fb261	-0.058519725
64	0x3c35d837	0.011098913
65	0xbdb6726c	-0.08908543
66	0xbdb97dcc	-0.09057197
67	0x3d86ea97	0.06587713
68	0x3cd4e937	0.025990112
69	0x3cb3e51b	0.021959832
70	0x3ce59404	0.02802468
71	0xbdcb4381	-0.09924985
72	0xbc6503a9	-0.013977923
73	0xbe016213	-0.12635069
74	0x3d776543	0.060399305
75	0x3dc1f606	0.09470753
76	0x3d5e6b94	0.054301813
77	0xbcda2d10	-0.026632816
78	0x3e1a4954	0.15067035
79	0x3d99c984	0.07509139
80	0x3d6898a0	0.05678618
81	0xbe1113c9	-0.14167704
82	0x3d0fa79e	0.03507196
83	0xbc231b60	-0.009955257
84	0xbd9548c8	-0.072892725
85	0x3dc873b0	0.09787691
86	0xbde8d3a3	-0.113684915
87	0x3bae3d58	0.0053173713
88	0xbc4a6c53	-0.012354928
89	0x3dd6319b	0.1045868
90	0x3d15b433	0.036548804
91	0xbd189295	-0.037249167
92	0x3dfc9842	0.123337284
93	0xbd995513	-0.0748693
94	0x3dcbe3d7	0.099555664
95	0x3e10ee75	0.14153464
96	0x3dc3fba4	0.09569481
97	0xbd808349	-0.06275041
98	0x3e08f34b	0.13374059
99	0xbdbe7ada	-0.09300776
100	0x3cb7b340	0.02242434
101	0x3dd47cfc	0.103754014
102	0xba310dc1	-0.00067540637
103	0xbe172fc0	-0.14764309
104	0x3d83759a	0.06418915
105	0xbdad5fb7	-0.08465522
106	0x3ca97e79	0.02069019
107	0xbdf3b3b5	-0.11899511
108	0xbd1a98bb	-0.03774331
109	0x3dc8d3c4	0.09806016
110	0xbdc47e69	-0.09594423
111	0xbd1d7aca	-0.03844718
112	0xbcbbeec5	-0.022941003
113	0xbe791387	-0.24323855
114	0x3d8d3fb8	0.06896919
115	0xbb3e8715	-0.0029072214
116	0xbe0329d1	-0.1280892
117	0xbd8a6f9f	-0.06759571
118	0xbc0b83c5	-0.008515303
119	0x3e286b82	0.16447261
120	0x3deef733	0.11668243
121	0xbd0be2d2	-0.03415186
122	0xbc7183b5	-0.014740874
123	0xbe2bc110	-0.16772866
124	0xbc9a3bac	-0.018827282
125	0xbd659b44	-0.056056276
126	0xbdbe6c1c	-0.09297964
127	0x3cf3714b	0.029717108
128	0x3dd71cc9	0.10503537
129	0xbdc6d355	-0.09708277
130	0xbd074e46	-0.03303363
131	0x3e11e98c	0.14249247
132	0x3e1b6614	0.15175658
133	0x3d8aa6d8	0.06770104
134	0x3e106f49	0.14104952
135	0xbe04add4	-0.12956935
136	0x3d0edd88	0.034879237
137	0x3daff513	0.08591666
138	0xbdf8d31e	-0.121496424
139	0x3e0b8d5f	0.13628148
140	0xbd0a408e	-0.03375297
141	0x3d972473	0.07379999
142	0x3e3120c2	0.17297652
143	0x3e01ea74	0.12687093
144	0x3d2a2f2b	0.04154889
145	0x3d42bc37	0.047542777
146	0x3d224fad	0.039626766
147	0x3d915371	0.07095993
148	0x3d051dd8	0.032499164
149	0xbd9af6e7	-0.07566624
150	0x3d2f84f3	0.0428514
151	0xbcd60db5	-0.026129583
152	0x3d9a41f2	0.07532109
153	0x3d2c0dbd	0.04200529
154	0xbe33b9b4	-0.17551309
155	0xbe1610f8	-0.1465491
156	0x3e8d7128	0.27625394
157	0x3d05f378	0.032702893
158	0x3d10722e	0.03526514
159	0xbdfb0e1e	-0.12258552
160	0x3d8b607e	0.06805514
161	0xbda0bd0f	-0.0784856
162	0xbd435f38	-0.04769823
163	0xbe3bb87c	-0.18332094
164	0xbe33d80c	-0.17562884
165	0x3d33d23e	0.043901674
166	0xbd523184	-0.051316753
167	0xbdd83976	-0.10557835
168	0x3d3c19b1	0.04592294
169	0x3e9174be	0.2840938
170	0xbddd983c	-0.10820052
171	0xbe82064b	-0.25395426
172	0x3d60e981	0.054910187
173	0xbe020d3e	-0.12700364
174	0xbd166ef6	-0.036726914
175	0xbdf11fc6	-0.117736384
176	0xbc1ab42a	-0.0094423685
177	0xbe38bbdd	-0.18040414
178	0x3dcbf8eb	0.09959587
179	0xbd012b66	-0.03153553
180	0xbeb5376c	-0.35393846
181	0xbd1927b3	-0.037391376
182	0x3e13959c	0.1441254
183	0xbe015246	-0.12629041
184	0x3df5f86e	0.12010275
185	0xbeab1c11	-0.3341985
186	0xbd94b42d	-0.07260928
187	0xbd680a3b	-0.05665038
188	0x3d9becf9	0.07613558
189	0x3eb4e0b5	0.35327688
190	0xbdc209ce	-0.09474526
191	0xbd8a13f5	-0.06742088
192	0xbd42d459	-0.04756579
193	0x3b2369bd	0.002493485
194	0xbd2616db	-0.04054914
195	0xbd80c9b3	-0.06288471
196	0xbdccc9f8	-0.0999946
197	0x3cb4d0e4	0.022072263
198	0xbdb62a28	-0.088947594
199	0x3ccf93a4	0.025338955
200	0xbdbeaf0c	-0.09310731
201	0xbe123c3f	-0.14280795
202	0x3d06d554	0.03291829
203	0xbe60687c	-0.21914858
204	0x3d5a22c3	0.053255808
205	0x3e174e3d	0.1477594
206	0x3db7d884	0.08976844
207	0xbd4a768a	-0.049429454
208	0xbd135c02	-0.035976417
209	0x3e2228b5	0.15835841
210	0x3d904005	0.07043461
211	0x3bee5851	0.0072737117
212	0x3e02e397	0.12782131
213	0xbe075480	-0.13215828
214	0xbdee955c	-0.11649582
215	0x3e17d940	0.14828968
216	0x3d2664e5	0.040623564
217	0xbd82a8db	-0.06379863
218	0xbda81a66	-0.0820816
219	0x3d39fc92	0.045406885
220	0xbdfbf47f	-0.12302493
221	0x3d706123	0.058686387
222	0xbe10c2e7	-0.1413685
223	0xbc454547	-0.012040443
224	0xbdafb83a	-0.0858006
225	0x3d96c23c	0.07361266
226	0x3996dde7	0.0002877556
227	0xbc55beb8	-0.013045959
228	0x3d94e6ef	0.072706096
229	0x3dc2c599	0.09510345
230	0x3bdd5c55	0.0067553916
231	0xbd068f97	-0.03285178
232	0x3db3c216	0.08777253
233	0x3d8f767b	0.0700502
234	0xbdba8839	-0.09108014
235	0xbd587a0b	-0.052850764
236	0x3d3c307f	0.045944687
237	0xbc500bbb	-0.012698109
238	0x3e0d9174	0.13825017
239	0xbddb2deb	-0.107021175
240	0x3d86f105	0.065889396
241	0xbda4de58	-0.08050221
242	0xbe071dc9	-0.13194956
243	0xbe0fd0b7	-0.14044462
244	0x3dc457f9	0.09587092
245	0xbcd5977d	-0.026073212
246	0xbe09f60b	-0.13472764
247	0x3d5f78bb	0.054558497
248	0x3d4ddaf0	0.050257623
249	0xbe17b360	-0.1481452
250	0xbd2d05d2	-0.04224188
251	0xbd5b014d	-0.053468037
252	0x3ddeaee6	0.10873203
253	0xbe23b149	-0.15985598
254	0x3caf7f7f	0.0214231
255	0x3d8678fa	0.06566043

lstm.bias_ih_l0 f4 [200]
0	0x3d82fae5	0.063955106
1	0xbc3c1443	-0.01147944
2	0x3d1ec87c	0.038765416
3	0x3e19f4c7	0.15034781
4	0x395a8915	0.00020841167
5	0x3da63f43	0.08117535
6	0x3deeaf75	0.116545595
7	0x3deaa4eb	0.11457237
8	0x3df08f48	0.11746079
9	0x3e307248	0.17231095
10	0x3df3e5e5	0.11909083
11	0x3a0cf6cc	0.0005377352
12	0x3de0ad25	0.10970525
13	0x3e128178	0.14307201
14	0x3c0a86e0	0.008455008
15	0xbd2b4532	-0.041814037
16	0xbd87e226	-0.06634931
17	0x3e03ec66	0.12883148
18	0xbc224038	-0.009903006
19	0x3dc53f32	0.09631194
20	0x3bfbbb6c	0.0076822545
21	0x3c909ade	0.017651971
22	0x3cdddf58	0.027084038
23	0x3e5fd94c	0.21860236
24	0x3e17a909	0.14810576
25	0xbd543d39	-0.0518162
26	0x3e351cb6	0.17686734
27	0x3b4ab69c	0.0030931598
28	0x3da160e5	0.07879809
29	0x3e67562b	0.22591464
30	0x3e173dba	0.1476964
31	0x3dd1033e	0.102056965
32	0xbcc65213	-0.024209058
33	0xbcfd7c0a	-0.030942935
34	0x3db6a83e	0.089188084
35	0x3d020b3a	0.031748988
36	0x3e2d46c5	0.16921528
37	0xbdb48713	-0.08814826
38	0x3d03a3b6	0.03213855
39	0xbdb7b5de	-0.08970235
40	0x3bb41ca5	0.0054965788
41	0xbd831c2e	-0.06401859
42	0xbb991576	-0.004671748
43	0x3e2f4781	0.1711712
44	0xbb353e18	-0.002765542
45	0xbd894f31	-0.06704558
46	0xbdb33418	-0.087501705
47	0xbda899a0	-0.08232427
48	0x3e313e1b	0.17308848
49	0x3c889921	0.01667458
50	0xbd87249d	-0.0659878
51	0xbb4cd3fe	-0.0031254287
52	0xbd6609bc	-0.056161627
53	0x3da1544b	0.07877406
54	0x3dbd55c5	0.09244875
55	0xbd96ccac	-0.07363257
56	0xbd7394dd	-0.05946814
57	0x3e15edfe	0.14641568
58	0x3d93c24f	0.07214796
59	0x3e42a727	0.19009076
60	0x3e11984e	0.14218256
61	0xbd9d6b6e	-0.07686506
62	0xbca8bd17	-0.020597978
63	0xbdcde21b	-0.10052892
64	0x3d837fb0	0.06420839
65	0x3d6daec8	0.058028013
66	0xbc6c9571	-0.0144399265
67	0xbdc05e7d	-0.09393022
68	0x3d5fbd41	0.054623846
69	0x3d409012	0.047012396
70	0xbd8af619	-0.06785221
71	0x3e061814	0.13095123
72	0xbdc3d8f1	-0.09562863
73	0xbca50a24	-0.020146437
74	0x3d8abbec	0.067741245
75	0x3d6048cb	0.05475692
76	0xbdb9eace	-0.090779886
77	0xbba1fd97	-0.0049435603
78	0xbe00a6f4	-0.12563688
79	0x3dd035a1	0.10166479
80	0xbddfd6ac	-0.10929617
81	0xbccd50aa	-0.025062878
82	0x3e2513ba	0.16120806
83	0x3dd729e0	0.10506034
84	0x3dda9ea1	0.10674787
85	0x3e22c900	0.15896988
86	0xbdba1c20	-0.09087396
87	0x3dd15cf4	0.102228075
88	0xbd246705	-0.04013731
89	0x3d7c9bd5	0.06167205
90	0x3da2c32a	0.07947381
91	0xbd84e187	-0.064883284
92	0x3e1868a5	0.14883669
93	0x3e0459f0	0.12924933
94	0xbde40a1a	-0.11134739
95	0x3d93000b	0.071777426
96	0x3da5c7cf	0.08094751
97	0xbda07e92	-0.07836641
98	0xbdb0b65f	-0.086285345
99	0x3e1ed7b3	0.1551197
100	0xbd80d9ca	-0.0629154
101	0x3ddab9b7	0.106799535
102	0x3e241a8c	0.16025752
103	0xbe301226	-0.17194423
104	0xbcc5b8b7	-0.02413593
105	0xbd8c171f	-0.068403475
106	0x3e214723	0.15749793
107	0xbd504351	-0.050845448
108	0xbd7fb647	-0.062429693
109	0xbd6c563b	-0.057699423
110	0xbd2e606e	-0.04257243
111	0xbe1bffe9	-0.1523434
112	0x3e021f10	0.12707162
113	0xbd79b871	-0.060966913
114	0xbda7b11b	-0.08188077
115	0x3de83c55	0.113396324
116	0xbd96350a	-0.07334335
117	0xbdd8caa5	-0.105855264
118	0x3dca65cb	0.09882697
119	0x3e1397d9	0.14413394
120	0xbd5115bd	-0.051046122
121	0xbdf51cc0	-0.11968374
122	0xbd1e2ea0	-0.038618684
123	0xbe102335	-0.1407593
124	0xbce6f0f3	-0.028191065
125	0x3d069ad5	0.032862503
126	0x3d8100e6	0.062989995
127	0xbe0f44fd	-0.1399116
128	0x3be77e15	0.0070645907
129	0x3d217925	0.039422173
130	0xbde8bbf0	-0.11363971
131	0xbd0e57b8	-0.034751624
132	0xbd36c3e4	-0.04462041
133	0xbe0a6b52	-0.13517502
134	0xbdbe71f9	-0.09299082
135	0xbd4a4be9	-0.0493888
136	0x3da6477c	0.08119103
137	0x3cad4bd3	0.02115432
138	0x3d9db290	0.07700074
139	0x3e0dafb6	0.1383656
140	0xbda8898e	-0.082293615
141	0xbdbfaeaa	-0.093594864
142	0xbdbcf76c	-0.092268795
143	0x3d5c8196	0.05383452
144	0xbc40c64b	-0.011766027
145	0xbd23d656	-0.03999933
146	0xbda119f6	-0.0786628
147	0x3c31995f	0.010839789
148	0xbd1b4f95	-0.037917692
149	0xbdd2a23a	-0.102848485
150	0xbd6f5847	-0.058433797
151	0xbc5f925c	-0.013645735
152	0x3e19b889	0.15011801
153	0xbc7c4389	-0.015396961
154	0x3e1c13ce	0.1524193
155	0x3ca65fd2	0.020309363
156	0xbc38ffde	-0.011291472
157	0x3e1c7517	0.15279041
158	0x3d463718	0.048392385
159	0x3ac26cb0	0.0014833417
160	0x3e222be2	0.15837052
161	0x3ca59a4a	0.020215172
162	0x3dd14ab0	0.10219324
163	0x3c2d11d9	0.010563337
164	0x3e0ed339	0.13947763
165	0x3d6e32e7	0.058154013
166	0xbd9c9f33	-0.07647552
167	0xbddee38f	-0.10883247
168	0x3dfba479	0.1228723
169	0x3be99761	0.0071286415
170	0xbd45f016	-0.048324667
171	0xbb437e06	-0.0029829754
172	0x3d9f3163	0.07773092
173	0x3e25895c	0.1616568
174	0xbd63ba5a	-0.05559764
175	0x3e393f6d	0.18090601
176	0x3da21e6e	0.0791596
177	0x3debb98e	0.11510001
178	0xbd831843	-0.06401112
179	0x3dcc107d	0.099640824
180	0xbdb4f61b	-0.088360034
181	0x3dbf18e5	0.0933092
182	0x3e0d9917	0.1382793
183	0x3e0a6a81	0.1351719
184	0x3b8e086a	0.004334499
185	0xbd8850cd	-0.066560365
186	0x3d84f733	0.06492462
187	0x3da1e982	0.07905866
188	0x3e3be855	0.18350346
189	0xbdba6db1	-0.09102953
190	0xbd96725d	-0.07346032
191	0x3e3e4e64	0.18584591
192	0x3dab684a	0.08369501
193	0x3e1c06da	0.15236989
194	0x3d666a38	0.05625364
195	0x3d81df26	0.0634139
196	0xbc26b99f	-0.010176091
197	0x3d271bf6	0.04079815
198	0x3d41d0de	0.047318332
199	0xbcd6163a	-0.026133645

lstm.bias_hh_l0 f4 [200]
0	0x3d801b78	0.06255239
1	0x3e127067	0.1430069
2	0xbdc45fa4	-0.095885545
3	0x3de09a4b	0.10966929
4	0xbd875db8	-0.06609672
5	0xbcd6593c	-0.026165597
6	0xbd2c3c30	-0.042049587
7	0x3e76ef77	0.24114786
8	0xbd851ed5	-0.06500021
9	0xbcda7410	-0.026666671
10	0xbda53bf3	-0.08068075
11	0x3d93a4f7	0.07209199
12	0xbda2493b	-0.07924124
13	0x3d0115fa	0.0315151
14	0x3d767077	0.06016585
15	0xbc55680a	-0.013025293
16	0x3da3a0fa	0.07989688
17	0x3dc0d616	0.09415834
18	0xbd0b919e	-0.03407442
19	0xbd46dc4f	-0.048549946
20	0x3ca50738	0.020145044
21	0xbd99f88d	-0.075181104
22	0x3dda3751	0.10655082
23	0x3d3a6af3	0.04551215
24	0xbd115ed1	-0.035490815
25	0x3d513c88	0.051083118
26	0x3e062171	0.13098694
27	0xbd295d8e	-0.041348986
28	0x3cba6b35	0.022756198
29	0x3dc03805	0.09385685
30	0x3b671026	0.0035257428
31	0xbdc2546c	-0.094887584
32	0x3e322a42	0.17398933
33	0x3d6c1ab3	0.05764265
34	0x3dfa9a1f	0.122364275
35	0x3dcc2811	0.099685796
36	0xbad72c29	-0.0016416359
37	0x3d645337	0.055743422
38	0x3e50d57b	0.20393936
39	0x3d149d86	0.03628304
40	0xbcefbc83	-0.029264694
41	0x3c8decf4	0.017324902
42	0x3e32621d	0.1742024
43	0x3d263f13	0.040587496
44	0xbc2b2a24	-0.010447059
45	0xbd99edf1	-0.07516087
46	0x3ce2c36d	0.027681077
47	0x3b46eea0	0.0030354634
48	0x3dba931f	0.09110092
49	0x3e0d4d6b	0.13799064
50	0x3df2e9ad	0.11860976
51	0xbdd42bfb	-0.10359951
52	0x3db0b54f	0.08628332
53	0xbc328467	-0.010895825
54	0xbd7098bf	-0.05873942
55	0xbbe12d20	-0.0068718344
56	0x3db13cd9	0.08654184
57	0x3dd325c0	0.103099346
58	0x3d90c517	0.07068842
59	0x3e41c468	0.1892258
60	0xbba69df9	-0.00508475
61	0xbd244786	-0.040107273
62	0x3d5b9d37	0.05361673
63	0xbc7d3f81	-0.015457035
64	0x3e21b5ab	0.15791957
65	0xbd4090c5	-0.047013063
66	0xbdd71b7a	-0.105032876
67	0x3dab7bad	0.08373199
68	0x3ded6146	0.11590819
69	0x3d34ecef	0.04417127
70	0x3d5947c7	0.053046968
71	0x3da948bd	0.08265827
72	0x3ddbd4a2	0.10733916
73	0x3e1452b0	0.14484668
74	0xbd946fa0	-0.07247853
75	0x3d8c14fc	0.0683994
76	0xbdded19c	-0.108798236
77	0x3e12c196	0.1433166
78	0xbdb5d30e	-0.08878146
79	0x3dd775ff	0.10520553
80	0x3c795868	0.015218832
81	0x3d8189eb	0.06325134
82	0x3d998d57	0.074976616
83	0x3e11bb07	0.14231502
84	0x3d95c3c0	0.07312727
85	0xbd685f53	-0.056731533
86	0x3de68f9f	0.11257862
87	0x3e1aef33	0.1513031
88	0x3db0cab7	0.08632415
89	0xbdd76476	-0.10517208
90	0xbd1ce4a5	-0.03830399
91	0xbdae06c1	-0.08497382
92	0x3e30d9cb	0.17270581
93	0xbd69e4cc	-0.057102963
94	0xbd147c15	-0.036251146
95	0x3c549cdd	0.012976852
96	0x3e1a743e	0.15083405
97	0x3e1377e6	0.14401206
98	0x3dc84c6d	0.09780202
99	0xbd46f857	-0.04857668
100	0x3deaba40	0.114613056
101	0xbd8aa588	-0.06769854
102	0x3df7be39	0.12096829
103	0xbd766bb1	-0.060161296
104	0xbe0b3bf8	-0.13597095
105	0x3d8be329	0.06830437
106	0x3d8fb022	0.070160165
107	0xbdc3762a	-0.095440224
108	0x3d2728cd	0.040810395
109	0x3d63d1d5	0.055620033
110	0x3de509cd	0.1118351
111	0xbe212cd5	-0.15739758
112	0xbd59b167	-0.0531477
113	0xbdad5ce0	-0.0846498
114	0xbc4ee594	-0.012627978
115	0x3d930614	0.07178894
116	0xbd8c30be	-0.06845234
117	0xbdbb200b	-0.09136971
118	0xbdd884c1	-0.10572196
119	0x3df4704c	0.119354814
120	0xbe0f0200	-0.13965607
121	0xbde7165d	-0.11283562
122	0x3da051f9	0.07828135
123	0x3ddf6d73	0.10909548
124	0x3df12719	0.117750354
125	0xbc1c10cd	-0.00952549
126	0x3e0c5f7c	0.137083
127	0x3c7c7c0e	0.015410436
128	0x3dc7e2d6	0.097600624
129	0xbd257d2f	-0.040402588
130	0xbdba18e4	-0.09086779
131	0xbddd86b0	-0.10816705
132	0xbd4c25a4	-0.049840584
133	0xbe233b89	-0.1594068
134	0xbd800aae	-0.06252037
135	0xbe01c10a	-0.12671295
136	0xbdaef669	-0.08543093
137	0xbb8f1ecd	-0.0043676854
138	0x3d8a664e	0.06757794
139	0x3e357ecf	0.17724155
140	0x3d1d0625	0.038335938
141	0x3df7781c	0.12083456
142	0x3dd935ed	0.10605989
143	0xbddd256d	-0.10798154
144	0xbcffe4de	-0.031237062
145	0x3cf8a985	0.03035427
146	0x3cbe7196	0.023247521
147	0x3d8ff893	0.07029834
148	0xbb87897f	-0.004136264
149	0xbe4117a1	-0.1885667
150	0x3d424776	0.04743143
151	0x3e0c4186	0.1369687
152	0xbd97eb62	-0.074179426
153	0x3e0a220a	0.13489547
154	0x3db5cdbd	0.08877132
155	0xbc6cea7e	-0.014460204
156	0xbcf25da9	-0.029585676
157	0x3e457c48	0.19285691
158	0x3e463d2c	0.19359273
159	0x3df2f36b	0.118628345
160	0xbcbafc3d	-0.022825355
161	0x3c890de3	0.016730255
162	0x3dde5acf	0.10857164
163	0xbdcfe566	-0.10151176
164	0xbd67ecd3	-0.056622338
165	0x3bf7a318	0.007557284
166	0x3e2e3fb2	0.17016485
167	0xbd3f6b3f	-0.046733137
168	0x3db355b8	0.08756584
169	0x3e6549f0	0.22391486
170	0x3e2a34c4	0.16621691
171	0xbda30d1c	-0.07961485
172	0xbcc1b2f1	-0.023644896
173	0xbc9d95cc	-0.019236468
174	0x3e1ce37d	0.15321155
175	0xbb03835e	-0.0020067315
176	0x3e1ff988	0.15622532
177	0x3d26ebf5	0.04075237
178	0x3e38a968	0.18033373
179	0x3e6f2126	0.23352489
180	0x3e16e05a	0.14734021
181	0xbdb0d084	-0.08633521
182	0xbc87f52a	-0.016596396
183	0xbd9ac0e0	-0.07556319
184	0x3e1930c1	0.14960004
185	0xbb417c67	-0.0029523612
186	0xbb1ecfee	-0.0024232822
187	0x3e172d62	0.14763406
188	0x3dbbf7e1	0.091781385
189	0x3ce56c72	0.028005812
190	0x3d2f0c2c	0.042736217
191	0x3d86b1e4	0.06576899
192	0x3e3b8659	0.18312968
193	0x3e075859	0.13217296
194	0xbc6d8ccd	-0.014498902
195	0x3db9638b	0.090521894
196	0x3de972a9	0.11398823
197	0x3d933a5e	0.07188867
198	0x3e392f23	0.18084387
199	0x3d4e5f8a	0.050384082

lstm.weight_ih_l1 f4 [200, 50]
0	0x3defe597	0.11713713
1	0x3d7f4d95	0.062329847
2	0x3d71f84f	0.059074696
3	0xbd7e17ad	-0.062034298
4	0x3c901679	0.01758884
5	0xbddfaef3	-0.10922041
6	0x3d8dccd0	0.069238305
7	0xbd25c543	-0.040471327
8	0x3df72038	0.12066692
9	0xbd3a983f	-0.04555535
10	0x3e01fe51	0.1269467
11	0xbd2b5e29	-0.041837845
12	0x3d05a566	0.03262844
13	0x3d945ad2	0.07243885
14	0xbd3aea18	-0.045633405
15	0xbda32dc9	-0.07967717
16	0x3ce1c93f	0.027561782
17	0xbdbb9d6d	-0.09160886
18	0xbbdf6587	-0.006817523
19	0x3cd8957c	0.026438467
20	0x3c0bd755	0.008535226
21	0x3dfe4392	0.12415232
22	0xbe0dd24d	-0.13849755
23	0x3e02d006	0.12774667
24	0xbcd1c324	-0.025605746
25	0x3d863ee9	0.06554968
26	0x3de2d60d	0.11075983
27	0xbcf59c8a	-0.02998187
28	0x3d94bbcd	0.07262383
29	0x3dde37be	0.10850476
30	0xbdce6a49	-0.10078866
31	0x3ce7af57	0.02828185
32	0xbc256a5d	-0.01009616
33	0x3ce68db6	0.028143745
34	0x3ce30525	0.027712414
35	0xbdf83c46	-0.12120871
36	0x3cbb7307	0.022881998
37	0xbd4b8ad8	-0.04969296
38	0xbe050f39	-0.12994088
39	0x3d0cdef1	0.0343923
40	0xbd1eda5e	-0.03878247
41	0xbdf68b29	-0.120382614
42	0x3cd736a7	0.026271177
43	0xbcf5ce2e	-0.03000554
44	0xbc1d910d	-0.009617102
45	0xbd810110	-0.06299031
46	0x3e09488a	0.13406578
47	0xbd0625f3	-0.032751035
48	0x3ded17e9	0.11576826
49	0x3d8f0df0	0.0698508
50	0xbd0a1594	-0.033711985
51	0x3b9283a2	0.0044712583
52	0xbcb94390	-0.022615224
53	0x3def919a	0.11697693
54	0x3d8a49ec	0.06752381
55	0x3dd59c8e	0.10430251
56	0xbe07d779	-0.1326579
57	0x3dc89f21	0.097959764
58	0xbddfb1ee	-0.10922609
59	0xbbba30a8	-0.00568207
60	0xbdd57b89	-0.10423953
61	0xbb9a2f45	-0.004705342
62	0xbdcfca7b	-0.10146042
63	0xbca3ddc9	-0.020003216
64	0x3dbd570d	0.09245119
65	0xbc1ed8dd	-0.009695259
66	0xbdda274a	-0.10652025
67	0xbe032fe3	-0.12811236
68	0xbd0dad94	-0.034589365
69	0x3d7a0a5e	0.061045043
70	0xbdfc4aa6	-0.123189256
71	0xbc95c04a	-0.018280167
72	0xbd9fc4d1	-0.078012116
73	0xbdaaf801	-0.08348084
74	0x3cb6cf7a	0.02231573
75	0x3e0dd616	0.13851199
76	0xbd44be1f	-0.048032876
77	0x3d4b6b9b	0.049663167
78	0xbd4031d1	-0.04692251
79	0x3d550a0d	0.05201154
80	0xbc46f420	-0.012143165
81	0x3cdd6d26	0.027029585
82	0x3c5dfde4	0.013549302
83	0xbdd80d62	-0.105494276
84	0xbdb48bda	-0.08815737
85	0x3ced07f2	0.028934453
86	0x3d8050ce	0.06265412
87	0xbd93a93b	-0.072100125
88	0xbe0572db	-0.13032095
89	0x3df18b1a	0.1179411
90	0xbd1fc21a	-0.03900347
91	0x3d63b86a	0.055595793
92	0xbd3b817d	-0.045777787
93	0x3ddee34b	0.108831964
94	0xbdc0732c	-0.09396967
95	0xbd4ace6b	-0.04951326
96	0x3dbedee9	0.093198605
97	0xbe08ab2f	-0.13346551
98	0xbd957306	-0.072973296
99	0x3deaf2de	0.114721045
100	0xbd960a06	-0.073261306
101	0x3e0d8e5b	0.13823836
102	0xbd0e76bb	-0.0347812
103	0x3db0f2e6	0.08640079
104	0x3dc6452c	0.09681162
105	0x3db2d724	0.08732441
106	0xbd6f99d2	-0.058496304
107	0x3c9cb8ad	0.019131029
108	0x3e06e039	0.13171472
109	0xbd7e9e34	-0.062162593
110	0xbd074b39	-0.033030722
111	0x3af3d36e	0.001860244
112	0x3d71afbd	0.059005488
113	0xbdd25055	-0.10269228
114	0x3de37595	0.11106411
115	0xbd8a83c6	-0.06763415
116	0xbd83b831	-0.06431616
117	0xbdadadcc	-0.08480415
118	0x3dc66faf	0.09689271
119	0xbdb367bd	-0.08760021
120	0xbd9fe46a	-0.078072384
121	0x3d970783	0.073744796
122	0xbdd0fcb8	-0.10204452
123	0x3dd80a51	0.10548843
124	0x3ccd8aaf	0.025090544
125	0xbdf294ca	-0.118447855
126	0xbce4c75c	-0.027927093
127	0xbcc30221	-0.023804726
128	0x3daea97a	0.08528419
129	0xbcd8ca9f	-0.026463805
130	0xbe03113f	-0.12799548
131	0xbd9629e6	-0.0733221
132	0x3e01e429	0.12684692
133	0x3d2a4821	0.041572694
134	0xbceb27ae	-0.028705444
135	0x3cb08802	0.021549229
136	0x3c5e5e8e	0.013572348
137	0x3d4584a9	0.048222218
138	0x3e09e169	0.13464893
139	0xbe04d828	-0.12973082
140	0x3d4bcaf6	0.049754106
141	0x3d8edb16	0.06975381
142	0x3dc7648e	0.09735976
143	0xbd6b2a31	-0.057413284
144	0xbd50ec9f	-0.05100691
145	0x3cf6e7b6	0.030139785
146	0xbde88971	-0.1135434
147	0xbdbeb7cf	-0.093124025
148	0xbd79d5dd	-0.06099497
149	0xbd617fcb	-0.055053513
150	0x3d6ad8a9	0.05733553
151	0x3dd68e43	0.10476353
152	0xbd96b0a1	-0.07357908
153	0x3d44355e	0.047902457
154	0xbc8ec91c	-0.01742988
155	0x3daedf4b	0.085386835
156	0x3dfe1e70	0.12408149
157	0xbd558892	-0.052132197
158	0xbd8bce7a	-0.06826492
159	0x3dec330c	0.11533174
160	0xbdb192e6	-0.08670597
161	0x3c200eca	0.009769151
162	0x3d3a9ea6	0.045561455
163	0xbc17d080	-0.009266019
164	0x3cece099	0.02891569
165	0x3e083ff3	0.13305645
166	0xbde278fa	-0.11058231
167	0x3dd08ec3	0.1018348
168	0x3c8b78cb	0.017025372
169	0x3d8e7383	0.06955626
170	0x3d2ad1db	0.04170404
171	0x3e0850dd	0.13312097
172	0x3cfe0359	0.031007456
173	0xbd9f884a	-0.07789667
174	0xbc6d437c	-0.014481422
175	0x3db04a2a	0.08607896
176	0xbdbec93d	-0.09315727
177	0xbdc7bedf	-0.09753203
178	0xbd60a059	-0.05484042
179	0xbdd4ec6d	-0.10396657
180	0x3db88ce9	0.090112515
181	0x3d4b9d0d	0.049710322
182	0xbcabee65	-0.020987699
183	0x3c6a082c	0.014284175
184	0xbda49cbb	-0.080377065
185	0xbceb9164	-0.028755851
186	0x3e0bf906	0.13669214
187	0x3db6d71f	0.0892775
188	0xbe0605be	-0.13088128
189	0xbd5e0947	-0.054208066
190	0x3d79e618	0.06101045
191	0x3c1cb262	0.009564014
192	0x3e0c07fb	0.1367492
193	0x3d979dd6	0.07403152
194	0xbe03cec1	-0.12871839
195	0xbc43f9ef	-0.011961444
196	0xbc2e6e93	-0.01064648
197	0x3df9adc5	0.12191347
198	0x3ceb2671	0.028704854
199	0x3b893ce3	0.0041881665
200	0x3df87c30	0.12133062
201	0x3d7270f0	0.059189737
202	0x3d932457	0.07184666
203	0x3d96481c	0.073379725
204	0x3d79344a	0.060840882
205	0xbd69f534	-0.05711861
206	0xbdfccfd1	-0.12344325
207	0xbd90a9d4	-0.07063642
208	0xbda4691e	-0.08027862
209	0xbd14df8e	-0.03634601
210	0xbd585f76	-0.052825414
211	0x3dcc1034	0.09964028
212	0x3e0e3570	0.13887572
213	0x3d8221f3	0.063541315
214	0xbdb5d93c	-0.08879325
215	0xbe051454	-0.12996036
216	0xbdd43c6b	-0.10363086
217	0x3e0f8f3f	0.14019488
218	0x3dcbf42f	0.09958684
219	0x3da640d9	0.081178375
220	0x3dd1a4f9	0.10236544
221	0xbcea3673	-0.028590417
222	0x3dfd6679	0.12373061
223	0x3d70ab23	0.05875696
224	0x3cc2dda5	0.023787329
225	0xbd2fb1cb	-0.042894166
226	0xbde1af0a	-0.11019714
227	0x3dccee4e	0.100063905
228	0xbdf2f9a4	-0.118640214
229	0xbd032ea4	-0.0320269
230	0xbe06ba12	-0.13156918
231	0xbdf3055c	-0.118662566
232	0xbd63e49c	-0.05563794
233	0xbd525d78	-0.05135867
234	0x3da6f3a6	0.08151941
235	0xbdf2f4a8	-0.11863071
236	0xbdca93e9	-0.09891493
237	0x3da29eb1	0.07940424
238	0x3d1f2987	0.038857963
239	0x3d04b58c	0.0323997
240	0xbdb49fe6	-0.08819561
241	0xbc28cbb9	-0.0103024775
242	0x3bca8287	0.006180111
243	0x3a7579ff	0.0009364187
244	0xbd9a3936	-0.07530443
245	0xbd6bcc50	-0.057567894
246	0xbdd5e638	-0.10444301
247	0x3e029012	0.12750271
248	0x3dcb58c5	0.09929041
249	0x3d8bb7ee	0.06822191
250	0x3de18bc7	0.110129885
251	0x3da43438	0.080177724
252	0xbdd64c46	-0.10463767
253	0x3de4c937	0.11171191
254	0xbdf57f93	-0.119872235
255	0xbcc63891	-0.024196895

lstm.weight_hh_l1 f4 [200, 50]
0	0x3db87517	0.09006708
1	0xbd8c5e2e	-0.06853901
2	0xbc775794	-0.015096564
3	0xbd4cc7c9	-0.049995217
4	0x3dede453	0.11615815
5	0x3da88d2b	0.08230051
6	0xbdc3a76b	-0.09553417
7	0x3c1c391d	0.009535101
8	0xbcb7a244	-0.022416241
9	0x3cf72c9f	0.030172644
10	0xbdf6c2c9	-0.12048871
11	0xbdad8c24	-0.08473995
12	0x3c5751bc	0.013142046
13	0x3de2010e	0.110353574
14	0x3df0ed1e	0.117639765
15	0x3dc64185	0.096804656
16	0xbdb489fa	-0.088153794
17	0x3d81155f	0.06302904
18	0x3e0a14c7	0.13484488
19	0xbdce3d85	-0.10070328
20	0x3cf8ed2c	0.03038653
21	0x3d6f6743	0.058448087
22	0x3deaad3a	0.114588216
23	0x3c9299b2	0.017895553
24	0xbd86b823	-0.0657809
25	0xbd962f3c	-0.07333228
26	0xbdec2522	-0.1153052
27	0x3d4970ae	0.049179725
28	0xbde3412b	-0.11096414
29	0x3d812c9c	0.06307337
30	0x3cc7d21f	0.024392186
31	0x3d8066e7	0.06269627
32	0x3d77af8f	0.06047016
33	0x3ac7cf8b	0.0015244348
34	0xbdbddac6	-0.09270243
35	0xbcaeb646	-0.02132715
36	0xbd8a98df	-0.06767439
37	0x3d473639	0.048635695
38	0x3c47e619	0.012200856
39	0x3e0a227f	0.13489722
40	0x3e0c2fa1	0.13690044
41	0xbd0d666d	-0.03452151
42	0x3df920bd	0.121644475
43	0xbc71c6c2	-0.01475686
44	0x3cf0e4bb	0.029405942
45	0xbd16b443	-0.036793005
46	0x3d703b58	0.058650345
47	0x3d9922ce	0.074773416
48	0x3c6ab326	0.014324939
49	0xbd788349	-0.06067208
50	0xbda7803f	-0.08178758
51	0x3d29f08d	0.041489173
52	0x3dff91fc	0.12479016
53	0x3df2bc12	0.11852278
54	0xbb4951e8	-0.0030718986
55	0xbd8442fb	-0.06458088
56	0x3b2a026d	0.0025941387
57	0x3d862057	0.06549137
58	0xbdd68cd0	-0.104760766
59	0x3deea2e0	0.1165216
60	0x3c772000	0.015083313
61	0x3d7a0b5b	0.061045986
62	0xbd41b7a5	-0.047294278
63	0xbc01d631	-0.007924602
64	0x3d98951c	0.07450315
65	0xbda2b9ab	-0.079455696
66	0xbd1d7676	-0.03844305
67	0xbd4668c1	-0.048439745
68	0x3b843f91	0.004035898
69	0xbd8b619a	-0.068057254
70	0xbc8609e1	-0.016362133
71	0xbd64aa67	-0.05582657
72	0x3daacfbc	0.083404034
73	0x3c94c8f2	0.018162224
74	0xbd722dd1	-0.059125725
75	0xbc567c54	-0.013091166
76	0xbdcee196	-0.10101621
77	0x3e066813	0.13125639
78	0xbc86884f	-0.016422419
79	0xbd8134db	-0.063089095
80	0x3daebce0	0.08532119
81	0x3daa7a97	0.083241634
82	0xbe04ee1d	-0.12981458
83	0x3d9a56ae	0.07536064
84	0xbdbe57e1	-0.09294105
85	0x3d0e31e9	0.034715567
86	0x3d8560b4	0.06512585
87	0xbd8dcb7f	-0.069235794
88	0xbdaddd2d	-0.084894516
89	0x3d87601a	0.06610127
90	0xbdf3e8fd	-0.11909673
91	0x3d9f2acb	0.07771834
92	0x3cfff045	0.0312425
93	0x3e07332c	0.13203114
94	0xbdf2886f	-0.11842429
95	0xbddd81ff	-0.108158104
96	0xbdb20a5d	-0.08693383
97	0x3c37c91f	0.011217385
98	0xbd4c53cd	-0.049884606
99	0xbc972714	-0.018451251
100	0xbd8b3663	-0.06797483
101	0xbe0de753	-0.13857774
102	0xbdd9b07a	-0.10629363
103	0x3dbadc9b	0.091241084
104	0x3c3cec7b	0.011530991
105	0x3dfe6b16	0.12422769
106	0xbd29b246	-0.04142978
107	0x3dac01d5	0.08398787
108	0x3bc1cf48	0.0059146024
109	0x3a943638	0.0011307662
110	0xbde81268	-0.11331636
111	0x3cc585bd	0.024111623
112	0x3d777eb3	0.060423564
113	0x3d40bc57	0.047054615
114	0x3da95ead	0.08270011
115	0xbda78953	-0.081804894
116	0xbd924b86	-0.07143311
117	0x3ce0094b	0.027348181
118	0x3e0d87ec	0.13821381
119	0xbdd566c6	-0.10419993
120	0x3ddbf2ab	0.107396446
121	0x3d30feff	0.043211933
122	0x3d8f7a95	0.070058025
123	0xbda11328	-0.07864982
124	0xbd273921	-0.040825967
125	0xbd5a1fbf	-0.05325293
126	0xbddad24f	-0.106846444
127	0x3d9328cb	0.07185515
128	0x3dc01d7d	0.093806244
129	0xbe0306ca	-0.12795559
130	0xbd9670d4	-0.07345739
131	0x3d5a63b3	0.053317737
132	0x3e0dd0fd	0.13849254
133	0xbcf8cd91	-0.03037146
134	0x3dff992c	0.12480387
135	0xbe003311	-0.1251948
136	0x3bb70826	0.005585688
137	0xbdbc2f0c	-0.09188661
138	0x3e0fc8ed	0.14041491
139	0x3cbec6c6	0.023288142
140	0x3dbaef46	0.09127669
141	0x3c7ea835	0.015543033
142	0xbd82cc6a	-0.06386645
143	0xbde74666	-0.11292724
144	0xbdc494fa	-0.095987275
145	0xbdb3061a	-0.08741398
146	0xbda4347c	-0.08017823
147	0x3da3c850	0.07997191
148	0x3d1a0ab6	0.03760787
149	0xbd437c24	-0.04772581
150	0xbdd53ee4	-0.10412386
151	0xbc89e4a5	-0.016832659
152	0x3c1d94f0	0.009618029
153	0x3d58bb70	0.05291313
154	0x3d7c9958	0.061669677
155	0x3e0fc80a	0.14041153
156	0x3dc109c2	0.09425689
157	0x3d7a4cc4	0.061108366
158	0xbc4a1cc6	-0.012335962
159	0x3e02f9b0	0.1279056
160	0xbdb4df2f	-0.088316314
161	0xbdc38eea	-0.09548743
162	0xbd9daf3e	-0.076994404
163	0xbdef771f	-0.116926424
164	0x3aab5b36	0.0013073448
165	0x3dbcd3dd	0.09220097
166	0xbde47fc8	-0.11157185
167	0xbd0661ca	-0.032808103
168	0x3dda3020	0.1065371
169	0xbd80ed11	-0.06295217
170	0xbc9f7c6b	-0.019468507
171	0xbc720b22	-0.014773162
172	0xbd0d2821	-0.034462098
173	0x3d33cb90	0.043895304
174	0xbdb2e359	-0.087347694
175	0x3d84c857	0.06483524
176	0x3d80bdbf	0.06286191
177	0xbcd6f19a	-0.026238251
178	0xbe0798a1	-0.13241817
179	0x3c62fc57	0.013854108
180	0xbd43d49e	-0.04781019
181	0xbc2315fe	-0.009953974
182	0xbd9c0199	-0.07617492
183	0x3d077148	0.033067018
184	0xbe0119cb	-0.12607495
185	0x3dc664ae	0.09687172
186	0x3db33377	0.087500505
187	0x3d16ea6d	0.03684466
188	0x3d342aef	0.043986257
189	0x3dd0160f	0.10160457
190	0x3ce3ccf0	0.027807683
191	0x3dea7058	0.11447209
192	0xbdc90cd0	-0.09816897
193	0xbddc1601	-0.107463844
194	0x3d245fe0	0.040130496
195	0xbe088c3d	-0.13334747
196	0xbce12a92	-0.02748612
197	0xbdab6d88	-0.08370501
198	0xbdbf4dcd	-0.09341011
199	0x3de1f725	0.11033467
200	0xbe0e8968	-0.13919604
201	0x3cbf1117	0.023323579
202	0xbc7f7a26	-0.015593087
203	0xbdb64eb8	-0.08901733
204	0xbe0ea70b	-0.1393091
205	0xbd6f2f59	-0.058394764
206	0x3d365cff	0.04452228
207	0x3de63654	0.11240831
208	0xbe0d2225	-0.13782556
209	0xbca07189	-0.019585388
210	0xbdf5ed63	-0.120081685
211	0x3d34e9cd	0.044168282
212	0x3da27a59	0.07933492
213	0x3d5e4e14	0.05427368
214	0x3cd52a5e	0.026021179
215	0xbd0ace2b	-0.033888023
216	0x3d6c7c34	0.057735637
217	0x3d3714c6	0.044697545
218	0xbd5028a6	-0.050820015
219	0xbd9482b8	-0.07251495
220	0x3e022acd	0.1271164
221	0xbda7c273	-0.08191385
222	0x3dc62dcb	0.09676703
223	0x3d442274	0.04788442
224	0xbdbc3560	-0.09189868
225	0xbd87c7a6	-0.06629877
226	0xbd8ee3e6	-0.06977062
227	0xbda410b4	-0.08010998
228	0xbdecd1b2	-0.11563434
229	0x3bbb332d	0.0057128877
230	0xbdb83400	-0.08994293
231	0x3e00968d	0.1255743
232	0xbc778a7d	-0.015108702
233	0x3c10a68c	0.00882877
234	0xbbbe2a77	-0.005803402
235	0xbdec38c8	-0.11534268
236	0x3d190883	0.037361633
237	0xbd1b3ab7	-0.03789779
238	0xbdaf6a17	-0.08565157
239	0x3d80d8a6	0.062913224
240	0x3db601d3	0.08887067
241	0xbc802f06	-0.015647423
242	0xbdda256a	-0.106516674
243	0xbd7bb505	-0.06145193
244	0xbe08f06e	-0.13372967
245	0x3dc5a86c	0.096512645
246	0x3bf93dc9	0.0076062423
247	0xbdb88b00	-0.09010887
248	0xbd58f387	-0.05296662
249	0xbdb4b9d7	-0.08824509
250	0xbdf104e7	-0.11768513
251	0xbd849999	-0.06474609
252	0xbc941049	-0.018074172
253	0x3d91e7e2	0.07124306
254	0xbc1b7551	-0.00948842
255	0x3daf47bc	0.08558604

lstm.bias_ih_l1 f4 [200]
0	0xbd8ba0fc	-0.06817815
1	0x3cdc4496	0.026888173
2	0xbd7ef76c	-0.06224768
3	0xbc6cdde0	-0.014457196
4	0x3e071a82	0.13193706
5	0x3ded95cd	0.11600838
6	0xbd33c1ee	-0.043886118
7	0xbc4b2b62	-0.01240048
8	0xbc214f76	-0.009845605
9	0xbdd713a2	-0.105017915
10	0xbd9e2c9d	-0.07723353
11	0x3e0a198a	0.13486305
12	0xbdb59e65	-0.08868102
13	0x3ddff7af	0.10935914
14	0x3beb5d90	0.0071827844
15	0xbddafea1	-0.10693098
16	0x3d26edaa	0.040753998
17	0xbbdb174a	-0.006686126
18	0xbdfd5442	-0.123695865
19	0xbdd76ea3	-0.10519149
20	0xbcc098c1	-0.023510339
21	0xbdb7073d	-0.089369275
22	0xbdd4fb48	-0.103994906
23	0xbcc85699	-0.024455355
24	0x3cea6df5	0.028616885
25	0x3de346c1	0.110974796
26	0x3df7a251	0.12091506
27	0xbdd577de	-0.104232535
28	0x3da2fbb0	0.07958162
29	0x3d888c22	0.06667353
30	0x3c7fc30d	0.015610469
31	0xbd3df2c3	-0.046374094
32	0x3c1183bb	0.008881505
33	0xbcacc466	-0.021089744
34	0x3d8fbb2e	0.070181236
35	0x3dbe89cb	0.09303626
36	0xbc6c7dc7	-0.0144342845
37	0xbe0ba95f	-0.13638829
38	0x3c0f0415	0.008729001
39	0x3e030f7f	0.1279888
40	0x3bb32d98	0.0054680817
41	0xbdb87f47	-0.09008651
42	0xbde5e9a9	-0.11226208
43	0x3c1aa482	0.009438636
44	0x3da7edf7	0.08199685
45	0x3d815176	0.063143656
46	0xbe0db7b4	-0.13839608
47	0xbda970d2	-0.08273472
48	0xbd569a22	-0.052393086
49	0x3cd06388	0.025438085
50	0x3d2dff42	0.04247976
51	0xbdc6ea43	-0.097126506
52	0xbdf3411a	-0.118776515
53	0x3d383013	0.044967722
54	0x3e0d59bb	0.1380376
55	0xbd48d83f	-0.049034353
56	0x3dababcb	0.08382376
57	0xbd428772	-0.047492452
58	0xbd473a4e	-0.048639588
59	0xbd38b33e	-0.045092814
60	0xbdcd0e50	-0.100124955
61	0x3d1bbace	0.038019948
62	0x3df4c79f	0.11952137
63	0xbd5c2f9a	-0.053756334
64	0x3d099f3a	0.033599116
65	0x3ddcf5f0	0.10789096
66	0x3d7f39e4	0.06231107
67	0x3d956467	0.07294541
68	0x3e0b3116	0.13592944
69	0xbdb95f02	-0.090513244
70	0x3e0dca02	0.13846591
71	0x3d1cfa86	0.038324855
72	0x3d94ec7c	0.07271668
73	0xbe01c10c	-0.12671298
74	0xbd447a8f	-0.047968443
75	0x3dd43d98	0.103633106
76	0x3e10820d	0.1411211
77	0x3ddf5f59	0.10906858
78	0x3df112ca	0.11771162
79	0x3d189bcb	0.03725795
80	0xbd7983ce	-0.060916714
81	0xbdc3f304	-0.09567836
82	0xbd1f9b7f	-0.038966652
83	0xbde81dd6	-0.11333816
84	0x3d11b51f	0.03557312
85	0x3df49b3b	0.1194367
86	0xbd99af66	-0.07504158
87	0x3d8ff9ef	0.07030093
88	0xbce19667	-0.027537538
89	0xbdc05f1c	-0.09393141
90	0x3dac0694	0.08399692
91	0x3da67847	0.0812841
92	0x3e0a6970	0.13516784
93	0xbdcf0fa2	-0.101104036
94	0x3db3090e	0.087419614
95	0x3c7a3905	0.015272384
96	0x3e00804b	0.1254894
97	0x3ce58428	0.028017119
98	0x3ccf81b8	0.02533041
99	0xbe027b81	-0.12742426
100	0xbe0f9913	-0.14023237
101	0x3e04a8eb	0.12955062
102	0x3dd28195	0.10278622
103	0x3ddb8c9d	0.10720179
104	0x3db626f0	0.088941455
105	0x3e0f380f	0.13986228
106	0xbd6d3476	-0.05791136
107	0xbdab464a	-0.08363016
108	0x3c9ed1b0	0.019387096
109	0x3cdbc1bc	0.026825778
110	0xbcc6f6e2	-0.024287645
111	0xbdca1f00	-0.09869194
112	0xbcd9b918	-0.026577517
113	0x3e0a635c	0.13514465
114	0x3d08247b	0.033237915
115	0xbde317f9	-0.11088557
116	0x3dd73d97	0.10509794
117	0xbc030ce5	-0.00799868
118	0x3d4a7ca8	0.049435288
119	0x3e008868	0.12552035
120	0x3d774371	0.06036705
121	0xbe0fe594	-0.14052421
122	0xbc53d1d4	-0.012928445
123	0xbd5f6a12	-0.054544516
124	0x3e0a1486	0.13484392
125	0xbded4ed6	-0.115873024
126	0x3d4129da	0.047159053
127	0x3d362867	0.044472124
128	0xbe018cd6	-0.12651381
129	0x3defe0a6	0.1171277
130	0x3e005fc7	0.12536536
131	0xbcc45f04	-0.023971088
132	0x3e030581	0.12795068
133	0xbde7e377	-0.11322682
134	0x3c13e797	0.009027383
135	0xbd4eaabd	-0.050455797
136	0xbdbf94eb	-0.09354576
137	0xbd32a9a6	-0.04361882
138	0x3be7467a	0.007057962
139	0xbc8a84f2	-0.016909096
140	0xbd404fa8	-0.046950966
141	0x3b6c44c9	0.0036051741
142	0x3da746b9	0.08167786
143	0xbd135d16	-0.035977446
144	0x3e08fad4	0.13376933
145	0xbd03fc0a	-0.032222785
146	0xbd8a329d	-0.06747935
147	0xbe109d2d	-0.14122458
148	0x3e0334e5	0.12813146
149	0xbd9ff35a	-0.078100875
150	0x3dd13185	0.10214523
151	0xbda5e74d	-0.08100758
152	0xbd626056	-0.055267654
153	0xbd13f9bf	-0.03612685
154	0xbd000ac9	-0.031260286
155	0x3dae5ce5	0.08513812
156	0x3e0052b6	0.12531552
157	0xbdbcec37	-0.09224742
158	0x3c894790	0.016757756
159	0xbe100088	-0.14062703
160	0x3e08ff89	0.13378729
161	0x3c6fbb13	0.014632004
162	0x3dd9ca01	0.10634232
163	0xbdd88583	-0.1057234
164	0xbe09bbcb	-0.13450544
165	0xbd37c419	-0.044864748
166	0xbc87fda0	-0.01660043
167	0x3d5f51da	0.05452142
168	0xbc951a95	-0.018201152
169	0x3c3ac22e	0.011398835
170	0x3da16c05	0.07881931
171	0xbd9e5fba	-0.07733102
172	0xbd964e77	-0.07339185
173	0xbdba32aa	-0.09091695
174	0xbc7302d5	-0.014832218
175	0x3d9536e2	0.07285859
176	0xbd4ebcc1	-0.05047298
177	0xbc571c6b	-0.013129334
178	0xbdbcee58	-0.09225148
179	0x3bdb7f60	0.006698534
180	0xbe0ba7a5	-0.1363817
181	0xbce0d527	-0.027445389
182	0x3ab7c267	0.0014019728
183	0xbe009c09	-0.12559523
184	0x3d1565f1	0.036474172
185	0x3d529fb5	0.05142184
186	0x3deebb8b	0.11656865
187	0x3db0996c	0.08623013
188	0x3d9ad803	0.07560732
189	0x3dbbaf26	0.09164266
190	0xbc728c0a	-0.014803896
191	0xbcdbfc40	-0.02685368
192	0x3dfd0714	0.12354866
193	0x3dd5b38e	0.10434638
194	0x3e00ceb1	0.12578847
195	0xbdc3159a	-0.095256045
196	0x3dc39fb5	0.09551946
197	0x3d7de812	0.061988898
198	0xbe00343a	-0.12519923
199	0x3dd14bb8	0.1021952

lstm.bias_hh_l1 f4 [200]
0	0x3d29a20c	0.041414306
1	0xbd530e16	-0.051527105
2	0xbbfcc772	-0.0077142054
3	0x3d8658ff	0.065599434
4	0xbe0c5d9d	-0.13707586
5	0xbd242b3f	-0.040080305
6	0xbc0b32dc	-0.008496013
7	0xbe07f0f1	-0.13275506
8	0x3da2ba87	0.079457335
9	0xbc3674a6	-0.01113621
10	0x3dfeba44	0.12437871
11	0xba60874c	-0.00085650827
12	0xbd40d64a	-0.047079362
13	0xbd9e9e92	-0.07745089
14	0x3dcbe988	0.09956652
15	0xbc356457	-0.011071286
16	0xbda26ede	-0.079313025
17	0x3dbcfc10	0.092277646
18	0x3d56aa46	0.05240848
19	0x3e05c030	0.13061595
20	0xbd4a55cd	-0.049398232
21	0xbdb6972e	-0.08915554
22	0xbdc5c5ed	-0.09656892
23	0xbd64615c	-0.05575691
24	0xbe0c1f92	-0.13683918
25	0xbd922f68	-0.07137948
26	0x3dbf4223	0.093387865
27	0x3dfb6de9	0.12276823
28	0xbddba8d0	-0.10725558
29	0xbbe0b719	-0.0068577644
30	0xbde88e02	-0.11355211
31	0xbd3e8136	-0.046509944
32	0x3dc28879	0.09498686
33	0xbd64263f	-0.055700537
34	0xbd91fb1c	-0.071279734
35	0x3b0a97cb	0.0021147605
36	0xbdad463e	-0.08460663
37	0xbb22c3d3	-0.0024835959
38	0xbe06856c	-0.13136834
39	0x3dd52c62	0.10408856
40	0xbdb530fd	-0.088472344
41	0x3d981308	0.07425505
42	0xbded6d88	-0.11593157
43	0x3c19b43b	0.009381349
44	0x3dff543b	0.124672376
45	0xbd34857a	-0.044072606
46	0x3c97f34a	0.018548626
47	0xbd4b91cf	-0.0496996
48	0xbc811566	-0.015757274
49	0x3d9c7b02	0.076406494
50	0x3d06360e	0.032766394
51	0xbca91b21	-0.020642819
52	0xbdfb428e	-0.12268554
53	0x3c4ddfec	0.012565594
54	0x3d93e5dc	0.072215766
55	0x3c89b7ec	0.016811334
56	0xbdd0b651	-0.10191024
57	0x3d83175e	0.06400941
58	0xbdbd18da	-0.09233256
59	0xbde07851	-0.109604485
60	0x3d9aaf3f	0.07552957
61	0xbd6adf46	-0.057341836
62	0x3c366377	0.011132113
63	0x3d6c7093	0.057724547
64	0xbdef670b	-0.11689576
65	0x3d908271	0.0705613
66	0x3df6532b	0.12027582
67	0x3da0ce8c	0.07851896
68	0x3d776112	0.060395308
69	0x3dc2f475	0.09519283
70	0xbdb07c02	-0.086174026
71	0x3d8f0aa8	0.069844544
72	0xbe06c40e	-0.13160726
73	0xbdda7108	-0.1066609
74	0x3dfb26dd	0.12263272
75	0xbc5617b5	-0.013067176
76	0x3df0da83	0.11760428
77	0x3b28ff57	0.002578696
78	0xbd8ca8b1	-0.06868113
79	0xbd946fc3	-0.07247879
80	0x3defbfed	0.11706529
81	0x3dc5afdb	0.096526824
82	0x3d991067	0.074738316
83	0x3dbca980	0.09212017
84	0x3d1a9467	0.037739184
85	0x3ddec0c5	0.108766116
86	0x3df39c37	0.1189503
87	0x3e0e0b5b	0.1387152
88	0xbe03b3c5	-0.12861545
89	0xbde61075	-0.11233608
90	0xbdb338b5	-0.087510504
91	0x3d60a5dd	0.05484568
92	0x3daa08ec	0.08302483
93	0x3dc1ac3c	0.09456679
94	0x3dc7dba9	0.09758694
95	0x3d0821a3	0.033235203
96	0x3d615dd6	0.05502113
97	0xbdcd09ac	-0.100116104
98	0x3d803f6e	0.06262098
99	0xbdfbe727	-0.12299948
100	0x3d7d9674	0.06191106
101	0x3dbf18d9	0.09330911
102	0x3df46b7c	0.119345635
103	0xbe054bcb	-0.13017194
104	0x3e07cb07	0.13261043
105	0x3d2abdd3	0.041684937
106	0x3dc1cdac	0.09463057
107	0xbd8f4b4a	-0.06996782
108	0x3cab8031	0.02093515
109	0x3cef263a	0.029193033
110	0x3e023069	0.1271378
111	0xbd80a2db	-0.06281062
112	0xbe05862d	-0.13039465
113	0xbd89f76e	-0.067366466
114	0x3cd60525	0.0261255
115	0x3db37ee7	0.08764439
116	0x3e02cc3c	0.12773222
117	0x3dfc4068	0.12316972
118	0x3dfc3e0a	0.123165205
119	0xbe1002ea	-0.14063612
120	0xbda01c13	-0.07817855
121	0xbc1eacac	-0.009684723
122	0xbd897bb4	-0.067130476
123	0x3c3c93cf	0.01150985
124	0xbd5f7b18	-0.05456075
125	0xbde863cc	-0.1134716
126	0x3bdd59b4	0.006755078
127	0xbda870a5	-0.0822461
128	0x3d180717	0.037116136
129	0x3c3750d7	0.011188707
130	0x3db74b75	0.08949939
131	0x3d686e87	0.056746032
132	0x3de447b1	0.111464866
133	0xbda028cb	-0.07820281
134	0xbc9d1749	-0.019176142
135	0x3bade4e6	0.005306828
136	0xbd817f16	-0.06323068
137	0x3dda0df2	0.10647191
138	0x3dc9b667	0.098492436
139	0x3d0c57ec	0.034263536
140	0x3d945c7c	0.072442025
141	0x3d3bbada	0.045832492
142	0x3d7b1279	0.061296914
143	0x3d2dba08	0.04241374
144	0xbdcb6387	-0.09931093
145	0x3cf6fb8c	0.030149244
146	0xbddf584b	-0.109055124
147	0xbbc8b511	-0.0061251004
148	0xbd64645d	-0.055759776
149	0xbd8d8f39	-0.06912083
150	0xbd4f0821	-0.05054486
151	0x3c671f96	0.014106652
152	0x3d4d01c0	0.050050497
153	0x3d733f38	0.059386462
154	0xbd05aaa6	-0.032633446
155	0x3d6e202c	0.05813615
156	0xbdf4e4a3	-0.119576715
157	0x3d306c10	0.043071806
158	0xbcffc100	-0.03121996
159	0xb88b43c3	-6.640658e-05
160	0xbd22ff98	-0.039794534
161	0xbd27c120	-0.040955663
162	0xbd64d898	-0.055870622
163	0x3da3b3ab	0.07993253
164	0xbd53aaf5	-0.05167671
165	0x3d86c776	0.06581013
166	0xbd86af31	-0.06576384
167	0x3c6124c5	0.013741677
168	0x3d0df297	0.03465518
169	0xbdd627f6	-0.10456841
170	0xbe04874e	-0.1294224
171	0x3dc8c171	0.09802521
172	0xbdee9782	-0.116499916
173	0xbc9d1da6	-0.019179177
174	0x3dda74ce	0.1066681
175	0x3defdc14	0.117118984
176	0x3e0bd2ca	0.13654628
177	0xbdbc7e86	-0.0920382
178	0xbce9534b	-0.0284821
179	0x3e05b45f	0.13057087
180	0xbd8f60a2	-0.07000853
181	0x3e0c27c0	0.13687038
182	0x3d72006c	0.059082434
183	0xbd69945d	-0.057026256
184	0xbd2616f8	-0.04054925
185	0x3df6cdce	0.12050973
186	0xbcfb1493	-0.030649459
187	0xbd6c4ab5	-0.057688434
188	0x3ddee5e0	0.10883689
189	0xba839f9f	-0.0010042078
190	0xbd381c42	-0.044948824
191	0xbe0ffcb9	-0.1406125
192	0x3dff3c39	0.124626584
193	0x3e0c8a4c	0.13724631
194	0x3d968412	0.07349409
195	0x3d9b55f2	0.07584752
196	0xbd925075	-0.07144252
197	0xbe0272e8	-0.12739146
198	0x3d741812	0.059593268
199	0xbdd6adbf	-0.10482358

linear.weight f4 [1, 50]
0	0xbe55ade5	-0.20867117
1	0xbd61acd6	-0.05509647
2	0xbe219b35	-0.15781863
3	0x3e37ac94	0.17936927
4	0xbe17703c	-0.14788908
5	0x3e1285c4	0.1430884
6	0x3ccce88e	0.025013234
7	0x3e1b05da	0.15138951
8	0x3e441679	0.19149198
9	0x3de0b8e7	0.10972767
10	0x3d64bbe5	0.055843253
11	0x3df33ec0	0.11877203
12	0xbd788d98	-0.06068191
13	0xbe2a8487	-0.16652118
14	0xbdd121b3	-0.10211506
15	0xbdd0665b	-0.10175773
16	0x3da93198	0.082614124
17	0x3db98f86	0.09060578
18	0xbe09d3c6	-0.13459691
19	0x3dbd4ca5	0.092431344
20	0x3e19d9af	0.15024446
21	0xbdaea280	-0.08527088
22	0xbe413a7c	-0.18869966
23	0x3e622f4b	0.22088353
24	0x3d8b1e5a	0.067928985
25	0xbe3b30f7	-0.18280397
26	0xbde63ee2	-0.11242463
27	0x3e2b018b	0.16699807
28	0x3e38319f	0.17987679
29	0xbe459f51	-0.19299056
30	0xbdabcb6d	-0.0838841
31	0xbc96fb78	-0.018430457
32	0xbe3a8a35	-0.18216784
33	0x3b9b5617	0.0047404873
34	0xbe4005f6	-0.18752274
35	0xbd51d1e1	-0.051225547
36	0xbe550fab	-0.20806758
37	0x3de9639e	0.113959536
38	0x3df4b974	0.11949435
39	0x3e0811ad	0.13287993
40	0x3e44c7aa	0.19216791
41	0x3e02b8eb	0.12765853
42	0xbe27fd80	-0.16405296
43	0xbdea6d14	-0.11446586
44	0xbe467ec0	-0.19384289
45	0xbde5d345	-0.11221937
46	0xbe499467	-0.19685517
47	0xbdf56c71	-0.11983574
48	0xbe6ee581	-0.23329736
49	0x3dd93cc7	0.106072955
