Time-Series---Forecasting/Results/local/model15.pth (torch, 44628 bytes, 5 tensors)

lstm.weight_ih_l0 f4 [200, 1]
0	0xbdc031e1	-0.09384514
1	0xbd50a810	-0.050941527
2	0xbe1f8766	-0.15578994
3	0x3a918271	0.0011101497
4	0x3d3f6e76	0.046736203
5	0x3dc45f6a	0.09588511
6	0xbd1ed32f	-0.03877562
7	0x3c335775	0.010946144
8	0x3dcf7b1f	0.10130905
9	0xbd1a6220	-0.037691236
10	0xbaf8e3c0	-0.0018988773
11	0x3d5a2fc0	0.053268194
12	0xbbfbc541	-0.0076834266
13	0xbc727b1a	-0.0147998575
14	0x3dd885a7	0.10572367
15	0xbbc4b32a	-0.0060028033
16	0x3c984653	0.01858822
17	0x3c6e3d67	0.014541007
18	0xbd25c5ef	-0.040471967
19	0x3d712d95	0.05888136
20	0x3db3bfde	0.0877683
21	0x3e25249c	0.16127247
22	0xbdaece71	-0.08535469
23	0xbdc6c7db	-0.09706088
24	0xbe70a6ae	-0.23501083
25	0xbe054e81	-0.13018228
26	0x3da35eeb	0.079770885
27	0x3d31a6da	0.043372013
28	0x3c959b12	0.01826242
29	0x3e1b66ee	0.15175983
30	0xbdee07ec	-0.11622605
31	0xbcabb27c	-0.020959131
32	0xbdb57d5b	-0.088618
33	0x3d7546b3	0.059881877
34	0xbe03d0a2	-0.12872556
35	0xbe0bba75	-0.13645346
36	0xbe7fb53b	-0.24971478
37	0x3dc1b516	0.094583675
38	0x3d3d2383	0.046176445
39	0x3e23fa83	0.16013531
40	0x3dc8f53a	0.09812398
41	0xbd18f1db	-0.037340026
42	0xbe83e07c	-0.25757205
43	0xbe3c02bb	-0.18360417
44	0x3e3cbce2	0.18431428
45	0x3c2a59d9	0.010397398
46	0x3da8dfc0	0.08245802
47	0x3c7a8302	0.015290024
48	0x3e29d6e4	0.1658588
49	0x3e49421d	0.19654126
50	0xbe52ee82	-0.20598796
51	0x3dddebf3	0.10836019
52	0xbdbce2b7	-0.0922293
53	0x3d9e8c5b	0.077416144
54	0x3c367bf5	0.011137952
55	0x3d50977a	0.05092571
56	0xbe8d14e7	-0.2755501
57	0x3cb7e35e	0.022447284
58	0x3e0ac25e	0.13550708
59	0xbca81fb7	-0.020522935
60	0xbe0f8247	-0.1401454
61	0xbe343477	-0.17598139
62	0xbda53c95	-0.08068196
63	0x3c310705	0.010804896
64	0xbd3b64c5	-0.0457504
65	0xbd152102	-0.03640843
66	0xbd1360a2	-0.035980828
67	0xbdadd603	-0.08488085
68	0xbe15af7b	-0.14617722
69	0x3db797a3	0.08964469
70	0xbd829495	-0.06375996
71	0x3e15468c	0.14577693
72	0xbdf174fd	-0.11789892
73	0xbd8d1549	-0.068888254
74	0xbd67f96a	-0.056634344
75	0x3d7fdec4	0.062468305
76	0x3e055fe7	0.13024865
77	0xbe0486a0	-0.1294198
78	0xbdaf80ab	-0.08569463
79	0xbd525bb2	-0.05135698
80	0xbdf50736	-0.11964266
81	0xbd6ab574	-0.057301953
82	0xbd4f7592	-0.050649233
83	0x3db27087	0.08712869
84	0xbd97a1b1	-0.07403887
85	0xba8e86e6	-0.0010873943
86	0xbdc586b7	-0.096448354
87	0x3dc7ae25	0.09750012
88	0x3da90c9b	0.082543574
89	0x3e2ac6a4	0.16677338
90	0x3e67ad13	0.22624616
91	0xbdf8967e	-0.12138079
92	0xbdbcffaa	-0.092284516
93	0xbde63514	-0.112405926
94	0x3e16debd	0.14733405
95	0xbc8d9a16	-0.017285388
96	0x3d1a415c	0.037659988
97	0xbdd2ec55	-0.10298983
98	0x3e4875df	0.19576214
99	0xbc33ad91	-0.010966674
100	0x3d6abfbe	0.057311766
101	0x3de568fe	0.11201666
102	0x3e17e215	0.14832337
103	0xbdfd0996	-0.12355344
104	0xbeaf01e1	-0.3418112
105	0x3e681597	0.22664486
106	0xbe034ba0	-0.12821817
107	0x3e0523db	0.13001959
108	0x3e0d5d5b	0.13805144
109	0x3e3a55f7	0.18196855
110	0x3de4c729	0.11170799
111	0x3d1c1fcd	0.038116265
112	0xbe647147	-0.22308837
113	0x3cad070c	0.021121524
114	0x3dc52b33	0.0962738
115	0x3e5fb991	0.21848132
116	0x3d3d557d	0.046224106
117	0x3d2d8a4c	0.04236822
118	0xbdffd912	-0.12492575
119	0x3e8b8e1f	0.27256867
120	0x3db8959c	0.09012911
121	0x3dcf942f	0.10135686
122	0xbe29d525	-0.16585214
123	0x3d74ab26	0.059733532
124	0xbded7d4c	-0.11596164
125	0xbe4c41a7	-0.1994692
126	0x3cb1bb4d	0.021695757
127	0xbe7abd0c	-0.24486178
128	0x3e418017	0.18896519
129	0xbe2dfb58	-0.16990411
130	0xbe2f7c7b	-0.1713733
131	0x3da2b62d	0.079449035
132	0x3e199b74	0.15000707
133	0x3e4a8c61	0.19780113
134	0xbe42cca6	-0.1902338
135	0x3da7881e	0.08180259
136	0x3e4ab8fd	0.1979713
137	0xbe0117f0	-0.12606788
138	0xbdab9cda	-0.083795264
139	0x3e4dffa7	0.20117055
140	0xbe475bea	-0.19468656
141	0x3db7f05a	0.0898139
142	0xbe204e93	-0.15654974
143	0xbde3ebc6	-0.111289546
144	0x3dca8667	0.098889165
145	0x3e0962bf	0.13416575
146	0xbdbb9c12	-0.091606274
147	0x3e043bc1	0.1291342
148	0xbe3cf6d6	-0.18453535
149	0xbd31142c	-0.043232128
150	0xbe330fd0	-0.174865
151	0x3dcef82f	0.10105931
152	0xbd900ab2	-0.0703329
153	0xbbe09a3b	-0.006854323
154	0x3dbf6968	0.093462765
155	0x3e25e275	0.16199668
156	0xbe98d068	-0.298465
157	0xbe5a9949	-0.21347536
158	0x3d869e6f	0.065731876
159	0x3d3e13a8	0.046405464
160	0x3dbf60d8	0.09344643
161	0xbcef4414	-0.029207267
162	0xbe8ac00a	-0.2709964
163	0xbd8907e8	-0.06690961
164	0x3e4ff26b	0.20307319
165	0x3caa2654	0.02077023
166	0xbd8ecd2a	-0.06972726
167	0xbe074c6e	-0.1321275
168	0x3dab50c3	0.083650135
169	0xbe0b5ae1	-0.13608886
170	0xbe1ce24c	-0.153207
171	0x3e53ec43	0.20695595
172	0xbd2e8746	-0.042609476
173	0xbd1e84d7	-0.038700905
174	0xbe927cad	-0.28610745
175	0xbd28a532	-0.041173168
176	0x3e2ee62d	0.17079993
177	0xbd2910a6	-0.041275643
178	0xbd88de29	-0.06682999
179	0xbd2a5ad5	-0.04159053
180	0xbdb461da	-0.08807726
181	0x3dfb4444	0.1226888
182	0xbd07b44b	-0.033130925
183	0x3cb06038	0.021530256
184	0xbda38bb5	-0.079856314
185	0xbd9b8c6c	-0.07595143
186	0xbe2a1411	-0.16609217
187	0x3e4bc053	0.19897585
188	0x3d68c6b2	0.056830116
189	0x3db0e24e	0.08636914
190	0x3e9d542c	0.3072828
191	0xbe2df653	-0.16988496
192	0xbe84785d	-0.2587308
193	0xbdb84860	-0.089981794
194	0x3e24a1d7	0.16077362
195	0x3dce6852	0.10078491
196	0xbbf8e3d5	-0.007595519
197	0x3ced9f74	0.029006697
198	0x3e2dec68	0.16984713
199	0x3de9ad0c	0.11409959

lstm.weight_hh_l0 f4 [200, 50]
0	0xbdf933f7	-0.12168115
1	0xbd1c9251	-0.038225476
2	0xbdc29647	-0.095013194
3	0x3c196e3a	0.009364659
4	0x3e074820	0.13211107
5	0xbd5353b0	-0.051593482
6	0xbda49ed9	-0.0803811
7	0xbd34e741	-0.044165853
8	0x390973db	0.00013108498
9	0xbd060c0f	-0.032726344
10	0x3ddd2d31	0.10799635
11	0xbe1c6b3f	-0.15275286
12	0xbcd5a3cb	-0.02607908
13	0xbc31b6e5	-0.010846828
14	0x3d2ca349	0.04214791
15	0xbce21430	-0.027597517
16	0x3da6e816	0.08149736
17	0xbdf8828f	-0.12134277
18	0x3db9fc6e	0.0908135
19	0xbe1ca340	-0.1529665
20	0x3d157f96	0.03649863
21	0x3db5fcb2	0.088860884
22	0xbd8fb6c7	-0.07017284
23	0xbd0aadea	-0.033857264
24	0xbde8cc1c	-0.11367056
25	0x3e1d6cc4	0.15373522
26	0xbd83e111	-0.064394124
27	0xbcbdb788	-0.023158804
28	0xbdfb4bd1	-0.1227032
29	0x3df22a97	0.118245296
30	0xbdb63f66	-0.08898811
31	0xbe077663	-0.13228755
32	0xbd92c165	-0.07165793
33	0xbd9304d2	-0.07178654
34	0xbdb002a5	-0.085942544
35	0x3c2d5c19	0.01058104
36	0xbd97a44e	-0.074043855
37	0x3d5c8205	0.053834934
38	0x3d8e576e	0.0695027
39	0x3dbfe760	0.09370303
40	0x3d915dac	0.070979446
41	0x3deb1dbe	0.11480282
42	0x3e209beb	0.15684478
43	0x3e1e6f32	0.15472105
44	0xbdbd0fa4	-0.09231499
45	0x3db5d753	0.088789605
46	0x3c9aace1	0.018881263
47	0xbd98634f	-0.074408166
48	0xbc6ba98a	-0.014383683
49	0x3dc98191	0.09839166
50	0xbe2b129f	-0.16706322
51	0xbda9196c	-0.08256802
52	0xbe1ee63f	-0.1551752
53	0xbd22aec0	-0.039717436
54	0x3db3d8fb	0.0878162
55	0x3d70abd8	0.058757633
56	0x3d19a354	0.037509277
57	0xbe0ee0b9	-0.13952912
58	0x3d2d6d0f	0.042340335
59	0x3c83b4a9	0.016077356
60	0x3d4176e9	0.047232542
61	0xbd136c42	-0.035991915
62	0x3e06fec4	0.13183123
63	0x3d0f8155	0.03503545
64	0xbd4d7376	-0.05015894
65	0xbdc1978a	-0.09452732
66	0xbd78ffbd	-0.060790766
67	0x3c24be45	0.010055129
68	0xbe068b2f	-0.13139032
69	0x3dbe8003	0.0930176
70	0x3d1562ff	0.036471363
71	0x3e0a2cd1	0.13493659
72	0xbb1e1e6f	-0.0024127027
73	0xbe03398e	-0.12814924
74	0xbda0d967	-0.07853966
75	0x3b50a4fc	0.003183662
76	0x3e02aa9b	0.12760393
77	0x3dc30367	0.09522133
78	0xbd25ae71	-0.040449563
79	0x3cbfee81	0.023429157
80	0xbd54f0a0	-0.05198729
81	0xbe2c9c7f	-0.16856574
82	0xbdfbcd7b	-0.12295052
83	0xbb540835	-0.0032353525
84	0x3cfe3a45	0.031033644
85	0x3c2edba7	0.010672486
86	0xbd1fc645	-0.039007444
87	0xbd0859f6	-0.03328892
88	0xbe22391b	-0.15842097
89	0xbd98d2ae	-0.07462059
90	0x3d08935f	0.03334367
91	0xbdcb4b74	-0.09926501
92	0xbd5016dd	-0.050803054
93	0x3e0b0ab0	0.13578296
94	0xbcb4e7e9	-0.02208324
95	0x3e2647a6	0.16238269
96	0xbd81c1e2	-0.06335808
97	0x3bac2186	0.0052530197
98	0xbe01cca2	-0.12675717
99	0x3c8fcf58	0.017554924
100	0xbdb6739e	-0.08908771
101	0x3bb9cc45	0.005670103
102	0xbdb8ab0a	-0.09016998
103	0x3c5f1b72	0.013617383
104	0x3d8292cc	0.063756555
105	0xbcecee89	-0.028922336
106	0xbdc6a303	-0.09699061
107	0xbd0da10a	-0.034577407
108	0x3dd91cf2	0.10601224
109	0xbd7873f8	-0.06065747
110	0xbe250317	-0.1611446
111	0xbba1fc48	-0.0049434043
112	0xbbb9d9bd	-0.0056717084
113	0x3ce9635d	0.028489763
114	0x3e1e4692	0.15456608
115	0xbd90b1e1	-0.07065178
116	0x3d3844c1	0.044987444
117	0xbe2821ca	-0.1641914
118	0xbe1d0e9b	-0.15337603
119	0x3daac75b	0.08338805
120	0xbdd468fb	-0.10371586
121	0x3bda0309	0.006653194
122	0x3da9d77d	0.08293054
123	0xbe23a8c1	-0.15982343
124	0xbd4057a8	-0.046958596
125	0x3d56eadf	0.052470084
126	0x3cbd84d7	0.023134632
127	0xbe05b7a1	-0.1305833
128	0xbd7df5ea	-0.0620021
129	0xbe061bc0	-0.13096523
130	0x3d835cce	0.064141855
131	0xbcfd205c	-0.03089922
132	0xbdb9f18e	-0.09079276
133	0x3d9fb22e	0.07797657
134	0xbdb49707	-0.08817869
135	0xbc834fc0	-0.016029239
136	0x3d75f3f1	0.060047094
137	0xbe0e343f	-0.13887118
138	0xbe388548	-0.18019593
139	0x3c18857e	0.009309171
140	0xbe24810a	-0.1606485
141	0xbbe1ec24	-0.0068946052
142	0xbce8e330	-0.028428644
143	0x3df5d7d6	0.12004058
144	0xbd84796d	-0.06468473
145	0x3db8fd1f	0.09032654
146	0x3d61dceb	0.055142324
147	0xbd9582c5	-0.07300333
148	0xbe269677	-0.16268335
149	0xbe284153	-0.16431169
150	0x3d04b613	0.032400202
151	0xbc50c0cf	-0.012741282
152	0x3d24c320	0.04022515
153	0xbd8d6e60	-0.06905818
154	0x3e0cedb6	0.13762555
155	0x3c89b1a1	0.016808333
156	0xbd588daf	-0.052869495
157	0xbdc4ee6d	-0.096157886
158	0xbb8f773e	-0.0043782284
159	0xbc624329	-0.013809958
160	0xbdccd5a4	-0.10001686
161	0x3cb617db	0.022228172
162	0x3d73cb33	0.059519958
163	0x3b17498b	0.0023084607
164	0x3dcd8386	0.10034852
165	0x3d1bad97	0.038007345
166	0xbd2b6277	-0.04184195
167	0xbe0a68df	-0.13516568
168	0xbcb27e19	-0.021788644
169	0x3de5cb09	0.112203665
170	0x3df4a1fa	0.11944957
171	0x3d2778fe	0.04088687
172	0x3dd32d26	0.10311346
173	0x3c3c46f7	0.011491529
174	0x3d935f01	0.07195855
175	0xbdd60863	-0.104508184
176	0x3e1165ee	0.1419904
177	0xbc887ca2	-0.016660992
178	0xbc85e277	-0.016343338
179	0xbdfc86b2	-0.123303786
180	0x3c058c66	0.008151149
181	0xbc63c087	-0.013900883
182	0x3dfe5a7f	0.124196045
183	0x3de23dd6	0.110469505
184	0x3cf627c2	0.030048255
185	0xbd9c58de	-0.076341376
186	0xbe1a7329	-0.15082993
187	0xbd901d3c	-0.07036826
188	0x3aa0944c	0.0012251227
189	0x3ce06c12	0.027395282
190	0x3d2611cd	0.04054432
191	0x3d576dbb	0.05259488
192	0x38d98d61	0.000103737
193	0x3e0d336d	0.13789149
194	0x3e394059	0.18090953
195	0x3e0bb65d	0.13643785
196	0x3de2061b	0.11036321
197	0x3d897fa6	0.067138
198	0xbddd68b9	-0.1081099
199	0xbdbf0c2a	-0.09328492
200	0xbe69a06c	-0.22815102
201	0xbdb77401	-0.08957673
202	0xbd478feb	-0.048721235
203	0x3e755d3c	0.23961347
204	0xbda93661	-0.08262325
205	0x3dfc40d4	0.123170525
206	0x3dc7cae7	0.097554974
207	0xbe993b34	-0.2992798
208	0xbdd2962e	-0.10282551
209	0x3db72058	0.08941716
210	0xbdc510db	-0.096223556
211	0xbe2192c6	-0.15778646
212	0x3d6327ea	0.055457987
213	0xbe992b28	-0.29915738
214	0x3e8a4237	0.27003643
215	0x3b97ab47	0.004628572
216	0x3e2f9666	0.17147216
217	0xbdb59545	-0.088663615
218	0xbe7d7263	-0.24750666
219	0xbdd806e1	-0.10548187
220	0xbe590b18	-0.21195638
221	0x3d3450cb	0.044022363
222	0x3e6c4773	0.2307413
223	0xbe326d16	-0.17424425
224	0x3e7d1e53	0.24718599
225	0x3e0b965a	0.13631573
226	0x3e86fc30	0.2636428
227	0xbd24b23d	-0.040209044
228	0x3db106a4	0.08643845
229	0xbe11d960	-0.14243078
230	0x3e3af4c7	0.18257438
231	0x3d9edebb	0.07757326
232	0xbe0d31f1	-0.13788582
233	0xbd3c72d2	-0.04600794
234	0x3e860146	0.26172847
235	0xbea8e406	-0.32986468
236	0xbe6d0bda	-0.23149052
237	0xbe641db2	-0.22276953
238	0xbac38aab	-0.0014918646
239	0x3e19faa4	0.15037018
240	0xbe23b4b8	-0.15986907
241	0xbe83a203	-0.25709543
242	0x3e925c3a	0.28585988
243	0x3e6a2b58	0.22868097
244	0x3e3bb8ff	0.18332289
245	0x3d7e35bd	0.062062968
246	0x3e1d8b92	0.15385273
247	0x3eaa66a8	0.33281446
248	0xbe40a1f6	-0.18811783
249	0xbe2b4d65	-0.16728742
250	0xbd1736ac	-0.036917374
251	0xbdd471c3	-0.10373261
252	0x3dca2248	0.0986982
253	0x3df5d45c	0.12003395
254	0xbd491b5f	-0.04909837
255	0x3e43af30	0.19109797

lstm.bias_ih_l0 f4 [200]
0	0x3a9a0c58	0.0011752946
1	0xbda57d73	-0.08080568
2	0xbd4ea6da	-0.05045209
3	0x3c671679	0.014104479
4	0x3e2f6cb3	0.17131309
5	0x3d6f9e14	0.058500364
6	0x3e01c77f	0.12673758
7	0xbba6ad9e	-0.0050866148
8	0x3e0fcb23	0.14042334
9	0x3db0704e	0.086151704
10	0xbdca6f05	-0.098844565
11	0x3dbcf470	0.0922631
12	0x3dca06cc	0.09864578
13	0x3d815368	0.063147366
14	0x3d8a3981	0.06749249
15	0x3e236af1	0.15958764
16	0x3d90971f	0.07060074
17	0xbdac2973	-0.08406343
18	0xbd1d1087	-0.03834584
19	0x3e221c4f	0.15831111
20	0x3e411b55	0.18858083
21	0xbcb8173a	-0.022472013
22	0xbd433b28	-0.047663838
23	0x3e1328c0	0.14371014
24	0x3db34057	0.08752506
25	0x3db0a974	0.086260706
26	0xbbd5d1df	-0.0065252627
27	0x3e64bc06	0.2233735
28	0xbd00bbd9	-0.031429145
29	0x3db48193	0.08813777
30	0xbd86dc69	-0.06585009
31	0xbd8fd378	-0.07022756
32	0xbda5ca9c	-0.08095285
33	0x3d84ab19	0.06477947
34	0xbd514198	-0.051087946
35	0xbd96315e	-0.07333635
36	0x3e247601	0.1606064
37	0xbc787abc	-0.015165981
38	0x3d78b4f3	0.06071944
39	0x3d263dd7	0.04058632
40	0x3e0095aa	0.12557092
41	0xbdadcb82	-0.08486082
42	0x3e3e7860	0.18600607
43	0xbdce7679	-0.100811906
44	0x3c8c0803	0.017093664
45	0x3e1ddb71	0.15415742
46	0xbd148e91	-0.036268774
47	0x3e169768	0.14706194
48	0xbcd478ef	-0.025936572
49	0xbca559d5	-0.020184437
50	0xbc87d3a2	-0.016580407
51	0xbd967449	-0.073463984
52	0x3db91f68	0.090391934
53	0x3de59a54	0.112110764
54	0xbe08aa30	-0.13346171
55	0xbd6e14a1	-0.058125142
56	0x3d395429	0.045246277
57	0x3d9b8ce7	0.07595234
58	0xbdd15d72	-0.102229014
59	0xbd2a786c	-0.04161875
60	0xbdfbf5ff	-0.123027794
61	0x3ce06ac5	0.027394662
62	0x3d468bc3	0.04847313
63	0x3d9c2e61	0.076260336
64	0xbdeaf737	-0.11472934
65	0x3d5da70e	0.054114394
66	0xbdfbcbaf	-0.12294709
67	0xbd251f92	-0.04031331
68	0x3d972cf5	0.07381622
69	0x3e0be760	0.13662481
70	0x3d9ae81b	0.07563802
71	0x3e28aa1f	0.16471146
72	0x3dcf3758	0.10117978
73	0x3d1af84e	0.037834458
74	0xbca1be9e	-0.019744214
75	0xbd742566	-0.05960598
76	0x3e045fe2	0.12927201
77	0x3d8b3f76	0.067992136
78	0x3dbe1197	0.09280699
79	0x3ddfd36c	0.109289974
80	0x3ab1fe03	0.001357973
81	0xbdb60022	-0.08886744
82	0xbcbb95c7	-0.022898568
83	0xbc558981	-0.013033272
84	0xbdcdc30b	-0.10046967
85	0x3e2c1c63	0.16807704
86	0xbc4607f3	-0.012086856
87	0x3da8714a	0.08224733
88	0xbd0e6452	-0.03476364
89	0xbb14d635	-0.0022710685
90	0x3d917409	0.0710221
91	0x3d34da27	0.04415336
92	0x3dbdc935	0.09266893
93	0x3c05d1e5	0.008167719
94	0x3e1286c6	0.14309224
95	0x3df0f325	0.11765126
96	0x3db35a10	0.087574124
97	0x3e03b6dd	0.12862726
98	0xbdcc318b	-0.09970387
99	0x3e141068	0.14459383
100	0xbd5c25fb	-0.05374716
101	0xbd4ec7e4	-0.0504836
102	0x3dbb0539	0.091318555
103	0xbd8ca5c0	-0.06867552
104	0x3dc69399	0.09696121
105	0x3e17caff	0.1482353
106	0x3b81276f	0.0039414684
107	0xbd583064	-0.052780524
108	0x3df16546	0.117868945
109	0x3df1e021	0.11810327
110	0xbd3beca4	-0.045879975
111	0x3d2a05de	0.0415095
112	0xbdeecb44	-0.116598636
113	0xbd9fad54	-0.077967316
114	0xbd3281c4	-0.043580785
115	0xbd9dcaca	-0.077046946
116	0x3dcde749	0.1005388
117	0x3cc03859	0.023464369
118	0xbcdd41ab	-0.027008852
119	0x3d7e1eb7	0.06204101
120	0xbde576a2	-0.11204268
121	0x3d2ca32b	0.042147797
122	0xbdf5c091	-0.1199962
123	0xbe0bcc10	-0.13652062
124	0x3e1b50b5	0.15167506
125	0x3ddaf2a8	0.10690814
126	0x3dc9523c	0.09830138
127	0x3dff9ae3	0.12480714
128	0x3cf87851	0.030330809
129	0xbddd3408	-0.1080094
130	0x3df7d705	0.121015586
131	0x3caecd1b	0.021338036
132	0xbe154360	-0.14576483
133	0x3cec01d1	0.02880946
134	0xbcc654c4	-0.024210341
135	0xbe3164e1	-0.17323638
136	0xbda12c48	-0.07869774
137	0xbdbda674	-0.09260264
138	0xbd992e50	-0.074795365
139	0x3de63b2a	0.112417534
140	0xbd323d2d	-0.043515373
141	0x3db5c540	0.08875513
142	0x3d16a862	0.036781676
143	0xbd69fec6	-0.057127737
144	0x3da1f6de	0.07908414
145	0x3dfe9cc3	0.12432244
146	0x3e083b11	0.13303782
147	0x3d16a109	0.03677467
148	0xbe0d6cf7	-0.13811098
149	0x3d429ce7	0.047512915
150	0xbc2c29ea	-0.01050804
151	0xbcad19da	-0.021130491
152	0x3df6a119	0.12042446
153	0xbdc9f72d	-0.09861598
154	0x3df44bfc	0.11928555
155	0x3e32ef7c	0.17474169
156	0x3e21396b	0.1574456
157	0xbd6e71c1	-0.058213953
158	0x3e2ce9e0	0.16886091
159	0x3e1c09cc	0.15238112
160	0x3df2ee9e	0.11861919
161	0xbd1a508a	-0.037674464
162	0x3d826ce4	0.063684255
163	0xbd5ecabf	-0.054392572
164	0xbda36b50	-0.079794526
165	0xbd6dfb1f	-0.058100816
166	0xbdcaddc7	-0.09905582
167	0xbdb21772	-0.08695878
168	0x3e0e9319	0.13923301
169	0x3e66295b	0.22476713
170	0x3dd0b29b	0.10190316
171	0x3d6d24ec	0.05789654
172	0x3e406186	0.18787202
173	0x3d6c90ef	0.057755407
174	0x3c84c9ac	0.016209446
175	0xbdbfc381	-0.09363461
176	0xbd816d29	-0.06319649
177	0x3e7c3333	0.24628906
178	0x3de35e0d	0.11101923
179	0xbcf2305e	-0.029564079
180	0x3e33a9e8	0.17545283
181	0x3d3c938f	0.04603916
182	0x3a2e113a	0.000664014
183	0x3e265a22	0.1624532
184	0xbd849b0c	-0.06474885
185	0xbdcd24c2	-0.100167766
186	0x3db01168	0.0859707
187	0x3d0529c7	0.032510545
188	0x3d9b513b	0.07583853
189	0x3d7aca79	0.06122825
190	0xbcbf2460	-0.023332775
191	0xbd47523d	-0.048662413
192	0xbd89b85c	-0.06724617
193	0x3d6df4f8	0.05809495
194	0xbce3275d	-0.02772873
195	0xbd766e76	-0.060163938
196	0xbc4c8a58	-0.012484156
197	0x3dee1259	0.11624593
198	0xbca5f309	-0.02025749
199	0x3e00dbb7	0.12583815

lstm.bias_hh_l0 f4 [200]
0	0x3d02ed90	0.03196484
1	0x39e659fd	0.00043936065
2	0x3e209408	0.1568147
3	0x3dc06fe0	0.093963385
4	0x3e44642a	0.19178835
5	0x3cb80bf1	0.022466632
6	0x3e106424	0.141007
7	0x3cadcdeb	0.021216353
8	0x3df7deb1	0.12103022
9	0x3d75ccb8	0.06000969
10	0x3e0af024	0.13568169
11	0x3daec461	0.0853355
12	0xbd26f5f6	-0.04076191
13	0x3e234c61	0.15947105
14	0x3e281d1f	0.16417359
15	0x3b342083	0.0027485199
16	0xbe01b3b4	-0.12666208
17	0xbd4f2c39	-0.050579283
18	0xbda07a97	-0.07835882
19	0x3e8597d5	0.260924
20	0x3db75e62	0.08953549
21	0x3d7974af	0.060902294
22	0x3d275505	0.040852565
23	0xbdbea2e5	-0.093084134
24	0x3e04b402	0.12959293
25	0xbdb5c072	-0.08874597
26	0xbb8a585f	-0.0042219604
27	0x3e383366	0.17988357
28	0x3dca5f53	0.09881463
29	0xbd9c9937	-0.07646411
30	0x3cf70508	0.030153766
31	0x3e2a9223	0.16657309
32	0x3e1c9657	0.15291725
33	0xbc16de51	-0.009208278
34	0x3da4c2af	0.080449454
35	0xbc7a6fa3	-0.015285405
36	0xbd060c2b	-0.032726448
37	0xbc1e4a69	-0.009661295
38	0x3e2673ec	0.16255158
39	0x3e362db3	0.1779087
40	0xbc518e76	-0.012790313
41	0x3cc8c46a	0.02450772
42	0xbbcabce2	-0.0061870674
43	0x3d93670a	0.071973875
44	0x3c0b74c6	0.008511728
45	0xbd210359	-0.039309833
46	0x3e0e0781	0.1387005
47	0x3d81144d	0.063027
48	0x3e3c16ca	0.18368068
49	0xbd8b66f6	-0.068067476
50	0xbd176e97	-0.0369707
51	0xbc3e21d4	-0.011604745
52	0xbd111956	-0.035424553
53	0x3e1d03e8	0.15333521
54	0x3d3c4da2	0.045972474
55	0xbdbede4d	-0.09319744
56	0xbdb71373	-0.089392565
57	0x3e1d08e5	0.15335424
58	0x3e0b1e29	0.13585724
59	0x3ddda753	0.1082293
60	0xbdb7fc4e	-0.0898367
61	0x3e009975	0.12558539
62	0x3cb701cd	0.022339726
63	0x3c17fa16	0.009275934
64	0x3cfe0f92	0.031013284
65	0xbc19dd7a	-0.009391183
66	0xbdaca24c	-0.08429393
67	0x3e0e1fad	0.13879271
68	0xbd7ff129	-0.062485848
69	0x3c9a8fcc	0.018867396
70	0x3d82761f	0.06370186
71	0x3e227a65	0.15867002
72	0xbd4ed3c4	-0.050494924
73	0xbccccc0a	-0.024999637
74	0xbdd887b9	-0.10572762
75	0xbd55e3ea	-0.05221931
76	0x3d5a4dc3	0.053296816
77	0x3d42d985	0.047570724
78	0x3d8326d8	0.06403893
79	0xbc95337f	-0.018213032
80	0x3d70c57e	0.058782093
81	0x3d8ba199	0.06817932
82	0xbe0a8ec6	-0.13531026
83	0xbdcb629b	-0.09930917
84	0x3de6da10	0.11272061
85	0xbd158846	-0.036506914
86	0xbda10080	-0.078614235
87	0xbd6b3e48	-0.057432443
88	0x3d9c00cb	0.07617339
89	0x3cc71188	0.024300352
90	0xbd55ad14	-0.052167013
91	0xbceccd83	-0.02890659
92	0x3db40761	0.0879047
93	0x3e19fd98	0.15038145
94	0xbd8181c1	-0.06323577
95	0xbd8afff6	-0.06787102
96	0x3d1a84f7	0.03772446
97	0x3e082793	0.13296346
98	0x3ce8a997	0.02840118
99	0x3dc2975b	0.09501525
100	0x3d2918b7	0.041283336
101	0x3d5f948c	0.054585025
102	0xbe1562fd	-0.14588542
103	0x3dddf793	0.10838237
104	0xbe058405	-0.13038643
105	0x3ded8fd2	0.11599697
106	0x3da98f04	0.08279231
107	0xbdc941b9	-0.09826989
108	0xbd0c515c	-0.034257278
109	0xbda29fa9	-0.07940609
110	0x3d8d1ff9	0.06890864
111	0xbde6a182	-0.11261274
112	0x3de1d2ef	0.110265605
113	0xbe1ae257	-0.15125404
114	0x3e10e5a0	0.14150095
115	0xbcb6defe	-0.022323128
116	0x3dcab21b	0.09897252
117	0xbdf946e1	-0.12171722
118	0xbe28a1e0	-0.16468
119	0x3c825563	0.015909856
120	0x3e044d26	0.12920055
121	0x3d44f1d0	0.048082173
122	0x3d902655	0.07038561
123	0xbe0683ef	-0.13136266
124	0xbd1cf280	-0.038317204
125	0xbded19e0	-0.11577201
126	0x3c3c8abb	0.011507685
127	0xbdcdb2f3	-0.100438975
128	0xbd9fa809	-0.07795722
129	0x3db00b2b	0.0859588
130	0x3d71050b	0.0588427
131	0x3c5c44ac	0.013444107
132	0x3d2f49ed	0.04279511
133	0x3defd318	0.11710185
134	0x3df8ee26	0.12154798
135	0xbdaf54e7	-0.08561116
136	0xbce232e2	-0.027612153
137	0xbc4d2158	-0.012520157
138	0x3d249eed	0.040190626
139	0xbdac5cd2	-0.084161416
140	0xbde05347	-0.10953384
141	0xbdeaf1cc	-0.114719
142	0x3e0a1c77	0.13487421
143	0x3e057b7e	0.1303539
144	0xbc973974	-0.018460013
145	0x3dfdd030	0.12393224
146	0x3e02e148	0.1278125
147	0x3e27e6b7	0.16396604
148	0x3d00737d	0.03136014
149	0xbe1f2d43	-0.1554461
150	0xbb9c4740	-0.004769236
151	0x3e0bcdd5	0.13652737
152	0xbd1f1557	-0.03883871
153	0x3e14330a	0.14472595
154	0x3e145363	0.14484935
155	0x3d24a409	0.0401955
156	0x3d268aa8	0.040659577
157	0x3e1b14ab	0.15144603
158	0xbcb3b6e3	-0.021937793
159	0x3da54fe6	0.0807188
160	0xbd7bf490	-0.06151253
161	0xbdd1dc75	-0.10247127
162	0xbbf31f69	-0.007419516
163	0xbbca013b	-0.0061646975
164	0xbddae1e0	-0.106876135
165	0xbd78d9ce	-0.06075459
166	0xbd7a76c2	-0.061148413
167	0x3da4ff85	0.08056549
168	0x3d86277a	0.06550498
169	0x3e78dfb1	0.24304081
170	0x3d79b419	0.06096277
171	0x3e2e95a8	0.17049277
172	0x3e3161ed	0.17322512
173	0x3dd7509b	0.10513421
174	0xbdd193a1	-0.10233236
175	0x3e3e1f3c	0.18566602
176	0xbda5dbbb	-0.08098551
177	0x3e1af5be	0.15132806
178	0xbd94acbf	-0.07259511
179	0xbd4a0359	-0.0493196
180	0xbda77837	-0.08177226
181	0x3e20ea50	0.15714383
182	0x3c6d0d3c	0.014468487
183	0x3a3985f9	0.00070771534
184	0x3d6a090e	0.05713754
185	0x3d9d7fae	0.076903686
186	0x3e2f4fb4	0.17120248
187	0x3df6490e	0.12025653
188	0xbbb8b776	-0.0056371046
189	0xbd945d3f	-0.07244348
190	0x3e486a93	0.19571905
191	0x3e20666e	0.15664074
192	0xbd66f896	-0.056389414
193	0xbd4f4210	-0.05060011
194	0x3e389269	0.18024601
195	0xbdc23517	-0.09482782
196	0xbda36a2f	-0.07979237
197	0x3df6efd7	0.120574646
198	0x3d1a33ad	0.037646938
199	0xbc0e9ce9	-0.0087044025

linear.weight f4 [1, 50]
0	0x3e056cb0	0.13029742
1	0x3dee29ae	0.116290435
2	0x3e1dbaf2	0.15403345
3	0xbde24147	-0.11047607
4	0xbe41ed2b	-0.18938129
5	0x3df8a8d8	0.121415794
6	0xbd906081	-0.07049657
7	0x3dbe5926	0.092943475
8	0x3dbc63ea	0.091987446
9	0x3d5605ee	0.05225175
10	0x3d5e405b	0.054260593
11	0x3e441c7b	0.1915149
12	0xbe4a99b8	-0.19785202
13	0xbcb826ba	-0.022479404
14	0x3e4063f8	0.18788135
15	0x3e1abc0f	0.15110801
16	0x3d96a5c0	0.07355833
17	0x3dc11880	0.09428501
18	0xbd08af5e	-0.03337037
19	0x3e9d0888	0.3067057
20	0x3e0c4b6f	0.1370065
21	0x3dbb8522	0.091562524
22	0xbe6565d2	-0.22402123
23	0x3df5012d	0.11963115
24	0xbde27eca	-0.11059339
25	0xbdb28947	-0.0871759
26	0x3e1a406d	0.15063639
27	0xbe9cf7d1	-0.3065782
28	0x3e4e4cf7	0.20146547
29	0xbe3dff4a	-0.18554416
30	0xbe2d9501	-0.16951372
31	0xbcae784e	-0.0212976
32	0x3e073ac7	0.13206016
33	0x3d93f950	0.07225287
34	0xbe4202b6	-0.18946347
35	0x3d5cc44e	0.05389815
36	0x3e36f3d7	0.17866455
37	0xbe123db9	-0.14281358
38	0xbd35fce9	-0.044430647
39	0x3e560c7a	0.20903197
40	0xbddff2a9	-0.109349556
41	0x3e0a2f59	0.13494624
42	0xbd353c0d	-0.044246722
43	0xbe44330c	-0.19160098
44	0x3e469b2f	0.19395135
45	0x3e22b11b	0.15887873
46	0xbde11c0c	-0.10991678
47	0x3a587ba6	0.0008258171
48	0xbe61057f	-0.21974753
49	0xbd60dec9	-0.054899964
