Time-Series---Forecasting/Results/local/model23.pth (torch, 9428 bytes, 5 tensors)

lstm.weight_ih_l0 f4 [80, 1]
0.15726633 0.31109163 0.074397355 -0.028289376 0.08082658 -0.0603245 -0.1830065 -0.33566386
0.04279664 -0.07694741 0.14260603 0.14649978 -0.2214709 -0.20911743 -0.018684516 -0.27779162
0.049868863 0.11359645 -0.013432697 -0.40437695 0.17992225 0.060007833 -0.05170377 0.06783606
-0.18903418 -0.22561005 -0.07537996 -0.4047478 0.19948278 -0.03320127 0.047696352 0.25400683
-0.05909323 0.006960061 0.061005805 -0.08581654 0.16383995 -0.014560796 -0.19406493 -0.27157673
0.12171645 -0.34910798 0.30940023 0.119177744 0.14544444 -0.16439986 0.110662974 -0.23689993
0.2339935 0.41434696 0.26067367 0.16970813 0.118598506 0.3146671 -0.27455547 0.25660425
-0.13146931 0.26620504 -0.17390363 -0.15291958 0.18203023 0.36833358 0.1214546 0.28707176
0.12193822 0.03844361 -0.28752938 -0.3243667 0.1717983 -0.082242966 -0.10199861 0.10691626
-0.25234058 0.11981323 0.42172754 -0.3524985 0.35024914 0.28978267 -0.10416153 -0.24785195
00000000: 6d0a 213e 6747 9f3e a45d 983d 1fbf e7bc
00000010: 6888 a53d d316 77bd 0e66 3bbe 22dc abbe
00000020: 884b 2f3d 9b96 9dbd 5107 123e 0a04 163e
00000030: 45c9 62be e122 56be 4510 99bc b43a 8ebe
00000040: 4b43 4c3d 41a5 e83d d114 5cbc 7f0a cfbe
00000050: 8a3d 383e c6ca 753d 55c7 53bd a2ed 8a3d
00000060: 2d92 41be 5206 67be cf60 9abd 1b3b cfbe
00000070: 3745 4c3e 0efe 07bd 405d 433d 2f0d 823e
00000080: be0b 72bd 3911 e43b 39e1 793d 95c0 afbd
00000090: a9c5 273e 6890 6ebc f5b8 46be 1b0c 8bbe
000000a0: 7946 f93d 48be b2be b569 9e3e 7613 f43d
000000b0: 63ef 143e 7058 28be 45a3 e23d e595 72be
000000c0: fe9b 6f3e 4925 d43e 0577 853e f8c7 2d3e
000000d0: c6e3 f23d 0c1c a13e 8992 8cbe a261 833e
000000e0: e49f 06be 074c 883e cb13 32be f396 1cbe
000000f0: 2266 3a3e 3896 bc3e 30bd f83d 12fb 923e
00000100: bfba f93d 0c77 1d3d 0d37 93be 6413 a6be
00000110: e5eb 2f3e 006f a8bd a6e4 d0bd eaf6 da3d
00000120: c932 81be a460 f53d acec d73e af7a b4be
00000130: db53 b33e 655e 943e a452 d5bd e7cc 7dbe

lstm.weight_hh_l0 f4 [80, 20]
-0.1474983 -0.035290346 -0.17040747 0.028178677 0.107578255 -0.10446617 -0.15052202 0.2523703
-0.12199632 0.08878324 0.17733157 0.21597286 -0.15924601 -0.12140567 0.14808336 -0.0142581435
-0.1015681 0.010998529 -0.08986151 -0.121306494 -0.097502165 -0.066095285 -0.06595356 0.093743905
-0.08929605 0.1760869 0.015697148 0.28101435 -0.084389225 0.2066731 0.16856441 0.10403413
-0.25128073 -0.0009278659 -0.013422576 -0.09845496 -0.2652761 -0.10853987 0.22749259 0.06176302
0.29892063 -0.18371622 -0.00062983786 0.18573453 0.1758255 -0.05339576 -0.152864 0.25281918
0.16583094 0.15886422 0.04677316 0.09892411 -0.524685 -0.24456829 -0.11002518 -0.42015094
-0.20595129 -0.10072299 -0.011056053 0.13800296 0.23058303 -0.21191652 0.21499367 -0.03204792
0.111066096 0.11453868 -0.28939852 0.3412972 -0.10290369 -0.10529372 -0.0073427847 -0.050674796
-0.08826551 0.07806562 -0.24698964 -0.12219164 -0.2678411 -0.103326805 0.21905437 0.16796066
0.21849754 0.065236114 0.116515405 -0.018443154 0.1939914 -0.21095936 -0.11048662 0.10370607
0.06793344 -0.11039905 0.09886305 0.33031666 -0.0034901684 -0.11687719 -0.29265112 0.06447308
-0.20273979 -0.11250053 0.107662596 0.095316805 -0.0084164385 0.17075805 0.07614839 0.23668687
-0.16929409 0.124279186 -0.26815617 0.046659447 0.035142433 0.17439492 0.020602249 -0.05724333
-0.013608921 0.14819393 0.0044431873 0.05753427 -0.22582115 0.18533456 -0.15769303 -0.0053987172
0.10780937 -0.0972305 0.14168689 -0.13290986 -0.042617258 0.22921921 0.048343316 -0.053220633
-0.15373346 0.10964561 -0.1008757 -0.013809656 0.18957104 -0.30982023 0.024203308 -0.12437214
-0.043332547 -0.20226313 0.09963111 0.180088 -0.1891452 0.0560017 -0.29059148 0.16136418
-0.19346802 0.035272393 -0.16793066 0.29557788 -0.123404525 -0.19770503 -0.3098791 0.19920607
0.16023417 -0.04818097 -0.2716254 -0.1470204 -0.27629375 -0.24525233 0.10608313 0.029897306
-0.088001005 -0.098877035 -0.013239531 -0.084263675 -0.02668474 0.09355428 -0.058941558 0.2496139
0.121376246 0.07031952 -0.052715596 -0.028140375 -0.26057228 -0.011162677 0.1251659 -0.30810407
0.07018056 0.038940724 0.154502 0.21384108 0.28617078 -0.06071818 0.051359255 0.16459107
0.1602529 -0.0008583185 -0.32679158 0.4452513 0.24460411 0.054962702 -0.45593876 -0.018028507
-0.20991024 0.23306116 -0.33235043 -0.6875413 -0.029348759 0.14913586 0.059546333 0.5444966
0.3464382 -0.15730286 0.13461831 -0.068594106 0.06730897 0.24710092 -0.12358246 0.12603007
-0.15562409 0.03821082 -0.075786024 0.052240044 -0.12810786 0.08251715 0.10429801 -0.09864955
-0.018572044 0.062104553 -0.07872023 -0.15147164 0.015222464 -0.19960548 0.14584762 -0.057583954
0.13493164 -0.19461636 -0.04862435 0.09985229 -0.14876701 0.11507515 0.004347518 0.07152377
-0.10628664 -0.1782213 -0.15418608 -0.20699118 0.037957113 0.22555068 0.16992426 -0.027374351
-0.12991008 0.27928773 -0.38932112 -0.28889647 0.027615024 0.29794395 -0.1491875 0.11004589
-0.1279457 -0.44782007 -0.31883833 0.011549421 -0.3245553 -0.047086656 -0.087147586 -0.22620484
00000000: cb09 17be 9c8c 10bd 4c7f 2ebe f8d6 e63c
00000010: fd51 dc3d 5cf2 d5bd 7222 1abe ae36 813e
00000020: 35d9 f9bd fdd3 b53d 6896 353e fd27 5d3e
00000030: 6311 23be 89a3 f8bd 2aa3 173e fd9a 69bc
00000040: f002 d0bd 2d33 343c 5009 b8bd 8a6f f8bd
00000050: 37af c7bd f75c 87bd a912 87bd cefc bf3d
00000060: d9e0 b6bd 2050 343e 4e97 803c 1de1 8f3e
00000070: 42d4 acbd 1da2 533e 269c 2c3e d90f d53d
00000080: dea7 80be 073c 73ba 5dea 5bbc c1a2 c9bd
00000090: 45d2 87be 274a debd d1f3 683e 38fb 7c3d
000000a0: 200c 993e 1b20 3cbe b41b 25ba 3131 3e3e
000000b0: 9a0b 343e 83b5 5abd 6188 1cbe 8471 813e
000000c0: 96cf 293e 4dad 223e 3795 3f3d b998 ca3d
000000d0: c251 06bf 1c70 7abe e254 e1bd 061e d7be
000000e0: e5e4 52be db47 cebd 7324 35bc a650 0d3e
000000f0: f51d 6c3e a500 59be 4d27 5c3e ae44 03bd
00000100: 9f76 e33d 4193 ea3d 0b2c 94be 82be ae3e
00000110: 2bbf d2bd 3ca4 d7bd be9b f0bb 6090 4fbd
00000120: 8cc4 b4bd dee0 9f3d daea 7cbe 9c3f fabd
00000130: 7822 89be 019d d3bd ca4f 603e e1fd 2b3e
00000140: d2bd 5f3e 839a 853d a19f ee3d 1916 97bc
00000150: aea5 463e bb05 58be cf46 e2bd d963 d43d
00000160: b020 8b3d e618 e2bd b678 ca3d 441f a93e
00000170: 4fbb 64bb 4f5d efbd 5ed6 95be 760a 843d
00000180: 059b 4fbe ae66 e6bd 357e dc3d 7535 c33d
00000190: 1ae5 09bc 33db 2e3e b0f3 9b3d 0b5e 723e
000001a0: 6e5b 2dbe 1686 fe3d c44b 89be fa1d 3f3d
000001b0: 83f1 0f3d 9594 323e 0cc6 a83c fb77 6abd
000001c0: f4f7 5ebc 26c0 173e 2898 913b 0ea9 6b3d
000001d0: a93d 67be 58c8 3d3e 487a 21be b9e7 b0bb
000001e0: 29cb dc3d c920 c7bd 5e16 113e 8619 08be
000001f0: 6f8f 2ebd 71b8 6a3e a403 463d e1fd 59bd
00000200: 4e6c 1dbe e18d e03d eb97 cebd e541 62bc
00000210: e91e 423e c2a0 9ebe 0446 c63c d2b6 febd
00000220: 787d 31bd 111e 4fbe 650b cc3d fd68 383e
00000230: 48af 41be 0a62 653d 68c8 94be a73c 253e
00000240: 7b1c 46be c979 103d 04f6 2bbe fc55 973e
00000250: 83bb fcbd 3073 4abe 79a8 9ebe adfc 4b3e
00000260: 6d14 243e 6959 45bd 7c12 8bbe 848c 16be
00000270: 6076 8dbe 6d23 7bbe 1d42 d93d 32eb f43c
00000280: df39 b4bd 0b80 cabd 9eea 58bc 6f92 acbd
00000290: f599 dabc 6399 bf3d b46c 71bd c99a 7f3e
000002a0: 1c94 f83d ae03 903d 4fec 57bd a586 e6bc
000002b0: bb69 85be a9e3 36bc 7d2b 003e d1bf 9dbe
000002c0: d3ba 8f3d 4f80 1f3d c635 1e3e 28f9 5a3e
000002d0: fa84 923e a0b3 78bd 155e 523d 908a 283e
000002e0: 5619 243e c800 61ba 3a51 a7be faf7 e33e
000002f0: 8079 7a3e 9220 613d ce70 e9be 85b0 93bc
00000300: b6f2 56be 96a7 6e3e d629 aabe b502 30bf
00000310: cf6c f0bc 12b7 183e dbe6 733d 2164 0b3f
00000320: 5960 b13e 0014 21be 62d9 093e 117b 8cbd
00000330: 49d9 893d 0608 7d3e cd18 fdbd 070e 013e
00000340: ec5b 1fbe f382 1c3d b435 9bbd a8f9 553d
00000350: b52e 03be c0fe a83d 329a d53d c608 cabd
00000360: 6624 98bc 5861 7e3d 1238 a1bd 621b 1bbe
00000370: a467 793c 6165 4cbe 1459 153e 27dd 6bbd
00000380: 852b 0a3e 8349 47be 542a 47bd 5b7f cc3d
00000390: 6156 18be 85ac eb3d a075 8e3b 0e7b 923d
000003a0: cfac d9bd a57f 36be f5e2 1dbe 7ff5 53be
000003b0: eb78 1b3d c2f6 663e a000 2e3e 2d40 e0bc
000003c0: 2607 05be cdfe 8e3e 1955 c7be 3dea 93be
000003d0: e738 e23c 1c8c 983e 9cc4 18be bd5f e13d
000003e0: 3304 03be ac48 e5be c73e a3be c839 3d3c
000003f0: 1d2c a6be f0dd 40bd 6f7a b2bd 3ea2 67be

lstm.bias_ih_l0 f4 [80]
0.21503189 -0.037725396 0.17414126 -0.05822194 -0.007919301 -0.17612442 0.0062785633 0.17768596
-0.08578071 0.3705034 0.06481427 0.06688923 -0.07073041 -0.048168123 0.10231653 0.2680829
0.21196534 0.20513302 -0.036258824 0.018735284 0.09786274 0.0280998 -0.11652059 0.07598468
0.27828377 0.020829419 0.020561513 0.06735435 -0.22899382 -0.025781713 0.23548438 0.14713651
0.12312109 0.20653784 0.22447546 0.14436674 0.10234663 -0.07164156 0.21541789 -0.1319311
0.07644939 -0.024122266 -0.060576253 -0.11629212 -0.07636747 0.1272954 -0.11627239 0.2523713
0.041143667 0.11695238 -0.22785175 0.16425945 -0.10912056 0.20039248 -0.12709221 -0.040697042
-0.28319696 0.16452771 0.15722346 0.24454491 -0.12981649 0.0712501 0.08858892 -0.092259355
0.14523782 0.0780079 0.14011969 0.33968687 0.12882915 0.08323753 0.3133644 0.24136406
-0.010009667 0.20252608 -0.09078925 0.04534428 0.032623958 0.24307804 0.26984942 0.16997743
00000000: 5231 5c3e f285 1abd 1652 323e 217a 6ebd
00000010: f5bf 01bc f659 34be 68bc cd3b 4ff3 353e
00000020: ccad afbd 9fb2 bd3e 58bd 843d 38fd 883d
00000030: 1bdb 90bd f04b 45bd 548b d13d 2942 893e
00000040: 710d 593e 640e 523e 2284 14bd bd7a 993c
00000050: 436c c83d 8d31 e63c 59a2 eebd db9d 9b3d
00000060: 367b 8e3e 75a2 aa3c 9e70 a83c 14f1 893d
00000070: 5b7d 6abe 2c34 d3bc d122 713e f4aa 163e
00000080: e926 fc3d a87e 533e e5dc 653e e0d4 133e
00000090: 1c9b d13d cfb8 92bd 8296 5c3e f218 07be
000000a0: 7f91 9c3d 0f9c c5bc ce1e 78bd 902a eebd
000000b0: 8c66 9cbd ba59 023e 3820 eebd d036 813e
000000c0: 4386 283d bb84 ef3d f851 69be a133 283e
000000d0: 9a7a dfbd b033 4d3e 7624 02be f1b1 26bd
000000e0: 31ff 90be f479 283e 30ff 203e fb69 7a3e
000000f0: 9dee 04be 93eb 913d 1c6e b53d 79f2 bcbd
00000100: 39b9 143e 9bc2 9f3d 897b 0f3e 70eb ad3e
00000110: caeb 033e 7078 aa3d 4c71 a03e 2428 773e
00000120: 96ff 23bc ff62 4f3e b7ef b9bd ecba 393d
00000130: b3a0 053d 73e9 783e b429 8a3e 900e 2e3e

lstm.bias_hh_l0 f4 [80]
-0.045371693 0.2532447 0.3121892 -0.022546502 -0.04193486 0.13882354 -0.030735774 0.2113617
0.20472927 0.08453164 0.21464856 0.04354731 0.21556683 0.012850376 0.009615678 -0.04281636
0.28642032 0.26566833 0.10730966 0.13443312 -0.11520308 -0.18292524 -0.10691125 0.11152725
0.28413072 -0.010026456 0.28443718 0.11149811 -0.016854981 -0.18307659 -0.045325007 0.09297639
0.049031284 -0.07219876 -0.05337315 -0.0802785 -0.086791985 -0.10698664 0.26267216 -0.019324549
0.07287689 -0.09366798 0.15023981 0.18548033 0.06914028 0.036753997 -0.065928474 0.18090017
0.14391027 0.15697345 -0.03056455 0.18892056 0.016733982 0.0021567156 -0.16627854 -0.029798985
-0.2615562 0.012013512 0.19510084 0.27780896 -0.09267001 0.20176607 0.17038625 0.1560002
0.18023032 0.28730702 0.09490208 0.18975921 -0.13518913 0.36662343 0.10382813 0.021755174
0.07171211 -0.01522667 0.20625885 0.2451625 0.15553656 0.2077595 0.20474297 0.060804665
00000000: abd7 39bd 4aa9 813e 43d7 9f3e 71b3 b8bc
00000010: e3c3 2bbd c227 0e3e 97c9 fbbc 346f 583e
00000020: 8da4 513e ed1e ad3d d5cc 5b3e aa5e 323d
00000030: 8dbd 5c3e 628a 523c 148b 1d3c 3560 2fbd
00000040: afa5 923e ae05 883e 2bc5 db3d d6a8 093e
00000050: 98ef ebbd c150 3bbe 49f4 dabd 6668 e43d
00000060: 9579 913e 0146 24bc c0a1 913e 1f59 e43d
00000070: 7513 8abc 6e78 3bbe b7a6 39bd 686a be3d
00000080: 07d5 483d f2dc 93bd ce9d 5abd 0e69 a4bd
00000090: ffbf b1bd d01b dbbd f77c 863e 844e 9ebc
000000a0: 7b40 953d ffd4 bfbd 77d8 193e 8eee 3d3e
000000b0: 6b99 8d3d 5c8b 163d 8205 87bd e53d 393e
000000c0: 375d 133e a6bd 203e 8262 fabc 6474 413e
000000d0: b415 893c af57 0d3b ec44 2abe 001d f4bc
000000e0: b2ea 85be 52d4 443c 84c8 473e fa3c 8e3e
000000f0: c6c9 bdbd c49b 4e3e bc79 2e3e 84be 1f3e
00000100: 4c8e 383e e819 933e 065c c23d 3d50 423e
00000110: 056f 0abe 11b6 bb3e d8a3 d43d e837 b23c
00000120: ccdd 923d 4879 79bc 8535 533e e10b 7b3e
00000130: fa44 1f3e e8be 543e 24a8 513e 500e 793d

linear.weight f4 [1, 20]
0.12825577 -0.24153218 0.1841829 0.21975963 0.23938991 -0.10591485 0.17836626 -0.114902854
0.27679536 0.51896495 0.35905287 0.27338526 0.10744232 0.34443268 -0.2829175 0.19326909
-0.048389915 0.21232241 -0.17405419 -0.23124094
00000000: 7b55 033e 3654 77be 719a 3c3e ab08 613e
00000010: a122 753e e3e9 d8bd a5a5 363e 3052 ebbd
00000020: 1fb8 8d3e e3da 043f c7d5 b73e 27f9 8b3e
00000030: b80a dc3d 7b59 b03e 90da 90be 55e8 453e
00000040: 8134 46bd 0c6b 593e 433b 32be 6dca 6cbe
