Time-Series---Forecasting/Results/local/model11.pth (torch, 126548 bytes, 9 tensors)

lstm.weight_ih_l0 f4 [200, 1]
000000 06 39 df bc 7c 4a 23 3e 77 ba 0f 3e 25 2a 18 3e
       -0.02724887 0.15946382 0.14035974 0.14859827
000010 8a b0 a3 bc dd 99 3f 3d 42 e9 0c be 46 48 5a bd
       -0.019981641 0.046777595 -0.13760856 -0.05329158
000020 a6 5a c4 bd b5 bc 8f 3d 28 1a c6 3c 80 78 0d 3d
       -0.09587602 0.07018415 0.024182394 0.034538746
000030 20 d8 38 3c da b5 6d 3d 2b 0a fd 3d e3 bd f1 bd
       0.011281997 0.058034755 0.12355455 -0.11803796
000040 49 13 b5 bd 6c 10 4e bd a7 6e 51 3d fe 37 09 bd
       -0.08841569 -0.05030863 0.051130917 -0.033500664
000050 3b 31 85 bd 80 0b c5 3c dd 2b 6d 3e 56 8f 1b 3e
       -0.065035306 0.024053335 0.23161264 0.15191397
000060 db 9b 2f 3e f2 55 87 bd 7b e3 24 3e c3 13 8d be
       0.17149298 -0.0660819 0.16102402 -0.2755414
000070 3d d0 aa bc 53 47 24 3d fd 53 8f bd 55 56 2a bd
       -0.020851249 0.040107083 -0.06998441 -0.04158624
000080 95 6c 02 3e d2 2a 0d be 03 80 0b bd 4d a0 98 3c
       0.12736733 -0.13785866 -0.03405763 0.018631125
000090 90 4c bf 3d cc 84 fa bd 36 9e cd bd 9b d2 d6 bd
       0.09340775 -0.1223236 -0.10039942 -0.104893886
0000a0 fc 1d c5 bc 6f 46 26 3b 0f 47 e7 bd 7f ab 1c 3c
       -0.02406215 0.0025371572 -0.1129285 0.009562372
0000b0 ec 9b 48 bd 88 51 77 bd 88 f3 b9 bd 1b 71 28 3e
       -0.048976824 -0.06038049 -0.09079653 0.16449396
0000c0 57 76 b3 bc 67 9a 92 bd cc 55 d4 3d 7b 80 1c 3e
       -0.021907015 -0.07158356 0.10367927 0.15283386
0000d0 57 fe 04 bd 0a 17 d7 bc be b9 03 be aa 1e 15 3c
       -0.03246912 -0.026256103 -0.12863824 0.009101549
0000e0 31 2c 18 bd ce dd 12 bd bb f6 06 be 2c 51 fb 3d
       -0.03715152 -0.03585606 -0.13180058 0.12271342
0000f0 2a 36 f8 bc 02 7d d9 3b 2a 93 74 3d ec e6 a4 bd
       -0.030299265 0.0066372165 0.05971066 -0.08051857
000100 35 49 0a 3d 80 72 67 bd df c3 cd bd 60 e3 b9 3d
       0.033761222 -0.05650568 -0.10047125 0.090765715
000110 3e 28 1e 3e d9 43 33 3e af 31 c7 3d 55 db d0 3d
       0.15445039 0.1750635 0.09726273 0.10198084
000120 d0 ea 53 3e fa e0 96 3c 34 98 04 3e ce 4c a3 bd
       0.20695043 0.018417824 0.12948686 -0.07973634
000130 16 9b c4 bd 72 c4 2a be 9c 72 b4 bc 8a 07 4a bc
       -0.09599893 -0.166765 -0.022027306 -0.012330899
000140 bc d7 20 3e 61 cf 4c be 47 b1 f8 bc aa 9e ee bc
       0.15707296 -0.20000984 -0.03035797 -0.029128391
000150 ea 17 5c bd 77 e6 ed bd f7 13 70 bd e1 08 79 3d
       -0.053733744 -0.11616223 -0.05861279 0.060799483
000160 f4 42 73 bd 3e 8a 28 bd 69 5c 56 3e 6e 29 a1 bb
       -0.059390023 -0.041147463 0.20933689 -0.004918269
000170 9e c3 db bc 99 f5 c2 bd 0d e0 21 be f9 64 05 3e
       -0.026826676 -0.095195 -0.15808125 0.130268
000180 d8 10 ca 3d d4 45 42 3e d9 88 11 be 19 22 c2 bd
       0.09866494 0.1897195 -0.1421236 -0.0947916
000190 d7 41 4d be 42 2e 2e 3d e2 f9 b0 3d d8 ef 01 3e
       -0.20044647 0.042524584 0.08641411 0.1268915
0001a0 96 98 02 3d 02 f4 1c be 11 09 8c 3d 80 2a 12 3c
       0.0318838 -0.15327457 0.06837667 0.008921266
0001b0 52 f7 4e be c8 50 b9 bc 42 27 5c 3d a4 91 44 3d
       -0.20211533 -0.022621527 0.053748377 0.047990456
0001c0 f3 60 1a 3e 85 8a 3b 3e 27 51 3f 3e 63 5f 44 be
       0.15076046 0.1831456 0.18683301 -0.19177012
0001d0 63 47 97 3c 90 c9 ca bc e4 4a 3d be 95 80 06 bd
       0.018466657 -0.024754316 -0.184856 -0.03283747
0001e0 55 4f fc bd 80 b9 6e be 47 24 a7 3d 94 fd 14 3e
       -0.12319819 -0.2331295 0.08161216 0.14549857
0001f0 1b bf 15 bd 83 7f 16 3e 5f 8f 2d be 7e 59 a2 bd
       -0.036559206 0.1469708 -0.16949223 -0.079272255
000200 39 55 0b 3e 3d dd b8 bc 75 8a 46 3e e9 e1 64 be
       0.13606729 -0.022566432 0.19388755 -0.22351803
000210 2e 96 2f 3e c1 5b 56 be 3a 12 6c 3d 6a 16 5c 3e
       0.17147133 -0.20933439 0.05763457 0.21492925
000220 4a 6e 88 bd 44 48 bb 3d b4 4b 00 3e 7a b7 ea bd
       -0.06661661 0.09144643 0.12528878 -0.114607766
000230 a9 e5 2f 3e 5d ef 59 be 18 f5 64 be 34 10 bc 3d
       0.17177452 -0.21282716 -0.22359121 0.09182778
000240 5a b2 aa bd 9a a4 15 3e 62 38 42 be 86 86 a0 bd
       -0.08334799 0.14613572 -0.18966821 -0.07838158
000250 68 0e 31 be 52 dd 10 be 91 da 76 bd 1c a2 06 3e
       -0.17290652 -0.14146927 -0.060267035 0.13147777
000260 e8 3f 83 3d 9d 80 19 3e a8 d3 a8 3d 46 c7 11 3d
       0.064086735 0.14990468 0.08243495 0.035590433
000270 94 21 85 bd a7 d7 40 3d eb 03 06 be b7 b0 93 3d
       -0.06500545 0.047080662 -0.13087432 0.0721144
000280 ce 27 73 bb 89 b1 6d be 73 2e cd bd d0 19 9e 3d
       -0.0037102583 -0.23212256 -0.10018625 0.07719767
000290 a9 c2 e5 3d 5b 66 bb bd 46 61 17 be 66 18 8f bd
       0.11218769 -0.09150382 -0.147832 -0.069870755
0002a0 7b f1 18 3e 1d f8 0b 3e c3 3a b5 3c 0f 22 54 bd
       0.14935867 0.13668866 0.022122746 -0.051790293
0002b0 2a fc 55 3e 29 fa 23 3e 47 41 9d 3d 0f 90 b5 3c
       0.20896974 0.16013397 0.07678466 0.022163419
0002c0 b9 ff c3 3d c6 61 77 be c5 96 ec bd d4 b4 50 3e
       0.095702596 -0.24158391 -0.115521945 0.2038148
0002d0 23 7a a8 3c 93 14 4f be 24 39 08 bd 0b 05 ae bd
       0.020566052 -0.20222692 -0.03325762 -0.084970556
0002e0 01 07 f0 bd ff 2a c0 3d 5a 31 03 3e 59 72 8f bd
       -0.11720086 0.09383201 0.12811795 -0.07004232
0002f0 c2 06 5e 3d 07 17 2b be 80 74 b8 3d 02 c7 43 bd
       0.054205664 -0.16708003 0.090065956 -0.04779721
000300 ae 1e 67 3b 3d a4 14 bd 06 c6 a9 bd 43 c6 e4 3d
       0.003526609 -0.036289442 -0.08289723 0.11170628
000310 b8 3a ac 3d 93 6e 90 3d 61 2b 2d bd 10 91 5b bd
       0.08409637 0.0705234 -0.042277697 -0.05360514

lstm.weight_hh_l0 f4 [200, 50]
000000 80 29 f1 bc ef 12 80 bd d2 56 18 3e fa 3e 93 3d
       -0.029438734 -0.06253611 0.1487687 0.07189746
000010 0d f3 4b 3d 63 dd c1 3c f7 45 09 be d0 b9 8d 3c
       0.04979234 0.023665136 -0.13405596 0.017300516
000020 ba 23 e0 bd 2b eb 11 be d3 45 81 3d d0 50 af 3d
       -0.10944314 -0.14249866 0.06312146 0.08560336
000030 2d 2d 1f be f7 c6 de 3d 45 4a 19 bd 76 8a 08 3e
       -0.15544577 0.10877793 -0.037424345 0.13334069
000040 f7 6c 69 3d dd 58 8b 3d 23 4f 33 bd b1 27 e6 3c
       0.056988683 0.06804059 -0.043776643 0.028095098
000050 f0 89 bf bd bd 09 25 3c 1d f4 0f 3c 1a ec 71 3b
       -0.09352481 0.010073123 0.0087862285 0.003691441
000060 f6 74 c1 bd bb 8a 78 bd 8d 05 0d 3d d0 e6 81 bd
       -0.09446137 -0.06067918 0.03442912 -0.06342852
000070 c9 40 40 bd 94 1d 79 3d 46 b0 93 bd 51 37 f7 bc
       -0.046936784 0.060819224 -0.07211356 -0.030177744
000080 97 fb eb 3d 4a d7 98 3d 32 22 c4 bb 0c 82 4a bd
       0.11522596 0.07462938 -0.0059855217 -0.04944043
000090 fd 52 42 3b 8f 7c 13 bb 72 67 84 bd 2b 7c 1d 3e
       0.0029651516 -0.0022504663 -0.06465043 0.15379398
0000a0 b9 f9 6c 3a d0 8f b8 bd a5 a8 82 bd 97 65 77 3d
       0.0009039897 -0.09011805 -0.06379823 0.060399618
0000b0 a7 22 91 3d ea 05 0f be 6a 4f 57 3d 87 80 e0 bd
       0.070866875 -0.139671 0.05256597 -0.10962015
0000c0 ef 26 b8 bd de 80 a0 3d 9d 4d a9 3d 29 d7 90 bc
       -0.08991801 0.078370795 0.08266757 -0.017680721
0000d0 82 b0 d1 3d 01 ef c1 bd f5 9b 05 3c ef f0 c6 bc
       0.10238744 -0.094694145 0.008154859 -0.024284808
0000e0 cb e4 81 3d 21 d0 80 bd 0a a1 d8 3d 62 d9 c0 bc
       0.06342467 -0.062896974 0.10577591 -0.023541156
0000f0 76 81 b2 bd 10 81 e0 bd 22 8c 9f 3d 66 24 8d 3d
       -0.08716099 -0.10962117 0.077904 0.06891708
000100 c7 10 ac bd 4e b6 01 bd 8d 8c ee 3c aa 4e 24 be
       -0.084016375 -0.031668 0.029119754 -0.16045633
000110 e2 8d ca 3d 3a 2a 23 be 2f e7 40 3d c1 ea 2d be
       0.09890343 -0.15934077 0.047095474 -0.16984083
000120 63 b0 a0 3d cc 43 36 bd e4 97 ce bd c3 05 53 3d
       0.07846143 -0.04449825 -0.100875646 0.051519167
000130 99 8f 43 bd a2 a2 31 3e 35 21 46 bc 58 d8 cc bd
       -0.047744367 0.17347196 -0.012092878 -0.10002202
000140 a1 10 ec bc c1 06 a1 3d d2 04 59 3d 92 27 dc bd
       -0.028816523 0.07862616 0.052983113 -0.10749735
000150 fb a6 02 3e bb a3 0d 3e 89 13 b4 3d 6f 55 2d bd
       0.1275901 0.1383199 0.087927885 -0.042317804
000160 bc 37 ef 3d 59 c1 ac bc ad d2 07 3b fe ef 42 3d
       0.11680552 -0.02108829 0.0020724938 0.047592156
000170 ef d6 f8 3d 40 95 f9 bd a3 82 82 3b 1c aa 76 bc
       0.1215037 -0.1218667 0.0039828583 -0.015055206
000180 97 3b d7 3d 75 20 09 be a5 c1 01 3d ea 9a 26 3e
       0.10509413 -0.13391288 0.031678814 0.16270033
000190 94 af b3 bd b2 11 08 3d ea 43 f7 3c 9b 0d 21 3e
       -0.08773723 0.03322 0.030183751 0.15727846
0001a0 0d 04 1d 3e 33 e7 1a be 86 c7 50 bd 45 c0 13 3e
       0.15333577 -0.15127258 -0.05097153 0.14428814
0001b0 66 0a 5a bd 3f 47 65 3d a2 97 14 be 32 cf 3b bd
       -0.053232573 0.05597615 -0.14510968 -0.045851894
0001c0 49 63 a5 3d 34 f6 90 3d c5 38 cf bd 13 fa 07 be
       0.08075578 0.070782095 -0.1011825 -0.1327899
0001d0 15 43 8b 3b 7f 23 57 3a c4 e2 07 be d8 20 74 ba
       0.00424994 0.00082068885 -0.13270098 -0.00093127554
0001e0 f2 d6 84 bd 06 d5 01 3c 72 48 7f bd 5d ec f3 3b
       -0.0648631 0.007924324 -0.06232495 0.007443948
0001f0 40 70 b2 3b aa e6 97 b9 b8 08 74 bd 3f b5 bf 3d
       0.00544551 -0.00028972822 -0.059578627 0.09360742
000200 e1 d2 2e 3d d3 08 5c bd af e3 03 3e 62 45 b0 3d
       0.04268158 -0.053719353 0.12879823 0.08606984
000210 30 a6 59 bd f8 ab da bd 87 42 85 3b bd 10 64 3d
       -0.053137004 -0.10677332 0.0040667686 0.055680025
000220 65 80 a6 bd 9b 57 de 3b e4 e4 05 3d 35 e4 54 3d
       -0.08129958 0.0067853457 0.03268899 0.051975448
000230 a1 37 8c bd a4 ba 6e 3c 1c 51 9c bd 46 cb 67 3d
       -0.06846548 0.014570866 -0.07632658 0.05659034
000240 fc 94 8e 3c 22 23 e1 bd 39 04 66 3b ba 22 c0 bd
       0.017405026 -0.10993029 0.0035097732 -0.093816236
000250 fc c1 e5 3d 66 c8 30 3e 47 81 24 3e f9 c0 2e 3e
       0.1121864 0.17263946 0.1606494 0.170658
000260 6a f7 de 3c a9 de 86 bd 9c c7 05 3e f0 44 2f be
       0.027217586 -0.06585438 0.13064426 -0.17116141
000270 9b 40 33 be 7f d9 10 be c5 0e 25 3e c6 14 0c bd
       -0.17505114 -0.14145468 0.16118915 -0.0341995
000280 31 ae 16 3b 71 a2 a1 bd ec 92 15 be 6e 62 ff bd
       0.002299201 -0.07892311 -0.14606827 -0.12469946
000290 1a e4 19 3e eb ae 38 3e 82 e4 e9 bd 84 8b 16 be
       0.1502842 0.18035476 -0.114205375 -0.14701658
0002a0 e4 ff c6 bd 68 f2 32 3d 1c 56 37 bd 04 2a 59 3d
       -0.09716776 0.043688208 -0.044759855 0.053018585
0002b0 55 30 08 3e b4 2e 28 3d 7f 4e 02 bd 8b f1 0a bd
       0.13299687 0.041060165 -0.03181314 -0.03392176
0002c0 54 98 6f 3d fe 88 73 3e 05 97 04 be c5 b0 6a bd
       0.05849488 0.23782727 -0.12948234 -0.057297487
0002d0 83 27 02 3e a5 9a a8 3d 09 9f a6 3d f1 26 07 bd
       0.12710385 0.08232621 0.08135802 -0.03299612
0002e0 89 d9 c2 bd 1a c1 e0 bd 1a 9a 26 be 77 b4 32 3d
       -0.09514148 -0.10974331 -0.16269723 0.043629136
0002f0 c4 5d 19 bd 6e fb 7f bd 4f 0c 31 3e b9 f5 57 3e
       -0.037442937 -0.06249564 0.17289852 0.2108983
000300 c0 de 4f bd 67 7a 72 bd 27 71 87 3d 4e f3 db bd
       -0.05074954 -0.059198763 0.06613379 -0.10739766
000310 ab bb 93 3d 76 f8 87 bd 2e 18 58 3e aa ce ed bc
       0.07213529 -0.06639187 0.21102974 -0.02902921
000320 04 7d f3 3c c6 45 6a bd b9 66 58 bd ec 50 e5 bc
       0.029722698 -0.057195447 -0.05283234 -0.027992688
000330 83 60 a0 bd ab 9c 1c be 0f 5d 39 bd 34 f5 7d 3d
       -0.07830908 -0.15294139 -0.045254763 0.062001422
000340 76 53 5c bd d3 a0 03 bd 4e c2 d2 3d 97 f1 59 3d
       -0.053790532 -0.032135796 0.10290967 0.053208914
000350 6e 20 d5 bd c5 e1 d0 3d e2 88 16 3e c8 c3 f5 bd
       -0.10406576 0.10199312 0.14700654 -0.12000233
000360 a9 51 72 bd 71 05 d2 bd b4 18 f1 bd 26 54 08 bc
       -0.05915991 -0.10254944 -0.1177229 -0.008320844
000370 33 b6 bb 3d 00 96 21 be 16 18 51 3d 79 5c 11 3e
       0.09165611 -0.15779877 0.05104836 0.14195432
000380 1f 55 22 3e 70 96 fd 3d 56 72 3f 3d d2 ad 48 bd
       0.15852784 0.12382209 0.0467399 -0.048993893
000390 66 0d ce 3c f3 3f 07 3c d6 80 1a 3e b5 35 65 3d
       0.025152873 0.008254993 0.1508821 0.055959422
0003a0 9b 34 5c 3d 55 6a e8 bc 91 70 03 be 7a 3f 63 bd
       0.053761106 -0.028371016 -0.1283591 -0.055480458
0003b0 71 90 c0 bd 41 32 22 be 2b b9 20 3c 07 41 8a bd
       -0.0940255 -0.15839483 0.0098097725 -0.06750684
0003c0 db 8d a7 3c e9 ea 0a 3d 14 38 5e 3d 3d 9f 8a bb
       0.020453384 0.033915434 0.0542527 -0.0042304085
0003d0 9b f8 c1 bd b3 08 5b bd 38 90 78 bd 7d 43 99 bd
       -0.09471246 -0.053475093 -0.060684413 -0.074835755
0003e0 78 9c c4 3d 33 f3 1a 3e a5 4c 90 3d 27 f7 40 3d
       0.096001565 0.15131836 0.07045869 0.047110703
0003f0 e1 ba 7b 3d 72 62 35 3e 4e 03 a6 bb 5e bd 07 be
       0.06145752 0.17713335 -0.005066312 -0.13255832

lstm.bias_ih_l0 f4 [200]
000000 33 0d 23 3c 10 15 ac 3d 1b 42 ca bc ce 7a 68 3d
       0.009951877 0.08402455 -0.024689725 0.05675774
000010 65 30 a2 bd 33 d6 03 3e 4f 66 24 bd ba 14 4e bc
       -0.07919387 0.1287468 -0.04013663 -0.012578184
000020 f3 84 18 3e 48 1d e6 3d d3 d2 6c bc 7a 0d f3 3b
       0.14894466 0.11236054 -0.014454561 0.007417378
000030 e5 d1 54 3d ce 41 d3 bb 07 0e 2f 3e 98 bf f9 3b
       0.051957984 -0.0064470535 0.17095195 0.0076217167
000040 ce 59 90 bd ad 84 06 3e 8f 6f 4f 3d cd 87 f8 bc
       -0.07048379 0.1313655 0.0506435 -0.030338192
000050 c7 64 6c 3d 84 48 00 3e dd 16 88 bd e5 25 8d 3d
       0.057713296 0.12527663 -0.06644986 0.068919934
000060 0a 70 ab bd 8d 82 dc 3d 2c 79 93 bd 8c b8 ea bb
       -0.08370979 0.10767088 -0.07200846 -0.007163113
000070 08 a3 68 bd 04 c2 d7 3b f6 99 2e bc e8 05 cf 3b
       -0.056796104 0.0065844078 -0.010656824 0.0063178428
000080 f3 4c db 3d 75 7d 90 3d d2 2e 2d 3e 68 85 b3 3d
       0.10708036 0.07055179 0.16912392 0.087656796
000090 ef d6 13 bd 8c bc 2f 3d 99 aa a8 bd 92 0a 0f 3e
       -0.03609365 0.04290442 -0.08235664 0.13968876
0000a0 ea 22 6c 3d 1a f3 e4 39 93 7f 00 bd 7b 3a d4 3d
       0.057650484 0.00043668674 -0.031371664 0.10362717
0000b0 95 76 29 3d e1 65 e2 3d 3c 6d df 3d 60 6b 73 bd
       0.041372854 0.11054588 0.10909507 -0.059428573
0000c0 03 e3 0d 3e c8 dc 0f 3d 8a 72 10 3e 85 2b 29 bb
       0.1385613 0.035122663 0.14106193 -0.0025813293
0000d0 ab 50 39 bd 9a b6 27 3e e3 55 eb 3d bb 16 50 3d
       -0.045242947 0.1637825 0.11490991 0.050802927
0000e0 39 ee 63 3b d1 d5 12 bd 0c 02 b3 bd 6f 3d 86 3c
       0.0034779443 -0.035848442 -0.08740625 0.016386716
0000f0 e7 01 99 3d 4a 36 04 be 34 5d d9 bc 0d 99 d8 3b
       0.07471066 -0.12911335 -0.0265337 0.006610042
000100 20 d5 b9 3c a4 26 f6 3b 26 85 3a 3e 43 e4 fc bd
       0.022684634 0.0075119305 0.18214855 -0.12348225
000110 23 70 09 3e 48 97 4b 3d 9a ca bc 3d 3b ae 08 3d
       0.13421683 0.04970482 0.09218331 0.033369284
000120 2c 9e bd bd 29 df d4 bc ff d7 c4 3b f9 10 4a 3d
       -0.092586845 -0.025985317 0.006007194 0.049332593
000130 c5 fd d9 bc eb dc f5 3d d7 2f 2a 3d 82 ba ed bc
       -0.026610265 0.120050274 0.04154953 -0.029019598
000140 ff b8 c1 bd 42 41 85 bd 29 2f 0b 3d ae 3a bc bd
       -0.09459113 -0.065065876 0.033980522 -0.0919088
000150 53 0d 61 bd bd e0 43 3d e1 ac 1f 3e db 35 81 3d
       -0.054944348 0.04782175 0.15593292 0.063091
000160 88 34 32 3e 4c 10 f4 bb 96 26 2a 3c a7 7a b9 bd
       0.17402852 -0.007448232 0.010385176 -0.09056597
000170 75 f3 32 3d 58 32 f2 3d 1a 5a 00 3e 1d 7a cb bd
       0.04368921 0.118260086 0.12534371 -0.09935401
000180 60 95 c2 3d 5d af 30 bd c7 ec 87 3d 87 27 f3 3d
       0.09501147 -0.04313599 0.066369586 0.118727736
000190 a6 ec 14 3c 5d b4 8e 3b 8e 6a eb bd 46 42 c8 bd
       0.0090896245 0.004354997 -0.11494933 -0.09778266
0001a0 fa 84 8a bd f6 af 8a bd a0 ac a7 bd 53 93 6d bd
       -0.067636445 -0.06771843 -0.081872225 -0.058001827
0001b0 b8 61 fc 3d 72 c2 3f bd dc a0 e0 bd a0 25 34 3d
       0.12323326 -0.046816297 -0.109681815 0.043981194
0001c0 5c bf bf bb 30 93 1b 3c 6c 8e 49 3d 6d 87 62 3d
       -0.0058516692 0.009495541 0.04920809 0.055304933
0001d0 0e da f2 bc 68 15 9a bd 5d bd 19 be 63 13 0e be
       -0.029644992 -0.07523614 -0.15013643 -0.13874583
0001e0 73 0f 18 be 38 b7 e2 bd ec a6 c2 3d 2f e5 ec 3c
       -0.14849643 -0.110701025 0.09504494 0.028917877
0001f0 e9 f1 a5 3d 5b b4 dc bc 2e 38 dc bd 7a a6 e5 3d
       0.08102781 -0.026941469 -0.10752903 0.112133935
000200 fb 0f 8e bd 23 31 8f 3d e9 b0 a2 3d 78 3d c6 3c
       -0.06936642 0.06991794 0.07943899 0.024199232
000210 ed ac b5 3d c1 c4 05 3e 2e 97 e3 bd 29 bc 53 3d
       0.088708736 0.13063337 -0.111128196 0.051693115
000220 0d 3f 0e be f6 36 81 bd 6a c1 15 3d 4d 5c d7 3d
       -0.1389124 -0.06309311 0.036561407 0.10515652
000230 b7 9d 86 3d f0 81 ad 3d 77 f1 e7 3d 31 bc 88 bd
       0.065730505 0.08472049 0.11325353 -0.0667652
000240 08 c9 ca 3d 49 5a ae bd c4 9c 46 3d 9c 47 d5 bb
       0.09901625 -0.08513314 0.048489347 -0.0065087806
000250 7c f6 a9 3d 56 83 09 3e 58 07 16 3d 32 98 20 3e
       0.08298966 0.13429007 0.036628097 0.15683058
000260 6d db 30 3e 62 4f a0 3d a0 94 80 3d e2 9e 1d 3e
       0.17271204 0.07827641 0.06278348 0.1539264
000270 2f c1 49 3c 89 f2 d5 bc 8c 2f fd 3d ea 49 10 3d
       0.012314125 -0.026116626 0.123625845 0.03522674
000280 fc c5 1e bd ab 8d 04 be 47 5b 34 3e bb b2 c5 3c
       -0.03876303 -0.12944667 0.17612945 0.024133077
000290 ce e0 29 3e 34 1e ee bc 44 e0 80 bd 9c 6f ca 3c
       0.16589662 -0.029067136 -0.06292775 0.024711423
0002a0 0d b6 0b 3d 98 ac 70 bd 58 f0 3e 3a e1 5a 3b 3e
       0.034109164 -0.05875835 0.0007283739 0.18296386
0002b0 78 92 e4 bd a4 b9 2e 3e 77 46 1f 3e 3f c3 d0 3d
       -0.11160749 0.17063004 0.15554224 0.1019349
0002c0 5b 6d 12 3e e8 4c 30 bd d7 34 9a 3b fb 57 d5 3d
       0.14299528 -0.043042094 0.004706006 0.104171716
0002d0 81 1b 2a bd 1a 06 56 bd e3 f1 83 3d f6 19 66 bd
       -0.041530136 -0.052251913 0.064426206 -0.056177102
0002e0 1f f4 fc bc 63 a1 3d 3d 07 ac 73 bd 45 e4 92 bd
       -0.030878125 0.04629649 -0.05949023 -0.07172445
0002f0 37 4a 0d 3e d9 b2 93 3d 4f 6f 63 3d 07 10 df 3d
       0.13797842 0.07211847 0.055526074 0.10891729
000300 f0 e0 33 3e 67 98 da 3c a5 b5 b1 3d ac df 31 3e
       0.17566276 0.026684 0.08677224 0.1737048
000310 5c be 92 bd 42 2a d1 3c 4c 3c be 3d ee e2 5d 3c
       -0.071652144 0.025532845 0.092888445 0.013542874

lstm.bias_hh_l0 f4 [200]
000000 29 5d 6d bd 08 0a 12 bd 6a d6 35 3d 62 ad a2 3d
       -0.057950173 -0.035654098 0.044393934 0.079432264
000010 68 77 14 3c 4c 6c 1e bd 8b 67 df 3d ee 9b 1d bc
       0.009061672 -0.0386775 0.10908421 -0.009619696
000020 90 46 0a 3e de 31 a0 3c d4 25 bb bc 63 93 0e 3e
       0.1350348 0.019555029 -0.022845186 0.13923411
000030 30 49 5a 3d 8d 95 3f 3e b7 a4 00 3e a0 43 e4 3d
       0.053292453 0.18709393 0.12562834 0.11145711
000040 b3 63 ee 3c 4e b6 b9 bc 28 52 62 3e 2b 52 04 3e
       0.029100275 -0.022669937 0.22101653 0.1292197
000050 d2 e4 0a 3e 78 4c 47 3e d6 7f 16 3e 69 64 1a 3c
       0.1356385 0.19462764 0.14697203 0.009423354
000060 36 ab 55 3d c7 04 31 3e fc 46 1b 3d a7 a8 8b 3d
       0.052165233 0.17286979 0.037909493 0.06819277
000070 0e a1 21 3e 0d 0b ac 3d 65 50 60 bd 10 df 7e bd
       0.15784094 0.08400545 -0.05476417 -0.062224448
000080 9c 03 a1 3d d4 ad 03 3e c2 f1 25 3e e0 c4 56 3e
       0.078620166 0.12859279 0.16205505 0.2097354
000090 39 10 98 bd 3b c1 fa 3c a3 cd 10 3d 82 3e cc 3d
       -0.07424969 0.030609718 0.03535236 0.0997286
0000a0 80 fc 63 3e ac 82 7a bd c9 75 b4 3d 64 69 2f 3e
       0.2226429 -0.061159775 0.08811528 0.17130047
0000b0 13 06 02 3e 5f 3f 00 bd 70 ce 09 3e c4 2d 0e 3e
       0.1269763 -0.031310435 0.13457656 0.13884646
0000c0 f2 21 a9 bd 86 6b a8 bd 2c d0 2e 3d 22 d8 fd 3d
       -0.08258428 -0.082236335 0.042678997 0.1239474
0000d0 57 2f 0c 3e 06 06 c6 bd 8a 60 18 bd 82 3e 6e bd
       0.13689934 -0.09669118 -0.03720144 -0.05816508
0000e0 b5 61 57 3d 27 08 29 3e 66 0b c4 3d f9 d1 e4 bd
       0.052583415 0.16507016 0.095724866 -0.111728616
0000f0 8d e8 00 3e b2 aa bd bc af 3e b9 3d b4 f8 db bd
       0.12588711 -0.023152683 0.09045159 -0.10740796
000100 33 98 bc bd 3c d2 c7 3d 97 86 51 bd 37 1e b0 3d
       -0.09208717 0.09756896 -0.051153746 0.08599513
000110 e8 4f 94 3c 95 c5 d7 3d 0f 37 b8 bd a8 c4 bc bd
       0.018104509 0.10535733 -0.089948766 -0.09217197
000120 0c cd 6a 3d 87 1f cf bd 89 64 92 3d 0b 25 eb 3c
       0.057324454 -0.10113435 0.07148082 0.028704187
000130 ba 54 a6 bc 7f 8c 29 bb fa 53 b8 3d 7e 6a bd 3d
       -0.020304073 -0.0025871096 0.09000392 0.092488274
000140 a5 ce fb 3d ad ac a2 bd 1e 31 ff 3d d9 b7 37 3c
       0.12295274 -0.079430915 0.1246054 0.011213266
000150 6b 10 20 3e e1 97 be bd 47 9f 09 3e ee bc 77 3d
       0.15631263 -0.09306312 0.13439666 0.06048291
000160 63 6e 95 3d 8e 21 3b bd 74 be 1e bd ae 9e 06 bd
       0.07296445 -0.045686297 -0.03875585 -0.032866172
000170 39 e8 92 3d 6c 5b 91 bb 3e 96 83 bc 69 99 2f 3c
       0.07173199 -0.004435947 -0.016062852 0.010717728
000180 f3 47 83 3d a8 82 e0 3d 85 1d 16 bd df 53 ed 3c
       0.064102076 0.10962421 -0.036649246 0.028970657
000190 3b 1d 79 3d 3c 19 09 3e 51 fe d1 3d 1a 6a f7 3d
       0.060818892 0.13388532 0.10253585 0.12080784
0001a0 46 47 fb 3d 63 ee d9 bd 17 e9 53 3d b4 2f 9b 3d
       0.12269454 -0.10641172 0.051735964 0.07577458
0001b0 79 85 ad bc 35 3b 13 be 2d cf 73 bd 66 49 47 bb
       -0.021181809 -0.14378054 -0.05952375 -0.003040874
0001c0 b3 cb 99 bd d8 1c 86 3d 50 b4 9f 3b a9 95 1a 3d
       -0.07509556 0.0654847 0.00487379 0.037740383
0001d0 14 47 43 3d de 94 4d bd b4 0d 76 3c 6f 32 7c 3d
       0.047675207 -0.0501908 0.0150179155 0.061571535
0001e0 df 09 54 bd cc 46 4e 3c 73 97 ca ba fd 69 65 3d
       -0.051767226 0.0125901215 -0.0015456512 0.05600928
0001f0 9b 84 c2 3d 98 cf fb 3b 45 f4 ba bd d8 25 29 bd
       0.09497949 0.007684659 -0.09128622 -0.041295856
000200 5d 5a 4b 3d ee b5 0b 3e de 55 d1 3d cd 4d 9d 3d
       0.049646724 0.1364362 0.10221456 0.07680855
000210 22 67 6d bd 53 a4 be 3b 84 7e 26 3d 51 61 89 bd
       -0.057959683 0.005817929 0.040648 -0.06708015
000220 d0 6e a8 3d c1 d2 f1 bd 9b b4 61 bb aa af 0c bd
       0.08224261 -0.11807776 -0.0034439925 -0.034347214
000230 47 0d 68 3d 68 16 04 3e b4 60 31 bc 41 90 03 3e
       0.056653287 0.12899172 -0.0108262785 0.12847997
000240 1b 18 b9 bd 5a 10 ef 3d 4d 45 94 bd 04 01 0e bd
       -0.09037801 0.11673041 -0.072397806 -0.034668937
000250 97 33 23 3d 82 26 85 3d ba 8a 8b bd 09 e2 26 3e
       0.03984412 0.065014854 -0.06813569 0.16297163
000260 6e 78 c9 3d e3 08 8c bd 98 b4 a8 bd 89 7f 5c 3c
       0.09837423 -0.068376325 -0.082375705 0.013458141
000270 6f 27 ee bc a1 b6 76 bd 65 ad 23 3e 0e 62 1b 3e
       -0.029071538 -0.060232762 0.15984114 0.15174124
000280 3a c8 83 3c 5d ba 5d bd 53 cb 5e 3d 61 bf 5c 3e
       0.016086686 -0.054132808 0.054393124 0.2155738
000290 e1 4b 31 3e b5 93 67 3d c4 f0 ea 3d 33 f6 27 3b
       0.17314102 0.05653735 0.11471704 0.0025628924
0002a0 66 44 27 3e f3 29 7d 3c b2 a4 26 3e 9d 46 bd 3d
       0.16334686 0.015451896 0.16273764 0.09241984
0002b0 97 d2 8d 3a e7 f6 67 3d aa 81 45 bd e8 06 c5 3d
       0.0010820207 0.05663195 -0.04821936 0.09620458
0002c0 01 a9 fc bc f1 ea 09 bd 0a 89 97 bc 21 20 e1 3d
       -0.030842306 -0.033671323 -0.018497963 0.10992456
0002d0 5f 87 81 3d 4d 55 c6 bc 7d a9 20 3e d8 ec 63 bd
       0.06324648 -0.024210596 0.15689655 -0.055645794
0002e0 a2 ab 1a 3e db 2f 42 3e 9b b7 18 3e 1a ab c4 3d
       0.15104535 0.18963568 0.1491379 0.096029475
0002f0 91 d1 87 bc 97 39 5a 3d 9f d7 6d bc 44 22 b8 3c
       -0.016579421 0.05327758 -0.01451674 0.022477277
000300 83 2e 48 3e 30 3a 17 3c 16 2f 2f bd 24 06 cd 3c
       0.19548993 0.009230182 -0.042769514 0.025027342
000310 75 63 81 3d 3e 6d 3d bd 54 cc dc 3d de c6 cf bd
       0.06317798 -0.04624676 0.1078116 -0.10145353

lstm.weight_ih_l1 f4 [200, 50]
000000 5b 90 70 bd f0 61 00 3e b4 2f 6d 3d 94 79 99 3d
       -0.058731418 0.1253736 0.05790682 0.07493892
000010 0c db b3 bd 2e 37 8d bd ce 36 35 3c 58 d6 21 bd
       -0.08782014 -0.0689529 0.01106043 -0.039511055
000020 1a 0e ca bd 29 da ec bd 7b 8a 69 bd be 5d 04 bd
       -0.09865971 -0.11565048 -0.05701683 -0.032315962
000030 6a 10 ce 3d a7 7d 0b be 41 c8 d8 3d d5 e6 fb bd
       0.100617245 -0.13622151 0.105850704 -0.12299887
000040 64 bd 95 bb 3e db ea 3c fb 53 ea bd a0 6e 6e 3d
       -0.0045696963 0.028668996 -0.11441799 0.05821097
000050 5c 1f a1 3d 7a e4 3f 3c 31 42 e6 bc a8 7a 04 be
       0.078673095 0.011712188 -0.028107734 -0.12937415
000060 9a 10 ec 3b 11 01 bb bd 6f b0 f8 3c ae ef 91 bd
       0.0072041275 -0.09131063 0.030357568 -0.071257934
000070 10 28 f3 3c 5e d3 e0 3d df de 19 bd 8e 59 9a 3c
       0.02968219 0.10977815 -0.037566062 0.018841531
000080 4f c9 9e 3b d5 28 be 3d 07 12 f1 bd 0c 02 b3 3d
       0.004845775 0.09285132 -0.117710166 0.08740625
000090 a1 e3 d5 3c 8e e1 47 bd 49 ad 43 bc e5 d9 da 3d
       0.026109518 -0.04879909 -0.01194317 0.10686091
0000a0 33 c8 08 be 20 fd f0 bc 7c 85 ec 3d 64 90 b8 bd
       -0.1335762 -0.029417574 0.115488976 -0.09011915
0000b0 31 06 47 3d d4 1e 85 3d e1 6c f5 bd 36 e0 f5 bc
       0.04858989 0.065000206 -0.11983658 -0.030014139
0000c0 22 f7 a4 3d 6c 1a e2 3d 39 f1 7f bc 33 1b 01 3e
       0.08054949 0.11040196 -0.015621477 0.12608032
0000d0 a8 bc ee 39 82 55 aa bd e3 20 1b 3c b7 43 0a 3d
       0.00045535457 -0.083170906 0.00946829 0.033755984
0000e0 0e 76 c9 bd ab 29 f5 bc 60 c5 bc 3d 06 82 aa 3d
       -0.0983697 -0.029927095 0.09217334 0.08325581
0000f0 c1 9b 74 3c 15 29 d8 3c e6 01 99 bd 16 8f 96 bd
       0.014929713 0.026386777 -0.07471065 -0.0735151
000100 21 7b 9f bd 73 38 de bd e0 d8 b2 bd e3 62 a7 3d
       -0.07787157 -0.108506106 -0.08732772 0.08173158
000110 a6 6b 98 3d 04 e1 05 be 07 b2 32 bd 2e b7 b3 3d
       0.07442407 -0.13074118 -0.04362681 0.08775173
000120 8a df 47 3d 27 0d a3 bc 24 56 99 bd 6d d2 fb bd
       0.048797168 -0.019903732 -0.07487133 -0.12295995
000130 23 59 f1 bd 85 2f aa 3d 22 ee 3b bb 50 32 00 3e
       -0.117845796 0.08309845 -0.0028675874 0.12519193
000140 e6 23 f3 3d 5c 9f 72 3d 80 83 d1 3c f5 8c 06 3e
       0.118720815 0.05923401 0.0255754 0.13139708
000150 d2 ee 88 bb 83 53 a9 3d 67 1f 1b 3d d6 e4 c4 b8
       -0.00417886 0.08267882 0.037871744 -9.388632e-05
000160 c2 23 74 3b be db cc bd 7f da d8 3c 69 45 f9 bd
       0.0037252759 -0.1000285 0.026471375 -0.12171442
000170 23 d4 87 bd 12 3c 05 be ae 9b 06 be df 3d bb 3d
       -0.06632259 -0.13011196 -0.13145325 0.0914266
000180 c5 15 71 bc c5 f4 73 bd 8d b1 27 3d 76 2b 24 3c
       -0.014714663 -0.059559602 0.04094081 0.0100201275
000190 2c 37 0f bd 6f 4e d2 bd 12 a4 33 bd 2a be de 3d
       -0.034964725 -0.10268866 -0.04385764 0.10876115
0001a0 85 26 61 3d 24 b9 d6 bd a7 69 8a bd 2d 9f 50 3d
       0.054968376 -0.104845315 -0.06758433 0.05093305
0001b0 c9 99 e7 3d 46 12 d3 3a b1 81 8d bd f3 95 e7 3d
       0.11308629 0.0016103468 -0.06909502 0.113078974
0001c0 fc 11 04 3e 32 01 ea bd b2 4a 10 be 4f 7d 97 bd
       0.12897485 -0.11426009 -0.14090994 -0.073969476
0001d0 17 e6 06 bd 7c d9 1c 3d ca 91 2c 3d d2 8c 79 3d
       -0.032934275 0.038293347 0.042131223 0.060925312
0001e0 55 d8 06 3e 0f 03 63 3c fc 53 fd 3d 3e e7 00 be
       0.13168462 0.01385571 0.123695344 -0.12588212
0001f0 6f 63 0a be 07 a7 08 3e af cd a6 3d a5 32 39 3d
       -0.13514493 0.13344966 0.081447 0.045214314
000200 e4 fc 88 3d 62 0e 41 bd 39 2a ef 3c f9 03 f4 3d
       0.0668886 -0.047132857 0.029194938 0.1191482
000210 e3 69 25 bd 92 90 77 3b 2b 50 8e 3d ff df 54 3d
       -0.040384185 0.003777538 0.069488846 0.05197143
000220 dc c4 0c 3e b7 3c cd bd ae b6 65 3d c7 65 db bd
       0.13746971 -0.10021346 0.05608242 -0.10712772
000230 96 de e8 bd 83 41 a3 3c b9 0d 87 3d 40 03 a6 3d
       -0.1137058 0.0199287 0.06594414 0.08106089
000240 c4 fe 53 3d a2 fd 9e ba 7f 16 ec 3d 46 41 6f 3d
       0.051756635 -0.0012130032 0.11527728 0.05841186
000250 cf 3c 46 bd b1 f1 9f 3d 0b 23 47 3d 87 16 e9 3d
       -0.048397835 0.07809771 0.048617404 0.1138125
000260 5a 99 cf bd e4 60 02 3d 62 55 ad bd e2 bd ce bd
       -0.10136671 0.031830683 -0.08463551 -0.10094811
000270 65 40 0a 3b d7 37 05 be d9 4b e1 bd e7 e0 01 3e
       0.002109551 -0.13009582 -0.11000795 0.1268345
000280 7c 4c 04 be 8b e1 7f bd 83 eb ac bd cc 2f 7f 3d
       -0.12919801 -0.062470954 -0.08443358 0.062301442
000290 0a cd 90 bd 52 f7 e3 3d bd 15 df bd 39 1a 24 bd
       -0.07070358 0.11131157 -0.10892818 -0.04006407
0002a0 79 ad 96 3d 07 af 39 3d 98 2a 62 bd 45 04 b6 3d
       0.07357306 0.045332935 -0.0552164 0.08887533
0002b0 9d 59 a9 3d d1 ee ce 3c 6e 57 30 bd 37 69 ef bd
       0.082690455 0.02526036 -0.04305213 -0.1168999
0002c0 df e3 5d bb 95 08 43 3d 25 fd ac bc 39 83 0a 3e
       -0.0033857746 0.047615606 -0.021116802 0.1352662
0002d0 92 dd f1 bd 03 01 d3 3d c0 0e c3 bc a2 94 37 bd
       -0.11809839 0.10302927 -0.023810744 -0.04481948
0002e0 de 53 85 bd c5 11 b3 bd e5 b7 c2 bd 3a c1 f9 bd
       -0.06510137 -0.08743624 -0.09507731 -0.12195058
0002f0 b5 22 3a 3d 5d b6 16 bc 12 59 c0 bd 58 59 05 3e
       0.045443255 -0.009198752 -0.09391989 0.13022363
000300 3d 78 27 bc 3b f8 4d 3d 0e 9c 9b 3d 83 ec ec 3c
       -0.010221538 0.05028556 0.075981244 0.028921371
000310 34 a2 f7 bd 35 cf b8 3c c3 f7 83 3c 19 39 01 3e
       -0.12091485 0.022559742 0.016109353 0.12619437
000320 b5 b5 72 3d 1f 32 73 bd 91 d1 1c b9 bb a3 f9 bd
       0.05925532 -0.05937397 -0.00014955389 -0.12189432
000330 43 bb 00 bd 23 1b ed 3d 7c 5a e3 bd 64 78 b3 bd
       -0.031428587 0.115774415 -0.11101243 -0.08763197
000340 62 e4 8f 3d 9f 1f b3 bd d7 48 ae bd c2 38 be 3d
       0.070259824 -0.087462656 -0.08509987 0.092881694
000350 f6 07 d0 3c 71 f5 9b 3d 2e 9c c4 bd 6c ad 40 3d
       0.025394421 0.076151736 -0.096001014 0.047040388
000360 42 11 a6 3d 1e 10 fe bd 2f fe 67 bd c0 b8 56 3d
       0.081087604 -0.12405418 -0.056638893 0.052422285
000370 3c ac a3 bd 51 9d 87 3d 8b 5a d0 3d cf 32 3e bc
       -0.079918355 0.066218026 0.1017352 -0.011608793
000380 a0 e3 8d 3d 9c 03 d4 bd a9 63 ca bd ab 7d d1 bd
       0.06928182 -0.10352251 -0.0988229 -0.102290474
000390 44 f7 81 bd 7a 98 fd bd 32 d1 65 bc 3e ca cb bd
       -0.0634599 -0.12382598 -0.014026927 -0.09950684
0003a0 59 40 0d 3d 59 20 bd bd 6b ea d3 bd 72 16 dd bd
       0.034485195 -0.092346855 -0.10347446 -0.10795297
0003b0 d9 3e c8 3d 7f 46 fb 3b 37 52 9c 3c 91 df b0 bd
       0.09777612 0.007668316 0.019082172 -0.08636392
0003c0 90 75 fe bd f7 6d 59 bc b2 33 e6 3c 6a 33 bb bd
       -0.12424767 -0.013270847 0.028100822 -0.09140666
0003d0 10 5c c4 bd 66 02 bd bc 69 18 70 3d 8c f6 d3 3d
       -0.09587872 -0.023072433 0.05861703 0.103497595
0003e0 be 3f f0 3d 85 e9 a5 3d 4f bc 03 be 6a 1d 0e be
       0.11730908 0.08101181 -0.12864803 -0.13878408
0003f0 8b f1 d3 bd 76 f6 d8 3c 17 94 a9 bd 67 51 67 bd
       -0.10348805 0.02648471 -0.08280199 -0.056474116

lstm.weight_hh_l1 f4 [200, 50]
000000 d9 42 c1 3d 58 7e 0b 3d 02 de 0d be e8 f5 b8 bd
       0.09436578 0.034056038 -0.1385422 -0.09031278
000010 e3 4a a8 3b ec ff cd 3c 12 4c 49 3d ed 76 38 3c
       0.0051358803 0.025146447 0.049144812 0.011258823
000020 ac 1a 32 bd 19 42 8c bd f2 7c 0b bd b5 53 5f bc
       -0.043482468 -0.068485446 -0.034054704 -0.013630797
000030 66 8c cb bc fe ef af 3d df f2 46 bd e4 2c c4 bd
       -0.02484722 0.08590697 -0.048571464 -0.09578875
000040 52 18 91 3b 0e 46 8f bc 70 76 f0 3d 7e 39 00 be
       0.004427948 -0.01748946 0.1174134 -0.12521932
000050 07 b2 34 3d da 49 76 3d 6e 17 85 3d 7b 40 ee bd
       0.044115093 0.060129024 0.064986095 -0.116333924
000060 6d 5b 11 bd 48 92 0f 3e 8e 5a a1 3d 05 38 a5 3d
       -0.03548758 0.14020646 0.078786 0.080673255
000070 71 f4 03 be 13 2d c9 bd 5a a8 ce 3d fa e8 01 3e
       -0.12886216 -0.0982305 0.10090704 0.1268653
000080 a4 b7 07 be 37 e0 da bd 19 4d 0a 3e 04 ef 02 be
       -0.13253647 -0.10687297 0.13505973 -0.1278649
000090 db 1c 0a be e3 68 a6 bd 29 14 2d bb cc d9 05 be
       -0.1348757 -0.08125474 -0.0026409721 -0.13071364
0000a0 12 c2 3c bd bc 2a 2f 3c 69 38 c0 ba e7 c3 a4 bd
       -0.046083517 0.010691341 -0.0014665249 -0.08045178
0000b0 57 19 8e 3d 75 20 cb bd 87 36 00 3e 60 5c 96 3d
       0.06938427 -0.099183 0.125208 0.07341838
0000c0 36 7c 24 bb 97 76 38 3d f7 e0 08 3e 33 1e 47 bb
       -0.002509845 0.04503497 0.13367067 -0.003038299
0000d0 fd 33 e6 bd 85 60 cc 3d 7d e4 5d 3d 01 e3 bd bd
       -0.11240385 0.09979347 0.05417298 -0.09271813
0000e0 fb 84 af bd f6 c4 c6 bd 89 53 96 3d d8 4f 78 bc
       -0.08570286 -0.09705536 0.07340152 -0.015155755
0000f0 a5 8d 3f bd 2b 87 5f bd f9 db c2 bd e9 bd f9 3d
       -0.046765942 -0.054572266 -0.09514613 0.121944256
000100 2f 15 3c bd 7b 1a 9a 3b 07 ac dc bd 73 72 a9 bd
       -0.04591864 0.0047028637 -0.10774999 -0.082737826
000110 f8 38 0f 3e 40 d2 b7 3d 3f 3c 00 bd f8 31 04 3e
       0.13986576 0.08975649 -0.031307455 0.12909687
000120 00 d1 bb bb b5 b2 92 bd b7 84 9a 3d 5c ad ff bd
       -0.005731702 -0.07162992 0.075448446 -0.124842376
000130 4e e1 88 3d e1 02 ba bd 3e 51 7f 3d 10 fe f1 bd
       0.066835985 -0.0908258 0.062333338 -0.11816037
000140 9a 7e f5 bd 31 7b bb bc b9 9a c2 3d 2a a8 ea 3d
       -0.11987038 -0.02288589 0.09502167 0.11457856
000150 ad c2 fa bd 15 0d 0c be ec f6 2c 3d cc bb fb 3d
       -0.12244163 -0.13676865 0.04222767 0.12291679
000160 b1 82 37 bd 5a 10 af 3d 03 4e 6e 3d 22 e0 fd 3d
       -0.04480237 0.08548041 0.058179867 0.123962656
000170 30 a9 10 be 5a c5 30 3d 07 ec 06 3e 91 57 98 3d
       -0.1412704 0.04315696 0.13175975 0.07438577
000180 f2 de 04 be 9e 09 82 bd 7a 4b 0a 3e 22 fc 5e bd
       -0.12975672 -0.063494906 0.13505355 -0.05443967
000190 b3 5e b8 bd 02 14 04 bc cc fe 22 bd 3e 71 cf 3d
       -0.090024374 -0.008061411 -0.039793774 0.10129021
0001a0 77 fa ba bb 15 f1 ec bd 93 cf e9 bd 91 0f 95 bd
       -0.0057061273 -0.1156942 -0.11416545 -0.0727836
0001b0 76 96 05 3d 24 4b 1e bd 9e aa ac bd 62 17 8a 3c
       0.032614194 -0.03864588 -0.0843098 0.016856853
0001c0 66 69 b1 3c 94 83 33 bc 53 5a 38 bd 9e 9a 71 bd
       0.021656703 -0.010956664 -0.045008015 -0.058985345
0001d0 7c 16 a3 bc b7 02 d9 bd 60 74 09 bd a5 b5 0e bd
       -0.019908182 -0.10596221 -0.03355825 -0.0348412
0001e0 e3 6b f9 3b 38 a8 f1 3d 64 8f 01 be 22 63 ff 3c
       0.007611738 0.11799663 -0.12652355 0.0311752
0001f0 6f 7d ee bd 07 96 c8 3c bb bc 1d 3d a5 e6 9d 3d
       -0.11645018 0.024485601 0.038510066 0.077100076
000200 bd 69 05 3e 84 d7 b8 bd da 45 e5 bd 4b bd ef bd
       0.13028617 -0.09025481 -0.11194964 -0.11706027
000210 0c 90 0a bd 23 1a d6 3d e0 f2 81 3d 54 53 72 3c
       -0.03382878 0.10454204 0.06345153 0.014790375
000220 f5 ea 61 3d a1 2e d4 3d 60 c1 46 3d 66 ef 8e bc
       0.055155713 0.10360456 0.04852426 -0.017448138
000230 55 94 8e bd 92 73 e0 bc 49 b5 cd 3c 73 98 b3 bd
       -0.06961886 -0.027398858 0.025110858 -0.08769312
000240 7d 8c b4 3d f9 5c fc 3d f8 a9 7b bd bb 1e c4 3d
       0.088158585 0.123224206 -0.06144139 0.09576174
000250 9f 1a 0d 3c 6c 8d e2 3d db 04 7f bd 81 5c 25 bb
       0.008612304 0.1106213 -0.06226049 -0.0025232139
000260 25 62 6e 3b d4 20 37 3d 94 f0 aa 3c d9 61 d4 3d
       0.0036374417 0.04470904 0.02086667 0.103702255
000270 78 91 ed bd 57 10 12 3d 61 3c c3 3d 0f e2 7d bd
       -0.116000116 0.035660114 0.09533001 -0.061983164
000280 e3 0d f9 bd 0a 59 70 3c 5e 1c c1 bd f9 9e 84 bd
       -0.12160852 0.014669666 -0.09429239 -0.06475634
000290 3d 6c 90 bd 0b 22 08 3d e2 e4 2b bd b3 f1 08 be
       -0.07051895 0.03323559 -0.041966327 -0.13373451
0002a0 4e 7e 86 bc 88 9f 0e 3d 16 4c cd bd 59 43 a8 3d
       -0.016417649 0.03482011 -0.10024278 0.082159705
0002b0 d3 cf 68 3d 0f fe 0d 3e ab 8b c8 3c 39 7f 32 bc
       0.05683882 0.13866447 0.024480661 -0.01089459
0002c0 4e f0 d3 bc 1b 4f b1 3d 05 7d 0a 3e 78 fe 99 3d
       -0.025871422 0.08657666 0.13524254 0.07519239
0002d0 0f b8 b1 bd eb 2a a8 bd ca c3 6d 3d 44 29 a8 3d
       -0.086776845 -0.08211311 0.058048047 0.08210996
0002e0 83 37 49 bd fd 3d 43 3b 0f ba f8 bd dd 7e 4e 3d
       -0.049125206 0.0029791587 -0.12144863 0.050413955
0002f0 33 d6 8d bd e5 0c 4e 3d df 19 4c bd 1c 2c f4 bd
       -0.06925621 0.050305266 -0.04982936 -0.11922476
000300 a1 f0 4f bc 72 df 00 3e fe 33 9f bd a0 f2 79 3d
       -0.012691648 0.12585238 -0.077735886 0.0610224
000310 e6 9b af 3d bf 2e 9b 3d 07 fc d3 bd bf cc 0f be
       0.08574657 0.075772755 -0.10350805 -0.14042948
000320 aa 69 9e bd 04 54 55 bd e9 55 d4 3d bc 27 69 ba
       -0.077349976 -0.052082077 0.103679486 -0.00088941655
000330 79 c5 06 3e d8 d6 3c bc 72 50 e9 3d 4f fc 13 3d
       0.13161267 -0.011525832 0.11392297 0.036129292
000340 fe 9e 44 bd 1a 48 15 bd f1 ef 8b 3c be 05 0c be
       -0.04800319 -0.036445715 0.017082186 -0.13674065
000350 a2 54 d5 3d a9 77 70 3d a4 c8 85 bd 36 79 5e 3c
       0.10416533 0.058707867 -0.0653241 0.013578704
000360 3a 0c 0e 3e ad d9 17 3d e4 fd be 3c f9 61 68 bd
       0.13871852 0.037072826 0.023314424 -0.05673406
000370 d3 d9 c2 3d 02 ec e1 bd d3 f6 78 3d 10 78 ff 3c
       0.09514203 -0.11031343 0.060782265 0.03118518
000380 76 91 83 3d 2e e7 4e 3c df b6 1e 3d 67 8b 9b 3d
       0.06424229 0.01262836 0.03874862 0.07594948
000390 f8 e9 05 3e 73 51 0e 3e 8b 45 8d bb cf d9 ec bc
       0.13077533 0.13898258 -0.0043112687 -0.028912453
0003a0 fa 9b c8 3d 6b b2 fa bd e5 64 19 bd a5 e0 09 be
       0.09795375 -0.12241062 -0.037449736 -0.13464601
0003b0 a8 17 c9 3d 9e 38 9c bd f0 5e d0 3c 5e 9a fd 3d
       0.09818965 -0.07627986 0.025435895 0.12382959
0003c0 f9 61 3e 3c f2 57 8f 3c 7f 26 13 bd e3 a6 c3 bd
       0.011620038 0.01749799 -0.035925385 -0.095533155
0003d0 77 05 c0 3c a8 32 8b bd ef 9b 25 3c b7 e0 7d 3d
       0.023440106 -0.06796771 0.010107978 0.061981883
0003e0 8c 11 6d 3d 32 7c f7 3d 95 08 e4 3c cd df 61 3b
       0.057878062 0.12084235 0.027836123 0.003446567
0003f0 06 2a bc bc 6d 52 91 bd 7f 54 e7 bd a9 bf b0 3d
       -0.022969257 -0.070957996 -0.11295413 0.08630306

lstm.bias_ih_l1 f4 [200]
000000 da c4 ca bc ef ba cb bd 57 bb e3 bd cf 42 87 3d
       -0.02475207 -0.09947764 -0.111197166 0.066045396
000010 fd e4 ab bc c1 e0 04 3d c4 2d bb bd b0 e7 b3 bd
       -0.020983214 0.032440905 -0.091395885 -0.08784425
000020 f4 63 94 3d dd 5d e0 3c d7 96 32 3c 77 7e 0f bd
       0.07245627 0.027388508 0.010900221 -0.035032716
000030 19 96 30 3d 28 1d 10 bb 1e 94 d1 bd aa 4b fd 3d
       0.043111894 -0.0021990035 -0.10233329 0.123679474
000040 89 c9 57 bd 06 1e dd 3d 4b f7 0b be 48 5e 3a bd
       -0.052682433 0.10796742 -0.13668554 -0.04550007
000050 f1 2e 08 be e0 20 5e bd 95 68 ab bd a1 25 96 bd
       -0.13299157 -0.05423057 -0.08369557 -0.07331396
000060 8c 09 c3 bd 02 46 73 3d 08 33 1e 3d 82 a6 ec bc
       -0.09523305 0.059392937 0.038622886 -0.02888799
000070 cf 93 db bd b6 35 fc 3c c6 02 e7 bd 8c 9a 81 bd
       -0.107215516 0.03078733 -0.11279826 -0.063283056
000080 67 49 ea bc 79 6a 99 3d fe 52 67 bc 9d 9a 12 bc
       -0.028599454 0.07491011 -0.014118908 -0.0089479955
000090 a6 fb 90 bd 2b 25 17 bb 61 7a de bd b0 76 d8 3c
       -0.07079248 -0.0023062925 -0.10863186 0.026423782
0000a0 c2 7c db bd b6 73 aa 3d 51 08 8f bd 12 94 c1 3d
       -0.10717155 0.08322851 -0.06984008 0.0945207
0000b0 82 6a d0 3d a9 de 8a 3d 15 8e 98 3d 5b f0 a2 3d
       0.10176565 0.0678075 0.07448975 0.079560004
0000c0 ce 94 34 3c 7a ca 74 3d 6b 26 bc 3d 7f f3 0c 3e
       0.011021806 0.05976341 0.09187015 0.13764761
0000d0 86 69 e7 bd 2c 26 05 3e 07 35 a7 3c 68 25 39 3d
       -0.11299424 0.13002843 0.020411028 0.04520169
0000e0 97 f0 72 bd 2e 1a cf bd 0e 50 bf 3d 07 bf e0 bd
       -0.059311476 -0.10112415 0.09341441 -0.109739356
0000f0 03 6d 13 3d ec 68 a7 bd 5d de f4 3d 79 5a 07 3e
       0.035992634 -0.08174309 0.11956475 0.13218106
000100 b0 49 9a 3d 30 83 75 3d 47 4e 00 bd 40 79 00 3e
       0.07533586 0.059939563 -0.03132465 0.12546253
000110 63 8d 0f 3e 8d c8 d2 bd 3d 53 a8 bd 91 16 8a bd
       0.14018779 -0.10292158 -0.082190014 -0.067425855
000120 57 db c7 bd b4 10 18 bc bc db ee bd 7b 05 d9 bd
       -0.09758633 -0.009281326 -0.11663005 -0.105967484
000130 3e 59 28 bc 8f 52 9f 3c b2 b0 8e bd 00 08 6d bd
       -0.010275183 0.019448547 -0.06967296 -0.057868958
000140 b6 86 a4 3c 19 9d 1e bd ab 54 98 bd 27 00 eb 3d
       0.020083766 -0.03872404 -0.07438024 0.114746384
000150 b6 b1 fc 3d 23 e5 ba bd e5 c4 ee bd 83 be 0c 3e
       0.12338583 -0.091257356 -0.116586484 0.1374455
000160 c8 20 05 3c e3 3f ac 3d c7 ce ec 3d aa bc 81 3d
       0.008125491 0.08410623 0.11562877 0.06334813
000170 bf 9e 8c bd ba 2b c0 bd 73 55 ea bd 67 90 b6 3c
       -0.06866216 -0.0938334 -0.114420794 0.022285653
000180 ff d4 a5 ba 9a 83 ba 3d 74 46 ce bc cb d6 78 3d
       -0.0012651979 0.09107132 -0.025180079 0.060751718
000190 d5 c8 9e 3d 35 8b 0c be 03 08 05 3e 2f 9a c2 bd
       0.077531494 -0.13724978 0.12991337 -0.095020644
0001a0 f2 ab 08 be 5c 46 88 bd 87 a8 7e bd 51 5d 1c bc
       -0.13346842 -0.06654045 -0.06217244 -0.009543733
0001b0 23 c1 07 3e 28 46 0a bd d4 c4 fd 3d 94 24 bf bd
       0.1325727 -0.033758312 0.123910576 -0.093331486
0001c0 b0 93 a4 3c 8c d1 e7 bd 81 7e b5 bc d8 02 c6 bd
       0.020089954 -0.11319265 -0.022155048 -0.09668511
0001d0 68 a3 cc bd fa 76 7e 3d df 3e 97 bc 73 d1 dd bd
       -0.09992105 0.062125184 -0.018462596 -0.10830965
0001e0 90 ed 04 be 4a 60 30 3d bf 2f 8f bc 5c 42 06 3e
       -0.12981248 0.04306058 -0.017478822 0.13111252
0001f0 5a 6d dd bd 44 47 38 bc 9a 53 0b 3e ac 7f 75 3d
       -0.10811873 -0.01124746 0.1360611 0.05993621
000200 9f 68 f2 bd cd 9c 8d 3d 58 bb c9 3d 9d d2 2c bd
       -0.11836361 0.06914673 0.09850186 -0.042193044
000210 a1 a3 28 bc 64 6c 4e bd 31 cb b1 bd ef 01 fa 3d
       -0.010292918 -0.050396338 -0.08681334 0.122074
000220 fd 35 8d 3b d6 7b 1d bb f5 57 9e bd 84 27 3c 3d
       0.0043094144 -0.002403011 -0.0773162 0.045936123
000230 c7 1e 2e 3d ba 51 0f 3e 59 fe 6e 3d f9 33 e1 3b
       0.04250982 0.1399602 0.058348034 0.0068726507
000240 96 51 75 bd 53 5a c1 bd d5 15 98 bc 3f eb a1 3d
       -0.05989226 -0.09441056 -0.018565098 0.07906198
000250 05 33 9f 3d b4 86 04 3b e5 c5 13 bd b8 40 6e bd
       0.07773403 0.002022189 -0.0360774 -0.05816719
000260 b7 c6 0b 3c d2 3d f9 bc 9c 5b 40 3d 13 49 f4 3d
       0.008531264 -0.030424986 0.046962366 0.11928
000270 f4 46 b4 3c a8 67 4a bb b7 74 d1 bd 3b 03 6b 3d
       0.02200649 -0.0030884538 -0.1022734 0.057376128
000280 c5 2f c7 bd 91 d8 67 3c 4e 0a 8d bd 1e d3 36 bc
       -0.09725908 0.014150755 -0.06886731 -0.011158733
000290 9a 2a a5 3d ca c6 bc bd 4f 65 b2 3d 5a 02 f8 bd
       0.08064766 -0.092176035 0.08710729 -0.121098235
0002a0 46 dc 0a be 76 10 8a 3d 01 a9 b3 bd 04 32 10 bd
       -0.1356059 0.06741421 -0.08772469 -0.03520395
0002b0 f6 af 44 3d 97 26 81 3d c6 7a ec 3c b6 f1 1d bc
       0.048019372 0.063061886 0.028867137 -0.009640148
0002c0 90 78 f7 3c 1e 47 0b 3d 9f ca fb bc 62 85 e8 3d
       0.030208856 0.03400337 -0.030736266 0.11353566
0002d0 bd 87 f9 bd 2f b7 7c ba 04 25 46 bb 75 2b ba 3c
       -0.12184093 -0.00096403336 -0.0030234465 0.0227258
0002e0 77 63 62 bc d2 aa 0c 3e 6d f6 b0 3c cc 51 b4 3d
       -0.01381766 0.13737038 0.02160188 0.08804664
0002f0 72 57 cc bd f5 eb 88 bc 79 8a 28 3d 40 db 89 3d
       -0.09977616 -0.016714076 0.041147683 0.06731272
000300 6e 6b be 3d 7a b0 ef bd 97 dd ec bd b5 f2 d7 bc
       0.09297834 -0.11703582 -0.115657024 -0.026360849
000310 cc 92 09 bd 4e 82 ec bb 49 18 72 3d ef 7d 06 be
       -0.033587262 -0.007217682 0.05910519 -0.13133977

lstm.bias_hh_l1 f4 [200]
000000 02 84 cf 3d 59 48 df bd cd 99 9b bc 9e 10 fb bb
       0.101326 -0.10902471 -0.018994236 -0.007661893
000010 46 b0 59 bd d2 f2 ac bc cd d9 32 3c e8 df 16 bd
       -0.053146623 -0.02111188 0.010916186 -0.036834627
000020 a1 23 ee 3d 01 0c 58 bd c8 c8 bc bd a3 a1 f6 bd
       0.116278894 -0.052745823 -0.092179835 -0.120425485
000030 49 7e fc bd 88 39 43 bd fa ef e0 3d 4b d3 6b bd
       -0.123287745 -0.047662288 0.10983272 -0.05757455
000040 5c 32 7d 3d fb 41 71 bd 22 6e f6 bd 8b c2 82 bd
       0.061815605 -0.058900815 -0.12032725 -0.063847624
000050 7c da 05 3e 55 5c b6 bd 52 c2 e7 bd 4e 33 5d bd
       0.13071626 -0.0890433 -0.113163605 -0.054004006
000060 36 83 0a be 79 88 0f be 3e 78 5c bd fc 78 ee bc
       -0.13526616 -0.14016904 -0.05382561 -0.029110424
000070 5b 22 2d bd 20 40 71 bb 33 c7 c7 bd 34 e1 db bd
       -0.042269092 -0.0036811903 -0.09754791 -0.107363135
000080 9c 05 1d 3b a6 7d 3d 3d e0 d9 9a 3d f0 86 03 3e
       0.0023959642 0.046262406 0.075610876 0.12844443
000090 74 76 86 bc 04 83 c6 3d 47 62 a2 3c 1e 57 e3 bd
       -0.016413905 0.09692958 0.019822253 -0.11100601
0000a0 92 5d b3 bd 32 1a 5e 3d b8 37 6e 3c 1c 5f ea bc
       -0.087580815 0.0542242 0.014539652 -0.028609805
0000b0 e5 3a 97 3d 4c df a2 3d bf 6a c4 bd 38 b0 0f 3e
       0.0738428 0.07952747 -0.09590673 0.14032066
0000c0 40 55 3a bd e8 98 df 3d 04 d5 79 bd 41 6d 8e bd
       -0.045491457 0.109178364 -0.060994163 -0.06954432
0000d0 c1 68 13 bd 89 c5 a7 3d 16 b2 58 bd 0a e1 40 3d
       -0.035988573 0.08191974 -0.05290421 0.047089614
0000e0 86 a4 67 3c 82 38 ec bd 27 1a 64 3d 02 3b b9 3d
       0.014138347 -0.115342155 0.055689003 0.09044458
0000f0 44 0e cf bd 34 cd c0 bd 5e 4e ec 3c 75 8a 06 be
       -0.10110143 -0.094141394 0.028845962 -0.13138755
000100 b4 95 9a 3d 26 95 96 3d 7f 31 fb bd 60 f9 08 bd
       0.07548085 0.073526666 -0.122653 -0.033440948
000110 7b 63 cc 3d 6c 0c f4 bd 64 8a 80 bd 74 6c 03 be
       0.09979912 -0.11916432 -0.06276396 -0.1283434
000120 b8 53 bc bd 0f ea 05 bd 2a ef 07 bd 26 05 ca bd
       -0.091956556 -0.03269392 -0.03318707 -0.09864263
000130 01 25 90 3c d2 12 f5 3d c4 a7 92 bc 57 fd 0d 3d
       0.01759577 0.1196648 -0.017902263 0.03466543
000140 1d 7a 88 bd f7 d8 68 3d 1d 44 21 3d 55 96 eb 3d
       -0.06663916 0.05684754 0.0393716 0.11503283
000150 3b 39 50 bd 51 de 37 bd 6b 7c be 3c 1c 0a 11 3c
       -0.05083583 -0.04488975 0.023252686 0.008852508
000160 3b ed dc 3a ea 37 d0 bd 5e 7e f2 bd 5f 44 2b bc
       0.0016855368 -0.10166915 -0.11840509 -0.010453313
000170 10 43 c1 3c 2b 50 6c bc 6b af 40 3d 02 d4 ed bd
       0.023591548 -0.01442341 0.04704229 -0.11612703
000180 c6 06 80 bd 1c df c5 3d ef 62 c0 3d 66 b5 8f 3d
       -0.06251292 0.09661695 0.0939387 0.07017021
000190 17 7d e1 bb 5f 94 2a 3d 92 b6 f4 3d 78 db c2 3d
       -0.006881367 0.041645404 0.11948885 0.095145166
0001a0 4e 3b 13 3d c3 8b be bd f7 38 97 bc ab 88 cd ba
       0.03594523 -0.09304001 -0.01845978 -0.0015680989
0001b0 ec 8a a9 bd b5 82 65 bc 72 72 a3 bd 65 08 d2 3d
       -0.0827845 -0.014008214 -0.07980813 0.102555074
0001c0 97 5f d2 3d 68 79 1e bc 12 26 9f bd 7f 52 ec 3d
       0.102721386 -0.0096725 -0.07770933 0.115391724
0001d0 32 fd f9 3d 56 1c 65 bd 83 40 0e 3e dc 04 83 3d
       0.12206496 -0.055935226 0.13891797 0.06397411
0001e0 7f 8a 0c bd 4f ed 87 3d b7 9e a7 3d 70 53 8f bd
       -0.034311768 0.0663706 0.08184569 -0.06998336
0001f0 2e 22 45 3d 98 74 83 3c 1e d6 87 bd 00 b6 ed 3d
       0.0481283 0.016046807 -0.066326365 0.11606979
000200 a2 c5 b2 3d 27 45 ef bd ea a3 03 3e df e3 e5 3d
       0.08729102 -0.11683112 0.12855497 0.112251036
000210 31 dc cf 3b 5d 18 9d bd ad f8 92 bd bb 89 f4 bd
       0.0063433875 -0.076706626 -0.071763374 -0.119403325
000220 bf e2 89 3d 05 66 0f 3e 97 2d 46 3d c6 1d c7 3d
       0.067327015 0.14003761 0.04838332 0.09722476
000230 b6 25 9f bd 90 46 60 3d e5 ff 38 3d 1e 94 a7 3d
       -0.07770865 0.054754794 0.045165915 0.08182548
000240 ac e0 9a 3d 06 f2 b9 bd 6c 3a cf bd e8 7c bf 3d
       0.07562384 -0.090793654 -0.10118565 0.09349996
000250 e5 27 fd 3b 3e 32 58 bc ea 32 1f bd ad 04 af 3d
       0.007725703 -0.013195572 -0.038866915 0.08545814
000260 34 8f c8 3c 98 08 ac bc ac 1f 4a bd de fe 0e bd
       0.024482347 -0.021000192 -0.04934661 -0.03491103
000270 9d d8 64 3d 32 bd 22 bd ee bf df bd 5a aa 6b bc
       0.05587064 -0.039731212 -0.109252796 -0.014383877
000280 0c bd d8 3c 0d b2 ee 3d 58 b0 2b bd ca be 3f bd
       0.026457332 0.11655054 -0.04191622 -0.04681281
000290 c0 5c a6 3d 21 ef fe bd e0 04 01 3e 6f 17 10 be
       0.081231594 -0.12447954 0.12599516 -0.14071439
0002a0 52 eb 48 3d 53 16 9c 3b 72 3a ab 3d b1 2b d7 bc
       0.049052544 0.0047634034 0.08360757 -0.02626595
0002b0 d5 f3 88 bd 93 3b 8a bd 40 a3 fd 3d 2c 8d f2 3d
       -0.06687132 -0.06749644 0.12384653 0.11843333
0002c0 d5 6c 03 3d 1d d3 ef 3d 64 e6 99 bd a6 4f df 3d
       0.032086212 0.117101885 -0.07514647 0.109038636
0002d0 27 a6 fb 3d 05 3d b2 bd bb 52 79 bd 12 58 d8 3c
       0.122875504 -0.08703045 -0.060869914 0.026409183
0002e0 0c a0 f6 3d a2 18 b9 bd fc 62 9c bd b4 31 7f bd
       0.12042245 -0.090379015 -0.07636067 -0.06230326
0002f0 af d8 24 bd 87 d4 31 bc 04 0e 25 bc d0 e8 1a 3a
       -0.040245708 -0.010853893 -0.010074142 0.00059093256
000300 6f 0d 97 bd a5 53 0a be a7 f3 81 bd 94 07 6b 3d
       -0.07375609 -0.1350847 -0.06345301 0.057380274
000310 15 47 fa bd b2 68 c3 3a f8 8a b3 bd a1 60 e1 bd
       -0.12220589 0.0014908521 -0.087667406 -0.110047586

linear.weight f4 [1, 50]
000000 49 a7 46 be bc cf 19 3e 0d 0c 1b 3e c8 97 22 3e
       -0.19399752 0.1502065 0.15141316 0.15878212
000010 00 13 db 3c 0a d8 29 be ff 84 fd 3d 1c d0 84 3d
       0.026742458 -0.16586319 0.123788826 0.06485006
000020 7c 96 9e bd 21 28 84 bd ac 23 c1 3c 63 68 b6 3c
       -0.07743546 -0.064529665 0.02357658 0.022266572
000030 12 2f 09 3e a4 ff 33 3e c5 9a 12 3e 82 ae 3b be
       0.13396862 0.17577988 0.14316852 -0.18328288
000040 a0 98 17 bd 25 ba 1e be 35 78 55 be 6e 62 67 bd
       -0.03701079 -0.15500696 -0.20846637 -0.056490354
000050 17 a4 28 bd 62 1e 28 be 5c 56 d3 3d 76 68 43 3e
       -0.041172113 -0.1641784 0.10319206 0.19082817
000060 0a af 87 3d e8 05 8a 3c e3 da 61 bd fe 26 24 be
       0.06625183 0.01684852 -0.055140387 -0.160305
000070 2b fb 29 3e 3a d3 a4 3d d7 0f c0 3d 91 16 34 be
       0.16599719 0.08048101 0.09378021 -0.17586733
000080 19 d6 1b 3e ad e3 43 be 25 01 64 3d 46 5c 6d 3e
       0.1521839 -0.1912982 0.055665154 0.23179731
000090 5b c4 1a bd d0 3d 84 3d 04 c6 e5 3d 49 8c 93 bd
       -0.037784915 0.06457102 0.11219409 -0.07204492
0000a0 e7 0b 16 3e 65 ef ed bd 6b e9 57 be 31 bb 9b 3d
       0.14652978 -0.116179265 -0.21085136 0.07604063
0000b0 04 db 0e bc ed 5b 18 3e b6 88 11 be 2c 1e c1 bd
       -0.00871921 0.14878817 -0.14212307 -0.09429583
0000c0 59 7b 2b be ad 61 cf bc
       -0.16746272 -0.02531513
