Time-Series---Forecasting/Results/local/model8.pth (torch, 167181 bytes, 5 tensors)

lstm.weight_ih_l0 f4 [400, 1]
0	0xbdb6bc23	-0.08922603
1	0xbe5f4ca6	-0.21806583
2	0xbdf5fd59	-0.12011213
3	0xbdee3031	-0.116302855
4	0xbe75de28	-0.24010527
5	0xbd8bcc2d	-0.06826053
6	0x3da8d302	0.082433715
7	0x3d8611f1	0.06546391
8	0x3dea7cb6	0.11449568
9	0x3dcfb5b9	0.10142083
10	0xbc893e0f	-0.016753225
11	0xbcb217e2	-0.021739904
12	0xbdf111a4	-0.11770943
13	0xbdd9e5f0	-0.1063956
14	0xbdbc6ed2	-0.09200825
15	0x3d72bbd3	0.059261154
16	0xbab917c4	-0.0014121463
17	0x3c42e3cc	0.011895131
18	0xbe077b51	-0.13230635
19	0x3cde4259	0.027131246
20	0xbc10d4c6	-0.008839792
21	0xbcdd4ee4	-0.027015157
22	0xbc86b0e1	-0.016441764
23	0x3dbcb29b	0.09213754
24	0x3e05f5d6	0.1308206
25	0x3d496b50	0.049174607
26	0x3d4d6c8d	0.05015235
27	0x3e207d02	0.15672687
28	0xbd3d86f1	-0.04627127
29	0x3dc49155	0.095980324
30	0x3d969b30	0.073538184
31	0x3de764e8	0.11298543
32	0x3dbaac73	0.09114923
33	0xbd0a27d3	-0.033729386
34	0x3d03dfbd	0.032195795
35	0xbdaaf850	-0.08348143
36	0x3dfee72d	0.12446437
37	0x3de64a84	0.112446815
38	0xbd0a27af	-0.03372925
39	0xbc007705	-0.0078408765
40	0x3db1fc6c	0.08690724
41	0x3c23a9fd	0.009989259
42	0xbd26ea01	-0.040750507
43	0xbe31861f	-0.1733632
44	0x3d91bc82	0.07116033
45	0xbd66cb18	-0.05634603
46	0x3dcb66ef	0.099317424
47	0x3cee757a	0.029108752
48	0xbc18d623	-0.009328398
49	0xbccbf26b	-0.024895867
50	0xbdd41685	-0.10355858
51	0xbd8795b6	-0.06620352
52	0x3bd9a5fb	0.006642101
53	0x3d93555e	0.07194017
54	0xbd42b256	-0.047533356
55	0x3d1eab67	0.03873768
56	0x3c86cf54	0.016456284
57	0xbdbf9aff	-0.09355735
58	0x3db74fa0	0.08950734
59	0xba8fa356	-0.0010958712
60	0x3c075b7e	0.0082615595
61	0x3ccaf25b	0.024773767
62	0xbdaf8ba7	-0.085715584
63	0x3df3e299	0.119084544
64	0x3db2757e	0.08713816
65	0xbe8e0f54	-0.2774607
66	0xbde17fdd	-0.11010716
67	0x3c4a233f	0.012337505
68	0xbe0df5a5	-0.13863237
69	0xbe45ce40	-0.1931696
70	0xbd86fa50	-0.06590712
71	0xbd2459b6	-0.040124618
72	0xbceb4dc4	-0.028723605
73	0x3e1ab693	0.15108709
74	0x3d2f6566	0.04282131
75	0x3d5fe803	0.054664623
76	0x3c9365bf	0.017992852
77	0x3e0806a8	0.13283789
78	0x3d420611	0.047369067
79	0xbd1967f5	-0.037452657
80	0xbd120eba	-0.035658576
81	0x3dd8f2b5	0.10593168
82	0x3da6eebf	0.08151006
83	0xbd2398f4	-0.03994079
84	0x3e1f40e3	0.15552096
85	0xbd1a114a	-0.037614144
86	0xbe2123ce	-0.15736315
87	0xbdc5d4dd	-0.09659741
88	0xbd55ff24	-0.052245274
89	0xbe8636ba	-0.26213628
90	0x3d81b430	0.06333196
91	0x3d7b3070	0.06132549
92	0xbde6de8a	-0.11272915
93	0xbe7fff87	-0.2499982
94	0x3d4fc3d2	0.05072386
95	0x3c9c0ddb	0.019049576
96	0xbcebe774	-0.028796889
97	0xbd6e5e66	-0.058195494
98	0xbe3766f5	-0.17910369
99	0xbe33a827	-0.17544614
100	0x3d1560b7	0.036469188
101	0xbc54854a	-0.012971232
102	0x3d06407f	0.032776352
103	0xbe3df01f	-0.1854863
104	0xbe296b39	-0.16544808
105	0xbc8c0fec	-0.017097436
106	0x3e18769f	0.14889
107	0xbdd702bb	-0.10498568
108	0x3de66e0c	0.112514585
109	0xbd6eaf63	-0.05827273
110	0xbd2271a6	-0.039659165
111	0x3dc11fe1	0.094299085
112	0x3d19e39b	0.037570577
113	0x3d1c419a	0.0381485
114	0xbe02562e	-0.12728187
115	0xbca9d312	-0.020730529
116	0x3c80e8ea	0.015736062
117	0x3e0af028	0.13568175
118	0xbca34e6f	-0.019934861
119	0xbb02e846	-0.0019974872
120	0xbe23454d	-0.15944405
121	0x3c91dd21	0.017805638
122	0x3cc5e497	0.024156852
123	0xbda4a198	-0.08038634
124	0x3c7caf38	0.015422635
125	0xbd6b0e5c	-0.05738674
126	0x3a04db4e	0.00050680793
127	0x3e006032	0.12536696
128	0x3d24f49f	0.04027235
129	0xbb4ca12e	-0.0031224
130	0xbdad495c	-0.08461258
131	0x3d8e8906	0.06959729
132	0x3de9e534	0.1142067
133	0xbe3c6630	-0.18398356
134	0x3d6a767b	0.057241898
135	0xbc197b31	-0.00936775
136	0x3d9744b6	0.073861524
137	0x3dbe5889	0.092942305
138	0xbd8c227f	-0.06842517
139	0x3c11fdc7	0.008910603
140	0x3e1ac10d	0.15112706
141	0x3d860e7d	0.06545732
142	0xbc16b9d1	-0.0091995755
143	0xbe547535	-0.20747836
144	0x3b9b6b9c	0.0047430526
145	0xbdf43a8b	-0.11925229
146	0xbd418ca3	-0.047253262
147	0xbd0f1570	-0.034932554
148	0xbd99955b	-0.074991904
149	0xbd2159a0	-0.039392114
150	0xbdd462fd	-0.10370443
151	0xbd4e513c	-0.05037044
152	0x3cf6a4d2	0.03010789
153	0x3be91b03	0.0071138158
154	0x3e0cbadd	0.13743158
155	0x3d8b2fa5	0.06796197
156	0xbdea69d0	-0.114459634
157	0x3d800906	0.06251721
158	0x3dd248fd	0.10267828
159	0x3d3cf60b	0.046133082
160	0xbd73b533	-0.059498977
161	0xbd9cdd1d	-0.076593615
162	0x3d619c18	0.055080503
163	0x3d974592	0.07386316
164	0xbc743706	-0.014905697
165	0xbd13d026	-0.036087178
166	0xbd3a97fc	-0.0455551
167	0xbd96febe	-0.07372807
168	0xbd5af46b	-0.05345575
169	0xbdf6807e	-0.12036227
170	0xbdfa201d	-0.12213156
171	0xbdcddb3f	-0.100515835
172	0xbe1a39d5	-0.15061124
173	0x3dea6389	0.11444766
174	0x3df49a01	0.119434364
175	0x3d582d0f	0.052777346
176	0xbb6a2e56	-0.0035733185
177	0x3cd7fd21	0.026365818
178	0xbd1d7a2a	-0.038446583
179	0x3d91a55d	0.07111619
180	0x3dbbeca8	0.09175998
181	0x3d5aa6c7	0.053381708
182	0xbc86c569	-0.016451554
183	0x3c3dbc68	0.011580564
184	0x3e0b08cb	0.13577573
185	0xbd98001d	-0.074218966
186	0xbd080167	-0.033204462
187	0xbd872534	-0.06598893
188	0x3c721140	0.0147746205
189	0xbe1f07d8	-0.15530336
190	0x3d970cba	0.07375474
191	0xbd4cfd3a	-0.050046183
192	0xbdf2a1ff	-0.118473046
193	0xbe3c91ab	-0.18414943
194	0x3d86bbd8	0.06578797
195	0x3a9d6bc5	0.0012010267
196	0x3d89b4ed	0.06723962
197	0xbcd276c4	-0.025691397
198	0xbdd2ac5a	-0.1028678
199	0xbdb9b5f4	-0.09067908
200	0xbdce6772	-0.100783244
201	0x3e05f8e0	0.1308322
202	0xbd1dcec9	-0.038527284
203	0xbe625dba	-0.22106066
204	0xbde41623	-0.11137035
205	0xbd6c235a	-0.0576509
206	0xbaac730d	-0.0013156846
207	0x3d8b740b	0.06809243
208	0x3dfce741	0.12348796
209	0xbdc317f6	-0.095260546
210	0xbdd1c287	-0.10242181
211	0x3c30e09b	0.010795738
212	0x3db51c40	0.08843279
213	0x3dc0279b	0.09382554
214	0x3df33dbc	0.11877009
215	0xbe3600d0	-0.17773747
216	0x3d981039	0.07424969
217	0xbd8c013e	-0.068361744
218	0xbe2c9928	-0.168553
219	0x3cc4876a	0.023990352
220	0x3e43f629	0.19136871
221	0x3d5f10f5	0.05445953
222	0xbd147deb	-0.036252897
223	0xbe0b9903	-0.13632588
224	0xbdfd8036	-0.1237797
225	0xbb48cf16	-0.003064101
226	0xbe16ddcf	-0.14733051
227	0xbd397a25	-0.0452825
228	0xbdf24936	-0.1183037
229	0xbdbb32bd	-0.09140537
230	0xbdc75632	-0.09733237
231	0xbddc250b	-0.10749253
232	0xbd7fdf13	-0.0624686
233	0x3d185e6f	0.037199434
234	0x3df369db	0.11885425
235	0x3e0a7254	0.13520175
236	0xbe1d6333	-0.15369873
237	0xbda0fb07	-0.0786038
238	0x3db6c2f8	0.08923906
239	0xbd9e52bd	-0.07730625
240	0xbce8baf3	-0.028409457
241	0xbe1d8707	-0.1538354
242	0xbd00d33b	-0.031451445
243	0x3c8d8207	0.017273916
244	0xbde48f4a	-0.11160143
245	0x3d2f1f15	0.04275425
246	0x3e0f573e	0.13998124
247	0xbd0cadff	-0.034345623
248	0x3d03fecc	0.032225415
249	0xbddcbe1b	-0.10778447
250	0x3dd7c39b	0.10535356
251	0x3c8743ea	0.016511876
252	0xbdfbb76d	-0.12290845
253	0xbd892b11	-0.066976674
254	0xbd3278b1	-0.04357213
255	0x3e43788c	0.19088954

lstm.weight_hh_l0 f4 [400, 100]
0	0x3ca38b82	0.019963983
1	0xbd982d47	-0.07430511
2	0x3d2cd781	0.042197708
3	0x3dcc630b	0.099798284
4	0x3d9c37e5	0.076278485
5	0xbd00f919	-0.031487558
6	0xbd0cc181	-0.034364227
7	0xbd1b8211	-0.037965838
8	0xbd48c46f	-0.04901546
9	0xbcf3551d	-0.029703671
10	0xbc1f3696	-0.009717604
11	0x3d11b6a0	0.035574555
12	0xbcaffda9	-0.02148326
13	0xbd74ceea	-0.05976764
14	0xbda1e4ba	-0.07904954
15	0xbd24f72f	-0.040274795
16	0xbd03d9d8	-0.032190174
17	0xbcd166a4	-0.025561638
18	0x3dd15958	0.10222119
19	0x3d423f1f	0.04742348
20	0x3da3761c	0.07981512
21	0x3d5914ed	0.052998472
22	0xbcc18d1e	-0.02362686
23	0x3d7e9c61	0.062160853
24	0x3d9fa99f	0.077960245
25	0x3d1b4a41	0.03791261
26	0x3c03ef11	0.008052603
27	0xbd318505	-0.043339748
28	0xbbc85c96	-0.0061145527
29	0xbc3906c2	-0.011293115
30	0x3d85ca92	0.06532778
31	0x3d8a0b81	0.067404754
32	0x3d0ffd1d	0.035153497
33	0xbdcd2d5a	-0.10018416
34	0xbdc561a4	-0.09637764
35	0xbcb3768c	-0.021907113
36	0x3da59bcd	0.08086357
37	0x3d8355b3	0.0641283
38	0xbdb84ad5	-0.08998648
39	0x3bdb87a2	0.0066995183
40	0x3d13e1d2	0.03610403
41	0xbc6a2922	-0.014292033
42	0x3da5ff73	0.08105364
43	0xbdb798cc	-0.089646906
44	0x38f24a54	0.00011553304
45	0xbd0e5867	-0.034752276
46	0x3d7085a3	0.058721196
47	0x3d943d1d	0.07238219
48	0xbd3267f8	-0.043556184
49	0x3dea8c89	0.11452586
50	0xbd5f6e91	-0.054548804
51	0x3b6ab769	0.0035814887
52	0xbd62ae1e	-0.055341832
53	0xbdb2df3d	-0.087339856
54	0xbd2898e0	-0.041161418
55	0xbbc47049	-0.0059948307
56	0x3da3f3b8	0.0800547
57	0x3ceed712	0.029155288
58	0x3d02fe40	0.031980753
59	0x3ced19f1	0.028943034
60	0xbc1b853c	-0.009492215
61	0x3d45b855	0.048271496
62	0xbd52f6f6	-0.05150505
63	0x3d6f0510	0.058354437
64	0x3c096a06	0.008387094
65	0x3d763cd1	0.060116593
66	0x3da50b30	0.080587745
67	0x3da1ff2e	0.0791
68	0x3d7ad649	0.061239514
69	0x3dd4a0ec	0.10382256
70	0xbcf9f52d	-0.030512417
71	0xbd8b7a97	-0.068104915
72	0x3de8df9a	0.113707736
73	0x3da43d73	0.08019533
74	0xbcf283be	-0.029603835
75	0xbde63b6d	-0.11241803
76	0x3d63596c	0.0555052
77	0xbccb6c32	-0.024831865
78	0xbd9d8477	-0.07691281
79	0x3d877681	0.066144
80	0xbd2d400f	-0.04229742
81	0xbd567362	-0.05235613
82	0x3c81b656	0.015834015
83	0x3d1fb783	0.03899337
84	0xbd44160d	-0.04787259
85	0x3b64289c	0.0034814244
86	0xbd59e130	-0.05319327
87	0x3d34172c	0.04396741
88	0x3d6ae9d4	0.057351902
89	0xbd8d5d64	-0.069025785
90	0x3c259c44	0.010108057
91	0x3da89992	0.08232416
92	0x3d6ac40e	0.05731588
93	0x3cff79f0	0.031186074
94	0x3c9f5ce9	0.019453483
95	0x3b1aeba5	0.002363899
96	0x3dcda55e	0.10041307
97	0x3ca4c963	0.02011556
98	0x3d9ee606	0.07758717
99	0x3d0a562e	0.033773594
100	0xbd309dbb	-0.043119173
101	0x3d2dbe57	0.04241785
102	0xbca9965e	-0.020701583
103	0x3dede116	0.11615197
104	0x3c1fb1ce	0.009746982
105	0x3dafa0c6	0.08575587
106	0x3e41c3a9	0.18922295
107	0xbc9f343b	-0.019434085
108	0xbc75f1ab	-0.015011231
109	0xbd8558b1	-0.06511057
110	0xbd52f433	-0.051502418
111	0x3c5fcee4	0.013660166
112	0xbd5e302c	-0.05424516
113	0xbc8b7a96	-0.017026227
114	0x3d19848a	0.037479915
115	0xbdd6ad30	-0.10482252
116	0xbe2d4485	-0.1692067
117	0xbc223187	-0.009899504
118	0xbce5eec8	-0.028067961
119	0xbd1903c1	-0.037357096
120	0x3cb8e74d	0.02257123
121	0xbe06921f	-0.13141678
122	0xbd936f78	-0.07198995
123	0x3d8a15a3	0.06742408
124	0xbd12dbb0	-0.03585404
125	0xbb90601f	-0.00440599
126	0xbceb582d	-0.028728569
127	0xbd5d7ae5	-0.05407228
128	0x3c2485ad	0.010041636
129	0xbdb1e0c0	-0.08685446
130	0x3cb80643	0.022463923
131	0xbe2a07e0	-0.16604567
132	0xbd4a0e4b	-0.049330037
133	0x3cc302b6	0.023805004
134	0xbd9a6f24	-0.0754073
135	0xbdc90221	-0.09814859
136	0x3c94924a	0.018136162
137	0xbdf31fa2	-0.11871268
138	0xbdacc670	-0.084362864
139	0x3df36ea4	0.118863374
140	0x3e48c89f	0.19607781
141	0x3d6fca1b	0.058542352
142	0x3d90f48c	0.070778936
143	0xbd2035ad	-0.03911369
144	0xbd355a34	-0.044275478
145	0x3ce430df	0.027855335
146	0x3dc615e9	0.09672148
147	0xbddfb1fb	-0.10922619
148	0xbbe70551	-0.0070501943
149	0x3d1e7506	0.03868582
150	0xbcac80bf	-0.021057485
151	0x3dbac831	0.09120215
152	0xbd7d234e	-0.061801247
153	0x3d7ae13a	0.06124995
154	0xbdd3068d	-0.10303984
155	0xbd48e96f	-0.049050745
156	0x3d880813	0.06642165
157	0x3d24fd32	0.04028053
158	0xbdd54e5a	-0.10415335
159	0xbddeb3d4	-0.10874143
160	0xbd96d088	-0.07363993
161	0xbd26582a	-0.040611424
162	0x3cd29307	0.025704874
163	0x3c837e17	0.016051335
164	0x3e0c7435	0.13716204
165	0x3d9ad9e6	0.07561092
166	0x3d941b48	0.07231766
167	0xbd479689	-0.048727546
168	0xbd3dfbbf	-0.046382662
169	0x3ca7e7d9	0.020496296
170	0x3beb0135	0.0071717747
171	0xbd9b8cab	-0.0759519
172	0x3d5bc569	0.053655062
173	0x3de61e24	0.112362176
174	0xbdff7779	-0.124739595
175	0xbdfee7e6	-0.12446575
176	0x3d5e68df	0.05429923
177	0xbe254259	-0.16138591
178	0xbcf1d7a0	-0.029521763
179	0x3ce4e591	0.027941497
180	0x3d9cadb0	0.07650316
181	0x3d574a2e	0.052560978
182	0xbcc58fdc	-0.024116449
183	0x3dce2d03	0.10067179
184	0x3e178434	0.14796525
185	0x3d914afd	0.07094381
186	0xbdd80e73	-0.10549631
187	0x3d0ba0d3	0.03408892
188	0x3d5e76b5	0.054312427
189	0xbddb0284	-0.10693839
190	0xbe02922d	-0.12751074
191	0xbd82b83b	-0.063827954
192	0x3d8ff18f	0.070284955
193	0x3d5be263	0.053682696
194	0xbde21e00	-0.11040878
195	0x3d4b53cc	0.04964046
196	0x3d804833	0.06263771
197	0x3dcdda3e	0.10051392
198	0x3c8e62cf	0.0173811
199	0x3d948025	0.07251004
200	0xbda6bd6c	-0.08141598
201	0x3ca4bed7	0.02011053
202	0x3daf0a8f	0.08546936
203	0xbd122f79	-0.035689805
204	0x3d5dd8a9	0.0541617
205	0x3ceb3809	0.028713243
206	0xbd8ebad5	-0.06969229
207	0xbac4bc6b	-0.0015009766
208	0x3d955a94	0.07292667
209	0x3def1401	0.11673737
210	0x3d8a73a3	0.06760337
211	0x3d89b5c0	0.06724119
212	0xbce8cc6e	-0.028417792
213	0x3d23c675	0.039984185
214	0x3bf1b53c	0.007376341
215	0x3e02cb35	0.1277283
216	0xbdaa017b	-0.083010636
217	0xbd33dca1	-0.04391158
218	0x3dcb90ce	0.09939729
219	0x3d8ce177	0.068789415
220	0xbd50a4fc	-0.05093859
221	0xbae251ce	-0.0017266811
222	0xbdab5020	-0.08364892
223	0x3c2cade0	0.010539502
224	0xbc8952ee	-0.016763177
225	0x3dbad278	0.09122175
226	0xbd36ed35	-0.044659812
227	0x3c1578de	0.009123055
228	0xbd3ea381	-0.04654265
229	0x3dd8a771	0.10578812
230	0xbd89869e	-0.06715129
231	0x3da654c5	0.08121637
232	0xbbf7d9a6	-0.0075637875
233	0x3d397e15	0.045286257
234	0x3da53ffd	0.080688454
235	0x3d5a88ce	0.053353123
236	0x3d5e8b99	0.05433235
237	0xbb504e4e	-0.0031784954
238	0x3d6f1256	0.058367096
239	0x3d9834a3	0.07431915
240	0x3dc98ffb	0.09841915
241	0x3dd2047c	0.102547616
242	0x3d44d40c	0.048053786
243	0xbd858eb5	-0.0652136
244	0xbdaa001c	-0.08300802
245	0x3c84a254	0.016190685
246	0x3cbced90	0.023062497
247	0x3db53ec8	0.08849865
248	0x3d576658	0.052587837
249	0x3d9aa9ab	0.07551893
250	0xbdd6c9f1	-0.10487736
251	0x3d8fd4e7	0.0702303
252	0x3cf6212b	0.030045113
253	0xbda85a98	-0.082204044
254	0x3d10da57	0.035364475
255	0x3d489aca	0.048975743

lstm.bias_ih_l0 f4 [400]
0	0xbd5c0b58	-0.053721756
1	0x3dec1443	0.11527302
2	0xbdb56224	-0.088566095
3	0x3dfd4f8c	0.12368688
4	0xbcd77ad1	-0.02630368
5	0x3d40ff48	0.047118455
6	0x3de83338	0.11337894
7	0xbcb05ac3	-0.021527654
8	0xbd3f0314	-0.046633795
9	0x3d9ff19f	0.078097574
10	0xbc692d01	-0.014231921
11	0x3d8c4089	0.068482466
12	0xbd4b8357	-0.049685802
13	0xbbc36b29	-0.005963702
14	0x3db94e90	0.09048188
15	0x3e0fd88d	0.14047451
16	0x3d1bd7b3	0.038047504
17	0x3d8ec716	0.069715664
18	0x3d8a731d	0.06760237
19	0xbd206788	-0.039161235
20	0x3d872301	0.06598473
21	0x3d70bf23	0.058776032
22	0x3b5f5dbc	0.003408297
23	0x3d3e7555	0.046498615
24	0x3d1a901a	0.037735082
25	0xbd13d2f6	-0.03608986
26	0x3d4b0d5f	0.0495733
27	0x3d366938	0.04453394
28	0x3d0a0c2d	0.033703018
29	0x3d92bbdb	0.07164737
30	0xbc8b4227	-0.016999317
31	0x3c2162da	0.009850228
32	0x3d42915f	0.047501918
33	0x3dcf9696	0.10136144
34	0x3d87edc3	0.06637146
35	0xbcca9fe7	-0.02473445
36	0x3d182cd1	0.037152115
37	0x3c8c5226	0.017129015
38	0xbd8355a5	-0.0641282
39	0x3da3b80b	0.07994088
40	0x3dc58469	0.09644396
41	0x3cf837b7	0.030300004
42	0xbc4ee830	-0.0126286
43	0xbd6b987f	-0.05751848
44	0x3dfc301e	0.12313865
45	0x3d6b8c67	0.057506945
46	0xbd3fca1e	-0.046823613
47	0xbc2074dc	-0.009793486
48	0xbd56fcdf	-0.05248725
49	0x3da00f7c	0.078154534
50	0x3b4461c8	0.0029965509
51	0xbbe786bd	-0.0070656226
52	0x3d9d6fa0	0.076873064
53	0x3d8e4d76	0.06948368
54	0x3d399cea	0.04531566
55	0x3c3809c5	0.011232798
56	0x3c84e1a3	0.016220873
57	0xbd3773df	-0.044788238
58	0xbcecd85f	-0.028911768
59	0x3d48ec3a	0.04905341
60	0x3d9f8fd6	0.077911064
61	0xb959b7fd	-0.00020763274
62	0x3d8f6f6c	0.07003674
63	0x3cfabb03	0.030606752
64	0x3d02f646	0.031973146
65	0x3d910462	0.07080914
66	0x3d5530ab	0.052048367
67	0xbcd4ca54	-0.025975384
68	0x3dcac1b3	0.099002264
69	0xbbbbd476	-0.0057321144
70	0xbd2e64da	-0.04257665
71	0x3dfaec51	0.12252105
72	0x3d612eb6	0.054976188
73	0x3d85750b	0.06516465
74	0x3df1a1f5	0.11798469
75	0xbcc474a0	-0.023981392
76	0xbd3c3b30	-0.045954883
77	0x3d079d58	0.03310904
78	0x3d4aadfd	0.049482334
79	0x3ccf2da9	0.025290327
80	0x3e89531c	0.2682122
81	0xbd5404dd	-0.05176245
82	0x3da37267	0.07980805
83	0xbdb0f4f2	-0.086404696
84	0x3d208bf8	0.039195985
85	0xbd8c74d1	-0.068582185
86	0x3dc7a29b	0.097478114
87	0x3d002a85	0.03129055
88	0x3da13b44	0.07872632
89	0x3dbb6ee9	0.09152014
90	0xbd05ceec	-0.03266804
91	0x3d7bddf6	0.061490975
92	0x3dbfb986	0.09361558
93	0xbc1b9fa2	-0.009498509
94	0x3e2b142a	0.1670691
95	0xbd874e80	-0.066067696
96	0x3de8f1b1	0.11374224
97	0x3c39618d	0.011314762
98	0xbc5a18cc	-0.013311576
99	0xbd0435b8	-0.032277793
100	0xbd680a5f	-0.056650516
101	0xbd08d958	-0.0334104
102	0x3d9ef818	0.07762164
103	0xbd3a4a1d	-0.045480836
104	0x3d825ef9	0.06365771
105	0xbda50127	-0.080568604
106	0x3d5da82e	0.054115467
107	0xbd6eff75	-0.05834909
108	0x3d58321d	0.052782167
109	0xbba3ac4e	-0.0049949056
110	0x3b25133f	0.0025188474
111	0x3d78219d	0.06057893
112	0x3dc138fb	0.09434696
113	0xbcbaabff	-0.022787092
114	0xbd6fafbd	-0.058517206
115	0xbcd65d24	-0.02616746
116	0xbd1bce15	-0.038038332
117	0xbd9cd95c	-0.076586455
118	0xbda908b7	-0.08253615
119	0xbde5ebf4	-0.11226645
120	0xbda6f9e9	-0.08153135
121	0x3d758619	0.05994234
122	0xbc70d457	-0.014699063
123	0x3d6796a7	0.056540158
124	0xbd37dbbd	-0.044887293
125	0x3d9c7f54	0.076414734
126	0xbd6b5266	-0.05745163
127	0x3dbf82c8	0.093511164
128	0x3d9a3618	0.07529849
129	0x3d809cea	0.06279929
130	0x3d6d0874	0.05786939
131	0x3da8e169	0.082461186
132	0x3d9f6a5e	0.0778396
133	0xbd7902ed	-0.060793806
134	0x3d0024cf	0.031285103
135	0x3d4c0dbb	0.049817782
136	0x3da1e366	0.07904701
137	0x3da6d069	0.0814522
138	0x3d6f2237	0.05838224
139	0xbb981721	-0.004641429
140	0xbc5ea60a	-0.0135893915
141	0xbd676e67	-0.056501772
142	0x3c37f00c	0.011226665
143	0x3d1e53c5	0.038654108
144	0x3d2ff22c	0.042955562
145	0x3cb6d667	0.022319032
146	0xbd801f8e	-0.062560186
147	0x3d339853	0.04384644
148	0x3dda5894	0.10661426
149	0x3c974aee	0.018468346
150	0x3d5e9fdf	0.054351684
151	0xbb57d165	-0.0032931205
152	0xbd09fc01	-0.033687595
153	0x3d7a399b	0.061090093
154	0xbcb57a30	-0.02215299
155	0xbd63c6a4	-0.05560936
156	0x3dd0f88d	0.10203657
157	0x3dcacbce	0.09902154
158	0xbdb5df74	-0.08880511
159	0x3d51cb69	0.051219378
160	0xbc42ce98	-0.011890076
161	0xbce5a428	-0.028032377
162	0xbd980bc4	-0.07424119
163	0xbb058453	-0.002037306
164	0xbd940466	-0.072274014
165	0x3d4d6768	0.050147444
166	0x3c5dc4b3	0.013535666
167	0x3d9ce5b7	0.07661002
168	0xbda3bbd8	-0.07994813
169	0xbd73314b	-0.05937318
170	0xbcccc1f6	-0.024994832
171	0x3d1980f2	0.037476487
172	0xbd0dda04	-0.034631744
173	0x3cc8dbcd	0.024518872
174	0x3cd3f1d7	0.025872154
175	0xbcd9aece	-0.026572611
176	0xbd4c4db9	-0.04987881
177	0xbdc5dfb8	-0.096618116
178	0xbd414e7f	-0.047194
179	0x3d9123f5	0.070869364
180	0xbc96f884	-0.018429048
181	0x3d3f1eff	0.04666042
182	0xbd989b17	-0.07451456
183	0x3d23c3bc	0.03998159
184	0x3da2140e	0.079139814
185	0xbcbb0b5a	-0.022832561
186	0x3d03c08c	0.03216605
187	0xbda30116	-0.079591915
188	0x3d38b1d0	0.04509145
189	0x3df3c779	0.11903281
190	0x3d712515	0.058873255
191	0x3dd24b76	0.10268299
192	0x3dcf2615	0.101146854
193	0x3dbaad17	0.091150455
194	0xbd9e5360	-0.07730746
195	0x3ca6db62	0.020368282
196	0xbd83d174	-0.064364344
197	0x3d5a5c8f	0.053310927
198	0x3c6bdaf6	0.014395466
199	0x3d582c24	0.05277647
200	0x3d896e6c	0.067105144
201	0xbdad313f	-0.084566586
202	0xbd9a36f2	-0.07530011
203	0xbd8c53c7	-0.06851917
204	0x3df1211b	0.117738925
205	0x3d0b3b78	0.03399226
206	0x3e006e9b	0.12542193
207	0x3d877067	0.06613236
208	0xbce930e3	-0.028465694
209	0xbbf83552	-0.0075747157
210	0xbda6c65d	-0.081433035
211	0x3dbe972a	0.09306176
212	0xbdd0c301	-0.10193444
213	0x3d720be1	0.05909336
214	0x39842dbc	0.00025211077
215	0x3d2faa49	0.042887006
216	0xbc6313a4	-0.013859663
217	0xbae588b3	-0.0017512053
218	0x3d9a9394	0.075476795
219	0x3bd8d284	0.0066168923
220	0xbd1c15f5	-0.038106877
221	0xbda081b8	-0.07837242
222	0x3cff70ec	0.031181775
223	0xbd3549ee	-0.044259958
224	0x3da3103a	0.07962079
225	0xbd1109b7	-0.035409655
226	0x3d1baa37	0.038004126
227	0xbd21c8c7	-0.039498117
228	0x3d135d1d	0.03597747
229	0xbd7f3c4a	-0.062313356
230	0x3cd8293a	0.026386846
231	0xbdc9af58	-0.09847897
232	0xbd1bbda7	-0.038022663
233	0xbd92005e	-0.07128976
234	0x3c833e62	0.016020957
235	0xbd1f5f07	-0.038908985
236	0xbc9d9eec	-0.019240819
237	0xbd7b518d	-0.06135707
238	0xbdba4a8e	-0.090962514
239	0x3d901b86	0.070365
240	0x3d3b43b7	0.045718875
241	0x3db46121	0.08807588
242	0xbb6cbd8b	-0.0036123719
243	0xbd70ebda	-0.058818676
244	0x3d9cc008	0.076538146
245	0x3d23bb2f	0.039973434
246	0x3d2e1d3a	0.04250834
247	0xbdb68df4	-0.08913794
248	0x3c59007b	0.013244743
249	0x3dbb5b16	0.09148233
250	0xbd7fcced	-0.06245129
251	0x3daa12ee	0.08304392
252	0xbd2ddd37	-0.042447295
253	0x3d06314d	0.03276186
254	0xbd03117a	-0.03199909
255	0xbbccff11	-0.006255992

lstm.bias_hh_l0 f4 [400]
0	0xbcba7751	-0.022761973
1	0x3c92a076	0.01789878
2	0xbbe008d3	-0.0068369894
3	0x3e348322	0.17628148
4	0x3dbc0a98	0.09181708
5	0x3d666592	0.05624921
6	0xbd35299b	-0.04422913
7	0x3d887fb1	0.0666498
8	0x3c3dd309	0.011585959
9	0x3dad305d	0.0845649
10	0x3d7324e3	0.05936135
11	0x3d4568f4	0.048195794
12	0x3d7b4cc9	0.061352525
13	0x3e08e7c2	0.13369659
14	0x3def7785	0.116927184
15	0x3dd076b2	0.10178889
16	0x3c53faf5	0.012938251
17	0x3d443275	0.047899682
18	0xbccfa4d6	-0.025347155
19	0x3c9e80a6	0.019348454
20	0x3d9963f1	0.074897654
21	0x3dba7eaa	0.091061905
22	0x3c73bafd	0.014876124
23	0x3e0fed79	0.14055432
24	0x3cdb0ffe	0.026741024
25	0xbd80207d	-0.06256197
26	0xbccb00dd	-0.024780685
27	0x3dbdf1d2	0.09274639
28	0x3d8d2bff	0.06893157
29	0x3cdf7a45	0.027279982
30	0xbd1a7abb	-0.0377147
31	0x3db97fb9	0.09057564
32	0xbcd5d48e	-0.02610233
33	0xbd0db31a	-0.034594633
34	0x3dcd666b	0.100293
35	0xbd07ed15	-0.033185083
36	0xbd3bec8c	-0.045879886
37	0x3d91e95a	0.071245864
38	0x3dfb9b6d	0.122855045
39	0x3de7d6b9	0.11320252
40	0x3c28c3ec	0.010300618
41	0x3dcbff6e	0.09960829
42	0xbd50ee20	-0.051008344
43	0x3ce2b95c	0.027676277
44	0xbb097fc0	-0.0020980686
45	0xbd910b5d	-0.070822455
46	0xbcb69529	-0.022287922
47	0xbd9d4f5d	-0.07681153
48	0xbbfafce4	-0.0076595414
49	0xbd7b537a	-0.061358906
50	0xbcfe12dd	-0.031014854
51	0x3d1e8a49	0.038706098
52	0x3d8a3bea	0.06749709
53	0xbd8cbd18	-0.06872004
54	0x3d576ded	0.052595068
55	0xbd0f0af2	-0.034922548
56	0x3cef5ffa	0.02922057
57	0x3d4d2e7a	0.05009315
58	0x3dbd0198	0.092288196
59	0xbc882119	-0.016617345
60	0xbc7b8d68	-0.015353538
61	0x3b07bea0	0.0020712987
62	0xbd80884c	-0.062759966
63	0x3dc09024	0.09402493
64	0x3d93ea0e	0.07222377
65	0x3c2cc469	0.010544875
66	0x3dce0e68	0.100613415
67	0x3e011e8b	0.12609307
68	0x3dc946f4	0.09827986
69	0xbcb35092	-0.021889005
70	0xbd3cab3a	-0.046061732
71	0x3cf8a344	0.030351289
72	0x3df4b55e	0.119486555
73	0xbd292521	-0.041295175
74	0x3dc80515	0.09766594
75	0x3dafc120	0.085817575
76	0xbc4ffa62	-0.012693973
77	0x3dc1b1d3	0.094577454
78	0x3dcddc2c	0.1005176
79	0xbd6e0501	-0.05811024
80	0x3e64a8bb	0.2232999
81	0x3d1b8eed	0.0379781
82	0x3d61739e	0.0550419
83	0x3dc841e2	0.09778191
84	0x3d79dc31	0.061001007
85	0x3ca9b060	0.020713985
86	0x3e13d8bc	0.14438146
87	0x3dcc41e8	0.09973508
88	0x3c03b5dc	0.008038964
89	0x3d886129	0.06659157
90	0x3d76f285	0.06028988
91	0x3d558b33	0.052134704
92	0x3de28629	0.11060745
93	0x3d9a5672	0.075360194
94	0x3ce08bec	0.02741047
95	0xbbd13eaf	-0.0063856463
96	0xba33e79e	-0.0006862822
97	0x3d7ed719	0.06221685
98	0xbcb75f10	-0.022384197
99	0x3deca697	0.11555212
100	0xbc1b717a	-0.009487504
101	0xbb557469	-0.0032570607
102	0x3d199217	0.037492838
103	0x3d66f16f	0.056382593
104	0x3d64ccb4	0.055859283
105	0xbd9a695b	-0.07539626
106	0x3c1c5cef	0.0095436415
107	0xbc141ed9	-0.009040558
108	0x3c415228	0.011799373
109	0x3c8558ab	0.016277632
110	0x3d92d3be	0.07169293
111	0xbd293c4d	-0.041317273
112	0x3d46a4df	0.048497077
113	0x3d522e19	0.051313493
114	0x3d841668	0.06449586
115	0x3cbabdca	0.022795577
116	0xbdd94c0b	-0.10610207
117	0xbc5ee73d	-0.013604936
118	0xbd3a287c	-0.045448765
119	0xbd20b123	-0.03923143
120	0xbd45b4cd	-0.04826813
121	0x3d8a9da1	0.067683466
122	0x3dbdb234	0.09262505
123	0xbcfa0a9f	-0.030522643
124	0x3d4c1729	0.049826775
125	0x3d1b3909	0.03789619
126	0xbab492af	-0.0013776625
127	0xbbe56af5	-0.0070012757
128	0x3dedc0b5	0.116090216
129	0x3ce618ea	0.028088052
130	0x3dc7404b	0.0972906
131	0xbd7ac7e8	-0.0612258
132	0xbd58ca11	-0.05292708
133	0xbcde00f9	-0.027100073
134	0x3b94a8a4	0.004536705
135	0xbdcdd8b6	-0.100511
136	0xbd82c792	-0.06385721
137	0xbd5d176f	-0.053977426
138	0xbcdad6c1	-0.02671373
139	0x3d779846	0.060447954
140	0x3d871b32	0.06596984
141	0xbba3584e	-0.004984892
142	0xbd8f0542	-0.06983425
143	0xbd4b2ccf	-0.04960328
144	0x3c3acec8	0.01140184
145	0x3d6c7c02	0.05773545
146	0x3da42f96	0.08016889
147	0xbd0f30b3	-0.034958553
148	0x3d8b5c5b	0.06804725
149	0x3d1c7618	0.03819856
150	0xbd8ba228	-0.06818038
151	0xbc3bd50b	-0.011464368
152	0x3dbb6b86	0.09151368
153	0xbbd3a516	-0.0064588888
154	0xbd5cc8bb	-0.05390237
155	0xbce1b91c	-0.027554087
156	0x3dac0c49	0.08400781
157	0x3d1f1cd1	0.03884584
158	0x3ca4a131	0.020096393
159	0x3bb48c29	0.0055098725
160	0xbd7314c1	-0.059345964
161	0x3daed4b2	0.08536662
162	0x3daf0cad	0.085473396
163	0x3dd23eed	0.102659084
164	0x3da5a023	0.08087184
165	0xbd9803c2	-0.07422592
166	0x3d7352cf	0.059405144
167	0x3d9357ff	0.07194518
168	0xbbb3d0b9	-0.005487528
169	0x3d16b33e	0.036792032
170	0x3decf7ae	0.11570679
171	0xbc0c73e7	-0.008572555
172	0x3d98e780	0.0746603
173	0x3dbfb7f0	0.09361255
174	0xbc46ecc9	-0.012141415
175	0x3d8f275b	0.06989928
176	0x3df75c59	0.12078161
177	0xbc3c0b4c	-0.011477303
178	0xbd9316e6	-0.07182102
179	0xbc9b4f57	-0.01895873
180	0xbd4c5145	-0.049882192
181	0x3c42e824	0.011896167
182	0x3dd20193	0.102542065
183	0xbda79279	-0.08182234
184	0x3cd3ed36	0.025869947
185	0xbd1abf37	-0.037780013
186	0xbdab3404	-0.083595306
187	0xbd00c395	-0.03143652
188	0xbd0ef5eb	-0.034902494
189	0x3d2e0f79	0.042495225
190	0x3cc1238a	0.023576517
191	0xbd4a5e91	-0.04940659
192	0xbc95d2a3	-0.018288916
193	0xbc078e9c	-0.008273747
194	0xbbcd75a6	-0.0062701283
195	0xbd874c3d	-0.06606338
196	0xbd814c59	-0.0631339
197	0x3d927a9b	0.071522914
198	0xbd3973a7	-0.04527631
199	0x3c874acc	0.016515158
200	0xbd38b885	-0.045097847
201	0xbd588419	-0.052860353
202	0xbdc1969d	-0.09452555
203	0x3d9b3eb6	0.075803205
204	0xbc12c669	-0.0089584375
205	0x3d88c9ae	0.06679092
206	0x3df162ac	0.11786398
207	0xbd79fe2d	-0.061033417
208	0xbd9aaeff	-0.07552909
209	0x3c6fd802	0.014638903
210	0xbc326d44	-0.010890309
211	0x3c6e1c31	0.014533089
212	0xbc2e3fa0	-0.010635287
213	0xbdbeddaa	-0.09319623
214	0xbbfbc1ed	-0.00768303
215	0x3c163445	0.009167735
216	0xbd5a91ce	-0.053361706
217	0xbd9a7a62	-0.07542874
218	0x3d9042c9	0.07043988
219	0x3d988bd2	0.074485436
220	0xbd8a9e89	-0.067685194
221	0x3d8db014	0.0691835
222	0xbd36b6c9	-0.04460791
223	0x3d4da23f	0.050203558
224	0xbdb0aecd	-0.086270906
225	0xbdc9b0a2	-0.09848143
226	0x3d13f2d0	0.036120236
227	0x3cb79839	0.022411453
228	0xbd5bfda9	-0.053708706
229	0xbc6c165e	-0.01440963
230	0x3c86fc60	0.016477764
231	0x3d1a9782	0.037742145
232	0x3cb4a869	0.02205296
233	0xbdd3186e	-0.10307394
234	0xbd98350d	-0.07431994
235	0xbd36deb7	-0.04464599
236	0x3c7707ad	0.015077514
237	0xbdb7743c	-0.08957717
238	0x3d7bf8cd	0.06151657
239	0x3d8787af	0.066176765
240	0x3d6fa23d	0.05850433
241	0xbc570d59	-0.013125741
242	0x3daa6310	0.08319676
243	0xbd5f240b	-0.054477733
244	0xbd240179	-0.040040467
245	0xbd686244	-0.05673434
246	0x3d046934	0.032326892
247	0xbddf9652	-0.10917343
248	0xbbd37e81	-0.0064542894
249	0xbbfc1bd8	-0.007693749
250	0x3c82f49e	0.015985783
251	0xbcd0e3af	-0.025499193
252	0x3d2f61f9	0.042818043
253	0xbd79ba72	-0.060968824
254	0xbdd3e302	-0.10346033
255	0x3d6d0693	0.057867598

linear.weight f4 [1, 100]
0	0xbdd0e511	-0.10199941
1	0x3dd3c48a	0.10340221
2	0x3d18adb6	0.03727504
3	0xbdc086aa	-0.09400685
4	0xbdcb7947	-0.09935241
5	0xbda3ef61	-0.08004642
6	0x3d9c87d8	0.07643098
7	0xbcdb8921	-0.026798787
8	0x3dccba15	0.0999643
9	0xbd5b24eb	-0.053502005
10	0xbd4cc801	-0.049995426
11	0x3b473dd9	0.0030401854
12	0x3dc36270	0.0954026
13	0x3e1d475d	0.15359254
14	0x3de1e112	0.11029257
15	0xbe2502cc	-0.16114348
16	0x3b25335f	0.0025207622
17	0xbd9b8560	-0.07593799
18	0xbdc331ab	-0.09530958
19	0xbd1f5502	-0.03889943
20	0x3e0ee096	0.1395286
21	0x3d6607c0	0.056159735
22	0xbde31f5b	-0.11089965
23	0xbe2e9257	-0.17048012
24	0xbdf42e3f	-0.11922883
25	0x3d8675d0	0.0656544
26	0xbd615275	-0.055010278
27	0xbdebc25d	-0.11511681
28	0xbdfcce2f	-0.12344014
29	0xbde4bd50	-0.11168921
30	0xbdfe72f0	-0.12424266
31	0xbe00e2bf	-0.12586497
32	0xbc885109	-0.016640203
33	0x3d8d8b7f	0.069113724
34	0x3dae2827	0.08503752
35	0x3d87a210	0.06622708
36	0xbdfaab54	-0.122397095
37	0x3bd80272	0.0065920884
38	0x3ca84950	0.02054277
39	0xbd5d6e39	-0.054060195
40	0x3d7ad42b	0.061237495
41	0xbd70169b	-0.05861531
42	0xbc4a08ac	-0.012331169
43	0x3d3c022e	0.045900516
44	0xbe1a842d	-0.15089484
45	0x3de699d2	0.11259808
46	0x3df593c5	0.119910754
47	0xbccff17f	-0.025383709
48	0x3ce8fed4	0.028441824
49	0xbdb7fc73	-0.08983698
50	0x3d776a47	0.06040409
51	0x3da2d79f	0.07951283
52	0xbde21920	-0.110399485
53	0xbd80f8ab	-0.0629743
54	0xbdaaae65	-0.08334044
55	0x3dec674a	0.11543138
56	0xbdd679ad	-0.104724266
57	0xbd20edb6	-0.0392892
58	0xbe0d5dde	-0.13805339
59	0x3c6e3009	0.01453782
60	0xbd64f678	-0.055899113
61	0x3e1c7a5a	0.15281048
62	0xb9f18ee8	-0.00046073576
63	0x3e05986d	0.13046427
64	0x3a8f6243	0.0010939318
65	0x3e020a59	0.1269926
66	0xbb938324	-0.004501717
67	0x3e0bc34d	0.1364872
68	0x3e2d5ee8	0.16930735
69	0xbdaac0a8	-0.083375275
70	0x3d8aafaf	0.0677179
71	0x3dd72903	0.10505869
72	0xbde0a910	-0.10969746
73	0x3e1b82b3	0.15186577
74	0xbdf4b139	-0.11947865
75	0xbda501ce	-0.08056985
76	0xbd9bd86c	-0.076096386
77	0xbddddfbb	-0.10833689
78	0xbdeea565	-0.1165264
79	0xbcff8014	-0.031189002
80	0x3e69fa7d	0.2284946
81	0x3e169d7a	0.1470851
82	0x3e1bd575	0.15218146
83	0xbc75cdf7	-0.015002719
84	0x3d4d5d45	0.050137777
85	0x3dadbddf	0.08483481
86	0x3e453b03	0.19260792
87	0xbdcb2f5a	-0.09921141
88	0xbd6c8284	-0.057741657
89	0x3df6c9d2	0.12050213
90	0xbe1fb8f3	-0.15597896
91	0xbd000f85	-0.0312648
92	0xbdaa432f	-0.083135955
93	0x3d701a84	0.058619037
94	0xbe494423	-0.19654898
95	0xbde8ba68	-0.11363679
96	0x3e016345	0.12635525
97	0x3dd20cd3	0.10256352
98	0xbdb78791	-0.08961404
99	0x3dbd85ef	0.092540614
