Time-Series---Forecasting/Results/local/model24.pth (torch, 4116 bytes, 5 tensors)

lstm.weight_ih_l0 f4 [40, 1]
0	0x3e7b5754	0.24545032
1	0x3ea0fdc0	0.31443596
2	0xbf135514	-0.57551694
3	0x3e3bd69f	0.1834359
4	0x3e0c9fca	0.1373283
5	0xbf47f687	-0.78110546
6	0xbe07c176	-0.13257393
7	0x3d8a31aa	0.06747754
8	0xbca4ad2d	-0.020102108
9	0x3e996908	0.29962945
10	0x3dfc1338	0.12308353
11	0xbd4ec7d4	-0.05048354
12	0xbeda7b2f	-0.42672107
13	0xbe8103dc	-0.25198257
14	0xbe64a037	-0.22326742
15	0xbea706f7	-0.326225
16	0xbe454fbd	-0.19268699
17	0xbe04ae3d	-0.12957092
18	0x3e07ad5e	0.13249728
19	0x3e8390b1	0.25696328
20	0x3ea930d0	0.33045053
21	0x3ec8de82	0.3923226
22	0xbe96ade6	-0.2942955
23	0x3eb1b982	0.34711844
24	0x3dd9eed6	0.106412575
25	0x3e3b6e3a	0.18303767
26	0xbf106216	-0.5639967
27	0xbed94298	-0.4243362
28	0xbe72a885	-0.23697098
29	0xbdd2c6a2	-0.102917925
30	0xbdb452f0	-0.088048816
31	0x3f0c5ec3	0.54832095
32	0xbe4f8560	-0.20265722
33	0x3e6e4e38	0.23272026
34	0xbc9e9ca3	-0.0193618
35	0xbee780e6	-0.4521553
36	0xbe4401de	-0.19141337
37	0xbc75b1a9	-0.014995971
38	0x3ef87723	0.48528394
39	0x3f111526	0.56672895

lstm.weight_hh_l0 f4 [40, 10]
0	0x3e834b75	0.25643507
1	0x3e979912	0.2960897
2	0x3ee625a3	0.4495059
3	0xbe5b169f	-0.21395348
4	0x3e0a612b	0.13513629
5	0x3dd5c04a	0.10437067
6	0x3e96319c	0.29334724
7	0x3d869c02	0.06572725
8	0x3c5995b3	0.01328032
9	0xbef59138	-0.47962356
10	0xbea33984	-0.31879818
11	0xbe37384c	-0.1789257
12	0x3e02553a	0.12727824
13	0x3ead726e	0.33876365
14	0xbed88c82	-0.422947
15	0xbedf1347	-0.43569395
16	0x3e825d72	0.25461918
17	0x3d84c3cf	0.0648266
18	0x3ddada77	0.106862
19	0xbeb433c1	-0.35195735
20	0x3e12e746	0.14346036
21	0x3e943767	0.2894852
22	0xbd84d8a5	-0.06486634
23	0xbe0a9805	-0.13534553
24	0xbdd48c10	-0.10378277
25	0x3f088319	0.5332504
26	0xbe3c28bf	-0.18374918
27	0xbed66c1d	-0.4187936
28	0xbe6b23c2	-0.2296286
29	0xbe5dbc4c	-0.21653861
30	0x3ebf69ab	0.37385306
31	0xbcdb9c1a	-0.026807833
32	0x3eac71de	0.33680624
33	0x3e93bd5b	0.28855404
34	0xbda9531a	-0.082678035
35	0xbc989825	-0.018627236
36	0x3e6d395e	0.23166415
37	0x3b9c9e62	0.004779623
38	0x3d2250e3	0.03962792
39	0x3cc1bab5	0.0236486
40	0xbd8e9330	-0.069616675
41	0x3e4540ea	0.19263044
42	0x3e86f38e	0.26357692
43	0x3e63444e	0.22194025
44	0xbda03b6a	-0.07823832
45	0xbd97c8f3	-0.07411375
46	0x3ea45205	0.32093826
47	0xbdb9d055	-0.09072939
48	0xbe944b9f	-0.28963944
49	0xbec0870d	-0.37603036
50	0xbcc53eb5	-0.024077753
51	0xbe23005c	-0.15918106
52	0xbd7174be	-0.058949225
53	0xbe7496f1	-0.23885705
54	0xbe66222a	-0.2247397
55	0xbdb33da7	-0.087519936
56	0x3ea4bce0	0.3217535
57	0xbe4a1ce1	-0.19737579
58	0xbdec4ed2	-0.11538471
59	0xbdbe8fe3	-0.09304788
60	0xbe4784a2	-0.19484189
61	0x3f3e6bd6	0.74383295
62	0x3da69263	0.0813339
63	0x3d3d8afe	0.04627513
64	0xbe803421	-0.2503977
65	0xbe435520	-0.19075441
66	0x3e4f1849	0.20224108
67	0xbcf71333	-0.030160522
68	0xbf24c8ea	-0.6436907
69	0xbee34d95	-0.44395128
70	0xbd994621	-0.07484079
71	0x3ed69884	0.41913235
72	0x3ea0b831	0.31390527
73	0xbe6b6806	-0.229889
74	0x3db602ee	0.088872775
75	0xbbc64ea1	-0.0060518538
76	0x3e74b359	0.2389654
77	0xbe376536	-0.17909703
78	0xbe63094b	-0.22171514
79	0x3d82b419	0.06382007
80	0x3e942e15	0.28941408
81	0x3d8a7373	0.067603014
82	0x3d9a592a	0.07536538
83	0x3edad476	0.4274022
84	0x3ebe1fa7	0.37133524
85	0xbe1bed91	-0.15227343
86	0x3d8c2ec3	0.068448566
87	0x3e6bf5ae	0.23042938
88	0xbee9f3fe	-0.45693964
89	0xbe1573f8	-0.1459502
90	0xbc5a3b4c	-0.013319802
91	0xbe18c684	-0.14919478
92	0x3e1fecbf	0.15617655
93	0x3db53f85	0.08850006
94	0x3e46684c	0.19375724
95	0xbe88acfd	-0.2669448
96	0xbcecb78e	-0.02889612
97	0xbde4a574	-0.1116437
98	0xbda754d8	-0.081704795
99	0xbdc8dd26	-0.09807806
100	0x3ec53560	0.38517284
101	0x3ee46c62	0.4461394
102	0x3e34aac3	0.17643265
103	0xbe84988c	-0.25897634
104	0xbdcb4d26	-0.09926824
105	0xbb8c06a4	-0.0042732526
106	0x3db65291	0.08902467
107	0xbd2a740e	-0.041614585
108	0xbdf180f4	-0.11792174
109	0x3d038c15	0.032116015
110	0x3eaed3b6	0.34145898
111	0x3da85c61	0.08220745
112	0x3e7a0c95	0.24418862
113	0x3d5c8b91	0.05384404
114	0xbe1e89e0	-0.15482283
115	0xbf00593f	-0.5013618
116	0x3e66e4ec	0.22548264
117	0xbe3b62f7	-0.18299471
118	0x3bd07248	0.0063612796
119	0xbcc37f19	-0.023864316
120	0xbecd3b30	-0.4008422
121	0x3d899436	0.06717722
122	0x3e2e61e0	0.17029524
123	0xbe1e89b2	-0.15482214
124	0x3e36a68e	0.17836973
125	0xbe301a80	-0.17197609
126	0x3e382e12	0.17986324
127	0x3ec57a3c	0.3856982
128	0x3e3d191d	0.18466611
129	0xbdba54ef	-0.09098231
130	0xbd04010c	-0.03222756
131	0xbd3e64eb	-0.04648296
132	0x3f121bd3	0.57073706
133	0x3e9f5d19	0.31125715
134	0xbca84e23	-0.020545071
135	0xbe0240e6	-0.1272007
136	0x3e41a245	0.18909557
137	0x3e8f4a4a	0.27986366
138	0x3d6f4601	0.05841637
139	0xbdacec3c	-0.08443496
140	0xbe83bda2	-0.25730616
141	0x3ec5f8a5	0.38666263
142	0x3e86f1e1	0.26356414
143	0xbd0d7415	-0.034534533
144	0xbe22a115	-0.1588176
145	0xbd34346c	-0.043995306
146	0xbd095507	-0.033528354
147	0xbd31da68	-0.04342118
148	0xbe8d0741	-0.27544597
149	0xbed3ca6f	-0.41365382
150	0xbefe27a4	-0.49639618
151	0xbeafb3f2	-0.34316975
152	0x3e9d260e	0.30693096
153	0xbcd4ff41	-0.02600062
154	0x3dcf42f3	0.101201914
155	0xbe5f5e39	-0.21813287
156	0x3f03fbd7	0.5155615
157	0x3e8db99d	0.27680674
158	0xbe3a5bc4	-0.18199068
159	0x3da86a2a	0.08223374
160	0xbdd643d5	-0.10462157
161	0x3e3c4493	0.18385534
162	0xbe1ef450	-0.15522885
163	0xbed5cdbe	-0.4175853
164	0xbe94da09	-0.29072598
165	0xbc207e00	-0.009795666
166	0xbd6b520f	-0.057451304
167	0xbd8e8916	-0.06959741
168	0x3cc44400	0.023958206
169	0xbe9f48fa	-0.31110364
170	0x3e0028ce	0.12515566
171	0xbd856874	-0.065140635
172	0xbe30702c	-0.1723029
173	0xbea9adf3	-0.33140525
174	0x3e4f2191	0.20227648
175	0x3e8a896a	0.27057964
176	0xbde0e7bc	-0.109817
177	0xbe1581d5	-0.14600308
178	0xbe09c65e	-0.13454577
179	0x3e7b420d	0.24536915
180	0x3e9d5512	0.30728966
181	0x3e9ab14f	0.302134
182	0x3d68531e	0.05671989
183	0x3ee0e0b1	0.43921426
184	0x3e2cef06	0.16888055
185	0xbe889794	-0.26678145
186	0xbda7e8aa	-0.08198674
187	0xbea375f0	-0.31925917
188	0xbdbc5ed1	-0.09197772
189	0xbed3ec0a	-0.4139102
190	0xbe3ee99a	-0.186438
191	0x3e1c0d1e	0.15239379
192	0x3eaabcf8	0.33347297
193	0x3e9e8819	0.3096321
194	0xbe9c15f5	-0.30485502
195	0x3d8a9f0a	0.067686155
196	0x3ee63a18	0.44966197
197	0x3eb3b727	0.35100672
198	0xbe4b24f5	-0.19838317
199	0x3d52155c	0.0512899
200	0xbe464354	-0.19361621
201	0x3d87eef0	0.066373706
202	0xbe950fd9	-0.29113653
203	0xbe76e96b	-0.2411248
204	0x3e63f7c9	0.22262491
205	0xbe891e88	-0.26781106
206	0x3eaebd0f	0.34128615
207	0xbe7f413f	-0.24927233
208	0x3e2ed09f	0.1707177
209	0xbdd6e525	-0.104929246
210	0xbe157e79	-0.14599027
211	0xbd14a530	-0.036290348
212	0xbe13d0fd	-0.14435191
213	0x3b2fc498	0.002682006
214	0x3e726c9a	0.2367424
215	0xbea74860	-0.32672405
216	0x3d945e9d	0.072446086
217	0xbdfbe7fa	-0.123001054
218	0x3e2b6fee	0.16741917
219	0xbea0eb38	-0.31429458
220	0x3e43034a	0.19044223
221	0x3e76f0f0	0.24115348
222	0xbe1f907f	-0.15582465
223	0x3d4db329	0.05021969
224	0x3e8c0bf4	0.2735287
225	0x3e3db013	0.18524198
226	0xbe83751e	-0.2567529
227	0xbe217163	-0.1576591
228	0x3d831dc4	0.06402162
229	0xbe9c1947	-0.30488035
230	0x3ebc9802	0.36834723
231	0xbe0e504a	-0.13897815
232	0x3e92039c	0.2851838
233	0x3f0545b9	0.52059513
234	0x3dedc908	0.11610609
235	0xbe630d98	-0.22173154
236	0xbe0d0c9d	-0.13774343
237	0x3e7d3675	0.24727805
238	0xbe756085	-0.239626
239	0xbe91476f	-0.28374812
240	0x3eb68727	0.35649988
241	0xbc330b73	-0.010928023
242	0x3ea1dfdc	0.31616104
243	0x3ec0fce9	0.37692955
244	0x3edee29c	0.43532264
245	0x3e59ec1f	0.2128148
246	0xbdbf3750	-0.09336722
247	0x3b8e5651	0.004343786
248	0x3e033487	0.12813006
249	0x3ca947b6	0.020664077
250	0xbd961ae4	-0.07329348
251	0x3ceda273	0.029008126
252	0xbefe1512	-0.4962545
253	0x3e384d8c	0.17998332
254	0xbe1eafa2	-0.15496686
255	0xbe18c825	-0.14920099

lstm.bias_ih_l0 f4 [40]
0	0x3eac45cd	0.33647004
1	0x3eaf8ff1	0.34289506
2	0x3ee57f6a	0.44823772
3	0xbce2e174	-0.027695395
4	0xbcba41a6	-0.022736382
5	0x3df6bef1	0.12048138
6	0x3f0f1364	0.5588896
7	0x3d97ebfe	0.07418059
8	0x3d8f311e	0.0699179
9	0xbdb8250f	-0.08991443
10	0x3e93698f	0.28791472
11	0x3e82831f	0.25490662
12	0xbda6bf6e	-0.08141981
13	0x3e845051	0.25842527
14	0x3e32e6f3	0.17470913
15	0x3c716945	0.014734571
16	0xbda9ad2f	-0.08284985
17	0xbe2d195d	-0.16904207
18	0xbdf8bc51	-0.121452935
19	0x3de39d53	0.111139916
20	0x3d3aee58	0.04563746
21	0x3e0b89cb	0.13626783
22	0x3e134f29	0.14385666
23	0x3e17952a	0.14802995
24	0xbd630f1e	-0.05543434
25	0xbd2ec974	-0.04267259
26	0xbcdce3d4	-0.026964106
27	0x3e4cadb6	0.1998814
28	0xbe9b4d70	-0.30332518
29	0x3c09d9db	0.008413757
30	0x3f08d3fe	0.53448474
31	0x3ed49a64	0.4152404
32	0x3ee90671	0.45512727
33	0x3d941efe	0.07232474
34	0x3e7fb637	0.24971853
35	0x3d7d7b61	0.06188524
36	0x3e975d86	0.2956354
37	0x3ec7f044	0.39050496
38	0x3e667e81	0.22509195
39	0xbe00f91f	-0.12595032

lstm.bias_hh_l0 f4 [40]
0	0x3d886406	0.06659703
1	0x3d2b48d6	0.04181751
2	0x3efcc75a	0.49370843
3	0x3e2c032b	0.16798083
4	0x3daf9476	0.085732386
5	0xbd1d8d41	-0.03846479
6	0x3f20af3f	0.62767404
7	0xbe34af3e	-0.17644975
8	0x3d876fc4	0.066131145
9	0x3eb0cd2e	0.3453154
10	0x3eb2d1e4	0.3492576
11	0x3e10ebb1	0.14152409
12	0x3e352dfe	0.17693326
13	0x3e09b433	0.13447647
14	0x3d4adda7	0.04952779
15	0x3e048d87	0.12944613
16	0xbe8eae80	-0.27867508
17	0x3e512826	0.20425472
18	0x3dc230e8	0.094819844
19	0x3ebfe2a7	0.3747761
20	0xbd0d19a7	-0.034448292
21	0x3e86beb9	0.26317385
22	0x3e115176	0.14191231
23	0xbd8989c9	-0.067157336
24	0xbdfb428f	-0.122685544
25	0xbe8e7d19	-0.27829817
26	0x3e622b9b	0.22086947
27	0x3e863f1d	0.26220027
28	0xbe2eaa3e	-0.1705713
29	0xbe99e296	-0.30055684
30	0x3f0443e2	0.5166608
31	0xbe0b54d6	-0.13606581
32	0x3f267a64	0.65030503
33	0x3f1289b3	0.5724136
34	0x3ec0b47b	0.37637696
35	0x3d2c8d13	0.042126726
36	0x3f313e80	0.6923599
37	0x3eb517f2	0.3536983
38	0x3e70a0c5	0.23498829
39	0x3ed2e77e	0.4119224

linear.weight f4 [1, 10]
0	0x3f2f13fe	0.6838988
1	0x3f0d2e29	0.5514856
2	0xbe58c11b	-0.21167414
3	0x3eec2c2b	0.46127447
4	0x3e0491e4	0.12946278
5	0x3e63fc0f	0.22264121
6	0xbf025af8	-0.5092006
7	0xbebe0900	-0.3711624
8	0xbdcf2f16	-0.10116403
9	0xbec5fe95	-0.38670793
