Time-Series---Forecasting/Results/local/model16.pth (torch, 167188 bytes, 5 tensors)

lstm.weight_ih_l0 f4 [400, 1]
0.19239081 0.050750736 0.07543236 0.02584214 -0.06127291 -0.083601475 0.06306124 0.097992316
-0.003910146 -0.009634081 -0.08072605 0.057262924 0.04082551 -0.28659526 0.07606006 0.14287095
0.0066602016 0.022569029 0.14339648 -0.042953342 -0.090635225 0.04422611 -0.027648842 0.06928118
0.022618685 -0.031002332 -0.013751266 -0.050699912 0.082138404 0.06364108 0.04456391 0.090889044
0.13115622 -0.047616888 0.08208892 0.08530056 -0.08766217 -0.052716855 -0.39439473 0.09686858
-0.14804886 0.14366189 0.08353469 0.08389988 -0.027638314 -0.07945588 0.023868747 -0.008706406
-0.007415186 -0.003134127 0.11246466 -0.07908948 0.0026011737 0.12414265 -0.04860495 -0.16370595
0.012644673 -0.026942834 -0.013026173 0.04661874 0.008494953 -0.04532916 -0.14029354 0.031460565
-0.032183792 0.015796343 -0.115198046 0.008093101 -0.0004976462 -0.032414757 -0.13711505 -0.0064533125
-0.0856411 0.08973893 0.010025571 -0.054319788 -0.045419026 0.070988156 -0.04898501 0.10116834
-0.055144705 -0.07039099 0.09670572 -0.09258506 -0.07497754 -0.013296755 0.032125894 0.0051408466
0.06657043 -0.16702452 0.098276086 0.015389504 0.023090165 0.030394074 -0.07125972 0.22529225
0.0142902825 -0.041379474 -0.04475581 -0.015443431 -0.003608451 0.06931046 0.078958966 -0.046954952
-0.0052205315 -0.03745435 0.06560675 0.06370802 -0.10895242 0.020464424 -0.025208998 -0.042911537
0.021395283 -0.20527427 -0.07511337 0.016664525 0.007026855 -0.03782333 0.21662982 -0.10813605
0.05577431 -0.10990375 0.12435968 -0.060047142 0.0075631295 -0.03295437 0.013543188 -0.073401414
0.025960691 0.11445843 0.08068168 0.11865659 0.08018635 0.11148904 -0.03013055 0.024105452
-0.114382975 0.038357925 -0.41606116 0.081824094 -0.061074834 0.16337147 0.002700035 0.031866092
-0.038991354 0.045018118 0.068763666 0.009239889 -0.060959674 0.16171037 0.012655091 0.03948377
0.09865451 -0.050827835 0.042946603 -0.13402732 -0.13489668 0.020483658 -0.089667335 -0.016369198
0.09434251 -0.006456496 -0.16416389 0.079641245 -0.05183981 0.029677497 -0.14310825 0.003467177
0.010081075 0.08419677 -0.17484309 0.0832131 -0.06190495 0.01683102 -0.043542337 0.057824314
0.022287633 0.052234594 0.03347686 0.0032086829 -0.12644742 -0.078814216 0.05433912 -0.07532583
-0.00619154 0.05500137 0.00864606 0.05457367 0.10404603 -0.16563186 0.015337524 0.031847782
-0.06823615 -0.033696823 -0.09085926 0.22724397 0.07815023 -0.11846983 0.080677085 0.08979757
0.018802712 -0.0031713306 0.14130123 0.07962725 -0.16641077 -0.07988811 0.13071787 0.03122186
-0.05366064 0.1616392 0.03518879 -0.11789053 0.0083881235 0.13453239 0.15005456 -0.100241855
-0.0940026 -0.16754119 -0.052616935 0.12075651 0.08279161 0.07939112 0.17030099 0.12671094
-0.115868114 0.16146116 0.0028042805 -0.053657223 0.14945875 -0.20171608 0.100537024 0.09279519
0.045841303 0.06134865 0.175546 0.113704965 0.15452535 -0.10984678 -0.13084418 -0.10532999
-0.009398736 -0.07519227 0.106209196 0.1094213 0.101591066 -0.07955954 0.055010825 0.04303388
-0.11425792 -0.14037503 0.103405304 0.10109056 -0.13227372 -0.13735624 -0.16558102 -0.10100442
00000000: 1902 453e 01e0 4f3d 487c 9a3d e5b2 d33c
00000010: 4ef9 7abd 4037 abbd 4026 813d 32b0 c83d
00000020: af20 80bb 44d8 1dbc b353 a5bd 878c 6a3d
00000030: a638 273d 9dbc 92be 60c5 9b3d c34c 123e
00000040: d23d da3b afe2 b83c 87d6 123e d8ef 2fbd
00000050: f69e b9bd 7026 353d d37f e2bc 4be3 8d3d
00000060: d24a b93c 9af8 fdbc fd4c 61bc b6aa 4fbd
00000070: 2e38 a83d 4156 823d a688 363d 0924 ba3d
00000080: d14d 063e ed09 43bd 3c1e a83d 0fb2 ae3d
00000090: 3988 b3bd a1ed 57bd 1bee c9be 0963 c63d
000000a0: 1f9a 17be 1a1c 133e 3c14 ab3d b3d3 ab3d
000000b0: bf69 e2bc c4b9 a2bd 6488 c33c 50a5 0ebc
000000c0: 17fb f2bb ed65 4dbb df53 e63d aaf9 a1bd
000000d0: 7478 2a3b 803e fe3d fc15 47bd 88a2 27be
000000e0: 9a2b 4f3c 38b7 dcbc bb6b 55bc 4bf3 3e3d
000000f0: 6a2e 0b3c 12ab 39bd 1ca9 0fbe cbdc 003d
00000100: 27d3 03bd 5567 813c f4ec ebbd ed98 043c
00000110: 7974 02ba 56c5 04bd e367 0cbe 4f76 d3bb
00000120: 9a64 afbd 0bc9 b73d 4b42 243c 6d7e 5ebd
00000130: 4d09 3abd 3d62 913d 81a4 48bd 5931 cf3d
00000140: 6adf 61bd 2729 90bd a60d c63d 3c9d bdbd
00000150: d38d 99bd a2da 59bc 7196 033d 8c74 a83b
00000160: 1456 883d 7a08 2bbe f944 c93d 4224 7c3c
00000170: 9627 bd3c fefc f83c 9ef0 91bd 03b3 663e
00000180: ca21 6a3c 867d 29bd de51 37bd 7206 7dbc
00000190: c37b 6cbb a4f2 8d3d 3db5 a13d d653 40bd
000001a0: fe10 abbb bc69 19bd d55c 863d 5a79 823d
000001b0: 7222 dfbd 02a5 a73c 1a83 cebc 02c4 2fbd
000001c0: 2945 af3c 6b33 52be 0ad5 99bd 0b84 883c
000001d0: 8841 e63b a3ec 1abd 35d4 5d3e 6f76 ddbd
000001e0: 9a73 643d 3815 e1bd 4ab0 fe3d fef3 75bd
000001f0: 21d4 f73b 29fb 06bd 3fe4 5d3c 7b53 96bd
00000200: 84ab d43c 2e69 ea3d 703c a53d 3a02 f33d
00000210: be38 a43d 5e54 e43d 58d4 f6bc cc78 c53c
00000220: 9f41 eabd 331d 1d3d f805 d5be 6493 a73d
00000230: 9b29 7abd da4a 273e 12f3 303b 0586 023d
00000240: 66b5 1fbd eb64 383d f7d3 8c3d e762 173c
00000250: dab0 79bd 6797 253e 4c57 4f3c bcb9 213d
00000260: 600b ca3d d930 50bd c7e8 2f3d 753e 09be
00000270: 5b22 0abe 58cd a73c 82a3 b7bd b218 86bc
00000280: a536 c13d 0491 d3bb 941a 28be f31a a33d
00000290: fb55 54bd 391e f33c f88a 12be 9439 633b
000002a0: 182b 253c 5b6f ac3d 110a 33be a16b aa3d
000002b0: 0b90 7dbd 35e1 893c 7359 32bd 30d9 6c3d
000002c0: 8e94 b63c f1f3 553d 081f 093d c448 523b
000002d0: 6f7b 01be 5969 a1bd b292 5e3d 6e44 9abd
000002e0: 67e2 cabb 1e49 613d 34a8 0d3c a488 5f3d
000002f0: 1616 d53d 669b 29be 3d4a 7b3c d272 023d
00000300: 65bf 8bbd ae05 0abd 6b14 babd a5b2 683e
00000310: 3a0d a03d 4fa0 f2bd 073a a53d cae7 b73d
00000320: 2508 9a3c 19d6 4fbb 45b1 103e 9d13 a33d
00000330: 9667 2abe 619c a3bd e8da 053e fcc4 ff3c
00000340: 42cb 5bbd bf84 253e 1f22 103d 9770 f1bd
00000350: 576e 093c dcc2 093e e7a7 193e 9a4b cdbd
00000360: 6f84 c0bd eb8f 2bbe db84 57bd 304f f73d
00000370: a68e a93d d097 a23d 6263 2e3e 83c0 013e
00000380: 434c edbd 1356 253e 05c8 373b adc7 5bbd
00000390: b70b 193e a98e 4ebe 5be6 cd3d 680b be3d
000003a0: 17c4 3b3d b948 7b3d 55c2 333e 26de e83d
000003b0: e53b 1e3e 59f7 e0bd 04fc 05be 40b7 d7bd
000003c0: 28fd 19bc 68fe 99bd 3584 d93d 4618 e03d
000003d0: fa0e d03d 1df0 a2bd 0853 613d 4b44 303d
000003e0: 0e00 eabd 79be 0fbe 29c6 d33d 9108 cf3d
000003f0: c372 07be 1da7 0cbe 128e 29be 68db cebd

lstm.weight_hh_l0 f4 [400, 100]
-0.08692262 0.08345241 0.070439585 -0.050510723 -0.021874625 -0.032428984 -0.06412173 0.08289125
0.0027425592 -0.060598575 0.020370413 -0.033472452 0.019289818 -0.08926531 -0.09388999 -0.058093745
0.02279431 -0.089177236 -0.029787976 -0.08347279 -0.007946988 -0.09849773 -0.017753586 0.1209967
0.0016189124 -0.07833205 -0.042555496 0.15201774 0.045985125 0.045166973 0.058444418 0.019097656
0.088252254 -0.06865842 0.039945174 -0.04736447 0.076624736 -0.043596618 0.06225683 0.0013137355
0.046511084 0.053158473 0.01648495 0.036876254 -0.0632717 0.09702822 -0.031918257 0.099299915
0.051219072 0.09287461 -0.07800129 -0.056977727 0.0656205 -0.09773822 -0.045631148 0.022625163
0.009201219 -0.019713923 0.12019915 0.025715293 -0.016833832 0.07428207 -0.14533643 -0.034007605
0.006576505 0.071929224 -0.010345709 0.015602943 -0.0015677526 0.02146995 0.10800228 0.08819797
0.15593378 -0.022657888 0.058343172 0.027702177 0.060497902 0.015783863 -0.019795846 0.04428039
0.11187323 -0.08834724 -0.03909441 0.078452095 -0.09479683 0.0747362 -0.024505863 -0.11301393
0.113139 -0.13217355 0.08424397 -0.025616089 0.074133806 0.06233331 -0.0009226044 -0.0408746
0.042352855 0.015050093 -0.0035627435 -0.068560354 -0.039002802 -0.044759687 -0.01251387 0.10034331
-0.06668426 0.05695321 0.04751153 0.0019017762 0.09260438 0.04725799 -0.09657089 0.031886302
-0.022174291 -0.03569421 0.01621165 -0.1226797 0.019005574 0.029360728 0.00043692745 0.035121772
-0.079637855 0.028152427 0.064537786 0.12606335 0.08563186 0.04685918 -0.026647162 -0.04847752
0.12842554 -0.10368344 0.09697746 -0.014855648 0.058673125 0.074208975 0.122268446 0.10435781
0.122775234 0.022695351 0.07534836 -0.054240715 0.13728777 -0.07914856 0.0513303 -0.032639727
-0.043612335 0.000607457 0.08829371 0.026765227 -0.0544217 -0.08812183 0.09337202 -0.07884401
-0.095759906 -0.11336757 -0.022629783 -0.045969117 0.07798678 0.002147628 -0.07650403 0.03731664
-0.035349984 0.07645359 0.004279369 -0.009020888 0.00061508117 -0.06444582 0.07354712 0.02637341
-0.09815004 0.057774983 0.12966591 0.07223481 0.1234123 -0.015666367 -0.06146802 -0.0039450913
0.019639507 -0.019944936 0.0767418 0.12691686 0.030745104 -0.046597652 0.06383956 -0.060055185
0.013071989 -0.02253564 -0.056993242 0.06611434 -0.091931894 -0.034709774 0.08828998 -0.055816036
0.06140342 -0.03958486 0.01911701 0.017465116 0.035949815 -0.06557215 0.09649413 0.053005174
0.03756061 0.013227342 0.04899468 -0.056909475 0.012588194 -0.051540654 0.08902293 0.0057260524
-0.04482683 -0.052107025 -0.010992188 -0.04808635 0.122823596 -0.1386583 0.07009149 -0.1075877
-0.0011146272 -0.082706 -0.061236173 0.08847851 0.0093268985 0.03931478 -0.016267816 0.02855969
-0.05103417 -0.0993217 -0.022000492 0.07827035 -0.03194417 -0.0007293069 0.020783842 -0.058965158
-0.06652829 0.031674348 0.0042637372 0.004417678 0.05453762 0.09726526 -0.0033987148 -0.06485016
-0.043844827 -0.013213838 -0.07907964 0.048476044 -0.078736804 -0.046126667 0.034572404 -0.04353944
-0.097921014 -0.007819363 0.09312952 -0.06655276 0.04803586 0.017788695 -0.08599245 0.10886488
00000000: 7d04 b2bd 19e9 aa3d a142 903d 55e4 4ebd
00000010: 6a32 b3bc 41d4 04bd 4152 83bd e3c2 a93d
00000020: 82bc 333b 3636 78bd dadf a63c 691a 09bd
00000030: ae05 9e3c bbd0 b6bd 6549 c0bd b5f3 6dbd
00000040: 22bb ba3c 8ea2 b6bd ea05 f4bc c8f3 aabd
00000050: 1534 02bc 2eb9 c9bd f86f 91bc 1ecd f73d
00000060: b031 d43a 8e6c a0bd ac4e 2ebd 8aaa 1b3e
00000070: e65a 3c3d 0101 393d 6a63 6f3d b072 9c3c
00000080: 99bd b43d c99c 8cbd 8d9d 233d 3f01 42bd
00000090: 6eed 9c3d 5e92 32bd 0501 7f3d a631 ac3a
000000a0: 6882 3e3d b3bc 593d 720b 873c 8e0b 173d
000000b0: 9894 81bd bbb6 c63d b8bc 02bd c15d cb3d
000000c0: 17cb 513d 0b35 be3d 24bf 9fbd 7a61 69bd
000000d0: 0a64 863d fa2a c8bd bae7 3abd 6858 b93c
000000e0: b6c0 163c 187f a1bc f92a f63d e1a8 d23c
000000f0: 1be7 89bc 3321 983d 13d3 14be 8f4b 0bbd
00000100: b97f d73b a14f 933d 0c81 29bc 7ca3 7f3c
00000110: 0c7d cdba c0e1 af3c 4d30 dd3d 23a1 b43d
00000120: 1bad 1f3e 099d b9bc 40f9 6e3d adef e23c
00000130: a6cc 773d 294d 813c e62a a2bc 5b5f 353d
00000140: cb1d e53d 66ef b4bd 7621 20bd 7eab a03d
00000150: d724 c2bd 4b0f 993d 85c0 c8bc d973 e7bd
00000160: 6cb5 e73d 8158 07be 1a88 ac3d d5d8 d1bc
00000170: 77d3 973d 3651 7f3d efda 71ba 206c 27bd
00000180: 307a 2d3d aa94 763c eb7c 69bb 5f69 8cbd
00000190: 67c1 1fbd ef55 37bd fa06 4dbc cb80 cd3d
000001a0: c291 88bd c547 693d 739b 423d 0545 f93a
000001b0: 5da7 bd3d 9891 413d f5c6 c5bd 369b 023d
000001c0: dca6 b5bc 1834 12bd 4bce 843c 7f3f fbbd
000001d0: 94b1 9b3c e985 f03c 6913 e539 d9db 0f3d
000001e0: 2c19 a3bd eb9f e63c 632c 843d c016 013e
000001f0: c25f af3d 69ef 3f3d 264b dabc 5d90 46bd
00000200: fc81 033e fc57 d4bd 1e9c c63d 1b65 73bc
00000210: 3b53 703d e0fa 973d e167 fa3d 8cb9 d53d
00000220: 9571 fb3d 9aeb b93c 3e50 9a3d 832b 5ebd
00000230: 2a95 0c3e a418 a2bd b83f 523d 3cb1 05bd
00000240: d9a2 32bd c03d 1f3a 55d3 b43d c042 db3c
00000250: 4ae9 5ebd 3879 b4bd d439 bf3d f878 a1bd
00000260: c51d c4bd 422d e8bd 1862 b9bc 1d4a 3cbd
00000270: 88b7 9f3d 38bf 0c3b 25ae 9cbd 55d9 183d
00000280: 25cb 10bd b393 9c3d f339 8c3b 59cc 13bc
00000290: 663d 213a 2cfc 83bd df9f 963d 0d0d d83c
000002a0: e302 c9bd 76a5 6c3d 24c7 043e d8ef 933d
000002b0: 97bf fc3d c156 80bc e4c5 7bbd d345 81bb
000002c0: 08e3 a03c 9063 a3bc ce2a 9d3d 7ef6 013e
000002d0: 28dd fb3c 2edd 3ebd 51be 823d 6dfc 75bd
000002e0: e52b 563c aa9c b8bc bf71 69bd f566 873d
000002f0: ca46 bcbd d62b 0ebd 61d1 b43d 5b9f 64bd
00000300: 2782 7b3d bc23 22bd 479b 9c3c 0113 8f3c
00000310: 1d40 133d b14a 86bd b79e c53d f41b 593d
00000320: 27d9 193d 7eb7 583c a5ae 483d e919 69bd
00000330: b63e 4e3c 4b1c 53bd a751 b63d 9ca1 bb3b
00000340: 579c 37bd 2d6e 55bd 9418 34bc 31f6 44bd
00000350: f08a fb3d 71fc 0dbe 218c 8f3d f156 dcbd
00000360: af18 92ba c361 a9bd c8d2 7abd 3934 b53d
00000370: d9cf 183c 8908 213d 1544 85bc 03f6 e93c
00000380: 3509 51bd 2d69 cbbd 603a b4bc 354c a03d
00000390: e4d7 02bd f52e 3fba e042 aa3c 7385 71bd
000003a0: fc3f 88bd f6bc 013d d2b6 8b3b 2bc2 903b
000003b0: d762 5f3d 0233 c73d f9bc 5ebb 29d0 84bd
000003c0: a296 33bd db7e 58bc 82f4 a1bd d18e 463d
000003d0: c340 a1bd 51ef 3cbd cb9b 0d3d 6956 32bd
000003e0: d08a c8bd c91c 00bc b1ba be3d d04c 88bd
000003f0: 40c1 443d 99b9 913c cf1c b0bd 8df4 de3d

lstm.bias_ih_l0 f4 [400]
-0.06468663 0.04773275 0.05096898 0.008250873 -0.0055464534 0.10843194 -0.03647084 0.091000676
0.08815829 0.01252172 -0.07540579 -0.047689527 0.08799885 0.009697187 -0.024404649 0.09667344
0.0076428805 0.028828016 0.045908302 0.12041123 0.085995674 0.042865966 -0.055673067 0.1063921
-0.00076954014 0.07828869 -0.043412283 0.06522313 0.10976104 0.23689951 0.052055273 -0.047271658
0.08804904 0.0065753073 -0.042981178 0.015479242 0.3037603 0.08888011 -0.03265948 0.06995001
-0.008538105 0.036982473 -0.08547889 0.108362675 0.120451674 0.10494855 0.060902726 0.049934056
-0.017262004 -0.0024197497 0.07727409 0.08365993 -0.024219442 0.04204546 -0.039119605 0.09929599
0.04174927 0.10214751 0.08451896 -0.048786283 0.10907219 0.09575578 0.0012759472 0.03261634
-0.0030435093 -0.086742006 0.019745836 -0.06515138 -0.0032501312 0.01614599 0.029105118 0.008244316
-0.0633136 0.07391626 0.100886665 -0.07735194 0.10433515 -0.06245906 0.11989511 -0.007912732
-0.01391148 0.020963127 0.004370158 0.03117437 -0.023725353 0.17670251 0.057304356 0.07738019
0.26195353 0.0933517 -0.005721524 -0.0028311322 0.13205937 0.023499701 0.04119804 0.027562337
-0.016680999 0.037309747 -0.013335454 0.11043992 0.029856456 0.038311694 0.080000184 0.10449696
0.029688118 0.0950542 -0.047856487 0.03563825 -0.008631278 -0.040984057 -0.05763422 -0.02013528
0.08659936 -0.06623241 -0.050877713 0.0795365 0.047188055 0.07490826 0.11470778 0.11761565
0.07194313 -0.018527536 -0.07658618 -0.0044385563 0.109287575 0.10604049 0.040598128 0.09808303
-0.013629384 0.09507979 0.059548873 0.07187047 -0.080894455 0.046643402 -0.026658788 0.05730577
-0.030497435 0.0015353104 -0.09118546 0.09285291 0.031803593 0.039433885 -0.10503851 -0.057623938
0.055817157 0.0827209 -0.095761225 -0.08487969 0.0915534 -0.07837917 -0.0743179 -0.049783714
-0.032722637 -0.052980267 -0.013442957 0.11207012 -0.0038221614 0.08763055 -0.07053516 0.03162372
0.028614566 -0.0741856 0.05977536 -0.029351033 0.076491565 -0.034122974 0.10238392 -0.07605652
-0.07478769 -0.074807 0.043027803 -0.05992576 -0.057766132 -0.046669412 0.048971392 0.0031672756
-0.08444335 0.06344946 0.001304807 -0.039776724 0.11364269 -0.003105622 0.014399093 0.08338181
0.088724904 0.086243875 0.061432548 0.094286084 0.06616981 0.034394197 -0.03682828 0.08341682
-0.028826984 0.039962612 0.0067237034 0.078107245 -0.012795947 0.021598814 0.052692186 -0.023839679
-0.08972773 -0.11585925 0.08339495 -0.00499196 -0.0047537363 -0.02697805 0.035949305 -0.07643532
0.048261195 -0.07690198 -0.12729947 -0.037255313 -0.008428663 -0.07766885 -0.021142408 -0.017865108
-0.03924963 -7.679247e-05 -0.121515796 0.04359763 -0.08689326 -0.08233284 0.013947018 0.039139275
0.05392941 -0.062123608 -0.05088578 0.01739353 0.00096398825 -0.031478457 -0.0929526 0.08922892
0.025171865 0.03712195 0.06654747 0.09390476 -0.084837824 -0.0644211 0.053660072 0.04144972
0.11862213 -0.07800388 -0.0019162562 0.02355475 0.027925966 0.048946626 0.062077023 -0.028230784
0.0023125035 0.077046126 0.04684322 -0.09322775 -0.07787475 -0.06330729 -0.010157761 0.09381408
00000000: 6d7a 84bd 6b83 433d d9c4 503d ab2e 073c
00000010: 06bf b5bb 9111 de3d 7362 15bd 905e ba3d
00000020: 558c b43d e627 4d3c 5a6e 9abd 1856 43bd
00000030: be38 b43d f3e0 1e3c 42ec c7bc b9fc c53d
00000040: 2171 fa3b bb28 ec3c 580a 3c3d 2a9a f63d
00000050: 801e b03d 3994 2f3d 7109 64bd 1ae4 d93d
00000060: f7ba 49ba d255 a03d 14d1 31bd b493 853d
00000070: 65ca e03d c995 723e e937 553d ed9f 41bd
00000080: 0e53 b43d ad75 d73b 080d 30bd a69c 7d3c
00000090: 7886 9b3e c606 b63d f2c5 05bd f341 8f3d
000000a0: 68e3 0bbc ef7a 173d 8e0f afbd 40ed dd3d
000000b0: 5eaf f63d 44ef d63d 2375 793d a787 4c3d
000000c0: 0c69 8dbc aa94 1ebb e141 9e3d e655 ab3d
000000d0: da67 c6bc dc37 2c3d e13b 20bd b25b cb3d
000000e0: 4801 2b3d b732 d13d 4718 ad3d 20d4 47bd
000000f0: 3e61 df3d 9b1b c43d af3d a73a b698 053d
00000100: 9d75 47bb cba5 b1bd 05c2 a13c 166e 85bd
00000110: 2700 55bb 9844 843c db6d ee3c 2b13 073c
00000120: 90aa 81bd 6861 973d ab9d ce3d b26a 9ebd
00000130: abad d53d 12d5 7fbd 918b f53d 67a4 01bc
00000140: faec 63bc ddba ab3c 8b33 8f3b 6461 ff3c
00000150: ac5b c2bc 81f1 343e f9b7 6a3d 8179 9e3d
00000160: c61e 863e 2d2f bf3d 9f7b bbbb 848a 39bb
00000170: 923a 073e 7282 c03c 47bf 283d 69ca e13c
00000180: 97a6 88bc 1bd2 183d f37c 5abc 532e e23d
00000190: 8795 f43c b9ec 1c3d 23d7 a33d 8102 d63d
000001a0: 7f34 f33c c7ab c23d 2a05 44bd 6af9 113d
000001b0: 346a 0dbc e6de 27bd dc11 6cbd bef2 a4bc
000001c0: 015b b13d dca4 87bd 2665 50bd 08e4 a23d
000001d0: 4348 413d 8069 993d eaeb ea3d 79e0 f03d
000001e0: eb56 933d 0fc7 97bc 37d9 9cbd 4f71 91bb
000001f0: 2ad2 df3d c22b d93d 394a 263d c1df c83d
00000200: c84d 5fbc 31b9 c23d 85e9 733d d330 933d
00000210: feab a5bd 270d 3f3d 8863 dabc 75b9 6a3d
00000220: c2d5 f9bc 783c c93a 71bf babd ab29 be3d
00000230: 7c44 023d 6d85 213d 6e1e d7bd 1407 6cbd
00000240: 88a0 643d 9369 a93d 761e c4bd 67d5 adbd
00000250: 5980 bb3d 4285 a0bd fc33 98bd 02ea 4bbd
00000260: 2c08 06bd d601 59bd d93f 5cbc 0585 e53d
00000270: 3a7d 7abb a577 b33d bd74 90bd e087 013d
00000280: 1869 ea3c 9fee 97bd 02d7 743d 9471 f0bc
00000290: 9ca7 9c3d 88c4 0bbd a9ae d13d 85c3 9bbd
000002a0: 4a2a 99bd 6a34 99bd ec3d 303d b774 75bd
000002b0: 2e9c 6cbd 6d28 3fbd 3a96 483d 1192 4f3b
000002c0: a3f0 acbd caf1 813d 0f06 ab3a ebec 22bd
000002d0: 80bd e83d b187 4bbb 2cea 6b3c 15c4 aa3d
000002e0: 67b5 b53d a1a0 b03d b2a0 7b3d 1019 c13d
000002f0: 0a84 873d eee0 0c3d 40d9 16bd 70d6 aa3d
00000300: 9126 ecbc d6af 233d 8352 dc3b b1f6 9f3d
00000310: 17a6 51bc ffef b03c c3d3 573d 6e4b c3bc
00000320: 2cc3 b7bd 9d47 edbd f9ca aa3d 9893 a3bb
00000330: 3bc5 9bbb 1201 ddbc 943f 133d 1f8a 9cbd
00000340: 88ad 453d c97e 9dbd cb5a 02be 0799 18bd
00000350: 6018 0abc d910 9fbd d832 adbc d959 92bc
00000360: 38c4 20bd a50b a1b8 46dd f8bd 6e93 323d
00000370: 18f5 b1bd 1f9e a8bd 0982 643c 8150 203d
00000380: 16e5 5c3d 5375 7ebd 9c6d 50bd e07c 8e3c
00000390: 28b4 7c3a 8eef 00bd ef5d bebd a7bd b63d
000003a0: 3a35 ce3c 300d 183d 0a4a 883d 2451 c03d
000003b0: 74bf adbd 36ef 83bd aaca 5b3d 2ec7 293d
000003c0: 29f0 f23d 80c0 9fbd e32a fbba e4f5 c03c
000003d0: ffc4 e43c 427c 483d 7a44 7e3d 3f44 e7bc
000003e0: 5f8d 173b 5cca 9d3d adde 3f3d 31ee bebd
000003f0: cc7c 9fbd 41a7 81bd bd6c 26bc 9921 c03d

lstm.bias_hh_l0 f4 [400]
0.0033147037 -0.060571335 0.07995596 0.11017268 0.035345446 0.07182319 0.088955395 0.026090149
0.12198191 0.09549546 0.014477831 0.011851592 0.08149619 -0.0065192785 -0.016147532 0.053305645
0.06366178 -0.009415083 0.05040026 0.08496745 -0.034637872 0.095163144 -0.07194535 0.092634045
0.008675962 0.022134935 -0.03468669 -0.057359528 0.15887904 0.1869628 0.0071266145 0.119176224
-0.008126778 -0.0120110735 -0.05013676 0.042024676 0.20948495 0.044769224 -0.035920344 0.13200901
-0.010095349 0.07251653 -0.09548682 0.043732174 -0.0064742016 -0.033125937 0.080792725 -0.031485602
-0.07587833 0.02013352 -0.047158714 -0.025160952 0.11777468 -0.064450756 0.06240072 0.039059475
0.00455307 0.04244562 0.06627526 -0.003436656 -0.05972047 -0.025986208 0.06208357 -0.016359584
0.087048486 0.064383924 -0.034553967 -0.014338628 -0.01661747 0.05352372 0.07859052 0.078148715
0.03387115 0.03189797 0.1227291 0.07753994 0.042666193 0.037100237 -0.01893838 0.100477636
-0.026878364 0.101464726 -0.020140216 0.07762408 0.08094784 -0.019171385 0.040430292 0.061609745
0.2002008 0.03592433 0.094442606 0.07448794 0.028441135 0.08693494 0.026515126 -0.0041109794
0.13850619 0.0606942 0.015175151 0.031430766 0.039331913 -0.0141481245 0.06697095 -0.021664424
-0.045492534 -0.004029716 0.10612425 -0.0064498405 0.06748514 0.011404158 0.104047135 0.05578052
-0.006333556 -0.050579824 0.08466102 0.05907147 -0.017316243 0.004363507 0.008704974 -0.021888008
-0.06978436 0.122673616 0.090321735 -0.025366746 0.0037364615 -0.06413567 -0.08354488 0.059074566
-0.022856222 0.048542537 0.023669405 0.08148134 -0.029714804 -0.020450743 0.044084538 -0.0363378
-0.14203471 0.044304535 0.097879924 -0.0334392 -0.061774798 -0.04574784 -0.08464434 -0.02175588
0.00088625395 0.0069751283 0.013884927 0.019756211 -0.028642708 -0.07855828 -0.07826641 -0.05109265
0.02500881 -0.04266802 -0.027588103 0.088242345 0.052997697 0.000765336 0.08541996 0.115292944
0.10268124 0.08822715 0.08796714 0.024536757 -0.059963413 0.09250883 -0.016824897 0.02012913
0.10896168 0.00823445 -0.07614692 -0.012213597 -0.12539954 -0.065878436 -0.03286394 -0.009061779
0.012650111 0.06398954 0.01596983 0.046755984 0.032392245 0.024812182 0.044753645 0.06873446
-0.019463709 -0.03272979 -0.07035397 0.029726963 -0.022472726 -0.08913554 0.061366655 0.04521305
-0.036583297 -0.015045904 0.020907002 0.07143833 -0.049301486 -0.03530156 -0.010630895 -0.038330257
-0.08007147 0.060540367 -0.009842482 0.07963382 0.021095183 0.106192715 -0.010608541 -0.077604316
-0.0015251043 -0.0020233912 -0.11410298 -0.012544056 0.043593228 -0.06156232 0.030494373 -0.07170824
-0.02864787 -0.03587942 -0.09812854 -0.061251957 -0.014887292 0.044804793 0.080862075 0.050011545
-0.011461302 -0.048368085 -0.07002897 0.107423835 0.04537857 -0.023713415 0.0586869 -0.007256108
0.07959234 -0.08047009 -0.054280106 0.058839187 0.056796167 0.06930671 0.05431421 -0.09957626
0.11977808 -0.07120851 0.05457077 -0.027422504 0.06532898 0.08463093 -0.05424285 0.053773157
-0.015358198 -0.06361375 0.07982283 -0.06887029 0.007290196 0.018902399 -0.015321811 0.0048106005
00000000: 803b 593b a619 78bd f3bf a33d 37a2 e13d
00000010: 63c6 103d 0918 933d 3f2e b63d 02bb d53c
00000020: a7d1 f93d 2093 c33d 6d34 6d3c 2e2d 423c
00000030: 79e7 a63d ac9f d5bb d447 84bc 0557 5a3d
00000040: 1b61 823d b841 1abc 8170 4e3d 6a03 ae3d
00000050: 71e0 0dbd e5e4 c23d 1558 93bd ebb6 bd3d
00000060: 9f25 0e3c 5354 b53c a113 0ebd d3f1 6abd
00000070: 30b1 223e 2d73 3f3e 6086 e93b aa12 f43d
00000080: 2d26 05bc 18ca 44bc 345c 4dbd 1122 2c3d
00000090: 3983 563e ef5f 373d 3621 13bd 5f2d 073e
000000a0: f666 25bc 8c83 943d 988e c3bd 8220 333d
000000b0: 8a25 d4bb 10af 07bd a876 a53d 0cf7 00bd
000000c0: 1966 9bbd 0def a43c 7f29 41bd 571e cebc
000000d0: da33 f13d c2fe 83bd e697 7f3d d4fc 1f3d
000000e0: eb31 953b 75db 2d3d 53bb 873d 8539 61bb
000000f0: 749d 74bd 07e1 d4bc 574b 7e3d 8904 86bc
00000100: 7a46 b23d b8db 833d 7688 0dbd 91ec 6abc
00000110: 5c21 88bc b03b 5b3d 11f4 a03d 6f0c a03d
00000120: 7abc 0a3d 72a7 023d 6559 fb3d 43cd 9e3d
00000130: bfc2 2e3d 6bf6 173d a924 9bbc 38c7 cd3d
00000140: 0430 dcbc bdcc cf3d 18fd a4bc 60f9 9e3d
00000150: fbc7 a53d 4f0d 9dbc 3c9a 253d 805a 7c3d
00000160: 7001 4d3e 6425 133d 206b c13d 228d 983d
00000170: 62fd e83c f20a b23d 4036 d93c 65b5 86bb
00000180: 91d4 0d3e 7b9a 783d 32a1 783c 8cbd 003d
00000190: 801a 213d 89cd 67bc 1128 893d 9779 b1bc
000001a0: 6156 3abd b50b 84bb ac57 d93d 2f59 d3bb
000001b0: a635 8a3d 81d8 3a3c aa16 d53d 1d7a 643d
000001c0: b889 cfbb ca2c 4fbd c262 ad3d edf4 713d
000001d0: cbda 8dbc c0fb 8e3b 4f9f 0e3c 7b4e b3bc
000001e0: 1aeb 8ebd 4e3c fb3d 9afa b83d eccd cfbc
000001f0: 6cdf 743b 9059 83bd 9419 abbd 2cf8 713d
00000200: f93c bbbc 8ad4 463d 57e6 c13c b0df a63d
00000210: 766c f3bc 5188 a7bc fd91 343d f2d6 14bd
00000220: 8c71 11be ac78 353d 4575 c83d 8bf7 08bd
00000230: 9207 7dbd 1662 3bbd 035a adbd 6339 b2bc
00000240: 7f53 683a 9e8f e43b 9b7d 633c c7d7 a13c
00000250: 1da4 eabc 2ae3 a0bd 244a a0bd 8746 51bd
00000260: 47df cc3c a9c4 2ebd 7200 e2bc 67b8 b43d
00000270: 1d14 593d d4a0 483a a9f0 ae3d b51e ec3d
00000280: 8b4a d23d 70b0 b43d 1e28 b43d 4f01 c93c
00000290: 329c 75bd 4575 bd3d 5ed4 89bc d8e5 a43c
000002a0: 4d27 df3d c9e9 063c ebf2 9bbd 8a1b 48bc
000002b0: bd68 00be 46eb 86bd 579c 06bd db77 14bc
000002c0: 6942 4f3c f30c 833d 29d3 823c 3483 3f3d
000002d0: bbad 043d eb42 cb3c 994f 373d a7c4 8c3d
000002e0: 5b72 9fbc ac0f 06bd be15 90bd f685 f33c
000002f0: b918 b8bc b28c b6bd 9a5b 7b3d 5231 393d
00000300: 5ed8 15bd 1883 76bc 2945 ab3c 424e 923d
00000310: 5bf0 49bd 5e98 10bd 352d 2ebc 3000 1dbd
00000320: 83fc a3bd 2df9 773d 5d42 21bc 0e17 a33d
00000330: cecf ac3c 917b d93d 72cf 2dbc 03ef 9ebd
00000340: 02e6 c7ba df9a 04bb d3ae e9bd 9685 4dbc
00000350: d08e 323d c528 7cbd 56cf f93c c5db 92bd
00000360: f0ae eabc 4cf6 12bd 9ef7 c8bd 55e3 7abd
00000370: d4e9 73bc 3b85 373d 049b a53d e8d8 4c3d
00000380: 2fc8 3bbc 9d1d 46bd 596b 8fbd 0701 dc3d
00000390: e1de 393d a342 c2bc ad61 703d a5c4 edbb
000003a0: 4f01 a33d 81cd a4bd d154 5ebd 5c01 713d
000003b0: 19a3 683d adf0 8d3d 9478 5e3d a3ee cbbd
000003c0: 364e f53d c4d5 91bd 9a85 5f3d 29a5 e0bc
000003d0: 33cb 853d fb52 ad3d c02d 5ebd 3e41 5c3d
000003e0: f4a0 7bbc ed47 82bd 277a a33d de0b 8dbd
000003f0: 99e2 ee3b 34d9 9a3c 5508 7bbc 3ea2 9d3b

linear.weight f4 [1, 100]
-0.055579197 -0.06870909 0.06773222 0.034364313 -0.136883 -0.12416283 0.11991655 -0.06242955
-0.07290923 0.10375038 0.09294044 -0.07475861 -0.097998135 0.083898395 0.17833184 -0.06918726
-0.027847046 -0.16163635 -0.104197785 0.08764714 0.10409745 0.10871169 0.13098916 0.042135485
-0.08614098 0.08585515 -0.079846695 -0.04022033 0.19143812 -0.21894841 0.04225763 0.13674654
0.025297368 -0.01020271 0.12539728 0.086710304 0.27307937 -0.13047759 -0.09454177 -0.09835423
-0.05588242 -0.0856571 0.014322149 0.056049127 0.062120806 -0.11711416 -0.01728891 0.0031775204
-0.04173229 -0.095570356 0.120409116 0.03277612 -0.0665425 -0.1031228 -0.14401947 -0.022200607
-0.026664594 -0.10676337 -0.064646035 -0.06931833 -0.13596343 0.072974935 0.010962738 0.038575906
0.05813623 -0.076916486 0.10238114 -0.098303325 0.07557204 -0.16145611 -0.054524865 -0.10860802
-0.004217542 -0.010721046 0.12645246 0.07443787 -0.14960945 0.06014132 -0.009430472 0.11511494
-0.101183 0.119293585 -0.08845597 -0.07815183 -0.11848816 0.077827066 -0.0064864685 0.03985077
-0.12649424 0.0963358 0.11853381 0.0038474696 -0.1252521 -0.058030974 -0.07518815 0.07383973
0.12726547 -0.113153316 0.038683392 0.12533465
00000000: 03a7 63bd 5ab7 8cbd 31b7 8a3d 98c1 0c3d
00000010: 0f2b 0cbe 1549 febd cf96 f53d 21b6 7fbd
00000020: 6f51 95bd 147b d43d 8f57 be3d 0b1b 99bd
00000030: 3fb3 c8bd ecd2 ab3d 9f9c 363e 0db2 8dbd
00000040: 7d1f e4bc 0084 25be a665 d5bd 5880 b33d
00000050: 0b31 d53d 3ca4 de3d 0622 063e 4296 2c3d
00000060: af6a b0bd d3d4 af3d aa86 a3bd 13be 24bd
00000070: 5b08 443e 0334 60be 5616 2d3d 4907 0c3e
00000080: 6d3c cf3c 4429 27bc 2568 003e 2c95 b13d
00000090: 0fd1 8b3e eb9b 05be 1e9f c1bd f16d c9bd
000000a0: f7e4 64bd fd6c afbd 72a7 6a3c c593 653d
000000b0: 6372 7e3d 8cd9 efbd 79a1 8dbc f23d 503b
000000c0: 7aef 2abd 64ba c3bd 0e99 f63d 4140 063d
000000d0: 6f47 88bd 0c32 d3bd d779 13be 0cde b5bc
000000e0: b56f dabc c1a6 dabd 2465 84bd c5f6 8dbd
000000f0: ff39 0bbe e273 953d 0e9d 333c c501 1e3d
00000100: 4120 6e3d 6486 9dbd 34ad d13d 4153 c9bd
00000110: 84c5 9a3d c054 25be 7755 5fbd e26d debd
00000120: 4e33 8abb 53a7 2fbc c17c 013e e272 983d
00000130: 3833 19be bf56 763d 4482 1abc 62c1 eb3d
00000140: 0839 cfbd 3250 f43d 6728 b5bd 110e a0bd
00000150: eca9 f2bd cc63 9f3d 718c d4bb 903a 233d
00000160: b587 01be b44b c53d dbc1 f23d d425 7c3b
00000170: 1642 00be e3b1 6dbd 3ffc 99bd 4939 973d
00000180: e151 023e edbc e7bd 7a72 1e3d ba57 003e
