Time-Series---Forecasting/Results/local/model2.pth (torch, 652429 bytes, 5 tensors)

lstm.weight_ih_l0 f4 [800, 1]
0.07601923 -0.024842583 0.06624081 0.022302654 0.051334538 0.009390073 0.0063983058 0.02192303
-0.23714072 0.06847659 -0.031410906 0.0018891331 -0.057769407 -0.028703393 0.06304542 -0.18563578
-0.030390525 0.021115284 -0.02498751 -0.020744225 0.03770928 0.078345895 0.023382751 -0.011611674
-0.051886965 0.06955041 -0.057236437 -0.005013682 0.1273217 -0.035165105 -0.08837387 -0.031324163
-0.023731934 0.03463684 0.0050180475 0.08670958 -0.04401394 -0.015475171 -0.045600355 -0.011914534
-0.0027737978 -0.005283993 -0.018093865 0.074254714 -0.05839207 0.010106904 0.056651328 0.06319223
0.039254777 -0.027267007 -0.032136586 -0.13564993 0.03976293 0.0014227856 0.13812248 0.041998703
0.030677933 -0.09743439 -0.05885229 -0.13249901 0.07428078 0.004286804 0.024365125 -0.032403644
-0.046436608 -0.040322654 0.045349106 -0.021812988 -0.029614035 -0.022968289 -0.057323225 -0.032515496
-0.05814508 -0.07571945 -0.12912337 -0.042752672 0.05817052 -0.09032904 -0.009463619 0.06801579
-0.016115317 -0.070911564 0.07487008 0.039498832 -0.08879434 -0.060113754 0.089377314 -0.04357304
-0.03709943 0.07485354 -0.026793035 -0.0553777 -0.020695945 -0.03190027 0.043608483 -0.050066143
0.008003045 -0.09255589 0.04455027 0.031035174 -0.07926247 -0.061521336 0.05609486 0.044269025
-0.09659324 -0.09265006 0.026279105 -0.02836742 -0.070438705 -0.10136987 0.016711276 -0.032047138
0.066687524 -0.03112396 -0.014797652 -0.025207821 -0.06539338 0.024313845 -0.16019394 0.019998973
0.05316382 -0.028278247 0.057497345 0.044776008 -0.04332315 0.1500271 0.06648512 -0.032867845
-0.16422197 -0.028062982 -0.10983116 0.04275194 -0.003101429 0.022741774 0.036444105 -0.005984974
0.04980117 0.018659297 -0.019999864 0.039722048 -0.085471384 -0.008641909 -0.023927554 0.023932409
-0.14086626 0.076093085 0.0032549964 0.021808572 -0.031567242 -0.117662266 -0.067599416 -0.040585715
0.0023001786 0.043202557 0.038446378 0.08558939 0.040478226 0.014956292 -0.12024677 -0.0012882521
0.017788546 0.07856856 0.22044335 0.048017897 0.06625188 0.080650456 0.028552327 0.013416758
-0.12349729 -0.06867237 0.032521438 0.0020672358 -0.11214341 0.04107639 0.18563205 -0.010875745
-0.008868239 -0.039504927 0.028664984 -0.042531367 -0.038356267 0.011448004 0.040237978 -0.06816113
-0.006211172 -0.03617474 -0.021403572 -0.057707075 0.13825701 -0.027295131 0.08203388 0.115063146
0.044018492 0.068566754 -0.039064106 0.039708596 -0.06746372 0.08769864 0.03735561 0.10085925
0.06563103 0.01990614 0.0075338194 0.015747162 0.11898962 0.02181518 0.03378773 0.04251834
-0.1816843 -0.048668224 0.015193125 0.038268853 -0.05125835 -0.005022475 -0.072209366 -0.091229744
-0.14528409 -0.015344257 -0.10692646 -0.05088553 -0.035897158 -0.057634123 0.11442449 -0.014753006
-0.039149072 0.038593665 -0.06920894 -0.07742828 0.085574195 -0.050060418 0.035505235 -0.053905934
0.063964784 0.035161816 -0.037391916 -0.014260527 0.10029814 -0.05790183 0.061102442 0.049508497
0.07503955 0.03677418 0.036323335 0.0518587 -0.08649529 -0.09899953 -0.02132038 0.010654073
-0.01604703 0.052351177 -0.05752292 -0.13867266 0.053100433 -0.036470026 0.18114765 -0.0038740917
00000000: f8af 9b3d ac82 cbbc 43a9 873d 0eb4 b63c
00000010: 2a44 523d d2d8 193c e1a8 d13b ed97 b33c
00000020: 04d5 72be 743d 8c3d b9a8 00bd ca9c f73a
00000030: 9d9f 6cbd 6123 ebbc f51d 813d 4e17 3ebe
00000040: 8df5 f8bc f6f9 ac3c 9bb2 ccbc cbef a9bc
00000050: 0c75 1a3d d073 a03d 2f8d bf3c e43e 3ebc
00000060: 6d87 54bd 7270 8e3d c170 6abd d049 a4bb
00000070: 9f60 023e 4909 10bd 5cfd b4bd c44d 00bd
00000080: 7969 c2bc 5cdf 0d3d 6f6e a43b cb94 b13d
00000090: f647 34bd 928b 7dbc 70c7 3abd 2d35 43bc
000000a0: 9bc8 35bb 5925 adbb 9639 94bc db12 983d
000000b0: 862c 6fbd 6e97 253c 390b 683d ee6a 813d
000000c0: 9ec9 203d 0f5f dfbc a7a1 03bd d1e7 0abe
000000d0: 74de 223d c37c ba3a fb6f 0d3e d506 2c3d
000000e0: 4a50 fb3c ae8b c7bd 190f 71bd d2ad 07be
000000f0: 8620 983d 5178 8c3b 5f99 c73c afb9 04bd
00000100: 5034 3ebd 5e29 25bd fcbf 393d 27b1 b2bc
00000110: 2299 f2bc fe27 bcbc c2cb 6abd f82e 05bd
00000120: 8929 6ebd cd12 9bbd eb38 04be 6d1d 2fbd
00000130: 3644 6e3d 6ffe b8bd 4c0d 1bbc dd4b 8b3d
00000140: 4504 84bc 153a 91bd 7c55 993d 87c9 213d
00000150: cfd9 b5bd d739 76bd 740b b73d a579 32bd
00000160: 92f5 17bd d04c 993d 117d dbbc bad3 62bd
00000170: 8b8a a9bc dca9 02bd cf9e 323d 2812 4dbd
00000180: 341f 033c f18d bdbd 587a 363d 7a3d fe3c
00000190: 5d54 a2bd ccfd 7bbd b9c3 653d 7053 353d
000001a0: add2 c5bd 51bf bdbd 4747 d73c cb62 e8bc
000001b0: 2b42 90bd 029b cfbd 16e6 883c dc43 03bd
000001c0: 7893 883d adf7 febc da71 72bc a280 cebc
000001d0: f7ec 85bd d42d c73c e109 24be e3d4 a33c
000001e0: 4ec2 593d c8a7 e7bc 5682 6b3d 0c67 373d
000001f0: 9e73 31bd b4a0 193e 5a29 883d 6fa0 06bd
00000200: ce29 28be 57e4 e5bc 29ef e0bd a91c 2f3d
00000210: 5841 4bbb f54c ba3c 6a46 153d 9a1d c4bb
00000220: 50fc 4b3d 62db 983c c1d6 a3bc 96b3 223d
00000230: 9f0b afbd cb96 0dbc b803 c4bc e60d c43c
00000240: 3f3f 10be b1d6 9b3d c751 553b e4a7 b23c
00000250: a74c 01bd eaf8 f0bd 9071 8abd 353d 26bd
00000260: 98be 163b 2af5 303d f379 1d3d 7d49 af3d
00000270: 7fcc 253d 3c0b 753c f043 f6bd 91da a8ba
00000280: 49b9 913c 8ee8 a03d e7bb 613e 6aae 443d
00000290: 11af 873d 112c a53d 92e6 e93c f6d1 5b3c
000002a0: 26ec fcbd 19a4 8cbd 3335 053d 767a 073b
000002b0: 72ab e5bd b73f 283d 5416 3e3e 2e30 32bc
000002c0: 174c 11bc ebcf 21bd d4d2 ea3c 5f35 2ebd
000002d0: 761b 1dbd 6990 3b3c 94d0 243d 1098 8bbd
000002e0: 1687 cbbb f72b 14bd 8b56 afbc 415e 6cbd
000002f0: 3f93 0d3e 0a9a dfbc 6101 a83d 3aa6 eb3d
00000300: bc4c 343d ba6c 8c3d af01 20bd 7ba5 223d
00000310: 6b2a 8abd 589b b33d 3202 193d 4b8f ce3d
00000320: 9069 863d 3412 a33c 42de f63b 3100 813c
00000330: d4b0 f33d c0b5 b23c 0165 0a3d b627 2e3d
00000340: 730b 3abe 5558 47bd 96ec 783c cdbf 1c3d
00000350: 47f4 51bd 9393 a4bb 81e2 93bd a9d6 babd
00000360: 5ac5 14be 7a66 7bbc 43fc dabd 586d 50bd
00000370: e608 13bd c211 6cbd 6357 ea3d 98b6 71bc
00000380: c75a 20bd 6414 1e3d 6bbd 8dbd b892 9ebd
00000390: 8641 af3d 270c 4dbd f06d 113d 78cc 5cbd
000003a0: f8ff 823d d605 103d 4428 19bd fca4 69bc
000003b0: 1c69 cd3d 782a 6dbd 8e46 7a3d 6cc9 4a3d
000003c0: 56ae 993d 86a0 163d c7c7 143d ca69 543d
000003d0: 7124 b1bd 44c0 cabd 14a8 aebc 6c8e 2e3c
000003e0: 1075 83bc 306e 563d 279d 6bbd 3500 0ebe
000003f0: d77f 593d 9861 15bd c57e 393e 79e4 7dbb

lstm.weight_hh_l0 f4 [800, 200]
-0.05376413 -0.053436253 0.03265407 0.03482391 -0.05772786 0.02149623 -0.057728898 -0.07025513
-0.033221807 0.017782466 0.04901375 0.05587041 -0.04763395 0.04128782 0.005769456 0.009180128
-0.031635817 -0.047758102 -0.07586994 -0.06536646 -0.046571907 -0.056418914 0.07062722 -0.06673988
-0.024064727 0.012305466 -0.056810334 0.022225248 -0.027246978 -0.038335796 0.05494915 -0.025080977
0.012930009 -0.06415742 0.028907478 -0.0705503 0.07043615 -0.017638756 -0.06344198 0.022661133
0.061644267 0.040400952 -0.03238956 -0.05253927 0.062377237 0.0071878214 -0.050780762 -0.023959871
0.028866876 0.040801022 0.056041267 0.040017217 -0.004022567 0.018415712 0.06195932 0.058850523
0.052661728 -0.046015836 -0.056464933 0.00706846 0.05051406 -0.0035719962 -0.010268618 -0.035832737
-0.027885683 -0.0033077267 -0.01784801 -0.045739297 -0.0030602638 0.027820505 0.07827577 -0.025721965
0.053436734 -0.018949805 -0.017116094 0.024335017 0.037950728 0.0036724985 -0.071521044 -0.017754775
-0.06066298 -0.015319924 -0.058417063 0.043162506 -0.01663472 -0.034482583 0.03480127 -0.03110609
-0.046138525 -0.047387134 0.07426704 -0.104768954 -0.055948 0.06732741 0.03486708 0.020350216
0.032667316 -0.03900818 0.049278278 -0.08044087 0.018906042 -0.050492007 0.057840653 -0.06169608
-0.037824072 -0.03434445 0.052060377 -0.045764767 -0.045593422 -0.043571066 0.013612853 0.049680166
0.023714775 0.045516983 0.012887085 0.016002709 0.034868434 -0.052602075 0.02366913 0.060529526
0.029455384 -0.07920765 -0.061303534 -0.04575664 0.020651974 0.058990013 0.024088226 -0.030258862
-0.010959564 -0.034300487 0.056566805 0.046924077 0.03122345 -0.067618325 -8.244177e-05 0.002875902
-0.01954632 -0.029071838 0.07617286 0.020888153 -0.062341984 0.035554614 0.049268235 -0.060169704
0.04487719 -0.045695923 0.010897719 -0.005670683 -0.09372585 0.050017405 -0.036270566 -0.011960964
-0.015303681 -0.009435943 -0.038206052 -0.011139113 -0.049609154 0.032003444 0.00020339817 -0.07679194
-0.032030135 0.015031333 -0.06371257 0.036254793 -0.002834322 -0.048656277 0.044062912 -0.04388179
0.04900122 0.05079908 0.040275745 -0.01193345 0.04733466 -0.013544907 -0.01200003 0.019898714
-0.05739729 0.010121349 0.012796553 -0.06439249 -0.02173826 -0.06827687 0.022770755 0.048388544
-0.07346727 -0.026192887 0.025324585 -0.04450523 -0.057649527 0.04010013 -0.00033290582 0.051152352
0.042487618 -0.036089536 -0.00074340036 0.009240934 0.0074016037 -0.065198116 0.05426857 0.061993383
-0.018994637 -0.046364944 0.008816365 -0.045582697 0.029457321 -0.06467301 -0.025102492 -0.014915576
0.013201729 -0.059409786 0.027979033 -0.030627461 -0.031415362 -0.026284497 0.03508127 -0.035728842
0.055306032 0.061743904 0.034335617 -0.023920987 0.07624526 -0.02934918 -0.0072012134 -0.021623189
0.014713852 0.021692768 0.06435946 0.058776937 0.05856706 0.07052426 -0.054947596 -0.05068629
0.040373668 -0.008927319 -0.04295337 -0.052174304 -0.07277908 0.035543155 0.044208027 -0.05571823
-0.041967694 -0.015714774 -0.044900376 -0.025219237 -0.053876624 0.07024491 0.073960476 0.019862872
0.06729086 -0.06160543 -0.03210285 0.02588166 0.015434707 -0.007807966 0.046368882 -0.039469864
00000000: c737 5cbd f9df 5abd 46c0 053d 84a3 0e3d
00000010: 0c74 6cbd dd18 b03c 2375 6cbd ece1 8fbd
00000020: 9713 08bd 89ac 913c a4c2 483d 5fd8 643d
00000030: d11b 43bd 6b1d 293d b40d bd3b 3f68 163c
00000040: 8f94 01bd 009e 43bd b361 9bbd dade 85bd
00000050: 2fc2 3ebd 8517 67bd 01a5 903d ebae 88bd
00000060: 6423 c5bc de9c 493c f4b1 68bd b911 b63c
00000070: 0e35 dfbc ff05 1dbd 5c12 613d 9f76 cdbc
00000080: 63d8 533c f764 83bd 60cf ec3c ad7c 90bd
00000090: d440 903d 277f 90bc deed 81bd d7a3 b93c
000000a0: b37e 7c3d 787b 253d eaaa 04bd 6b33 57bd
000000b0: 467f 7f3d d187 eb3b 7dff 4fbd 7e47 c4bc
000000c0: 3a7a ec3c f91e 273d 878b 653d 18e9 233d
000000d0: bdcf 83bb 8cdc 963c 0ec9 7d3d 3f0d 713d
000000e0: d3b3 573d 1a7b 3cbd c647 67bd 8a9e e73b
000000f0: d5e7 4e3d 2718 6abb b53d 28bc 59c5 12bd
00000100: 8470 e4bc 72c6 58bb fd35 92bc 2159 3bbd
00000110: b58e 48bb d4e7 e33c 0c4f a03d dfb6 d2bc
00000120: 7ae0 5a3d 9f3c 9bbc 0d37 8cbc 3b5a c73c
00000130: 3972 1b3d 4dae 703b a079 92bd 7672 91bc
00000140: bf79 78bd 6b00 7bbc bb46 6fbd 2bcb 303d
00000150: 8945 88bc 9c3d 0dbd c78b 0e3d 33d2 febc
00000160: c0fb 3cbd 0319 42bd 5119 983d 1b91 d6bd
00000170: bb29 65bd f4e2 893d c9d0 0e3d 7fb5 a63c
00000180: 2ace 053d 0bc7 1fbd 05d8 493d 2fbe a4bd
00000190: d8e0 9a3c b5d0 4ebd 52ea 6c3d 07b5 7cbd
000001a0: 6aed 1abd c4ac 0cbd 433d 553d d673 3bbd
000001b0: 2bc0 3abd 9377 32bd 7208 5f3c 6e7d 4b3d
000001c0: 7d45 c23c 0470 3a3d 5a24 533c 1d18 833c
000001d0: 34d2 0e3d 4675 57bd c3e5 c13c cfed 773d
000001e0: 6b4c f13c 9f37 a2bd 6a19 7bbd 516b 3bbd
000001f0: 542e a93c 839f 713d ac54 c53c 6fe1 f7bc
00000200: be8f 33bc ab7e 0cbd 98b2 673d 7633 403d
00000210: 52c8 ff3c 7a7b 8abd 97e4 acb8 a179 3c3b
00000220: 9b1f a0bc 1028 eebc 8400 9c3d a21d ab3c
00000230: 4f5a 7fbd b7a1 113d 7dcd 493d 8274 76bd
00000240: 25d1 373d a62b 3bbd 598c 323c 23d1 b9bb
00000250: 57f3 bfbd 0ddf 4c3d 7290 14bd ebf7 43bc
00000260: 4abc 7abc 3799 1abc f37d 1cbd d480 36bc
00000270: f832 4bbd 0b16 033d 4847 5539 1845 9dbd
00000280: 0832 03bd fb45 763c bc7b 82bd e87f 143d
00000290: 08c0 39bb ce4b 47bd 507b 343d 64bd 33bd
000002a0: 81b5 483d b212 503d 2ef8 243d 8484 43bc
000002b0: fde1 413d 75eb 5dbc c69b 44bc a102 a33c
000002c0: 6c19 6bbd 04d4 253c a2a8 513c 36e0 83bd
000002d0: 6f14 b2bc bed4 8bbd bc89 ba3c 1133 463d
000002e0: 0276 96bd 7792 d6bc 8175 cf3c 1e4b 36bd
000002f0: e921 6cbd 0940 243d dd89 aeb9 2185 513d
00000300: 7f07 2e3d 9fd2 13bd c1e0 42ba 4967 173c
00000310: 2789 f23b 9786 85bd b848 5e3d c6ec 7d3d
00000320: a49a 9bbc 2be9 3dbd 8472 103c ecb4 3abd
00000330: 7b50 f13c 4873 84bd bea3 cdbc 7660 74bc
00000340: 114c 583c ad57 73bd 4934 e53c 71e6 fabc
00000350: 65ad 00bd 9652 d7bc 61b1 0f3d 6858 12bd
00000360: 9488 623d 2de7 7c3d 81a3 0c3d f2f5 c3bc
00000370: 7a26 9c3d b16d f0bc 28f8 ebbb 1d23 b1bc
00000380: 5e12 713c 08b5 b13c e4ce 833d 16c0 703d
00000390: 03e4 6f3d 066f 903d bb10 61bd 6d9c 4fbd
000003a0: dc5e 253d e443 12bc dfef 2fbd b9b4 55bd
000003b0: 330d 95bd b395 113d 7a13 353d cc38 64bd
000003c0: 51e6 2bbd 45bc 80bc 75e9 37bd 9398 cebc
000003d0: bcad 5cbd 90dc 8f3d 9778 973d 76b7 a23c
000003e0: cacf 893d fa55 7cbd 477e 03bd c605 d43c
000003f0: dae1 7c3c f7d9 ffbb 4ced 3d3d 27ab 21bd

lstm.bias_ih_l0 f4 [800]
-0.029975038 0.019563433 0.09117653 0.02734477 0.029772647 -0.03764593 0.027561113 -0.053906623
0.034575433 -0.05802171 0.0101407925 0.052043214 0.052326806 0.06823039 0.07376919 0.09074242
0.0069199833 0.08305971 0.008558296 -0.03547935 0.059071384 -0.03266657 0.2134151 -0.0484692
0.060290232 0.04689274 0.03428181 -0.013106725 0.08030883 0.008964303 0.04794059 0.026620977
-0.038705647 0.078964785 -0.040914252 0.13748436 0.14041004 0.018143712 0.01435454 -0.002546134
-0.042828918 0.015076404 0.030618746 0.039063245 0.07774264 0.0579565 0.110252604 0.07580226
-0.033426315 0.07507913 -0.039170876 0.10787586 -0.01559631 0.05001798 0.102048144 -0.030812858
-0.046976898 0.042358436 -0.028671235 0.027865836 0.014588367 0.043501627 -0.008181382 -0.013920621
0.06000034 -0.049617417 0.057603303 0.06152361 0.11307475 -0.054094885 0.01683863 -0.046389893
0.1188195 0.0077901324 -0.024137432 0.009717944 0.02182223 0.051743273 0.0062317615 0.008512983
0.060471382 0.055637475 0.03498158 0.00046501774 0.14166038 0.028656889 0.072133526 -0.04885634
0.022153534 0.04732751 0.06395217 -0.006274021 -0.050945766 0.059456814 0.033608153 0.026522476
0.06880149 0.022938704 0.06846629 0.052865524 -0.012265523 0.050175376 -0.0222754 0.00638566
0.033300273 0.08615516 -0.0022284281 0.007142165 0.05979173 0.060990848 0.028013512 -0.057047307
0.054152753 0.047669798 -0.011657462 0.0043006632 0.040045902 0.0484996 0.023108887 0.039517805
-0.053248793 0.022451855 -0.043232776 -0.03222423 0.0038287053 0.07199731 0.016504778 0.02770508
0.08587083 -0.040485196 0.14640114 0.014690112 0.045395467 0.09016704 0.032630973 0.06765313
-0.03898713 0.0028563587 -0.03089034 0.04513579 0.07216332 -0.02432449 -0.025308423 0.040687293
0.09188168 0.013759764 0.06295383 -0.013294641 0.07393827 0.20389266 0.021097649 0.20046292
0.050448176 -0.042619355 0.039666075 -0.024664741 -0.021733135 0.042348687 0.072910614 6.17052e-05
0.080953985 0.10018615 0.15255973 0.02601074 0.00084310793 -0.036976855 -0.0045332573 0.009610343
0.030073734 -0.05720254 0.029087061 0.07766406 0.12260389 -0.016336534 0.07223203 0.0074878805
-0.043374754 -0.02538102 -0.06293104 0.07081303 -0.056911863 0.02585713 0.060077924 0.019839268
-0.020082459 0.05668046 -0.051381752 0.040699236 0.093381315 0.049385104 0.0090297805 0.08051076
0.00563692 -0.05767964 0.005219263 0.023612011 0.014661532 0.006837957 0.0014801112 0.061281048
-0.06131064 -0.033583906 0.059590016 0.055316795 -0.033105545 0.064150654 -0.063141145 -0.030433148
-0.019598836 -0.00038382705 -0.059063915 0.052756473 -0.025343943 0.05808707 -0.0028928507 -0.01141237
0.054778084 0.026754418 0.02746969 0.0034793424 0.037167273 -0.058081865 -0.017722363 0.025065547
0.044228073 0.04966389 0.039479416 -0.0039268993 -0.009148007 0.0056398925 -0.02736652 -0.02328931
-0.0362842 -0.032083176 0.0072217197 0.025460867 -0.06757028 -0.002815289 0.023358578 -0.03842775
-0.012670452 -0.030496875 0.035732355 -0.04759822 -0.03853998 0.0018327755 0.011380373 0.056741234
0.07361449 0.07574122 -0.035882037 -0.06701271 0.017060611 -0.03629014 -0.052197915 0.01550213
00000000: 368e f5bc 7e43 a03c c3ba ba3d 2402 e03c
00000010: c4e5 f33c 9e32 1abd d8c7 e13c 31cd 5cbd
00000020: f89e 0d3d 2ca8 6dbd 9125 263c 442b 553d
00000030: a254 563d 60bc 8b3d 4d14 973d 29d7 b93d
00000040: 07c1 e23b 361b aa3d 1838 0c3c cb52 11bd
00000050: d6f4 713d 62cd 05bd 7d89 5a3e a487 46bd
00000060: e4f2 763d 9a12 403d 156b 0c3d 97bd 56bc
00000070: f578 a43d 03df 123c 5a5d 443d 3c14 da3c
00000080: d089 1ebd 4ab8 a13d b495 27bd b3c8 0c3e
00000090: a6c7 0f3e 1fa2 943c 4e2f 6b3c 0add 26bb
000000a0: 606d 2fbd 0603 773c 2ad4 fa3c c800 203d
000000b0: 8937 9f3d cc63 6d3d 1ecc e13d 373e 9b3d
000000c0: 08ea 08bd 16c3 993d a471 20bd 05ee dc3d
000000d0: aa87 7fbc a7df 4c3d 9efe d03d 3f6b fcbc
000000e0: d96a 40bd 0a80 2d3d f0df eabc e546 e43c
000000f0: 0c04 6f3c c32e 323d 340b 06bc 5113 64bc
00000100: ebc2 753d a23b 4bbd 71f1 6b3d 2e00 7c3d
00000110: bc93 e73d 9992 5dbd 2bf1 893c 5403 3ebd
00000120: a357 f33d 5e44 ff3b ddbb c5bc 0338 1f3c
00000130: 89c4 b23c c1f0 533d ce33 cc3b 0a7a 0b3c
00000140: d7b0 773d 1fe4 633d d848 0f3d a0cd f339
00000150: 6b0f 113e dac1 ea3c beba 933d 961d 48bd
00000160: 547b b53c 7eda 413d 5bf9 823d 4e96 cdbb
00000170: 82ac 50bd fd88 733d b4a8 093d aa45 d93c
00000180: cce7 8c3d f3e9 bb3c 0e38 8c3d 8589 583d
00000190: 55f5 48bc b284 4d3d e67a b6bc cc3e d13b
000001a0: de65 083d 1e72 b03d d20a 12bb d308 ea3b
000001b0: 2ce8 743d 8ad1 793d 987c e53c 70aa 69bd
000001c0: 47cf 5d3d 6841 433d f1fe 3ebc 94ec 8c3b
000001d0: 2c07 243d 84a7 463d d94e bd3c 6cdd 213d
000001e0: 681b 5abd f4ec b73c da14 31bd 8efd 03bd
000001f0: 04eb 7a3b 5373 933d 0735 873c c4f5 e23c
00000200: 0cdd af3d ced3 25bd 2eea 153e ccae 703c
00000210: 99f0 393d 7fa9 b83d 0ea8 053d b98d 8a3d
00000220: f8b0 1fbd bf31 3b3b bd0d fdbc 4ee0 383d
00000230: 5dca 933d 2744 c7bc 9c53 cfbc b8a7 263d
00000240: 762c bc3d a270 613c f0ed 803d c4d1 59bc
00000250: f36c 973d 3dc9 503e fad4 ac3c 2746 4d3e
00000260: bfa2 4e3d a291 2ebd e578 223d b60d cabc
00000270: b009 b2bc d175 2d3d 2952 953d ba67 8138
00000280: 34cb a53d 652e cd3d 9e38 1c3e 7a14 d53c
00000290: 0404 5d3a 0b75 17bd b88b 94bb b374 1d3c
000002a0: 315d f63c 364d 6abd fd47 ee3c 560e 9f3d
000002b0: c017 fb3d 32d4 85bc 63ee 933d e55c f53b
000002c0: baa9 31bd dbeb cfbc fde1 80bd 6c06 913d
000002d0: 6a1c 69bd 55d2 d33c 4514 763d f685 a23c
000002e0: f883 a4bc c529 683d ac75 52bd 3eb4 263d
000002f0: b43e bf3d 0948 4a3d a5f1 133c d3e2 a43d
00000300: eab5 b83b 7c41 6cbd 5a06 ab3b fa6d c13c
00000310: ec36 703c f110 e03b 4a00 c23a d601 7b3d
00000320: de20 7bbd 478f 09bd a914 743d dd93 623d
00000330: ae99 07bd 6b61 833d 2550 81bd f04e f9bc
00000340: bd8d a0bc 653c c9b9 01ed 71bd 2c17 583d
00000350: 1a9e cfbc b5ec 6d3d fb95 3dbb f3fa 3abc
00000360: fc5e 603d 152c db3c 1e08 e13c ae05 643b
00000370: b63c 183d 40e7 6dbd 7d2e 91bc 4356 cd3c
00000380: 7f28 353d 5d6c 4b3d 2bb5 213d 38ad 80bb
00000390: 86e1 15bc d9ce b83b c12f e0bc 39c9 bebc
000003a0: be9e 14bd a669 03bd 2da4 ec3b 4f93 d03c
000003b0: 4962 8abd b680 38bb 7d5a bf3c 6b66 1dbd
000003c0: ba97 4fbc 95d4 f9bc 175c 123d 5af6 42bd
000003d0: 19dc 1dbd be39 f03a be74 3a3c 7f69 683d
000003e0: 32c3 963d 361e 9b3d 0bf9 12bd f63d 89bd
000003f0: b2c2 8b3c f8a4 14bd 7bcd 55bd a5fc 7d3c

lstm.bias_hh_l0 f4 [800]
-0.050694007 0.051557824 -0.016947651 -0.049797095 0.08171568 0.018741684 -0.025422182 0.0008852229
-0.0071705133 0.052521486 0.07945328 0.029335255 0.054821186 0.00063902006 0.049887232 0.026313
0.02289672 0.036055718 0.020415353 -0.04050015 0.04468692 0.033125397 0.12383591 -0.01606528
-0.006937157 0.037643537 -0.02222431 -0.010502977 -0.051979642 0.041027833 0.17474395 0.03356198
0.08222736 0.05168329 0.060495105 0.08295157 0.2346031 -0.021714529 0.0064071883 0.0626346
-0.0019629113 0.07777945 -0.0060256016 -0.007116646 0.020903397 -0.015617012 0.11009799 -0.0007279644
0.022787683 0.034028154 0.008800888 0.05582741 0.06779644 -0.038790442 0.120877564 0.07463804
0.056062713 0.010153942 0.07622069 0.08431662 0.057736836 -0.027128058 0.011610911 -0.038815092
-0.016170263 -0.025972005 0.028767614 0.04832867 0.14440513 -0.035234544 0.03907315 0.040108375
0.1793178 0.038935546 0.04897204 0.076321885 0.13561906 0.06428811 0.019891487 0.0031940555
0.029855017 -0.019340582 -0.002852018 -0.010909052 0.06827437 0.035408188 0.05873991 0.0061500794
0.009113801 0.10635791 -0.022831438 0.11787085 -0.013589013 0.024118757 -0.015159978 -0.03658056
0.051376097 -0.013579748 -0.03680011 0.0048907814 -0.040837225 0.046252154 0.029659979 0.033637263
0.03829324 0.10940276 -0.0029490327 0.08964607 0.048834786 0.10586995 -0.02352828 0.0016819299
-0.04002956 0.08598183 0.009422419 0.01895396 -0.0423956 0.07114165 0.007468595 -0.036447495
0.04912574 0.031601477 -0.038103227 0.0016329935 0.013197719 -0.026360473 -0.021377599 0.02296256
-0.013434037 -0.04673381 0.057190366 -0.033886332 0.043303065 0.027037034 0.08346946 -0.010868394
0.024652224 -0.02000358 0.05248109 0.07182138 0.07746714 -0.0063616144 -0.020501036 0.06782838
0.04561482 -0.010892866 0.033036534 -0.011723658 0.06561893 0.13928993 0.03146741 0.19767062
0.06801341 -0.036013495 0.08710293 0.038638115 0.03944016 0.04049731 0.060731728 -0.04755928
0.052325945 0.09964527 0.10680474 0.023177698 0.009572162 -0.033614222 0.011002045 0.009421372
0.06897093 0.06677437 0.01210162 -0.042175014 0.072596654 -0.031319745 0.08849102 0.060908858
-0.010407575 -0.03625492 -0.02585269 -0.042513758 -0.032896943 0.07741044 0.09364597 0.07181295
0.048000272 0.0059316102 0.077677056 -0.028456511 0.07280175 0.011035432 0.056548122 0.08477955
0.04636107 0.058366198 0.04851135 0.046942566 0.01759429 0.071333855 0.036042362 0.052218013
0.015752587 -0.051886693 0.0811175 0.0459876 -0.025837876 -0.052575245 0.011977517 0.031908903
-0.0543307 -0.034303583 -0.002393485 0.04202371 -0.061055493 0.041792948 0.09036221 0.04884669
0.061920136 -0.04029977 -0.026639357 -0.043581042 0.024656434 -0.0038290313 -0.01594867 0.014949795
-0.04149918 0.04007727 0.055910222 0.0060720113 -0.042014886 -0.061118808 -0.021074632 0.02206552
-0.026247332 0.036139924 0.042717125 -0.07872077 -0.035013266 0.049419932 0.014313982 -0.0028469851
-0.028276725 -0.05278362 0.015420547 0.040397342 -0.025687082 -0.03708617 -0.055807773 0.06925717
0.029289462 0.077787064 0.05235397 0.024983877 -0.059785217 0.0041229976 0.0026719363 0.0267803
00000000: 85a4 4fbd 4c2e 533d cdd5 8abc 0af8 4bbd
00000010: 8d5a a73d 2988 993c 2e42 d0bc 4e0e 683a
00000020: a0f6 eabb c520 573d 67b8 a23d 7d50 f03c
00000030: 2e8c 603d e983 273a 8e56 4c3d 5c8e d73c
00000040: e791 bb3c 29af 133d 193e a73c 7ce3 25bd
00000050: a209 373d 7fae 073d ae9d fd3d 569b 83bc
00000060: 1751 e3bb 1c30 1a3d c20f b6bc ae14 2cbc
00000070: 9be8 54bd cd0c 283d 14f0 323e 4978 093d
00000080: d166 a83d dcb1 533d b7c9 773d 83e2 a93d
00000090: cc3b 703e abe2 b1bc 64f3 d13b 9246 803d
000000a0: 30a4 00bb d54a 9f3d 6972 c5bb c132 e9bb
000000b0: 9a3d ab3c 7fde 7fbc 0e7b e13d ddd4 3eba
000000c0: 3cad ba3c 1b61 0b3d 9a31 103c 48ab 643d
000000d0: dcd8 8a3d bae2 1ebd a88e f73d d4db 983d
000000e0: 04a2 653d b85c 263c 9819 9c3d 31ae ac3d
000000f0: 767d 6c3d a93b debc b13b 3e3c 93fc 1ebd
00000100: 8077 84bc 3ec3 d4bc 0faa eb3c 49f4 453d
00000110: f0de 133e 1952 10bd 2b0b 203d ae48 243d
00000120: 169f 373e e17a 1f3d e896 483d a64e 9c3d
00000130: b9df 0a3e 7ca9 833d 79f3 a23c 5c53 513b
00000140: 8292 f43c 2470 9ebc ece8 3abb e1bb 32bc
00000150: 6fd3 8b3d 2d08 113d 4399 703d 9b86 c93b
00000160: 0d52 153c 2dd2 d93d ff08 bbbc 4666 f13d
00000170: 74a4 5ebc b394 c53c 8e61 78bc 7fd5 15bd
00000180: be6f 523d 977d 5ebc b6bb 16bd d942 a03b
00000190: ef44 27bd e672 3d3d 7cf9 f23c 3ac7 093d
000001a0: 5fd9 1c3d 8e0e e03d 8f44 41bb 5c98 b73d
000001b0: fc06 483d 58d2 d83d 61be c0bc 3474 dc3a
000001c0: 09f6 23bd 3e17 b03d 7d60 1a3c 5645 9b3c
000001d0: 02a7 2dbd b7b2 913d 1ebb f43b f849 15bd
000001e0: 1238 493d 8d70 013d 2112 1cbd 2b0a d63a
000001f0: 3f3b 583c ebf1 d7bc 1320 afbc fb1b bc3c
00000200: 6f1a 5cbc f46b 3fbd 7240 6a3d 65cc 0abd
00000210: 8e5e 313d c57c dd3c 09f2 aa3d 5911 32bc
00000220: 76f3 c93c 8cde a3bc 69f6 563d 1617 933d
00000230: 18a7 9e3d 1775 d0bb caf1 a7bc 9be9 8a3d
00000240: 9bd6 3a3d fe77 32bc 5151 073d 9614 40bc
00000250: 3863 863d 05a2 0e3e f9e3 003d 2b6a 4a3e
00000260: 9d4a 8b3d e382 13bd 0563 b23d 0043 1e3d
00000270: 018c 213d 82e0 253d d5c1 783d 85cd 42bd
00000280: bb53 563d d212 cc3d 72bc da3d 28df bd3c
00000290: 8fd4 1c3c 11af 09bd ec41 343c 195c 1a3c
000002a0: a240 8d3d 00c1 883d e045 463c b5bf 2cbd
000002b0: 8ead 943d 2249 00bd c83a b53d 917b 793d
000002c0: 8984 2abc 0a80 14bd 05c9 d3bc e822 2ebd
000002d0: f2be 06bd 5d89 9e3d 75c9 bf3d ab12 933d
000002e0: ef9b 443d f45d c23b 2615 9f3d a11d e9bc
000002f0: 1519 953d f5cd 343c 019f 673d e7a0 ad3d
00000300: 1be5 3d3d 6511 6f3d d6b3 463d d946 403d
00000310: e721 903c 7c17 923d 28a1 133d 8ee2 553d
00000320: 920b 813c 2487 54bd ef20 a63d 7e5d 3c3d
00000330: f4a9 d3bc 2459 57bd 593d 443c e9b2 023d
00000340: de89 5ebd ea81 0cbd 04dc 1cbb 0e21 2c3d
00000350: 5315 7abd 152f 2b3d d30f b93d 7813 483d
00000360: f89f 7d3d 5f11 25bd c83a dabc 0982 32bd
00000370: 4afc c93c 7cf0 7abb c9a6 82bc fcef 743c
00000380: 0bfb 29bd 1028 243d 1e02 653d b9f7 c63b
00000390: cd17 2cbd b757 7abd b5a4 acbc c0c2 b43c
000003a0: a504 d7bc 7507 143d 27f8 2e3d 5b38 a1bd
000003b0: 126a 0fbd 8e6c 4a3d 3185 6a3c 7c94 3abb
000003c0: 97a4 e7bc a333 58bd 76a6 7c3c af77 253d
000003d0: b76d d2bc abe7 17bd b196 64bd b4d6 8d3d
000003e0: 74f0 ef3c d34e 9f3d 1e71 563d fdaa cc3c
000003f0: 58e1 74bd 361a 873b a71b 2f3b 5c62 db3c

linear.weight f4 [1, 200]
0.027570302 -0.017365215 -0.10261386 0.03644966 -0.10386883 -0.052356217 -0.06446263 0.0096451705
0.044595663 0.03171994 0.03113905 0.074796155 -0.0647786 0.03996622 0.066229336 0.0905875
-0.05559396 -0.12291939 -0.06350056 -0.038780782 -0.012401989 0.00681321 0.11409798 0.06630155
-0.016575843 0.06330269 -0.032693323 0.0019489788 -0.046986412 -0.03029759 0.16050468 -0.0858725
-0.05277 -0.077344045 0.1013077 -0.1100923 0.12392273 0.017598972 -0.07455832 -0.02450482
0.036759708 0.09303467 0.06761053 -0.042136874 0.05951597 -0.062208664 -0.078141026 0.09056158
-0.012820291 -0.008924734 -0.03218706 0.07704536 -0.08137207 -0.09367812 -0.07724736 -0.09280044
0.011593208 0.070787124 -0.09714383 -0.073293485 0.075883135 0.05523995 0.10645365 0.047695026
-0.086558536 0.053826008 0.057724617 0.096358694 0.052900493 0.008330958 0.07765005 -0.07410432
-0.08503889 -0.079135165 -0.062425785 -0.05853225 0.082721226 0.041670233 -0.06550422 -0.015530887
-0.047692217 0.12328889 0.068956256 -0.059042625 0.18162595 -0.11461474 0.033241563 -0.08262749
0.08518178 -0.13885437 0.107723355 -0.080353945 -0.04505815 0.09387007 0.06952704 0.04346464
0.092083834 0.054332435 -0.10277753 0.009454192 -0.051445536 -0.029123647 0.10299915 0.059466027
0.096769735 -0.07053855 0.086509734 0.108719125 0.04671415 -0.11666385 0.017652405 -0.0012378729
-0.06134408 -0.011902636 -0.08072866 0.06966356 -0.050387982 0.06035508 -0.07023336 -0.015372712
-0.00921699 -0.006568561 0.03217447 -0.0061057527 0.07462831 -0.07302908 -0.046369422 -0.06246873
-0.07877195 -0.0042506116 -0.03750428 0.029078763 -0.06384939 -0.060703598 -0.074380554 0.08851518
-0.108818665 -0.0072235796 0.0013849435 -0.09869406 0.041529372 0.088006616 0.01102355 0.038298894
-0.07496342 0.004304814 0.04449968 -0.105734035 -0.12913041 -0.14046787 -0.09325718 0.21971673
0.08387777 0.03151457 -0.06996438 -0.060576815 0.07068917 -0.0399646 0.14031006 -0.060983147
0.063890025 -0.04972331 0.038122267 -0.016868724 0.03040071 0.07333136 -0.098236285 -0.09837822
0.048671007 -0.066703595 0.028956888 0.05344567 0.06815163 0.035714366 0.08399412 -0.07323127
0.060938448 -0.038849957 -0.03900592 -0.029576747 -0.07971963 -0.0763627 0.11206373 0.049661964
-0.13341564 -0.078363165 -0.08545691 -0.016289545 -0.0717948 -0.09955709 0.07548666 0.06998975
0.06975141 -0.02062811 0.09451999 0.06054789 -0.050643165 -0.08099607 0.0074647735 -0.088486105
00000000: 1ddb e13c 7f41 8ebc 3727 d2bd 3d4c 153d
00000010: 2eb9 d4bd 7973 56bd fc04 84bd c706 1e3c
00000020: f1a9 363d c5ec 013d 5217 ff3c ba2e 993d
00000030: a5aa 84bd 9eb3 233d 3fa3 873d f085 b93d
00000040: 7eb6 63bd 29bd fbbd 950c 82bd 99d8 1ebd
00000050: b631 4bbc 5941 df3b 34ac e93d 1bc9 873d
00000060: 10ca 87bc d7a4 813d 6fe9 05bd e074 ff3a
00000070: d374 40bd a732 f8bc 575b 243e ecdd afbd
00000080: 5b25 58bd 8e66 9ebd 697a cf3d 1278 e1bd
00000090: 33cb fd3d b82b 903c 08b2 98bd 55be c8bc
000000a0: 5991 163d f688 be3d 6477 8a3d b797 2cbd
000000b0: 05c7 733d 83ce 7ebd 6708 a0bd 5a78 b93d
000000c0: 330c 52bc 0c39 12bc 94d6 03bd f5c9 9d3d
000000d0: 66a6 a6bd 50da bfbd dd33 9ebd 280e bebd
000000e0: 70f1 3d3c d7f8 903d 58f3 c6bd e51a 96bd
000000f0: 9e68 9b3d 4943 623d 5f04 da3d dc5b 433d
00000100: 9a45 b1bd a978 5c3d a670 6c3d b557 c53d
00000110: 30ae 583d 927e 083c fd06 9f3d 01c4 97bd
00000120: df28 aebd 9e11 a2bd 2eb2 7fbd 83bf 6fbd
00000130: bf69 a93d 68ae 2a3d 1427 86bd 4375 7ebc
00000140: ea58 43bd e37e fc3d f038 8d3d aed6 71bd
00000150: 27fc 393e 22bb eabd 4e28 083d 9a38 a9bd
00000160: c973 ae3d d72f 0ebe 109e dc3d 9c90 a4bd
00000170: e58e 38bd f43e c03d 3164 8e3d fa07 323d
00000180: 7396 bc3d b08b 5e3d 077d d2bd c1e5 1a3c
00000190: 8eb8 52bd b794 eebc 38f1 d23d a692 733d
000001a0: 362f c63d 8476 90bd 042c b13d 22a8 de3d
000001b0: 5657 3f3d 75ed eebd c79b 903c 1f40 a2ba
000001c0: ee43 7bbd 4603 43bc 1155 a5bd c5ab 8e3d
000001d0: a163 4ebd e336 773d 82d6 8fbd d4dd 7bbc
000001e0: dc02 17bc 153d d7bb 61c9 033d c412 c8bb
000001f0: bad6 983d 4590 95bd dded 3dbd 36df 7fbd
00000200: 3053 a1bd b748 8bbb 179e 19bd 9636 ee3c
00000210: 78c3 82bd 56a4 78bd d554 98bd 7247 b53d
00000220: 52dc debd c7b3 ecbb fe86 b53a 1d20 cabd
00000230: b41a 2a3d d03c b43d 1f9c 343c 4ddf 1c3d
00000240: 6c86 99bd 660f 8d3b 4c45 363d 168b d8bd
00000250: c33a 04be cfd6 0fbe 9ffd bebd 6cfd 603e
00000260: 1cc8 ab3d 6c15 013d 7c49 8fbd 651f 78bd
00000270: 7cc5 903d ecb1 23bd 71ad 0f3e 77c9 79bd
00000280: c6d8 823d abaa 4bbd 1826 1c3d 4730 8abc
00000290: e90a f93c c12e 963d 1b30 c9bd 857a c9bd
000002a0: 405b 473d e59b 88bd ff36 ed3c d9e9 5a3d
000002b0: 1593 8b3d 3a49 123d 1c05 ac3d 47fa 95bd
000002c0: 989a 793d 2221 1fbd acc4 1fbd ef4a f2bc
000002d0: 0c44 a3bd 0c64 9cbd ab81 e53d 586a 4b3d
000002e0: 1c9e 08be de7c a0bd 0804 afbd a771 85bc
000002f0: 2709 93bd 96e4 cbbd c098 9a3d c956 8f3d
00000300: d4d9 8e3d 48fc a8bc b293 c13d 1001 783d
00000310: 356f 4fbd 44e1 a5bd 0f9b f43b 3438 b5bd
