Time-Series---Forecasting/Results/local/model20.pth (torch, 490772 bytes, 9 tensors)

lstm.weight_ih_l0 f4 [400, 1]
0	0x3de6f1b8	0.11276573
1	0xbcde55d6	-0.02714054
2	0xbdcf2bc7	-0.10115772
3	0xbdd5d752	-0.1044146
4	0xbd761ecf	-0.060087975
5	0xbc907f83	-0.017638927
6	0xbd555dab	-0.05209128
7	0xbb92bb93	-0.004477927
8	0x3d747b99	0.059688184
9	0xbdcf86d9	-0.10133142
10	0xbe0f4ce8	-0.13994181
11	0x3de9b435	0.11411325
12	0xbd432d95	-0.047650892
13	0x3dcd2dea	0.10018523
14	0x3d790323	0.060794007
15	0xbd415b43	-0.047206175
16	0x3d6b92f6	0.0575132
17	0x3dc2a684	0.095044166
18	0x3d40e880	0.04709673
19	0x3dc33fa2	0.09533621
20	0x3db1e547	0.08686309
21	0x3d990a56	0.074726745
22	0xbd23f0f6	-0.04002472
23	0x3b42afb4	0.0029706778
24	0x3d84b141	0.06479121
25	0x3ca9c31b	0.020722916
26	0x3c26546c	0.010151964
27	0x3dab8082	0.0837412
28	0x3d83014e	0.06396733
29	0xbc923eca	-0.017852206
30	0xbda350de	-0.079744086
31	0x3d8a999b	0.06767579
32	0x3dac7c82	0.084221855
33	0x3e1cf13d	0.153264
34	0xbc8e7c40	-0.017393231
35	0xbcb81202	-0.022469524
36	0x3d9708a4	0.07374695
37	0x3e24370f	0.16036628
38	0xbd42c0a7	-0.04754701
39	0x3d65072b	0.05591504
40	0xbd6c7369	-0.05772725
41	0x3d765e8f	0.06014877
42	0x3cf6d405	0.030130396
43	0x3d64788b	0.05577902
44	0x3cb34ff6	0.021888714
45	0x3d7ffe7c	0.062498555
46	0x3de50ebf	0.11184453
47	0x3decd597	0.115641765
48	0x3dad630c	0.08466157
49	0x3c7378e8	0.014860369
50	0xbd602988	-0.054727107
51	0xbd2741ce	-0.04083424
52	0xbc83affa	-0.016075123
53	0xbd45e2b4	-0.048311904
54	0xbd651880	-0.05593157
55	0x3de344ed	0.11097131
56	0xbcc704d9	-0.024294304
57	0xbd7d9c56	-0.06191667
58	0x3d1b56d9	0.03792462
59	0x3d17cc82	0.03706027
60	0x3d9905e8	0.0747183
61	0x3db598c1	0.08867026
62	0xbc15c5f1	-0.009141431
63	0xbd01e2b5	-0.031710345
64	0xbd7c5857	-0.061607685
65	0xbc1f411d	-0.009720114
66	0x3b5d8e5f	0.0033806784
67	0xbde54f2d	-0.11196742
68	0x3d7a6790	0.06113392
69	0xbd94e9d4	-0.07271162
70	0xbdea3256	-0.11435382
71	0xbd20d00d	-0.039260913
72	0xbdf2c2c6	-0.11853556
73	0xbc6602ae	-0.014038725
74	0xbe0b89d9	-0.13626803
75	0x3d8de5a2	0.069285646
76	0xbdbe0afb	-0.09279438
77	0x3d874840	0.066055775
78	0x3db96314	0.09052101
79	0xbe669da7	-0.22521077
80	0x3c9febb1	0.019521566
81	0x3bbefa15	0.005828152
82	0xbdb770f2	-0.089570895
83	0x3cc3c8da	0.023899484
84	0xbd747272	-0.059679456
85	0x3d485ce9	0.04891673
86	0x3d1b5d20	0.037930608
87	0x3d99bf5e	0.075072035
88	0xbd7b12fa	-0.061297394
89	0x3df829f3	0.12117376
90	0xbd80ef1d	-0.06295607
91	0xbdb4f302	-0.088354126
92	0x3bd09601	0.006365538
93	0x3e046de8	0.12932551
94	0x3da125e0	0.07868552
95	0x3d6a1bd6	0.057155453
96	0x3d8fcb3b	0.07021185
97	0xbd99fd82	-0.07519056
98	0x3d11a10f	0.035553988
99	0x3c054e05	0.008136277
100	0xbc1538e6	-0.009107804
101	0xbdfd4fe5	-0.12368754
102	0xbddf1ee7	-0.10894566
103	0x38f18027	0.00011515646
104	0x3d3ada27	0.045618203
105	0xbd704782	-0.058661945
106	0xbd08d947	-0.033410337
107	0x3dc9dd8e	0.09856711
108	0x3d9d67e5	0.07685832
109	0xbde2d425	-0.110756196
110	0xbcb40766	-0.021976184
111	0x3d655f51	0.055999104
112	0xbd986ecf	-0.0744301
113	0x3aefa98f	0.0018284785
114	0x3e035690	0.1282599
115	0xbcc312c7	-0.023812665
116	0x3e096b7d	0.1341991
117	0x3cca9289	0.024728077
118	0x3d2eb269	0.042650614
119	0x3d8d9178	0.069125116
120	0xbd883eb1	-0.066525824
121	0xbdbc1265	-0.09183196
122	0x3d7b2c8c	0.06132178
123	0x3d8f9620	0.07011056
124	0x3d1f04a2	0.038822778
125	0xbdeef0e6	-0.116670415
126	0xbd839321	-0.06424547
127	0x3d268179	0.04065082
128	0x3bce0180	0.0062868
129	0x3c5b6182	0.013389947
130	0xbdbe1d0e	-0.092828855
131	0x3d7fb55e	0.062428825
132	0xbc27eb4e	-0.010248972
133	0x3e062190	0.1309874
134	0xbbd35e25	-0.006450432
135	0xbe0b6236	-0.13611683
136	0x3cec4ddf	0.028845726
137	0xbd6be43d	-0.05759071
138	0x3ca79b4a	0.02045979
139	0x3dc53d98	0.09630889
140	0xbe39f618	-0.18160284
141	0xbd508d19	-0.05091581
142	0x3d522207	0.051301982
143	0xbcecffb5	-0.028930524
144	0x3cc13f9a	0.023589898
145	0xbdf3d0fd	-0.11905096
146	0x3de157b5	0.11003057
147	0xbd194f08	-0.037428886
148	0x3d6aec6e	0.057354383
149	0xbd6b4bcd	-0.057445336
150	0x3d22d018	0.039749235
151	0xbd7622de	-0.060091846
152	0x3de87528	0.11350471
153	0x3d60bb99	0.054866407
154	0x3d579f54	0.05264218
155	0x3d9bccc4	0.07607415
156	0xbd98dc8b	-0.0746394
157	0xbe0dc00f	-0.13842796
158	0x3d70fac5	0.058832902
159	0xbdc70fa4	-0.0971978
160	0x3c996d7b	0.018728962
161	0x3cdbdce2	0.026838724
162	0x3c05a1c2	0.008156242
163	0x3d1375d2	0.036001034
164	0xbd105d3a	-0.035245158
165	0xbd1252ac	-0.035723373
166	0xbd98de81	-0.07464314
167	0xbdd3cfe7	-0.103423886
168	0xbde6bfe4	-0.11267069
169	0xbccdb199	-0.0251091
170	0xbccb03ff	-0.024782179
171	0x3d395d35	0.045254905
172	0xbd31af71	-0.043380205
173	0x3e396946	0.18106565
174	0xbde23d2b	-0.11046823
175	0x3da610d1	0.08108676
176	0x3c67e0c5	0.01415271
177	0xbdbb1d1a	-0.0913641
178	0xbd7fe710	-0.062476218
179	0xbe834c89	-0.2564433
180	0x3dd1e7f3	0.10249319
181	0x3e459155	0.19293721
182	0xbdf161ef	-0.117862575
183	0x3d5dc1af	0.05413979
184	0xbc5393f8	-0.0129136965
185	0xbd97b2b7	-0.07407134
186	0xbda3d215	-0.07999054
187	0x3d61ef3a	0.055159785
188	0x3c9d0adf	0.019170223
189	0x3d5ee47e	0.054417126
190	0xbba1b930	-0.004935406
191	0xbdb352a4	-0.08755997
192	0xbcc84d39	-0.024450885
193	0x3dc8ff55	0.09814326
194	0x3dd7965b	0.10526725
195	0x3dc7f307	0.09763151
196	0x3d445ea7	0.04794183
197	0xbdd00c49	-0.10158593
198	0xbdcfa7ce	-0.10139428
199	0xbddfae6d	-0.10921941
200	0x3ce9a121	0.028519215
201	0x3d0c0cc2	0.034191854
202	0x3db1e723	0.08686664
203	0x3e0ccc8d	0.13749905
204	0xbba9b03d	-0.00517848
205	0x3dbf285a	0.09333868
206	0x3ccd414d	0.025055552
207	0xbd8c9037	-0.06863444
208	0xbd7c2fa2	-0.061568864
209	0x3c845645	0.016154418
210	0xbbc24371	-0.00592845
211	0x3de3b7ac	0.11119017
212	0x3db63c74	0.08898249
213	0xbda8cdac	-0.08242354
214	0xbdd185f0	-0.10230625
215	0x3e373b97	0.17893825
216	0x3e8f8a53	0.2803522
217	0x3dc61f4d	0.09673939
218	0x3a4e9f31	0.0007881998
219	0x3dee9158	0.11648816
220	0x3d3c85ae	0.046025924
221	0xbbb0ef32	-0.005399608
222	0xbda45bc6	-0.08025317
223	0x3d84f4eb	0.06492027
224	0xbdd1618c	-0.10223684
225	0xbd894027	-0.06701689
226	0x3e3e8919	0.18606986
227	0x3dad46d2	0.084607735
228	0xbe271c0a	-0.1631929
229	0xbddadd71	-0.10686768
230	0xbdd46658	-0.10371083
231	0xbd35f081	-0.044418816
232	0x3c039328	0.00803069
233	0xbe9a8466	-0.30179137
234	0xbde21864	-0.110398084
235	0xbe125188	-0.14288914
236	0x3dad77ad	0.08470092
237	0x3d61ad7e	0.055097096
238	0x3db73f5c	0.08947632
239	0xbcec3a79	-0.028836476
240	0xbe04b55c	-0.12959808
241	0x3e1c6c48	0.15275681
242	0xbdadfc71	-0.08495415
243	0x3bdfafc4	0.006826373
244	0x3e29b2c6	0.16572103
245	0xbe0667d1	-0.1312554
246	0x3dd6ed8a	0.10494526
247	0x3e0d1627	0.13777982
248	0xbdfaaf63	-0.122404836
249	0xbdba2e6b	-0.09090885
250	0xbe21533f	-0.15754412
251	0xbe1b497b	-0.1516475
252	0x3e3d0571	0.18459107
253	0xbe02ab3d	-0.12760635
254	0x3dfb1ed3	0.12261739
255	0x3e024cda	0.12724629

lstm.weight_hh_l0 f4 [400, 100]
0	0xbcc6805e	-0.024231132
1	0xbd23b01e	-0.03996288
2	0xbd213451	-0.039356533
3	0x3c6dcd89	0.014514335
4	0x3b1024ce	0.0021994594
5	0x3d3ae4cb	0.04562835
6	0xbd376fc3	-0.04478432
7	0xbd82beec	-0.06384072
8	0xbd6f520f	-0.058427867
9	0xbcaeffde	-0.021362241
10	0x3d9daeb4	0.076993376
11	0x3dc20f73	0.09475603
12	0xbd558727	-0.052130844
13	0xbd336d35	-0.04380532
14	0xbcdf7869	-0.027279096
15	0xbd0f44d0	-0.034977734
16	0x3dc47d39	0.09594197
17	0x3dd27b95	0.10277478
18	0xbd73c1eb	-0.059511106
19	0x3ca8686d	0.020557607
20	0xbd3cf7fa	-0.046134926
21	0xbd9377fb	-0.07200619
22	0x3c804910	0.015659839
23	0xbda603ae	-0.081061706
24	0x3d8bf72d	0.068342544
25	0xbc823e41	-0.015898826
26	0x3dbf6613	0.09345641
27	0x3d859626	0.06522779
28	0xbdd6cd12	-0.10488333
29	0x3d9a5aae	0.07536827
30	0xbdc06a96	-0.0939533
31	0xbdb09d26	-0.08623724
32	0x3d6df97a	0.058099248
33	0xbd4e0f3d	-0.0503075
34	0xbcaf09d1	-0.021366986
35	0xbd13b351	-0.03605968
36	0x3dae7056	0.0851752
37	0x3cfaf83b	0.030635944
38	0x3d2b3d15	0.0418063
39	0x3c8881de	0.016663488
40	0xbd99814c	-0.074953645
41	0xbd1016df	-0.03517806
42	0xbd0ec46f	-0.034855302
43	0x3d588b8e	0.052867465
44	0x3dd382ac	0.10327658
45	0xbcf48c11	-0.029851945
46	0xbd9274c0	-0.071511745
47	0xbd1e803c	-0.038696513
48	0x3c624f1c	0.013812806
49	0x3d4d8991	0.05018002
50	0xbdc9966c	-0.09843144
51	0x3c0e0469	0.008668044
52	0x3df4a6eb	0.119458996
53	0xbde3bdfa	-0.111202195
54	0x3d9f25fb	0.07770916
55	0xbcde08b9	-0.027103769
56	0x3d058bc4	0.032603994
57	0xbd876223	-0.06610515
58	0x3d14fd62	0.036374457
59	0xbda30f34	-0.07961884
60	0xbd541510	-0.0517779
61	0xbd0cce7d	-0.03437661
62	0x3d46eda0	0.04856646
63	0xbddaf57f	-0.10691356
64	0x3d6f53b1	0.058429424
65	0xbd3599ea	-0.044336237
66	0x3c440d0d	0.011966002
67	0x3db1a4f7	0.08674043
68	0x3d42b931	0.047539894
69	0x3da73534	0.081644446
70	0x3d2c08f1	0.042000715
71	0xbcd414b6	-0.025888782
72	0x3d5e170c	0.054221198
73	0x3d15b13e	0.036545984
74	0xbc714c2b	-0.0147276325
75	0x3c39a674	0.011331189
76	0xbc800591	-0.015627654
77	0xbda1615b	-0.07879897
78	0x3d43c14c	0.047791764
79	0xbd48f7fd	-0.049064625
80	0xbca3bece	-0.019988444
81	0x3d8130db	0.063081466
82	0x3db6b5e5	0.089214124
83	0xbdd37f37	-0.10326999
84	0x3d954931	0.07289351
85	0xbd33035b	-0.043704372
86	0xbd839699	-0.064252086
87	0xbd32d8a6	-0.043663643
88	0x3cf104ad	0.029421175
89	0xbd8b0019	-0.06787128
90	0xbd83d28e	-0.064366445
91	0x3ce255a0	0.02762872
92	0x3dcf77d3	0.101302765
93	0xbbbb2958	-0.0057117157
94	0xbdf2bcfd	-0.11852453
95	0x3b68acf9	0.003550349
96	0x3db49a62	0.08818509
97	0x3d2ac279	0.04168937
98	0x3db9dbc3	0.09075119
99	0x3d53ca3c	0.051706538
100	0xbc9b9de2	-0.018996183
101	0x3dc124b9	0.094308324
102	0xbdedbd4a	-0.1160837
103	0x3cb5378e	0.022121217
104	0x3c3c8e7d	0.011508581
105	0xbb41928f	-0.0029536819
106	0x3da58ef1	0.080839045
107	0xbdc124d6	-0.09430854
108	0xbd755de1	-0.059903983
109	0xbcd3f027	-0.02587135
110	0xbc62a485	-0.01383317
111	0x3c1243d9	0.008927309
112	0xbd5d5764	-0.05403842
113	0x3e03967d	0.12850375
114	0x3c929678	0.017894015
115	0x3d878875	0.06617824
116	0x3d75fbab	0.060054462
117	0xbd02218b	-0.03177027
118	0xbd96a310	-0.073553205
119	0xba44a189	-0.0007500877
120	0x3cacd689	0.021098392
121	0xbd44f36f	-0.04808372
122	0xba90df91	-0.0011052956
123	0x3db1ba00	0.08678055
124	0x3cb38860	0.021915615
125	0xbd7941c7	-0.060853746
126	0x3bf2b000	0.0074062347
127	0xbd98ab14	-0.074545056
128	0xbcddf458	-0.027094051
129	0x3d9996cd	0.07499466
130	0xbd42e884	-0.047585025
131	0xbd3ecfe6	-0.046584986
132	0x3c2b61e3	0.01046035
133	0x3c710abb	0.014712031
134	0x3d148e86	0.036268733
135	0x3ddcf610	0.1078912
136	0xbd4fbd1b	-0.050717454
137	0x3c44b339	0.012005621
138	0xbcdfbb9d	-0.02731114
139	0xbdab90a9	-0.08377201
140	0x3cd50733	0.02600441
141	0xbdad65e4	-0.084667
142	0xbd8570d0	-0.06515658
143	0xbd5f7814	-0.054557875
144	0xbd982861	-0.07429577
145	0x3d77c925	0.06049456
146	0x3c8766a0	0.016528428
147	0x3da6f294	0.08151737
148	0x3daae49e	0.083443865
149	0x3cc0e40a	0.023546237
150	0x3c8e75cb	0.017390152
151	0xbd134a23	-0.035959374
152	0x3cfdc607	0.030978216
153	0x3d192e55	0.0373977
154	0xbe031008	-0.12799084
155	0x3d3c0b0b	0.04590897
156	0xbd1d97e2	-0.038474925
157	0x3ce2dc5e	0.02769297
158	0x3cebf6d4	0.02880422
159	0x3c49f48e	0.012326373
160	0x3be9c8de	0.007134541
161	0x3e03bb02	0.12864307
162	0xbbf4dfdf	-0.0074729766
163	0xbc909d97	-0.01765327
164	0xbd66b69d	-0.056326497
165	0xbcdc0d5a	-0.026861835
166	0xbb249016	-0.0025110296
167	0x3daa57a2	0.08317496
168	0x3c45fc3b	0.012084062
169	0xbd94bab5	-0.07262174
170	0x3c0cbfcb	0.008590649
171	0x3da6be5b	0.08141776
172	0x3cacd031	0.021095367
173	0xbd05c06d	-0.032654215
174	0x3c74e6d1	0.014947609
175	0xbd8c728a	-0.06857784
176	0xbd68fd57	-0.05688223
177	0x3d903d93	0.07042994
178	0x3a93b26d	0.0011268385
179	0x3dc74c6b	0.097313724
180	0xbcf57650	-0.029963642
181	0x3dca40ce	0.09875642
182	0xbd97ac4c	-0.0740591
183	0xbda93bd0	-0.082633615
184	0x3d3ca1bd	0.046052683
185	0xbdad150b	-0.08451279
186	0xbc9e91a4	-0.019356556
187	0x3d8aca06	0.06776814
188	0xbd565006	-0.05232241
189	0x3da1fcc6	0.07909541
190	0x3d16cdb0	0.036817253
191	0x3c224dfa	0.009906286
192	0xbcd830b0	-0.026390404
193	0xbdac037a	-0.083991006
194	0x3b1379e7	0.002250308
195	0xbce817ad	-0.028331602
196	0xbd85c175	-0.065310396
197	0xbd65b768	-0.056083113
198	0x3ca3bd84	0.019987829
199	0xbcb0c3f6	-0.021577816
200	0xbd5b0551	-0.053471867
201	0x3dd85400	0.10562897
202	0xbdbd66fd	-0.09248159
203	0x3c9a006d	0.018799031
204	0x3d5e84ef	0.054325994
205	0xbdbb18a7	-0.091355614
206	0x3ddd48ec	0.10804924
207	0xbdcc1969	-0.09965784
208	0xbcf80c4e	-0.030279305
209	0xbde1b44b	-0.11020716
210	0x3d47c54c	0.04877214
211	0x3d63b9e5	0.055597205
212	0x3dc09db3	0.09405079
213	0x3d77a27e	0.0604577
214	0xbd968acd	-0.07350693
215	0x3c04cf4c	0.008106064
216	0x3da1f0f3	0.079072855
217	0xbd784dd3	-0.060621094
218	0xbc90d7a6	-0.017680954
219	0x3dbac5f5	0.091197886
220	0xbde3506f	-0.11099326
221	0xbcb8c47f	-0.022554634
222	0xbd9b027c	-0.07568833
223	0xbdbe3a10	-0.09288418
224	0xbb2e0a7b	-0.002655654
225	0xbcb2f384	-0.021844633
226	0x3d5013e2	0.05080021
227	0x3d0a8e8a	0.033827342
228	0x3cd25468	0.025675014
229	0x3cdf90cb	0.027290722
230	0x3deb4153	0.11487069
231	0x3ca118c8	0.019665137
232	0x3c5c94d5	0.013463219
233	0xbd829063	-0.06375196
234	0x3cb1b770	0.021693915
235	0x3dd4ba89	0.10387141
236	0xbd84548f	-0.06461441
237	0xbcb4416c	-0.022003852
238	0x3d4315fd	0.04762839
239	0xbcc99346	-0.024606358
240	0x3b1ec88f	0.002422843
241	0x3b9b11be	0.0047323396
242	0x3cb634ed	0.022242034
243	0x3d95a750	0.07307303
244	0xbc97d403	-0.018533712
245	0x3de6660b	0.11249932
246	0x3d1e6bb6	0.03867694
247	0x3da6a8e1	0.0813768
248	0xbc29d9ba	-0.010366851
249	0xbda6e085	-0.081482925
250	0xbda23eba	-0.079221204
251	0x3db83a6f	0.0899552
252	0xbd920c93	-0.071313046
253	0x3d4ce113	0.050019335
254	0x3d4d88bf	0.05017924
255	0xbc26fbf3	-0.010191905

lstm.bias_ih_l0 f4 [400]
0	0x3db0efd5	0.08639494
1	0x3dbdec55	0.092735924
2	0x3b212d89	0.0024593791
3	0xbd320c2e	-0.043468647
4	0xbc3e5422	-0.0116167385
5	0x3d51b767	0.051200297
6	0x3de57ef6	0.112058565
7	0x3c2d20a8	0.010566868
8	0xbd91b930	-0.071154
9	0x3d882dcb	0.06649359
10	0xbd7a37af	-0.06108826
11	0x3bec8c8e	0.007218904
12	0x3d98a2f9	0.074529596
13	0x3d80c147	0.06286865
14	0x3c05abf1	0.00815867
15	0x3e57a671	0.21059586
16	0x3e517c91	0.20457675
17	0xbcb4c1e7	-0.022065116
18	0xbd8b7e40	-0.0681119
19	0x3d3e5e52	0.04647667
20	0xbc930acd	-0.017949486
21	0xbd1b6193	-0.03793485
22	0x3e01848f	0.12648223
23	0x3dbbd58b	0.091715895
24	0x3cc1c2f7	0.023652537
25	0x3d9f9e0d	0.07793818
26	0xbc4b5e36	-0.012412598
27	0x3cddb7d3	0.027065193
28	0x3cea1eaa	0.028579075
29	0x3badcbc9	0.005303834
30	0xbc6b7387	-0.014370806
31	0x3de42840	0.111404896
32	0x3dfefc43	0.12450459
33	0x3e84b90f	0.25922439
34	0x3c8007f9	0.015628802
35	0xbd885e0a	-0.066585615
36	0xbd7610b6	-0.06007453
37	0x3dc370cb	0.09542998
38	0x3dbac99e	0.09120487
39	0xbd119751	-0.035544697
40	0xbd3c361f	-0.04595005
41	0x3dfddaec	0.12395272
42	0x3d53ee63	0.051741015
43	0xbd09231e	-0.033480756
44	0x3da47761	0.08030582
45	0x3c5d927a	0.013523692
46	0x3c7ed6ba	0.0155541245
47	0x3d9a050f	0.07520496
48	0xbcdeaacc	-0.027181052
49	0x3cad1968	0.021130279
50	0x3d91abaa	0.071128204
51	0x3e06cc33	0.13163833
52	0x3db363d2	0.087592736
53	0xbd6d9ea7	-0.05801263
54	0x3dbec49f	0.09314846
55	0x3d6af8ee	0.057366304
56	0x3d312ad0	0.04325372
57	0x3d86488b	0.06556805
58	0x3dfb08c8	0.12257534
59	0x3decc72d	0.11561427
60	0xbd96e044	-0.07366994
61	0x3ccf124c	0.02527728
62	0xba060d95	-0.0005113718
63	0x3c3429f7	0.010996333
64	0x3db79ee6	0.08965854
65	0x3d889cc7	0.06670528
66	0xbd6585a0	-0.056035638
67	0x3d90def4	0.07073775
68	0x3def6c21	0.11690546
69	0x3dbb052f	0.09131848
70	0x3dbb08f8	0.0913257
71	0x3d93d1b3	0.07217731
72	0x3d829fae	0.06378113
73	0x3e1f33a8	0.15547049
74	0xbc247909	-0.010038623
75	0x3d9d6ff7	0.07687371
76	0x3c979063	0.018501466
77	0x3c471592	0.012151139
78	0xbad824d1	-0.0016490464
79	0x3c8ee5ea	0.017443616
80	0x3e026141	0.12732412
81	0xbd54e953	-0.051980328
82	0x3d806e36	0.06271021
83	0x3e57a35f	0.21058415
84	0xbcbd2709	-0.023089902
85	0x3dd8a27e	0.10577868
86	0x3de0827c	0.10962388
87	0xbc46e710	-0.0121400505
88	0xbbb6e6cc	-0.0055817124
89	0xbd3e1765	-0.04640903
90	0xbcac387c	-0.021023028
91	0x3cbe556c	0.023234092
92	0x3c55edf5	0.013057222
93	0xbca6376e	-0.020290103
94	0x3d18a9b5	0.03727122
95	0xbda6dbff	-0.0814743
96	0xbb928903	-0.0044718995
97	0xbd2ee774	-0.0427012
98	0x3d98920f	0.074497335
99	0x3db7729b	0.08957406
100	0x3c85bcb5	0.016325334
101	0xbd1646db	-0.036688667
102	0xbc80387a	-0.01565193
103	0xbd79660a	-0.060888328
104	0xbd98085d	-0.0742347
105	0xbd1e2767	-0.038611796
106	0x3e08eaaa	0.13370767
107	0xbd5e1d07	-0.0542269
108	0xbd4eed92	-0.050519533
109	0x3cf3ffe6	0.029785108
110	0xbd3c8593	-0.046025824
111	0x3db33afc	0.08751485
112	0x3de6d180	0.11270428
113	0x3cf33e09	0.029692667
114	0xbd94d575	-0.07267276
115	0x3d8cf29b	0.06882211
116	0x3e070b8d	0.13188
117	0xbc3fb724	-0.011701379
118	0xbd60af61	-0.054854754
119	0xbd3321e0	-0.043733478
120	0x3dbcb219	0.09213657
121	0xb7f2c858	-2.894194e-05
122	0x3c58cf0d	0.0132329585
123	0xbd1d6315	-0.03842457
124	0xbda280d5	-0.07934729
125	0x3dc2ca0c	0.09511194
126	0xbce64ecc	-0.028113745
127	0xbc2ff9eb	-0.010740737
128	0x3d2fc98b	0.042916816
129	0x3d71e672	0.05905766
130	0xbd0ed1e7	-0.034868147
131	0x3cfdd40e	0.030984905
132	0xbc81b2b4	-0.015832283
133	0x3cfd11d0	0.030892283
134	0x3d8125fd	0.06306074
135	0x3ceb5f29	0.0287319
136	0xbd517a15	-0.051141817
137	0xbd87bd10	-0.06627858
138	0xbd058ff4	-0.032607988
139	0x3d703e3f	0.058653113
140	0x3c6a1d9d	0.014289287
141	0xbcd1e0de	-0.02561992
142	0xbd813269	-0.06308443
143	0xbc8f5bbe	-0.0174998
144	0x3dec87d5	0.115493454
145	0x38a8d5ec	8.05071e-05
146	0xbd740eec	-0.059584543
147	0x3d240299	0.04004154
148	0x3d03601d	0.032074083
149	0xbd541288	-0.051775485
150	0x3dd170ff	0.102266304
151	0xbd89581f	-0.06706261
152	0xbd594a8d	-0.053049613
153	0x3d50e158	0.050996155
154	0x3d6c53e8	0.057697207
155	0xbd8d09cd	-0.06886635
156	0x3dc81262	0.09769131
157	0x3dcb3137	0.09921496
158	0xbd1d84ef	-0.038456853
159	0x3dc399b1	0.09550799
160	0xbdffac53	-0.1248404
161	0xbd5c3ea6	-0.053770684
162	0x3d41e4e2	0.04733742
163	0x3d9a6567	0.07538872
164	0x3d916515	0.07099358
165	0x3d65bd03	0.05608846
166	0x3bfc3608	0.0076968707
167	0x3dc1bd87	0.094599776
168	0xbdab7b94	-0.0837318
169	0x3da1b14f	0.07895147
170	0x3d79a9d8	0.06095299
171	0xbc255f21	-0.010093481
172	0xbd9a8afd	-0.07546041
173	0xbb8771e8	-0.0041334517
174	0x3d865484	0.06559089
175	0xbdaeba50	-0.0853163
176	0x3d7fce83	0.062452804
177	0x3dbeded1	0.093198426
178	0x3d8c33ae	0.068457946
179	0x3d3d1900	0.04616642
180	0xbd92e693	-0.07172885
181	0x3dba11b2	0.09085406
182	0xbb4266cb	-0.002966332
183	0xbd8ae149	-0.06781251
184	0x3c0254f8	0.007954828
185	0xbc6d625e	-0.014488785
186	0xbbc7f221	-0.006101862
187	0x3c034db8	0.008014135
188	0x3df3b75d	0.11900208
189	0xbcafbc04	-0.021451958
190	0x3d7dbd67	0.061948206
191	0x3d9e5c30	0.07732427
192	0x3d59a2e4	0.05313386
193	0xbd6bf38b	-0.057605308
194	0x3d68e207	0.05685618
195	0xbd7a735e	-0.06114518
196	0xbdab1e0c	-0.0835534
197	0x3c5e4cdb	0.013568128
198	0x3a268b0a	0.0006353116
199	0x3dbde5f3	0.09272375
200	0xbdbb741d	-0.09153006
201	0x3dbc67c7	0.091994815
202	0x3c3a3e6f	0.011367424
203	0xbdc596b1	-0.09647883
204	0x3b64bb66	0.0034901737
205	0x3cd5ce81	0.026099445
206	0x3e126b6e	0.14298794
207	0xbb250abb	-0.0025183398
208	0xbdb7071f	-0.08936905
209	0xbc91ff78	-0.017822012
210	0xbd8661ec	-0.06561646
211	0x3d2c11d7	0.0420092
212	0x3d98ac39	0.07454724
213	0xbcb9fb47	-0.022702826
214	0xbb85be7a	-0.0040815445
215	0x3d6d5bbf	0.057948824
216	0x3d9ddd90	0.07708275
217	0xbd5a13d6	-0.053241573
218	0x3da8bef6	0.08239548
219	0x3bc5a33b	0.0060314215
220	0x3b85298c	0.0040637907
221	0x3c518808	0.01278878
222	0x3d860ffb	0.06546017
223	0x3d88d29c	0.066807956
224	0x3cdd0933	0.026981926
225	0xbc98254a	-0.018572468
226	0x3cc96b92	0.024587426
227	0xbd0f7a57	-0.03502878
228	0x3d862a9c	0.06551096
229	0xbdbc1b2a	-0.09184869
230	0xbd367f39	-0.044554923
231	0xbdb0db46	-0.08635573
232	0xbd8ee35c	-0.06976959
233	0xbdb641cc	-0.088992685
234	0x3da79faa	0.081847504
235	0x3db0d2b2	0.08633937
236	0xbd904fa1	-0.07046438
237	0xbd2a3eed	-0.041563917
238	0xbd8565eb	-0.0651358
239	0xbde07ee8	-0.109617054
240	0x3d4d9d2d	0.050198723
241	0x3d4f6fbb	0.050643664
242	0x3c1287f3	0.008943546
243	0x3d1d8190	0.03845364
244	0x3d393548	0.04521683
245	0x3d8b49cd	0.06801186
246	0x3befc6a9	0.0073173833
247	0x3d16e968	0.036843687
248	0x3d25a66d	0.04044192
249	0x3d219b13	0.03945453
250	0x3cfa815f	0.030579267
251	0xbd060c34	-0.03272648
252	0x3d9e332a	0.077246025
253	0x3d6538bf	0.05596232
254	0xbda0c87c	-0.07850739
255	0x3b67b9bb	0.0035358507

lstm.bias_hh_l0 f4 [400]
0	0xb98398e3	-0.00025100177
1	0x3dd354a0	0.10318875
2	0x3df396c1	0.118939884
3	0x3dad37a2	0.08457877
4	0x3dbc1900	0.09184456
5	0x3d484a70	0.048899114
6	0x3d2065c7	0.039159562
7	0x3d7cac85	0.061687965
8	0x3df505d1	0.11964
9	0x3ca8901b	0.020576527
10	0x3dac2cf7	0.08407014
11	0x3d2486c0	0.04016757
12	0x3d56535e	0.0523256
13	0x3d910ebb	0.07082888
14	0x3db47b21	0.088125475
15	0x3d8eb00b	0.06967171
16	0x3e261d21	0.1622205
17	0x3de8b752	0.113630906
18	0x3de1af92	0.110198155
19	0x3db9b8fc	0.09068486
20	0x3db2d24a	0.08731516
21	0x3bec0ede	0.0072039207
22	0x3d83c1b7	0.064334325
23	0xbcac0fdb	-0.021003654
24	0xbd08bef3	-0.03338523
25	0xbbd671d0	-0.006544329
26	0x3dd723e3	0.10504892
27	0x3d385a92	0.04500825
28	0xbc42b9c8	-0.011885114
29	0xbd82d647	-0.063885264
30	0xbd255a9d	-0.04036962
31	0xbd844617	-0.06458681
32	0x3e0e2a38	0.13883293
33	0x3e584264	0.21119076
34	0x3d3b5b0a	0.04574112
35	0x3ba29bf7	0.00496244
36	0xbd9a5bcf	-0.07537042
37	0x3d0d00c1	0.034424547
38	0xbca240fc	-0.019806378
39	0x3d464635	0.0484068
40	0xbc55de68	-0.013053514
41	0x3d19659d	0.03745042
42	0xbb8e4bde	-0.00434254
43	0x3d956069	0.072937794
44	0x3e05f504	0.13081747
45	0x3dc3fcdb	0.09569713
46	0x3dad1711	0.08451665
47	0xbc5acef9	-0.01335501
48	0x3ddd1415	0.10794846
49	0x3d98f26f	0.074681155
50	0xbd8527c5	-0.06501726
51	0x3e2ab621	0.16671039
52	0x3dadc810	0.084854245
53	0x3e0033f2	0.12519816
54	0xbcb9426d	-0.022614682
55	0xb813b7fd	-3.5218884e-05
56	0x3d0c90b3	0.034317683
57	0x3df39ed1	0.11895526
58	0xbd77c188	-0.0604873
59	0xbd0fcb29	-0.035105858
60	0x3d6955b6	0.056966506
61	0x3c8aa3e3	0.01692385
62	0xbd209f75	-0.03921457
63	0xbd864c80	-0.0655756
64	0x3d3bf59d	0.045888532
65	0xb9628328	-0.00021601899
66	0xbd2a8d0f	-0.04163843
67	0x3de319c8	0.11088902
68	0x3dcb7da9	0.09936077
69	0xbd11007e	-0.03540086
70	0x3d968e80	0.073513985
71	0x3d0683bf	0.032840487
72	0x3d83f9e2	0.06444146
73	0x3e320f26	0.17388591
74	0x3e2ae984	0.16690642
75	0xbd7939c6	-0.060846113
76	0x3d79f621	0.061025742
77	0xbd8c92a5	-0.06863908
78	0xbd9add06	-0.07561688
79	0xbcb4180c	-0.021984123
80	0x3dd9666c	0.106152385
81	0xbce1b95a	-0.027554203
82	0xbd784bd3	-0.060619187
83	0x3e85d680	0.26140213
84	0x3db2093e	0.08693169
85	0xbbdb2b1a	-0.0066884877
86	0x3dba297f	0.09089946
87	0x3df1f3d3	0.11814084
88	0x3d3334ba	0.043751456
89	0xbcc48965	-0.023991296
90	0x3d40db9a	0.04708443
91	0x3988a574	0.00026063214
92	0x3dc83dda	0.09777422
93	0x3cd53436	0.026025873
94	0xbd266afb	-0.04062937
95	0x3d69186e	0.056908064
96	0x3bbcfd6a	0.005767514
97	0xbd72c0ef	-0.059266027
98	0x3df70e77	0.12063306
99	0x3df7d3d8	0.12100953
100	0x3c0064a2	0.007836493
101	0xbd39e08e	-0.045380168
102	0xbd59f68e	-0.05321365
103	0xbd67c35e	-0.0565828
104	0xbcafa74c	-0.021442078
105	0x3d8d49dd	0.06898854
106	0x3d9cdaeb	0.07658943
107	0xbd9af26a	-0.07565768
108	0xbc9ff83d	-0.019527549
109	0x3c46688f	0.01210989
110	0xbdb00370	-0.08594406
111	0xbd63bc18	-0.055599302
112	0x3d380bbd	0.04493307
113	0x3db0acbc	0.086266965
114	0x3da83a1c	0.082142085
115	0xbd840955	-0.064470924
116	0xbd46a964	-0.048501387
117	0x3db4913a	0.08816762
118	0xbcca112a	-0.024666388
119	0xbd3d2cdd	-0.046185363
120	0x3d19cc8c	0.037548587
121	0x3d8cbf27	0.06872397
122	0x3db5a822	0.088699594
123	0x3ccb601d	0.024826104
124	0xbda5ac3a	-0.0808949
125	0xbd7d14c6	-0.06178739
126	0xbd4f4f3f	-0.050612684
127	0xbda3a739	-0.079908796
128	0xbceedeb6	-0.029158931
129	0x3cd169fb	0.02556323
130	0xbbf4dbf5	-0.00747251
131	0x3d3a3ee5	0.045470137
132	0x3da91071	0.08255089
133	0x3b078506	0.0020678653
134	0x3dbc6d86	0.092005774
135	0xbce57926	-0.02801187
136	0xbd45fee5	-0.04833879
137	0xbd724a6f	-0.059153017
138	0xbd147417	-0.036243524
139	0xbb27c71c	-0.0025600856
140	0x3d23633a	0.03988955
141	0x3d351b6f	0.044215616
142	0x3de40ab6	0.111348554
143	0x3cffd13f	0.031227706
144	0x3de385c9	0.11109502
145	0xbdab9dd5	-0.083797134
146	0xbd96dc5a	-0.073662475
147	0xbcdf065f	-0.027224718
148	0xbd8b5910	-0.06804097
149	0x3d2fc6ef	0.042914327
150	0xbd958ce4	-0.073022634
151	0x3c56e9df	0.013117283
152	0xbd3d227d	-0.04617547
153	0xbd86bf1e	-0.065794215
154	0xbbf46c5a	-0.0074592056
155	0x3d7b35b3	0.06133051
156	0xbb93bdd3	-0.004508713
157	0x3d97963e	0.07401703
158	0x3b04dfe0	0.0020275041
159	0xbd79599b	-0.06087647
160	0x3cc43bd6	0.023954313
161	0x3ded87b0	0.11598146
162	0x3cbde71e	0.023181494
163	0xbd7add3e	-0.06124615
164	0x3d88a1e0	0.066715
165	0xbcb63d70	-0.022246093
166	0x3d459190	0.048234522
167	0x3d75910a	0.059952773
168	0xbd11a070	-0.035553396
169	0xbbc3f47d	-0.005980073
170	0x3c7a9df5	0.015296449
171	0xbbd6da84	-0.006556811
172	0xbcc64a5d	-0.024205381
173	0xbd6287af	-0.05530518
174	0xbd44688b	-0.047951262
175	0xbd57a733	-0.052649688
176	0xbca46cd0	-0.020071417
177	0x3d0a5042	0.033767946
178	0x3d04286b	0.032265108
179	0xbcab240f	-0.020891218
180	0x3dc1b253	0.09457841
181	0x3d429d27	0.047513153
182	0xbd9ac32e	-0.07556759
183	0xbd57755f	-0.05260217
184	0xbb027502	-0.0019906168
185	0xbd17269c	-0.036902055
186	0xbce1eee6	-0.027579736
187	0x3d40c88e	0.047066264
188	0x3d1e4f5b	0.038649898
189	0xbd7f855b	-0.062383037
190	0xbda47946	-0.080309436
191	0x3d7eafa9	0.06217924
192	0x3d967d2b	0.07348093
193	0xbda31d35	-0.07964555
194	0x3bb1f4cf	0.005430795
195	0xbd3e69f3	-0.04648776
196	0xbd04d7e7	-0.032432463
197	0xbd767c57	-0.060177173
198	0xbd527b0c	-0.051386878
199	0x3dcdc891	0.10048021
200	0x3dc6a951	0.09700263
201	0x3dde8682	0.10865499
202	0x3b44f27b	0.0030051756
203	0xbc899c0d	-0.016798044
204	0x3cdd032a	0.026979048
205	0xba8bbbb5	-0.00106608
206	0x3da07384	0.07834533
207	0xbd45bd21	-0.04827607
208	0xbd4b7aeb	-0.04967777
209	0xbd4aab12	-0.04947955
210	0xbd3c32ea	-0.045946993
211	0x3c454551	0.012040452
212	0x3de23969	0.11046106
213	0x3ca5b96d	0.02023002
214	0xbdcf5045	-0.10122732
215	0xbd51f76b	-0.051261347
216	0x3d8ec833	0.06971779
217	0x3d99154a	0.07474764
218	0xbdd93bc7	-0.10607105
219	0x3b205425	0.0024464217
220	0x3c03cd01	0.008044482
221	0xbcd480fe	-0.025940415
222	0xbdd4140c	-0.10355386
223	0x3d2cfff7	0.042236295
224	0x3d96b027	0.07357817
225	0x3bf19593	0.007372567
226	0xbad2c5ef	-0.0016080717
227	0x3dd221f8	0.10260385
228	0xbda27569	-0.079325505
229	0xbd11a5ec	-0.035558626
230	0x3ca3acd7	0.019979877
231	0xbdd4feab	-0.104001366
232	0x3d0b7f77	0.034057107
233	0xbcce8076	-0.02520774
234	0xbc38c5bf	-0.011277615
235	0x3da3f98e	0.08006583
236	0x3dd733de	0.1050794
237	0xbaa6d837	-0.0012729232
238	0xbdb2485c	-0.08705208
239	0xbdc7a158	-0.09747571
240	0x3d46e381	0.04855681
241	0x3d1a87e8	0.037727267
242	0x3d646f42	0.055770166
243	0xbdc0c2ba	-0.09412141
244	0xbd562afe	-0.052287094
245	0x3d723006	0.05912783
246	0x3d35b6f1	0.04436392
247	0x3db14e30	0.08657491
248	0xbd1d7589	-0.03844217
249	0x3dbf994f	0.09355413
250	0xbce7cb7f	-0.028295277
251	0xbd2a6ff4	-0.041610673
252	0x3cbaa1a5	0.022782156
253	0x3d9b0d49	0.07570893
254	0x3d8c6208	0.068546355
255	0xbc6cc989	-0.014452347

lstm.weight_ih_l1 f4 [400, 100]
0	0xbc8a598d	-0.016888404
1	0xbcc8b847	-0.024501933
2	0xbccd49f3	-0.025059676
3	0x3bc08a4d	0.0058758617
4	0x3db256eb	0.087079845
5	0xbc02fb80	-0.007994533
6	0x3caa8f07	0.020820154
7	0x3c0b5bcd	0.008505774
8	0xbd311f6d	-0.04324286
9	0x3d8a5f88	0.067565024
10	0xbd477690	-0.048697054
11	0xbce026c0	-0.027362227
12	0xbc0b4f5a	-0.008502806
13	0x3d7f2353	0.062289547
14	0x3d408b7d	0.047008026
15	0x3dae8197	0.08520811
16	0x3d3f9b5a	0.046779014
17	0x3d1fbe40	0.038999796
18	0x3d12b1fd	0.035814274
19	0xbc98288d	-0.018574024
20	0xbda0ebb5	-0.078574575
21	0xbc8f8560	-0.017519653
22	0xbd5bd700	-0.053671837
23	0x3dc48d13	0.0959722
24	0x3d20a76a	0.03922216
25	0x3d6b1883	0.057396423
26	0xbccbf9f3	-0.024899459
27	0xbdab46ed	-0.083631374
28	0x3d446133	0.04794426
29	0x3d4760ea	0.04867641
30	0x3d37d530	0.044881046
31	0xbcae8e40	-0.021308064
32	0xbdc3c3bf	-0.0955882
33	0x3d095510	0.033528388
34	0xbd393273	-0.045214128
35	0x3b86a5e7	0.0041091326
36	0xbdc9a770	-0.09846389
37	0x3d7d4223	0.06183065
38	0x3d862d63	0.065516256
39	0xbdcbd6a8	-0.09953052
40	0xbdb4223b	-0.087955914
41	0x3db0d797	0.086348705
42	0xbd0e2140	-0.03469968
43	0x3dbd339f	0.092383616
44	0x3d25750a	0.04039482
45	0xbdb37708	-0.08762938
46	0x3d9e862b	0.07740434
47	0x3db8fa87	0.09032159
48	0x3dac7180	0.08420086
49	0xbbcd691a	-0.0062686326
50	0x3d127143	0.035752546
51	0x3d1fd4c3	0.039021265
52	0x3d9178a7	0.07103091
53	0x3d5afef0	0.053465784
54	0x3d2fd243	0.04292513
55	0x3d22d0f3	0.03975005
56	0x3be1061a	0.0068671824
57	0xbdb904ba	-0.09034105
58	0xbd6f6a20	-0.058450818
59	0x3d9b3677	0.07578748
60	0x3dc13187	0.09433275
61	0xbd6f771d	-0.058463205
62	0x3c81abcd	0.015828991
63	0xbdbe00fb	-0.09277531
64	0x3d3c1c23	0.04592527
65	0x3d75d337	0.060015883
66	0x3d27ba07	0.040948894
67	0x3d85ff60	0.065428495
68	0x3d0b10b0	0.03395146
69	0x3dc28aaa	0.09499104
70	0x3dc7a0bf	0.09747457
71	0xbbdbb667	-0.0067050937
72	0xbda0d7ef	-0.07853686
73	0xbca4dc60	-0.020124614
74	0xbd670a37	-0.056406226
75	0xbd34335a	-0.043994285
76	0x3c1b0b33	0.009463119
77	0x3d92e348	0.07172257
78	0xbd48d020	-0.04902661
79	0x3d26f9aa	0.040765442
80	0x3db5d6b5	0.08878843
81	0xbd821a0f	-0.063526265
82	0xbc6c5780	-0.0144251585
83	0x3dc252e8	0.09488469
84	0xbcf98e47	-0.030463351
85	0xbdb78702	-0.089612976
86	0xbdb2ed4d	-0.08736668
87	0x3c8ce3a0	0.017198384
88	0xbd80ec4a	-0.062950686
89	0x3db7f26a	0.08981784
90	0x3d04f277	0.032457795
91	0x3d5bd693	0.05367143
92	0xbc9ab393	-0.018884456
93	0xbdbc018a	-0.09179981
94	0xbd1b6627	-0.037939217
95	0x3d6d1fb0	0.057891548
96	0xbdcbf953	-0.09959664
97	0x3da32002	0.079650894
98	0x3cc80940	0.024418473
99	0xbd88cc27	-0.06679564
100	0x3d0f42f0	0.034975946
101	0xbd0bd550	-0.034138978
102	0x3d4835e0	0.048879504
103	0xbdae57d5	-0.085128464
104	0xbc2a2ce7	-0.010386682
105	0xbd71d12a	-0.059037365
106	0x3d01a64a	0.031652726
107	0x3cd8ba27	0.026455952
108	0xbd3877ca	-0.045036115
109	0xbd2dc64a	-0.04242543
110	0xbcf48987	-0.029850734
111	0x3d41ff37	0.047362532
112	0x3dbb676f	0.09150588
113	0xbda5f622	-0.08103587
114	0xba8f919a	-0.0010953427
115	0xbdc75368	-0.09732705
116	0xba79e400	-0.0009532571
117	0x3b6b1100	0.0035868287
118	0xbcb5d6cd	-0.022197152
119	0xbc912880	-0.017719507
120	0x3c42feb3	0.011901545
121	0xba78299a	-0.00094666483
122	0x3dc0c445	0.094124354
123	0xbd283bc0	-0.041072607
124	0xbd98ef80	-0.07467556
125	0x3b7d4133	0.0038643598
126	0xbca23747	-0.019801749
127	0xbd5f2e1d	-0.054487336
128	0xbd1ab07a	-0.037765957
129	0x3db28007	0.087158255
130	0x3c68135a	0.01416477
131	0x3d29ef70	0.04148811
132	0x3ce41d93	0.027846133
133	0xbdad7142	-0.08468868
134	0xbbc7d333	-0.006098175
135	0x3d29a17d	0.041413773
136	0xbd9c952a	-0.07645638
137	0x3d3cd543	0.04610182
138	0x3ca7902d	0.02045449
139	0x3cbe194d	0.023205424
140	0xbdc8b785	-0.098006286
141	0x3d975b7b	0.073904954
142	0xbc987780	-0.01861167
143	0x3dabba72	0.08385171
144	0x3d0aca17	0.033884134
145	0x3d73ff2d	0.059569526
146	0xbc451427	-0.0120287305
147	0xbd4defb0	-0.050277412
148	0xbbfa5c67	-0.0076404097
149	0xbc0b5cb3	-0.008505988
150	0xbdb30ba7	-0.08742457
151	0xbda62f3b	-0.08114477
152	0x3d3e9840	0.046531916
153	0xbaa4a400	-0.0012561083
154	0x3da0d4c0	0.07853079
155	0xbdbc0cb0	-0.091821074
156	0x3cacc4da	0.02108996
157	0x3c526f33	0.012843895
158	0xbdcc07b0	-0.09962404
159	0x3d82caab	0.06386312
160	0x3db46fb5	0.08810369
161	0x3ce4ded3	0.027938282
162	0x3dbdf530	0.092752814
163	0x3be15be7	0.0068774107
164	0x3cc336a7	0.023829771
165	0xbcf606d3	-0.03003255
166	0x3c9a9e53	0.018874323
167	0xbdbc5183	-0.091952346
168	0x3a291d9a	0.00064512494
169	0x3cf2e273	0.029648995
170	0xbc968333	-0.018373108
171	0x3dba8d0a	0.09108932
172	0xbdbe1837	-0.09281962
173	0xbd152573	-0.036412667
174	0xbc2a2373	-0.010384428
175	0x3ce41533	0.02784214
176	0x3b708400	0.0036699772
177	0x3dca1e13	0.098690175
178	0x3cb56587	0.022143139
179	0x3d7e4503	0.062077533
180	0x3d2cbe93	0.042173933
181	0x3db7e28a	0.08978756
182	0x3ca7cd80	0.020483732
183	0xbd258703	-0.04041196
184	0xbd1b8c03	-0.037975322
185	0x3d76f0ea	0.060288347
186	0xbd96314d	-0.07333622
187	0xbd5fc7ad	-0.054633785
188	0xbd9ebc0a	-0.07750709
189	0x3daa846d	0.083260395
190	0x3ccf7a33	0.025326824
191	0xbd0b837a	-0.034060933
192	0xbd5db92d	-0.054131676
193	0xbdb347ba	-0.08753915
194	0xbc368f67	-0.011142588
195	0x3d953dfb	0.072872125
196	0x3d55ad4d	0.052167226
197	0x3db87fc0	0.090087414
198	0x3cf9791a	0.030453254
199	0x3dad0df7	0.08449929
200	0x3dc86df0	0.09786594
201	0xbdb80358	-0.08985013
202	0xbd0bd4e7	-0.034138586
203	0x3d71d747	0.059043195
204	0x3dc94358	0.09827298
205	0x3c90fec0	0.0176996
206	0xbb9b9d33	-0.004748964
207	0x3bf76100	0.007549405
208	0xbd423c90	-0.04742104
209	0x3d0b4b9d	0.034007657
210	0x3db07072	0.08615197
211	0xbc9eda4d	-0.019391203
212	0xbd5eb7d3	-0.054374527
213	0xbdcc7cef	-0.09984767
214	0x3cc8a5ba	0.024493087
215	0x3dca6fad	0.09884582
216	0x3cb0478d	0.021518493
217	0xbdbc399a	-0.09190674
218	0xbca712a0	-0.020394623
219	0xbd870f23	-0.06594684
220	0x3dbae653	0.09125962
221	0x3c6c74b3	0.01443212
222	0x3d48c2bd	0.049013842
223	0xbda10fa7	-0.078643136
224	0x3da2e2b8	0.079533994
225	0x3d83041d	0.06397269
226	0x3d1b19a3	0.037866246
227	0xbd8c1db8	-0.06841606
228	0x3da35c18	0.0797655
229	0x3d21f3ca	0.039539136
230	0xbd022fda	-0.031783916
231	0x3d882222	0.06647135
232	0xbc2d19f3	-0.010565269
233	0xbc885fa0	-0.01664716
234	0xbd2f4ad0	-0.042795956
235	0x3da48695	0.08033482
236	0x3d38d9ed	0.045129705
237	0xbda86258	-0.082218826
238	0xbdb7ad8b	-0.089686476
239	0x3c1340cd	0.008987618
240	0x3d9ad93b	0.07560965
241	0x3c2070cd	0.009792519
242	0x3d8a5feb	0.06756576
243	0x3cbe84ba	0.023256648
244	0x3bbd6a9a	0.00578053
245	0xbdb948b7	-0.090470724
246	0xbcd73b33	-0.026273346
247	0x3bd69a9a	0.0065491917
248	0x3c94da0d	0.018170381
249	0xbd9ba63f	-0.07600068
250	0xbdc9176d	-0.09818921
251	0x3dc70c78	0.09719175
252	0xbd82e5fb	-0.063915215
253	0xbd9a4cc3	-0.075341724
254	0xbc5f26cd	-0.013620091
255	0x3d9b0b25	0.07570485

lstm.weight_hh_l1 f4 [400, 100]
0	0xbcf4d8e7	-0.029888583
1	0xbc7ffd33	-0.015624332
2	0x3d547f07	0.051878955
3	0xbc414173	-0.0117953895
4	0x3b550fcd	0.0032510639
5	0xbb021100	-0.0019846559
6	0xbdc97f63	-0.0983875
7	0x3dbeeb32	0.09322204
8	0x3cfb440d	0.030672098
9	0x3ca15760	0.019694984
10	0xbcefeea7	-0.029288603
11	0xbdc8c12f	-0.09802472
12	0xbd7eb63d	-0.062185515
13	0xbd95b25a	-0.073094085
14	0x3d905928	0.07048255
15	0xbd3f21bd	-0.046663035
16	0x3db6c39b	0.089240275
17	0x3daa87ea	0.08326705
18	0xbcb6f2a0	-0.02233249
19	0x3d8c5cf5	0.06853668
20	0x3d1d13d0	0.038348973
21	0xbd837a97	-0.064198665
22	0xbc7b8780	-0.01535213
23	0x3da0bf42	0.078489795
24	0x3d91f363	0.071265005
25	0xbd278c7a	-0.040905453
26	0x3d17cfad	0.03706329
27	0x3d95ed68	0.07320672
28	0xbb760e00	-0.0037544966
29	0xbd873b47	-0.06603103
30	0xbd4a4a17	-0.049387064
31	0x3d2f143a	0.0427439
32	0x3db484ca	0.0881439
33	0x3d5cf72a	0.05394665
34	0x3aac9533	0.0013167023
35	0x3d210673	0.03931279
36	0x3da44322	0.08020617
37	0xbd636e4a	-0.0555251
38	0x3d0389fa	0.032114007
39	0x3dc770b5	0.09738294
40	0xbcae9d2d	-0.021315182
41	0xbd6c56a0	-0.0576998
42	0xbd28c340	-0.04120183
43	0xbd03f56d	-0.03221648
44	0xbdaae49d	-0.08344386
45	0x3c9dbd7a	0.019255389
46	0xbd5f587a	-0.054527737
47	0xbd2deafd	-0.04246043
48	0xbc8eb3c7	-0.017419709
49	0xbd74f1dd	-0.05980097
50	0x3c9e9b33	0.019361114
51	0xbc41f55a	-0.0118382815
52	0x3d987340	0.07443857
53	0x3db0907f	0.086213104
54	0x3dadb167	0.084811024
55	0xbd5e2097	-0.0542303
56	0x3d3df3d7	0.046375122
57	0xbc0c1b1a	-0.008551383
58	0x3d75ab57	0.059977856
59	0xbcdeafcd	-0.027183438
60	0x3dbb51a3	0.0914643
61	0x3dc4fffa	0.09619136
62	0xbd0d8e00	-0.03455925
63	0xbc920a7a	-0.017827261
64	0xbd94535a	-0.072424605
65	0xbdb0b0dd	-0.08627484
66	0xbd5d0b30	-0.053965747
67	0x3d90859a	0.070567325
68	0x3b026f67	0.0019902827
69	0xbc58dd00	-0.013236284
70	0x3cb9d380	0.022683859
71	0xbc081273	-0.00830518
72	0x3cfe8580	0.031069517
73	0xbd05fcd0	-0.032711804
74	0x3d9e2887	0.07722574
75	0xbc6da9b3	-0.0145057915
76	0x3ce621f3	0.02809236
77	0x3d7981aa	0.060914673
78	0xbd17cc70	-0.0370602
79	0x3ba9ff33	0.005187893
80	0xbdc28710	-0.094984174
81	0x3d49f790	0.04930836
82	0xbd2279ea	-0.039667048
83	0x3da33157	0.07968395
84	0x3dcbf965	0.099596776
85	0xbcf5001a	-0.029907275
86	0xbd8d81ab	-0.06909498
87	0x3d2bdb37	0.041957106
88	0x3cb6704d	0.022270346
89	0x3dbc2b8a	0.09187992
90	0xbda8dbcb	-0.08245047
91	0xbdb3e2bf	-0.08783483
92	0x3d9e1563	0.07718923
93	0x3d0d204a	0.03445462
94	0xbbe825e7	-0.0070845964
95	0xbd7656f3	-0.060141515
96	0x3c5f65b3	0.013635087
97	0xbdb0eb9b	-0.08638688
98	0x3db6a275	0.08917705
99	0x3d14ddb7	0.036344256
100	0xbd784fa7	-0.060622837
101	0x3da2806f	0.07934653
102	0x3d47c38a	0.048770465
103	0x3d075d0a	0.033047713
104	0xbd08b620	-0.033376813
105	0xbda69b8a	-0.081351355
106	0xbdab87b3	-0.08375492
107	0x3da5ed87	0.08101945
108	0x3dbfd19f	0.09366154
109	0x3c8a3b87	0.016874088
110	0x3c97a453	0.018510973
111	0xbc0a2e33	-0.008433866
112	0xbd8a331f	-0.06748032
113	0x3d61f163	0.055161845
114	0xbc5d21b3	-0.013496804
115	0x3d9b33bd	0.07578228
116	0x3d628530	0.0553028
117	0xbd0c000d	-0.034179736
118	0x3d65db33	0.056117248
119	0x3cbc0527	0.022951676
120	0x3da589da	0.08082934
121	0x3ca5d227	0.02024181
122	0x3cf956e0	0.030436933
123	0x3ccc6827	0.024952007
124	0x3c0be800	0.0085392
125	0x3dbc09ba	0.09181543
126	0x3dca204d	0.09869442
127	0xbdb3f36f	-0.08786666
128	0x3c899b40	0.016797662
129	0xbcdcdec0	-0.026961684
130	0x3c346af3	0.011011827
131	0x3ab32933	0.0013668895
132	0x3cff456d	0.031161034
133	0x3d98cfc7	0.074615054
134	0xbd860f03	-0.06545832
135	0xbc036e1a	-0.008021856
136	0x3dc694b7	0.09696334
137	0xbca68373	-0.020326352
138	0xbc065833	-0.008199739
139	0xbc50aca7	-0.012736476
140	0x3d04cacd	0.03241997
141	0x3c001700	0.007817984
142	0x3a4e78cd	0.0007876277
143	0xbd32f1f7	-0.043687787
144	0x3d855155	0.065096535
145	0xbc8615b3	-0.016367769
146	0xbd8f497d	-0.06996439
147	0xbdcca22a	-0.09991868
148	0xbcaaf3e0	-0.020868242
149	0xbda700c5	-0.08154444
150	0x3b6bce33	0.0035981059
151	0xbc777bda	-0.015105212
152	0x3a59659a	0.0008293033
153	0x3d91bdc7	0.07116275
154	0x3d87d6bd	0.06632755
155	0x3dbd9ccb	0.092584215
156	0x3c91795a	0.01775806
157	0xbca60427	-0.020265652
158	0xbd93e7fa	-0.072219804
159	0xbdb09708	-0.08622557
160	0xbd849632	-0.0647396
161	0xbc888aa7	-0.016667677
162	0x3dbe1daa	0.09283002
163	0x3b81e31a	0.00396384
164	0xbce048d3	-0.027378475
165	0x3dc4892b	0.09596475
166	0x3d32a387	0.043612983
167	0x3dc6520d	0.09683619
168	0x3d4af4aa	0.049549736
169	0xbdb55a75	-0.08855144
170	0x3da628ad	0.08113227
171	0x3d5f799d	0.05455934
172	0xbd8dfb98	-0.06932753
173	0x3da6458f	0.08118736
174	0x3db5a757	0.08869808
175	0xbd7643b3	-0.060123157
176	0x3ca7fd00	0.020506382
177	0xbc98083a	-0.01855861
178	0x3c15f133	0.009151745
179	0xbc954be7	-0.01822467
180	0x3ce6b913	0.028164422
181	0x3ce07a67	0.027402116
182	0x3d5850ca	0.05281142
183	0xbc0fcb0d	-0.008776438
184	0xbc173640	-0.009229243
185	0xbbe92933	-0.007115507
186	0x3da3ee33	0.08004417
187	0x3cb001ba	0.021485198
188	0xbd824798	-0.06361312
189	0xbdc403da	-0.09571047
190	0x3d4dd137	0.05024835
191	0xbc48c400	-0.012253761
192	0x3bdd8500	0.0067602396
193	0xbd33c5a7	-0.043889668
194	0x3d110a5a	0.035410263
195	0xbc0bcda7	-0.008532918
196	0xbc6c50cd	-0.014423561
197	0x3dcb506b	0.09927448
198	0xb919b99a	-0.00014660359
199	0x3dc13acb	0.09435042
200	0x3d2c5a2a	0.042078175
201	0x3d70dc23	0.05880369
202	0x3d48394d	0.04888277
203	0xbb6c0f9a	-0.0036020041
204	0x3bdeca9a	0.0067990543
205	0x3d8e0357	0.06934231
206	0xbdc1a8ef	-0.0945605
207	0x3c7e9600	0.0155386925
208	0xbc91afe0	-0.017784059
209	0x3d9fa303	0.07794764
210	0x3d3d3667	0.04619446
211	0xbda67585	-0.08127884
212	0x3d9d18cd	0.07670746
213	0xbd098bb0	-0.033580482
214	0x3d171bda	0.036891796
215	0xbdba58b8	-0.09098953
216	0x3d7ac527	0.061223175
217	0xbda4d4c5	-0.08048395
218	0x3dc171fd	0.0944557
219	0xbd9ef9aa	-0.077624634
220	0x3d1f4417	0.038883295
221	0x3d0b4427	0.034000542
222	0xbb84009a	-0.004028392
223	0xbd44e31d	-0.048068155
224	0xbcbef780	-0.023311377
225	0xbda62f30	-0.08114469
226	0xbd265d6a	-0.04061643
227	0x3cc6a71a	0.024249602
228	0x3dabd18b	0.083895765
229	0x3d4457c0	0.047935247
230	0xbd6007ad	-0.05469482
231	0xbdb855ea	-0.09000762
232	0xbc3a0667	-0.0113540655
233	0xbce4c9d3	-0.027928269
234	0x3db3fd33	0.08788528
235	0xbceec327	-0.02914579
236	0xbdb5f5f3	-0.08884802
237	0x3d8ee28f	0.06976806
238	0x3ab02a67	0.0013440371
239	0x3d9e7d3b	0.077387296
240	0xbd81fee7	-0.06347447
241	0xbda57028	-0.08078033
242	0x3d6f0f30	0.058364093
243	0x3d400d47	0.046887662
244	0x3d8c3bca	0.06847341
245	0xbc44d09a	-0.012012625
246	0x3b271dcd	0.002549994
247	0xbd41f7e3	-0.047355544
248	0xbd5971fa	-0.053087212
249	0x3d94ca20	0.07265115
250	0xbda8bde3	-0.08239343
251	0x3cd01a73	0.025403237
252	0xbc758eda	-0.014987672
253	0xbc7b1640	-0.015325129
254	0x3d4fa957	0.050698604
255	0x38990667	7.296801e-05

lstm.bias_ih_l1 f4 [400]
0	0x3c7f6e9a	0.015590334
1	0x3dba3fda	0.0909421
2	0x3d8247f8	0.06361383
3	0xbdacaccb	-0.08431395
4	0x3d676c80	0.056499958
5	0x3d6b25da	0.057409145
6	0x3d9a57c0	0.07536268
7	0x3d79eda7	0.06101766
8	0x3d54eaa7	0.051981594
9	0xbdae4cb0	-0.08510721
10	0xbdb1280a	-0.08650215
11	0xbd7501e7	-0.059816267
12	0x3d248a0d	0.040170718
13	0xbcc20dcd	-0.023688221
14	0x3ca19bf3	0.019727683
15	0xbcfd4720	-0.030917704
16	0x3c3657c0	0.01112932
17	0x3c4f9240	0.012669146
18	0x3daa31c5	0.08310274
19	0xbd01ad8a	-0.03165964
20	0x3cbc118d	0.022957588
21	0x3d13beda	0.036070682
22	0xbc0c4b0d	-0.008562815
23	0x3dc196ad	0.09452567
24	0x3d9f0495	0.07764546
25	0x3dbfaee3	0.09359529
26	0x3bcb74cd	0.006208992
27	0xbcc92953	-0.024555838
28	0x3db0f9d5	0.08641402
29	0xbdc85c82	-0.097832695
30	0xbda32b20	-0.0796721
31	0xbc42aeb3	-0.011882472
32	0xbdbfff4f	-0.09374868
33	0x37ffcccd	3.0493737e-05
34	0xbd3e5753	-0.046469998
35	0xbd83e74f	-0.06440603
36	0x3d61f157	0.0551618
37	0xbd2eac3a	-0.042644717
38	0xbd5d0883	-0.053963196
39	0x3cffce0d	0.031226182
40	0xbc94fd4d	-0.01818719
41	0xbd0a72da	-0.033800937
42	0x3d7fe200	0.06247139
43	0x3dae9040	0.08523607
44	0x3cf6c16d	0.03012153
45	0x3dc2fa98	0.09520453
46	0xbdbd9327	-0.09256583
47	0x3c1e6fe7	0.009670234
48	0xbd5fec4a	-0.054668702
49	0x3d8fbc2d	0.070183136
50	0x3d326173	0.043549966
51	0x3a38f99a	0.00070562365
52	0x3d54acba	0.051922537
53	0x3d6f9c4d	0.05849867
54	0xbb594867	-0.0033154727
55	0xbd98642a	-0.0744098
56	0x3cd137da	0.025539327
57	0x3d44d96d	0.048058916
58	0x3cabaffa	0.020957936
59	0xbd3a9017	-0.04554757
60	0xbcade05a	-0.021225143
61	0x3da2a267	0.07941132
62	0xbdcbe3f7	-0.0995559
63	0x3d386cf7	0.045025792
64	0xbc53630d	-0.0129020335
65	0xbd4a636d	-0.049411226
66	0x3d3c3cc0	0.045956373
67	0x3b35e233	0.0027753233
68	0x3d12efca	0.035873212
69	0x3bd412b3	0.0064719557
70	0xbdb82055	-0.08990542
71	0xbca16e0d	-0.019705797
72	0xbc1930da	-0.009350026
73	0x3d212863	0.039345156
74	0xbc7a565a	-0.015279377
75	0x3d8a9be7	0.06768017
76	0xbcb35e80	-0.021895647
77	0x3d7be123	0.061494004
78	0x3cec5c0d	0.028852487
79	0xbd5881ca	-0.05285815
80	0x3a84fd9a	0.001014638
81	0x3cf08f4d	0.029365206
82	0xbd2758d0	-0.040856183
83	0x3d290fd0	0.041274846
84	0x3d12f20a	0.035875358
85	0xbbd576e7	-0.0065144184
86	0xbda9cb10	-0.08290684
87	0x387d6667	6.041527e-05
88	0x3d3f117d	0.046647537
89	0xbcd7bf4d	-0.026336337
90	0xbdafbfb0	-0.08581483
91	0x3d82c950	0.063860536
92	0xbd275db3	-0.040860843
93	0x3d7a393d	0.061089743
94	0xbd875f9f	-0.06610035
95	0x3dc726c0	0.09724188
96	0xbda7b567	-0.081888966
97	0xbd9f95a5	-0.07792214
98	0x3db72af0	0.089437366
99	0x3d2e0903	0.042489063
100	0x3da4a505	0.080392875
101	0xbdc6ef7a	-0.09713645
102	0x3db167d3	0.08662381
103	0xbda2817a	-0.07934852
104	0x3db54543	0.08851101
105	0x3db0d150	0.08633673
106	0x3d4988bd	0.04920267
107	0xbbf16280	-0.0073664784
108	0xbcf8d58d	-0.030375266
109	0x3dac5d08	0.08416182
110	0x3da42bc5	0.08016161
111	0x3dad291d	0.08455107
112	0x3d8fb7d0	0.07017481
113	0x3c9d98da	0.019237924
114	0xbdcc7500	-0.099832535
115	0xbd539ef0	-0.051665246
116	0xbd91380d	-0.07090769
117	0x3d3091ad	0.043107677
118	0x3dcc41a3	0.09973457
119	0x3d908f47	0.07058578
120	0x3d8114b5	0.06302778
121	0x3db2262d	0.08698688
122	0xbdb79450	-0.08963835
123	0xbd696ca0	-0.05698836
124	0x3b7ca09a	0.0038547874
125	0xbb916fcd	-0.0044383765
126	0x3d7135c0	0.05888915
127	0x3d46e09d	0.04855405
128	0xbd8200b5	-0.06347791
129	0xbc13ebda	-0.009028399
130	0xbd27cfed	-0.040969778
131	0x3db98fc8	0.09060627
132	0xbc70e233	-0.014702368
133	0xbd10d6c3	-0.035361063
134	0x3d116057	0.035492267
135	0x3d0f3b2a	0.034968533
136	0xbd00c21a	-0.03143511
137	0xbcadb6e7	-0.021205379
138	0xbd20adf7	-0.039228406
139	0x3cff0193	0.03112868
140	0x3da5973a	0.08085485
141	0xbc669cf3	-0.014075506
142	0x3db347ca	0.08753927
143	0x3ac70c00	0.0015186071
144	0xbcd7a960	-0.026325881
145	0xbd2ade10	-0.04171568
146	0xba92c39a	-0.001119721
147	0xbda416b2	-0.08012141
148	0xbdae0a00	-0.08498001
149	0x3d43edb3	0.04783411
150	0x3d38b437	0.04509374
151	0xbb21a200	-0.002466321
152	0xbdc64082	-0.09680273
153	0x3d4be30d	0.04977708
154	0x3d8323f7	0.06403344
155	0x3d533700	0.051566124
156	0xbdc23208	-0.09482199
157	0x3d6151ad	0.055009533
158	0x3d8ff45f	0.07029032
159	0xbc9a62fa	-0.018846024
160	0xbdcc9018	-0.09988421
161	0x3da2d403	0.07950594
162	0x3dc4825f	0.09595179
163	0x3d623690	0.055227816
164	0x3d43073a	0.047614314
165	0x3d826de5	0.06368617
166	0xbdac4e1d	-0.084133364
167	0xbdc377b0	-0.09544313
168	0x3c9b0773	0.01892445
169	0x3b9aa4b3	0.0047193407
170	0x3dc23418	0.09482592
171	0x3d637257	0.055528965
172	0xbd2f8197	-0.042848196
173	0x3d5557a3	0.05208553
174	0xbc3cc733	-0.011522102
175	0x3d15bdaa	0.03655783
176	0x3d9137a2	0.07090689
177	0x3dbe70a5	0.09298829
178	0xbc6e4067	-0.014541722
179	0xbdba7663	-0.09104612
180	0x3c8caacd	0.017171288
181	0x3daacbcf	0.08339655
182	0xbd075da0	-0.033048272
183	0xbd92a5df	-0.07160544
184	0x3d2fb7ba	0.042899825
185	0xba8c8267	-0.0010720015
186	0xbdaff743	-0.08592083
187	0xbbbe0133	-0.005798483
188	0x3da4e417	0.08051317
189	0x3d9fca4a	0.078022555
190	0x3d83877b	0.06422325
191	0xbd526d03	-0.051373493
192	0x3dbb69fd	0.09151075
193	0xbdb48b48	-0.08815628
194	0x3d857047	0.06515556
195	0xbdc3712b	-0.095430695
196	0x3d93a40f	0.07209026
197	0xbb6acd9a	-0.0035828114
198	0x3dbdc88f	0.09266769
199	0xbd91815d	-0.07104752
200	0x3da253e7	0.07926159
201	0x3d15f273	0.03660817
202	0x3d3bcdc3	0.045850527
203	0x3d951968	0.072802365
204	0x3db31558	0.08744305
205	0xbd864258	-0.06555623
206	0xbc04b827	-0.008100546
207	0x3d7ea9a7	0.06217351
208	0x3d289613	0.041158747
209	0x3d9500f3	0.07275572
210	0xbb3902cd	-0.002823043
211	0x3dbf65d0	0.09345591
212	0x3dc8f580	0.098124504
213	0xb8cb9333	-9.707212e-05
214	0xbda94430	-0.08264959
215	0xbcb1efe7	-0.02172084
216	0x3dc03c38	0.09386486
217	0x3d935ff3	0.07196035
218	0xbd8eceb5	-0.0697302
219	0x3da27e3a	0.07934232
220	0x3d9ea623	0.07746532
221	0x3d5e1233	0.054216575
222	0xbd8cf808	-0.06883246
223	0xbd654b57	-0.055980053
224	0xbd6f156a	-0.05837003
225	0xbd8a6538	-0.06757587
226	0xbd91cca3	-0.071191095
227	0xbd371aa7	-0.044703152
228	0x3cf2449a	0.029573727
229	0xbcdd4347	-0.02700962
230	0xbccddc4d	-0.025129462
231	0x3cc89793	0.024486339
232	0x3d074550	0.033025086
233	0x3d45f3da	0.048328258
234	0x3da5f5df	0.08103537
235	0x3c51165a	0.012761677
236	0xbd29d93d	-0.04146694
237	0x3cbb62a7	0.02287419
238	0x3b7004cd	0.0036623955
239	0x3dc9e495	0.09858052
240	0xbd6e81f3	-0.058229398
241	0x3dc7a4ed	0.09748254
242	0x3d6dbc4a	0.058040895
243	0x3d994d63	0.074854635
244	0xbd90f735	-0.07078401
245	0xbd1664c7	-0.036717203
246	0x3d9bfd57	0.0761668
247	0xbd20372d	-0.03911512
248	0x3d5f6cd0	0.05454713
249	0x3d08b2b3	0.033373546
250	0xbd280a57	-0.041025486
251	0xbd98140f	-0.07425701
252	0x3cb3d860	0.021953762
253	0x3bde57b3	0.006785357
254	0x3cc69acd	0.024243737
255	0xbcc1bb87	-0.02364899
