Time-Series---Forecasting/Results/local/model_hybrid.pth (torch, 37047 bytes, 13 tensors)

lstm.weight_ih_l0 f4 [80, 1]
0	0x3e834c41	0.25644115
1	0x3e75b435	0.23994525
2	0x3dca6648	0.0988279
3	0xbde78279	-0.113041826
4	0x3da74d23	0.081690095
5	0x3f12f8da	0.5741097
6	0xbdcfe6a3	-0.10151412
7	0xbe03f600	-0.1288681
8	0x3d93513d	0.07193229
9	0x3c7acf76	0.015308252
10	0xbdc27ab9	-0.09496064
11	0xbec58a3e	-0.38582033
12	0x3de268ef	0.11055171
13	0x3e02fe9b	0.12792437
14	0xbd192594	-0.037389353
15	0xbb7a98bf	-0.0038238016
16	0xbe722d25	-0.23650034
17	0x3e343c48	0.1760112
18	0xbddd77c6	-0.108138606
19	0x3d8693a8	0.06571132
20	0xbd822d63	-0.06356313
21	0x3e71c84e	0.23611566
22	0x3db357bb	0.08756968
23	0xbeb60cf1	-0.35556749
24	0xbda9121b	-0.082554065
25	0x3f04d91f	0.518938
26	0x3e8add59	0.27122
27	0x3e25b8c0	0.16183758
28	0x3e8e2e17	0.2776954
29	0x3e8e186d	0.2775301
30	0x3ea0fea5	0.31444278
31	0xbe6ea926	-0.23306713
32	0x3e6c5295	0.23078378
33	0x3b184e12	0.0023239893
34	0xbd793cb1	-0.060848895
35	0xbdf7f2ea	-0.12106879
36	0xbeb123ba	-0.3459757
37	0x3e8d731d	0.27626887
38	0x3e5936ea	0.21212354
39	0x3e7f1ca6	0.24913272
40	0xbea9dfb5	-0.33178487
41	0xbe181246	-0.14850721
42	0xbef851a0	-0.48499775
43	0xbf3ea8ee	-0.74476516
44	0x3dfb3675	0.12266246
45	0x3d81c34e	0.063360795
46	0xbed8cd14	-0.42343962
47	0xbed483d8	-0.4150684
48	0xbe866858	-0.26251483
49	0xbd06dc6e	-0.032925062
50	0xbcd2cfeb	-0.025733909
51	0x3ebc7213	0.36805782
52	0x3e17faf2	0.14841822
53	0x3e7271ec	0.2367627
54	0xbea6b2aa	-0.32558185
55	0x3c5b41d2	0.013382392
56	0xbeeafb22	-0.45894724
57	0xbd8396ff	-0.064252846
58	0x3e169ec9	0.14709009
59	0xbe2c0efd	-0.16802593
60	0xbcf67c19	-0.030088471
61	0x3ebdddc5	0.3708326
62	0xbd6d0594	-0.057866648
63	0xbf0ec661	-0.5577145
64	0x3e7484cf	0.23878787
65	0x3f37d05c	0.71802306
66	0x3d0db29d	0.034594167
67	0x3eaf7dbf	0.34275624
68	0x3da2f1c0	0.079562664
69	0x3f0c14ac	0.5471904
70	0x3df6f137	0.12057727
71	0xbf38649b	-0.7202851
72	0x3e2b5d6b	0.16734855
73	0x3cad4dd7	0.021155281
74	0xbd0e17ad	-0.034690548
75	0xbea491d1	-0.321425
76	0xbf3ab74d	-0.72935945
77	0x3e89861d	0.26860133
78	0x3df2ba99	0.11851997
79	0x3ee9975c	0.4562329

lstm.weight_hh_l0 f4 [80, 20]
0	0x3ddf8862	0.10914685
1	0x3d8e0f0b	0.06936463
2	0xbdc92528	-0.0982154
3	0x3dc82303	0.09772303
4	0x3e9e5663	0.30925283
5	0x3e153b0e	0.14573309
6	0x3dd3c845	0.10340933
7	0xbe7db4a3	-0.24775939
8	0xbea62c30	-0.32455587
9	0x3c676149	0.014122316
10	0xbe921a9b	-0.28535923
11	0xbe10e7df	-0.14150952
12	0x3d7dd903	0.061974537
13	0xbe13f6ac	-0.14449567
14	0xbcb8093b	-0.022465339
15	0xbe805258	-0.25062823
16	0x3ea9c1d0	0.3315568
17	0x3e7def2d	0.2479827
18	0x3e84307d	0.25818244
19	0xbea26238	-0.3171556
20	0x3e0d196f	0.13779233
21	0xbe700dd1	-0.2344277
22	0xbd739e2e	-0.059477024
23	0x3e8bf7bf	0.27337453
24	0x3c7c86b9	0.01541298
25	0xbdb3efcd	-0.08785973
26	0xbd92e409	-0.071724005
27	0x3e0a01eb	0.13477294
28	0xbe1d6f93	-0.15374593
29	0xbe192f84	-0.14959532
30	0x3e17cf28	0.14825118
31	0xbd21c179	-0.03949115
32	0x3cc17b2c	0.023618303
33	0x3e78049b	0.24220507
34	0xbda8009d	-0.08203242
35	0x3e00a160	0.1256156
36	0x3e36ce31	0.17852093
37	0xbd1cdfe8	-0.03829947
38	0x3dd25fdd	0.10272191
39	0x3e31f50d	0.17378636
40	0xbe2d6b86	-0.16935548
41	0xbe0893d9	-0.1333765
42	0x3d43024e	0.04760962
43	0x3f1a09c5	0.6017116
44	0x3e1d5fd6	0.1536859
45	0x3db841bb	0.08996912
46	0xbdacfba6	-0.08446436
47	0xbe979986	-0.29609317
48	0xbdb4e8e8	-0.08833486
49	0xbe2e6ecc	-0.17034453
50	0x3b2662d4	0.0025388496
51	0xbec8a262	-0.39186388
52	0x3ed5180c	0.4161991
53	0xbd927028	-0.07150298
54	0xbe8f5056	-0.2799098
55	0xbd8f239d	-0.069892146
56	0x3e9d7c1c	0.3075875
57	0x3e89d2d1	0.26918653
58	0x3e13f251	0.14447905
59	0xbec1a544	-0.378214
60	0xbf0fa3b1	-0.5610915
61	0xbf32f7b6	-0.69909227
62	0xbe9c512e	-0.30530685
63	0xbe2e608a	-0.17029014
64	0x3f00e779	0.503532
65	0x3f6c8c34	0.92401433
66	0xbecb2136	-0.39673775
67	0xbf0ffe1d	-0.5624712
68	0xbf07b52a	-0.5301081
69	0xbf56c2dd	-0.8389109
70	0xbf12de88	-0.57370806
71	0xbeb629e0	-0.35578823
72	0x3ebe85ea	0.37211543
73	0x3e75302b	0.23944156
74	0xbefcda0b	-0.49385104
75	0xbf088abb	-0.53336686
76	0x3e28a407	0.16468821
77	0x3efc71a5	0.49305454
78	0x3ed8f051	0.42370847
79	0xbf401b77	-0.7504191
80	0xbe2cab34	-0.16862184
81	0xbe4d14a9	-0.20027412
82	0xbcba5b0a	-0.022748489
83	0x3e5169d1	0.20450522
84	0xbe15feaf	-0.14647935
85	0x3c441d84	0.011969928
86	0xbdd29a0a	-0.10283287
87	0x3d022a15	0.031778414
88	0x3cf123c9	0.029436009
89	0xbddcb734	-0.10777131
90	0x3e1dfc8a	0.15428367
91	0xbe7751bd	-0.24152274
92	0x3e0e88ac	0.13919324
93	0xbde8ecbd	-0.11373279
94	0xbe604a10	-0.21903253
95	0xbe97a3f3	-0.2961727
96	0xbdb8eb60	-0.09029269
97	0x3d3416a7	0.043966915
98	0x3e1b2712	0.15151623
99	0x3db87917	0.09007471
100	0xbe8f1734	-0.2794739
101	0xbe15be97	-0.14623486
102	0xbd8e6063	-0.06951978
103	0x3e46e391	0.19422747
104	0x3bb5fa57	0.0055535245
105	0x3d9e8f8e	0.07742225
106	0xbe106802	-0.14102176
107	0xbcad962f	-0.021189777
108	0xbe8526d2	-0.2600618
109	0xbe17a28b	-0.14808099
110	0xbc0cfc85	-0.008605127
111	0xbe7345b3	-0.23757057
112	0x3dfcd6a7	0.12345629
113	0xbe87eada	-0.26546365
114	0x3de219a3	0.11040046
115	0xbd633c85	-0.055477638
116	0x3d6cf23f	0.05784821
117	0x3e46222f	0.19348978
118	0x3c35f177	0.011104933
119	0xbe75dd33	-0.24010162
120	0xbe0d2a04	-0.13785559
121	0xbdb4139a	-0.08792801
122	0x3d3e09a3	0.04639591
123	0x3e5d848c	0.21632594
124	0x3e9d72ae	0.30751556
125	0x3df000b3	0.11718883
126	0xbe126db5	-0.14299662
127	0x3da16ba1	0.07881857
128	0xbe6c5396	-0.2307876
129	0xbe8f1ce4	-0.2795173
130	0xbd069e17	-0.03286561
131	0x3c98fad9	0.018674301
132	0xbe023e55	-0.1271909
133	0xbe4916eb	-0.19637649
134	0xbe199049	-0.14996447
135	0xbe8ec1d9	-0.2788227
136	0x3ea01060	0.31262493
137	0x3e84f410	0.25967455
138	0xbce4e7ff	-0.027942656
139	0xbe846949	-0.25861576
140	0x3e248e96	0.16070017
141	0x3d9c82de	0.076421484
142	0x3d4b733b	0.04967044
143	0x3dd66039	0.10467572
144	0x3e87ceaf	0.26524875
145	0x3e2d9400	0.16950989
146	0xbe68b634	-0.22725755
147	0x3d2d2f47	0.042281415
148	0xbe0ce22b	-0.13758151
149	0x3dd0876c	0.1018208
150	0xbd5f3acc	-0.054499432
151	0xbe2cede8	-0.16887629
152	0xbe0a25ea	-0.13491026
153	0x3c14523a	0.009052807
154	0xbe89091f	-0.2676477
155	0xbe85b09e	-0.2611131
156	0x3bce5f2e	0.0062979674
157	0xbde51dda	-0.11187334
158	0x3e9f68ab	0.31134543
159	0xbd0b59e3	-0.03402127
160	0xbe850634	-0.25981295
161	0xbe3322e1	-0.17493774
162	0xbd431135	-0.04762383
163	0xbe0c5e29	-0.13707794
164	0x3d805bd4	0.06267515
165	0x3e809524	0.25113785
166	0xbe886f3c	-0.26647365
167	0xbdbacca0	-0.0912106
168	0x3e0612fd	0.13093181
169	0xbe32c1e8	-0.17456782
170	0xbddc1ae0	-0.107473135
171	0xbce4ad9f	-0.02791482
172	0xbd6c11d5	-0.057634193
173	0xbe277748	-0.16354096
174	0xbc5f89d1	-0.013643698
175	0xbde23fcf	-0.11047327
176	0x3cd79ee6	0.026320886
177	0xbc7e8399	-0.015534305
178	0xbe0cb843	-0.13742165
179	0xbe866a14	-0.26252806
180	0x3d994ace	0.07484971
181	0x3caa3416	0.02077679
182	0x3e17d909	0.14828886
183	0x3e6fee9d	0.23430867
184	0x3e3aee04	0.18254858
185	0x3d2598e8	0.040429026
186	0x3e3bb319	0.18330039
187	0xbe03cfcc	-0.12872237
188	0x3dde0231	0.10840262
189	0xbe1a19a2	-0.1504884
190	0xbd4f65f9	-0.050634358
191	0xbe96b797	-0.29436943
192	0xbe26f0f2	-0.16302851
193	0xbe6657ab	-0.2249438
194	0x3e2a6c4d	0.16642876
195	0xbe3c0403	-0.18360905
196	0xbd46bc1d	-0.048519243
197	0x3dc6172e	0.0967239
198	0x3dfbc5d9	0.12293596
199	0x3e1843ac	0.14869565
200	0xbe568ee2	-0.20952943
201	0x3e5c5c61	0.21519615
202	0x3e0ca3e0	0.13734388
203	0xbd0c584f	-0.034263905
204	0x3e3a1622	0.18172505
205	0xbdd81917	-0.105516605
206	0x3d43e24e	0.047823243
207	0xbe5d593d	-0.21616073
208	0xbe09ad64	-0.1344505
209	0xbdc7942b	-0.09745058
210	0xbd1cc63e	-0.038274996
211	0x3c986eb1	0.01860747
212	0xbe37c5aa	-0.17946497
213	0xbe3d82b7	-0.18506895
214	0xbce3d0ab	-0.027809462
215	0x3e253490	0.16133332
216	0x3e6c3c5e	0.23069903
217	0xbd313ba6	-0.043269776
218	0xbdd4def0	-0.103940845
219	0xbe35466a	-0.17702642
220	0xbe20d2b4	-0.15705377
221	0xbe01adec	-0.12664002
222	0x3bb6d7bc	0.0055799168
223	0x3da6b2c6	0.08139567
224	0x3d4524d0	0.04813081
225	0x3ea8f1ff	0.32997128
226	0xbd0701c5	-0.032960672
227	0xbed6dd94	-0.41965926
228	0xbea42f33	-0.3206726
229	0xbe905700	-0.28191376
230	0xbeaf4d39	-0.34238604
231	0xbdf58622	-0.119884744
232	0x3ef5b7ba	0.47991735
233	0x3e85c5fb	0.2612761
234	0xbe561de6	-0.20909843
235	0xbe192369	-0.14954914
236	0x3e2e6840	0.17031956
237	0x3e0d4269	0.13794865
238	0x3ea89643	0.3292714
239	0xbec33431	-0.38125756
240	0xbe238611	-0.15969111
241	0x3d23940e	0.039936118
242	0xbe8eef65	-0.2791702
243	0x3e557ac0	0.20847607
244	0xbc862a62	-0.016377632
245	0x3df78b51	0.12087119
246	0xbcf6b0fc	-0.03011369
247	0xbe8e13c6	-0.2774946
248	0xbea69a06	-0.32539386
249	0xbd931023	-0.07180812
250	0xbe5b844a	-0.21437183
251	0xbd2cfb70	-0.042231977
252	0x3e4d0de1	0.20024826
253	0x3dd2df3a	0.10296483
254	0xbe4b441f	-0.19850205
255	0xbe7b7d67	-0.24559556

lstm.bias_ih_l0 f4 [80]
0	0xbd214848	-0.039375573
1	0x3e8307d8	0.25591922
2	0x3ea2c8f5	0.31793943
3	0x3f00033b	0.5000493
4	0xbdd553f0	-0.104164004
5	0x3e903757	0.2816722
6	0xbdaed378	-0.08536428
7	0x3e003a23	0.12522177
8	0x3e82f4d4	0.25577414
9	0xbd91db33	-0.07121887
10	0x3e146914	0.14493209
11	0x3da96c11	0.08272565
12	0x3d51668d	0.05112319
13	0x3e75e209	0.24012007
14	0xbe0cda2e	-0.13755104
15	0xbde0004e	-0.10937558
16	0x3e76bc34	0.24095231
17	0x3e352090	0.17688203
18	0xbd23d3c2	-0.03999687
19	0x3d6d5096	0.05793818
20	0xbc170fc7	-0.00922007
21	0x3d801387	0.062537245
22	0x3e37321d	0.1789021
23	0xbd628efa	-0.055312134
24	0x3cc9f8cd	0.02465477
25	0xbc0ace7e	-0.008472083
26	0x3d97051b	0.07374021
27	0xbcee3c9e	-0.029081639
28	0x385ea360	5.308108e-05
29	0x3e712ede	0.23553035
30	0xbdcc5b0c	-0.09978303
31	0x3d13cda7	0.036084797
32	0x3d3324df	0.043736335
33	0x3df41b92	0.11919321
34	0xbe35d4cd	-0.17756958
35	0xbcba13db	-0.022714546
36	0xbe32c58f	-0.17458175
37	0x3e45d14b	0.1931812
38	0x3e3d6940	0.18497181
39	0x3dfb0593	0.122569226
40	0x3c9b8fa0	0.018989384
41	0xbe1e8fdf	-0.1548457
42	0x3e07b6ac	0.13253278
43	0x3dc82f37	0.097746305
44	0xbd912552	-0.070871964
45	0x3eadc52e	0.339395
46	0xbe2e5074	-0.17022878
47	0xbcaaeb79	-0.020864235
48	0xbd0dca8f	-0.034617003
49	0xbe579d64	-0.21056134
50	0xbba8f199	-0.005155754
51	0xbe5b9e34	-0.21447068
52	0x37a40040	1.955044e-05
53	0x3b6a2ee5	0.0035733518
54	0xbe81d819	-0.25360182
55	0xbde5bfcf	-0.11218225
56	0x3e3e9641	0.18612005
57	0x3d7287b2	0.05921144
58	0x3d243ec2	0.040098913
59	0xbe2a760f	-0.16646598
60	0x3cdb4fff	0.026771544
61	0x3e6233e7	0.22090112
62	0x3e1ff1d1	0.1561959
63	0x3f42a015	0.76025516
64	0xbdb35539	-0.08756489
65	0x3e946663	0.28984365
66	0x3e5a72f9	0.21332921
67	0x3e80b0da	0.25134927
68	0x3e81df04	0.2536546
69	0xbde022b1	-0.10944117
70	0xbe156828	-0.14590514
71	0x3df7d205	0.12100605
72	0x3d80d875	0.06291286
73	0x3e00c17d	0.1257381
74	0x3e86d031	0.26330712
75	0xbd98528a	-0.07437618
76	0x3d5f161a	0.054464437
77	0xbdaa2ac7	-0.083089404
78	0xbde77d4b	-0.113031946
79	0x3dad95a1	0.08475805

lstm.bias_hh_l0 f4 [80]
0	0x3bc0b8dc	0.005881412
1	0xbddc5aa9	-0.107594796
2	0x3eb03792	0.34417397
3	0x3f2bb69a	0.670755
4	0x3e7b17c2	0.24520782
5	0x3ec45f55	0.38353983
6	0x3e97f4cd	0.29678956
7	0xbd9a8ae8	-0.075460255
8	0xbd546591	-0.051854674
9	0xbca83406	-0.02053262
10	0xbdcabe1f	-0.09899544
11	0x3c6b1380	0.014347911
12	0x3df29452	0.11844696
13	0x3da54c0e	0.08071147
14	0x3e1c3507	0.15254603
15	0x3e20da3d	0.15708251
16	0x3d45b84f	0.048271473
17	0x3dc54916	0.09633081
18	0x3e75eff4	0.24017316
19	0x3de6eb72	0.112753764
20	0xbe277013	-0.16351347
21	0xbdca348c	-0.09873304
22	0x3c8eb75d	0.017421419
23	0xbeb8c4f5	-0.36087766
24	0xbe2ffe62	-0.17186883
25	0x3e58ec52	0.21183899
26	0x3cf11311	0.029428037
27	0x3e5205d0	0.2051003
28	0xbe271f0c	-0.16320437
29	0xbd8015ba	-0.06254144
30	0x3d6f78b1	0.05846471
31	0xbdf09a1c	-0.11748144
32	0xbd4a5cb1	-0.049404804
33	0x3e527b7b	0.20554917
34	0xbe262d92	-0.16228321
35	0xbe60372d	-0.21896048
36	0xbd5745f5	-0.05255695
37	0xbd909de4	-0.07061365
38	0x3de8dad0	0.1136986
39	0x3e1a8f54	0.15093738
40	0xbd8217a1	-0.06352163
41	0x3e101b51	0.1407292
42	0xbe28ee01	-0.16497041
43	0x3d13e1df	0.03610408
44	0x3e25b5c7	0.16182624
45	0x3e949575	0.29020277
46	0xbceed1de	-0.029152807
47	0xbe187384	-0.14887816
48	0xbd988949	-0.0744806
49	0xbe46dafa	-0.1941947
50	0xbdd9430d	-0.10608492
51	0xbe185a5f	-0.14878224
52	0x3dda08b9	0.10646195
53	0xbdca43a5	-0.098761834
54	0x3e0cb72c	0.1374175
55	0xbd95a010	-0.0730592
56	0x3d194ab7	0.03742477
57	0xbd8f1026	-0.06985502
58	0x3e476650	0.19472623
59	0xbd5ce579	-0.05392978
60	0xbc90f4c4	-0.017694838
61	0xbce8e806	-0.02843095
62	0x3e1a1b7b	0.15049545
63	0x3f489b41	0.783619
64	0x3d809a17	0.0627939
65	0x3ebdb219	0.3704994
66	0xbda7dc98	-0.08196372
67	0x3d8d72cf	0.069066636
68	0x3e53cd4a	0.2068378
69	0x3e170ee6	0.14751777
70	0x3dd2947b	0.10282227
71	0x3e0c5752	0.13705185
72	0x3d8da025	0.06915311
73	0x3e448f1b	0.19195215
74	0x3e0bd9c1	0.13657285
75	0x3e085c0e	0.13316366
76	0x3e58b119	0.21161307
77	0x3dae6b8f	0.08516609
78	0x3e4a24b4	0.19740564
79	0x3d1fc59b	0.03900681

lstm.weight_ih_l1 f4 [80, 20]
0	0x3e39e1c8	0.18152535
1	0xbd825d4d	-0.06365452
2	0x3dceeee5	0.10104159
3	0xbe49ff32	-0.19726256
4	0xbe39169c	-0.18075031
5	0xbe5d34ae	-0.21602127
6	0x3e54ff6d	0.20800562
7	0x3c44a8bc	0.01200312
8	0x3dd08bf0	0.10182941
9	0x3daa005a	0.08300848
10	0xbe2f0e3d	-0.17095275
11	0x3e008593	0.12550955
12	0xbe319c1d	-0.17344709
13	0x3e3fced1	0.18731238
14	0xbd3f6e24	-0.046735898
15	0x3dc80f99	0.097686
16	0xbdd2deca	-0.102964
17	0x3e64df06	0.22350702
18	0x3e579d4f	0.21056102
19	0xbe2d98ba	-0.16952792
20	0xbda7f3b0	-0.082007766
21	0xbdd032ae	-0.101659164
22	0xbe4d1dae	-0.20030853
23	0x3d2f6633	0.042822074
24	0x3e55fb87	0.20896731
25	0x3dd1bf26	0.10241537
26	0xbcaf30ed	-0.021385634
27	0x3cd67ebb	0.026183477
28	0xbe55d410	-0.20881677
29	0xbb6045ba	-0.0034221248
30	0x3e211aef	0.1573293
31	0xbdbb469c	-0.09144327
32	0xbcab786b	-0.020931443
33	0x3e2c0e50	0.16802335
34	0x3e39c07e	0.18139836
35	0xbe61b9ba	-0.22043505
36	0x3cb77a10	0.022397071
37	0x3d5ee512	0.054417677
38	0x3d753c52	0.05987198
39	0xbe049a2b	-0.12949435
40	0x3d2b90a0	0.041885972
41	0x3d93e4c8	0.07221371
42	0x3d6d58e6	0.05794611
43	0xbc78d2c2	-0.015186967
44	0xbe5ce317	-0.21571003
45	0xbe3918e3	-0.180759
46	0xbdc196ed	-0.09452615
47	0x3dbde47f	0.09272098
48	0x3e5cc66a	0.21560064
49	0x3dfd916e	0.12381254
50	0xbe01e6c3	-0.12685685
51	0x3d399ed2	0.04531748
52	0xbe1fd9cc	-0.15610427
53	0xbda8669c	-0.08222696
54	0xbd4ae160	-0.04953134
55	0xbe07415c	-0.13208526
56	0xbe020bef	-0.12699865
57	0x3df1b797	0.11802595
58	0xbe14c4b9	-0.14528169
59	0x3df760d4	0.120790154
60	0xbde9a877	-0.11409085
61	0x3e2da5fb	0.16957848
62	0x3c3f5a1a	0.011679197
63	0x3d26418a	0.040589847
64	0xbe455a44	-0.19272715
65	0x3e44261b	0.19155161
66	0x3dba9563	0.091105245
67	0x3e384a4d	0.17997093
68	0xbd8d7969	-0.06907923
69	0xbdf871fd	-0.121311165
70	0x3d90f1d1	0.07077373
71	0xbdcf581a	-0.10124226
72	0x3d93ba12	0.072132245
73	0xbd22f676	-0.039785825
74	0x3e5909f1	0.21195199
75	0xbdbe4751	-0.09290946
76	0x3d0dadc0	0.03458953
77	0x3e5f9dd0	0.21837544
78	0x3e63c62e	0.22243568
79	0xbdf8b0c8	-0.12143093
80	0xbdb10fa4	-0.08645561
81	0xbc092bfe	-0.008372305
82	0xbdc52301	-0.09625817
83	0x3c90758c	0.017634176
84	0xbe0d280c	-0.13784808
85	0xbdb47dd1	-0.0881306
86	0x3e5c8074	0.21533376
87	0x3e42908a	0.1900045
88	0xbe23a797	-0.15981899
89	0x3e3a9826	0.18222103
90	0x3e51eb73	0.20499973
91	0xbe38832b	-0.18018787
92	0x3ce25e71	0.027632924
93	0x3d74371e	0.059622876
94	0x3e42e42b	0.19032352
95	0xbb5b01d3	-0.0033417835
96	0xbe335e96	-0.1751655
97	0x3e30ee4a	0.172784
98	0xbd85812b	-0.065187775
99	0xbe571bd2	-0.21006706
100	0xbdc15c97	-0.09441488
101	0x3dd7c307	0.105352454
102	0xbe434e1a	-0.19072762
103	0x3de17ef2	0.11010541
104	0x3e0636d5	0.13106854
105	0x3e12e528	0.14345229
106	0xbdb409ee	-0.087909564
107	0xbd1467ff	-0.03623199
108	0x3de77615	0.11301819
109	0xbe62e96b	-0.22159354
110	0xbdfc21d6	-0.12311141
111	0xbd9f4c06	-0.07778172
112	0x3d85082b	0.064956985
113	0xbd85cac6	-0.065328166
114	0x3e30630f	0.17225288
115	0x3da205ca	0.079112604
116	0xbdc31731	-0.09525908
117	0xbe023d90	-0.12718797
118	0x3e1dcfe6	0.15411338
119	0xbd86c4bd	-0.065804936
120	0xbe62c592	-0.2214568
121	0xbde13920	-0.10997224
122	0x3e5f8727	0.218289
123	0x3e4a89de	0.19779155
124	0x3e21b48b	0.15791528
125	0xbdc9424e	-0.098271
126	0x3d134799	0.035956953
127	0xbb981467	-0.004641104
128	0xbe14c8e7	-0.14529763
129	0x3de881f6	0.11352913
130	0xbce34bbe	-0.027746078
131	0xbe3e3901	-0.18576433
132	0x3e249bee	0.16075107
133	0x3e1bd8f9	0.15219487
134	0x3dc38d7b	0.0954847
135	0xbd8ebe97	-0.06969946
136	0x3e615f49	0.22009005
137	0xbddd5735	-0.10807649
138	0x3ddec955	0.10878245
139	0xbdf2ae45	-0.118496455
140	0xbd4dea4c	-0.05027227
141	0xbcbecb29	-0.023290234
142	0xbe54d347	-0.20783721
143	0xbda328f4	-0.079667956
144	0x3e028910	0.12747598
145	0x3df38d5f	0.11892199
146	0x3df024df	0.117257826
147	0x3e649b74	0.22324926
148	0x3d4e2b6c	0.05033438
149	0xbd4d6657	-0.050146427
150	0xbd8b86da	-0.0681283
151	0xbd6256f3	-0.055258702
152	0xbda6b2f7	-0.081396036
153	0xbdc4cc98	-0.09609336
154	0x3c89b86b	0.01681157
155	0xbe4d9743	-0.20077233
156	0x3e0cabbc	0.13737386
157	0xbc9981e3	-0.018738693
158	0x3cd22666	0.025653075
159	0x3e63bd66	0.22240219
160	0xbe2650df	-0.16241787
161	0x3bf02319	0.0073284027
162	0x3d8d07c3	0.06886246
163	0xbd41fc87	-0.04735997
164	0x3ccef3d4	0.02526275
165	0xbd61f416	-0.05516442
166	0x3dcc1d99	0.09966583
167	0xbe4d89bd	-0.20072074
168	0x3e1c0269	0.15235294
169	0x3e2aca5e	0.1667876
170	0x3e4f1d12	0.20225933
171	0x3dc2deed	0.09515176
172	0x3e3e5398	0.18586576
173	0x3e22517e	0.158514
174	0xbdcd2e54	-0.10018602
175	0xbe6360ec	-0.22204942
176	0xbdc61708	-0.096723616
177	0xbe15187c	-0.14560121
178	0xbdd6dcb3	-0.10491314
179	0xbc655d5b	-0.013999308
180	0xbd868c07	-0.06569677
181	0x3e2406e9	0.16018261
182	0xbe1b3bd9	-0.15159549
183	0x3c19eadf	0.009394377
184	0x3e3316be	0.17489144
185	0x3e0f10dc	0.13971275
186	0xbe2f5663	-0.17122798
187	0xbdaef223	-0.08542278
188	0x3db09948	0.08622986
189	0xbdf8e51f	-0.121530764
190	0xbdff4d5c	-0.12465927
191	0xbe0a2b90	-0.1349318
192	0xbd1a7088	-0.037704974
193	0x3dabc6c4	0.08387521
194	0xbe594ffd	-0.2122192
195	0xbe1028e7	-0.14078103
196	0x3e06e470	0.1317308
197	0xbe02c071	-0.12768723
198	0xbd0f1da3	-0.034940373
199	0xbe3e0072	-0.18554857
200	0x3e533535	0.20625766
201	0x3ca10a1b	0.019658139
202	0x3d91571f	0.07096695
203	0x3e3fc464	0.18727261
204	0x3d224d8d	0.03962474
205	0xbdb53eb1	-0.08849848
206	0x3d8f3985	0.06993393
207	0x3e3c52a5	0.18390901
208	0x3db3daa7	0.08781939
209	0xbe43b940	-0.19113636
210	0xbd80c7bf	-0.062880985
211	0xbda98d96	-0.082789585
212	0x3dc7666a	0.09736331
213	0x3e2e588f	0.1702597
214	0xbe3a8c95	-0.1821769
215	0x3dabcb80	0.08388424
216	0xbde8c719	-0.113661
217	0xbde8b185	-0.11361984
218	0xbe4e7f76	-0.2016581
219	0xbe2ab872	-0.16671923
220	0xbd18ff8e	-0.03735309
221	0xbe2335da	-0.15938511
222	0xbd018be1	-0.03162754
223	0x3d51c638	0.051214427
224	0xbe2538ce	-0.1613495
225	0x3de92c19	0.11385364
226	0xbc86ab95	-0.016439239
227	0xbdd9f4c9	-0.10642392
228	0x3b9e9f38	0.0048407577
229	0xbdd201f3	-0.10254278
230	0xbdd40ddc	-0.10354206
231	0x3e35707f	0.17718695
232	0x3ddca8ae	0.107743606
233	0x3e45fbd0	0.1933434
234	0xbde23b92	-0.110465184
235	0xbda2aeb2	-0.07943477
236	0xbcd3fa12	-0.025876079
237	0x3e597c70	0.21238875
238	0xbc122069	-0.00891886
239	0x3dec2cd8	0.11531991
240	0xbe5cd18d	-0.21564312
241	0xbe157528	-0.14595473
242	0xbe5bad49	-0.21452822
243	0x3c15d950	0.00914605
244	0xbe1328e2	-0.14371064
245	0xbcb9538c	-0.022622846
246	0x3d81b27e	0.06332873
247	0xbc563318	-0.013073705
248	0x3e3a308e	0.18182585
249	0xbc823380	-0.015893698
250	0x3e4d0eb5	0.20025142
251	0xbe52d11d	-0.20587583
252	0x3c9a3e55	0.01882855
253	0x3e0b294b	0.13589971
254	0x3d8ff14f	0.07028448
255	0x3d7be5fe	0.061498635

lstm.weight_hh_l1 f4 [80, 20]
0	0xbdd39fd1	-0.10333217
1	0xbe1b5af3	-0.15171413
2	0x3e34e040	0.1766367
3	0xbdcad5cd	-0.099040605
4	0xbdcb8116	-0.099367306
5	0x3e4c410d	0.1994669
6	0xbe30c33d	-0.17261977
7	0xbe22a5f1	-0.15883614
8	0xbd32ffaf	-0.04370087
9	0x3e59b1af	0.21259187
10	0x3e5faad7	0.21842514
11	0x3e075c2f	0.13218759
12	0xbdd89991	-0.105761655
13	0x3dbcc6c8	0.09217602
14	0x3d1abb78	0.03777644
15	0xbe4b49c9	-0.19852366
16	0x3dce60a7	0.10077029
17	0x3e5cb341	0.21552755
18	0x3e226bf8	0.158615
19	0x3e288f4a	0.1646091
20	0xbe465517	-0.19368397
21	0x3d6f6fe8	0.05845633
22	0x3d0ebc5e	0.03484761
23	0x3d733241	0.059374098
24	0xbe1de6c7	-0.15420066
25	0x3d13406b	0.035950106
26	0xbe40733b	-0.18793957
27	0x3e5b1ddb	0.21398108
28	0xbd4506ee	-0.04810231
29	0xbdd99fb4	-0.10626164
30	0x3d9bf0d1	0.076142915
31	0x3d8ab6b7	0.06773131
32	0xbd64c1d6	-0.05584892
33	0x3e0e7ace	0.13914034
34	0x3df2ad7d	0.118494965
35	0xbe61ab7c	-0.22038072
36	0xbde4daaf	-0.11174523
37	0xbe0ae249	-0.13562883
38	0xbe481115	-0.19537766
39	0x3de12410	0.109932065
40	0xbd920056	-0.0712897
41	0x3d8a5c5a	0.06755896
42	0xbda9eaee	-0.082967624
43	0xbe639b80	-0.22227287
44	0xbe4d42ed	-0.20045061
45	0xbdee42aa	-0.11633809
46	0x3b0fb6ec	0.0021929098
47	0x3e4d5597	0.20052181
48	0xbca8cffb	-0.020606985
49	0xbe19120d	-0.14948292
50	0x3e500a33	0.2031639
51	0x3e63baa7	0.22239171
52	0xbe5de6fa	-0.21670142
53	0xbe1069e7	-0.14102899
54	0x3d607600	0.054800034
55	0xbe02b907	-0.12765895
56	0xbd5ceac5	-0.05393483
57	0x3c03a017	0.008033774
58	0xbd6c26b9	-0.057654116
59	0xbe2e1bcf	-0.17002796
60	0xbd86cd76	-0.06582157
61	0xbe40e4b7	-0.18837248
62	0x3e0cf1c9	0.13764109
63	0x3e249258	0.1607145
64	0x3a71052a	0.000919419
65	0xbe34372d	-0.17599173
66	0x3c531747	0.012883968
67	0xbd918b03	-0.071065925
68	0xbe64531c	-0.22297329
69	0xbdcf2cb5	-0.10115949
70	0xbdfe58c3	-0.12419274
71	0x3e630a92	0.22172001
72	0xbb9b3596	-0.0047366126
73	0xbdbcb891	-0.09214891
74	0x3e3288fc	0.17435068
75	0x3b954024	0.0045547653
76	0xbe117208	-0.14203656
77	0xbe3c645e	-0.18397662
78	0xbd9f7ee9	-0.07787878
79	0x3e0e8631	0.13918377
80	0xbd1dec06	-0.038555168
81	0xbd55e328	-0.052218586
82	0xbdeda395	-0.116034664
83	0x3b263c66	0.002536559
84	0x3e568cb3	0.2095211
85	0xbe0116f2	-0.12606409
86	0xbd7ab875	-0.06121107
87	0xbd1150a7	-0.035477307
88	0x3e412f2e	0.18865654
89	0x3e4b62cb	0.19861905
90	0x3e1c236a	0.15247884
91	0xbe5f32ea	-0.21796766
92	0xbd399d01	-0.045315746
93	0xbe4852c4	-0.19562823
94	0xbdf7733f	-0.12082528
95	0x3d04ea1b	0.032449823
96	0xbdcdc0ca	-0.10046537
97	0x3db545f5	0.08851234
98	0xbbfe4023	-0.0077591105
99	0xbd10a481	-0.035313133
100	0x3e56b1e8	0.20966303
101	0x3db31afb	0.087453805
102	0x3e0df526	0.13863048
103	0xbcab5b84	-0.020917661
104	0xbe0dff5f	-0.13866948
105	0xba2c3baf	-0.0006570173
106	0xb99a8de1	-0.00029478877
107	0xbc3020a2	-0.010749968
108	0xbe626f16	-0.22112688
109	0xbe2afa04	-0.16696936
110	0xbe1ffb8c	-0.15623301
111	0xbc146c46	-0.0090590175
112	0x3e5dc020	0.21655321
113	0x3dd9b6c7	0.10630565
114	0xbd22787c	-0.039665684
115	0xbe4d8f38	-0.20074165
116	0x3e44418e	0.19165632
117	0xbd860934	-0.06544724
118	0x3e5d9b61	0.21641304
119	0xbdf422a1	-0.119206674
120	0x3dd062ab	0.101750694
121	0x3e5ebad7	0.21750961
122	0xbe5eebef	-0.21769689
123	0xbca777bd	-0.020442838
124	0xbe3e0dbc	-0.18559927
125	0xbe549a20	-0.20761919
126	0xbe0c9ecd	-0.13732453
127	0x3e0ec00a	0.13940445
128	0x3e3ee0e8	0.18640482
129	0xbd450a65	-0.048105616
130	0x3cd1fcdd	0.02563327
131	0xbd1cec22	-0.03831113
132	0x3e2b4666	0.16726074
133	0x3d261ba4	0.040553704
134	0x3e295870	0.16537642
135	0xbd54f85e	-0.051994674
136	0x3e5fd0d3	0.21857004
137	0x3dec975a	0.115523055
138	0xbcb937b6	-0.022609573
139	0xbe43c47f	-0.19117926
140	0x3dbfa7bf	0.09358167
141	0xbe262864	-0.16226345
142	0xbe20a89b	-0.15689318
143	0xbe5ede9a	-0.21764603
144	0x3e2c1569	0.16805042
145	0xbe3e78ca	-0.18600765
146	0x3d689fa2	0.056792863
147	0x3d4e6d7f	0.050397392
148	0xbe1b7d71	-0.15184571
149	0xbd9d774a	-0.07688768
150	0x3e03b403	0.12861638
151	0xbce6bdc3	-0.028166657
152	0x3d65cc6f	0.056103166
153	0x3e2afaeb	0.1669728
154	0x3e546ba8	0.20744193
155	0xbd8c6c29	-0.068565674
156	0xbd890287	-0.06689935
157	0x3dc3c2a1	0.09558607
158	0x3da7178c	0.08158788
159	0xbd9ec49a	-0.077523425
160	0xbe244f9c	-0.16045994
161	0xbe57aa72	-0.21061113
162	0xbd95a5b3	-0.07306995
163	0x3d1327e0	0.0359267
164	0x3dba5ba4	0.0909951
165	0x3e37fcbf	0.17967509
166	0x3e370946	0.17874631
167	0x3d8f54be	0.06998585
168	0xbdaef825	-0.085434236
169	0xbda5fdbb	-0.08105036
170	0x3e0058b1	0.12533833
171	0xbd9fdba6	-0.078055665
172	0x3d27ebee	0.040996484
173	0x3d5b6257	0.05356058
174	0x3c8ce989	0.017201202
175	0xbd6301d7	-0.055421676
176	0xbe531899	-0.20614852
177	0x3cbc6742	0.022998456
178	0xbe5c713d	-0.21527572
179	0x3e032a5b	0.12809126
180	0x3ddc7ce9	0.10766012
181	0x3dd7b743	0.10533001
182	0xbe63c1e4	-0.22241932
183	0xbe4487ed	-0.19192477
184	0xbc4a3c93	-0.012343544
185	0x3da2e0f7	0.07953065
186	0xbdedae75	-0.11605541
187	0xbd166b21	-0.03672326
188	0xbddeb88f	-0.108750455
189	0x3e322061	0.17395164
190	0xbd9aabb4	-0.07552281
191	0xbdbcc790	-0.09217751
192	0xbd995db1	-0.07488573
193	0xbe2365bb	-0.15956776
194	0x3e4b148d	0.19832058
195	0xbe24dbf0	-0.16099524
196	0xbe1e8179	-0.15479077
197	0xbd699e8b	-0.057035964
198	0xbe3b730f	-0.1830561
199	0xbe05967b	-0.13045685
200	0x3d3303fd	0.043704975
201	0xbdb6634b	-0.089056574
202	0x3c9d8ccc	0.019232176
203	0x3e146d91	0.14494921
204	0xbe363817	-0.17794834
205	0xbcf6fc3b	-0.03014957
206	0x3e5c61ac	0.21521634
207	0xbd855198	-0.065097034
208	0x3d5f0412	0.05444724
209	0x3df10112	0.11767782
210	0xbe59b1c6	-0.21259221
211	0x3ddd65a1	0.108104
212	0x3cc7879e	0.02435666
213	0xbe0b3a24	-0.13596398
214	0x3da4c0b3	0.08044567
215	0xbc03151e	-0.00800064
216	0xbd127c98	-0.035763353
217	0x3e4e1d20	0.20128298
218	0x3e19c3aa	0.15016046
219	0xbe2283be	-0.15870568
220	0xbd7288d1	-0.05921251
221	0xbe406b3c	-0.18790907
222	0x3e083d64	0.13304669
223	0x3d573225	0.052538056
224	0x3d02e34f	0.03195506
225	0xbce91046	-0.028450143
226	0xbe35e3d5	-0.17762692
227	0x3e074931	0.13211514
228	0x3df4a103	0.11944773
229	0xbd58b4ee	-0.052906923
230	0xbe199821	-0.14999439
231	0xbe2fb8a1	-0.17160274
232	0xbe56e29b	-0.2098488
233	0x3ddd5ddf	0.1080892
234	0x3e2a3068	0.16620028
235	0x3e086bd1	0.13322379
236	0x3d1e546c	0.03865473
237	0xbdf9b1e0	-0.1219213
238	0xbd66ecea	-0.056378283
239	0xbe2bc43a	-0.16774073
240	0xbe0ec349	-0.13941683
241	0x3da559a9	0.08073742
242	0x3dfa4db7	0.12221854
243	0xbd9827e2	-0.07429482
244	0xbe37a624	-0.17934471
245	0x3dbba2dd	0.09161923
246	0x3dec7b72	0.11546983
247	0xbdc3769e	-0.09544109
248	0xbda5be28	-0.0809291
249	0xbe60c9aa	-0.21951929
250	0x3e328874	0.17434865
251	0x3e49f3c9	0.19721903
252	0x3cfedf4a	0.031112332
253	0x3be6a1cf	0.007038332
254	0x3cc6a334	0.024247743
255	0x3e36e57b	0.17860977

lstm.bias_ih_l1 f4 [80]
0	0x3c54cdff	0.012988566
1	0xbdc2eaf2	-0.095174685
2	0xbe138ba5	-0.14408739
3	0xbd867a12	-0.06566252
4	0xbe62f39d	-0.22163244
5	0xbe23658f	-0.1595671
6	0xbd99b269	-0.07504732
7	0x3d56be7c	0.052427754
8	0x3df15df0	0.11785495
9	0x3e0fb398	0.14033353
10	0x3e086dc8	0.13323128
11	0xbd9b49d2	-0.075824395
12	0xbe579f95	-0.2105697
13	0x3e20f68e	0.15719053
14	0xbdd070c5	-0.10177759
15	0xbe6093bd	-0.21931358
16	0xbdcaaf1b	-0.0989668
17	0xbe102831	-0.14077832
18	0x3de5a859	0.112137504
19	0x3e34532b	0.17609851
20	0x3caee3ac	0.021348797
21	0xbd260f3b	-0.04054187
22	0x3e44fefa	0.19237891
23	0x3d5b31d1	0.053514306
24	0x3dd47520	0.10373902
25	0x3e44e6bd	0.19228645
26	0x3d655cda	0.055996753
27	0x3e5872ac	0.21137494
28	0xbd31dfe0	-0.043426394
29	0x3dbd6f73	0.09249773
30	0xbd986596	-0.07441251
31	0xbd9d3e2c	-0.07677874
32	0x3e265f68	0.16247332
33	0xbd6cffee	-0.05786126
34	0x3d1da67c	0.03848885
35	0xbd930ca3	-0.07180145
36	0xbd6902f8	-0.056887597
37	0xbe26f3fc	-0.1630401
38	0x3e1c94e8	0.15291178
39	0x3bc9ce1d	0.006158604
40	0xbe0aed93	-0.1356719
41	0xbc36f0a8	-0.011165775
42	0x3d6ddccc	0.058071896
43	0x3d9169cf	0.071002595
44	0x3e5f0134	0.21777803
45	0x3de909dc	0.11378834
46	0x3dc5037a	0.09619804
47	0x3e256fbe	0.16155908
48	0x3e0f776c	0.140104
49	0xbd6f1e6e	-0.05837863
50	0x3dee27ae	0.11628662
51	0xbe13f88b	-0.1445028
52	0xbe0ed4f0	-0.13948417
53	0x3d8d3768	0.068953335
54	0xbe00d8f0	-0.12582755
55	0x3deaf449	0.11472375
56	0xbdccd3f2	-0.10001363
57	0x3dac2194	0.08404842
58	0x3d5bda72	0.053675123
59	0xbc61f7f9	-0.013792031
60	0x3e25c8f6	0.16189942
61	0x3da1be0a	0.07897575
62	0xbe0819bf	-0.13291071
63	0x3e4b030a	0.19825378
64	0xbcff96fb	-0.031199923
65	0x3d8f7861	0.07005382
66	0x3d8de421	0.06928278
67	0x3de9f6c9	0.11424024
68	0xbe3c72e7	-0.18403207
69	0x3d993bb0	0.074820876
70	0xbd3f0317	-0.046633806
71	0x3e4db6c5	0.20089252
72	0xbdbcea6f	-0.09224402
73	0x3e30a0b4	0.17248803
74	0x3dba87a6	0.09107904
75	0x3d798fed	0.060928274
76	0x3da4012e	0.080080375
77	0xbe291d58	-0.165151
78	0xbe29a732	-0.16567686
79	0xbe455a9a	-0.19272843

lstm.bias_hh_l1 f4 [80]
0	0xbe1b2c64	-0.15153652
1	0x3c85465f	0.016268907
2	0xbd07702a	-0.033065952
3	0x3da38800	0.07984924
4	0xbde34216	-0.11096589
5	0xbca687cf	-0.02032843
6	0x3e587d36	0.21141514
7	0x3deb1f9c	0.114806384
8	0x3e4577f5	0.19284041
9	0x3e238ae8	0.15970957
10	0x3e1e0c66	0.15434417
11	0xbe3f72af	-0.18696092
12	0xbe2877c7	-0.16451941
13	0x3ce50d40	0.02796042
14	0x3e3112d0	0.17292333
15	0x3e59fdb0	0.2128818
16	0x3dcd5783	0.10026457
17	0x3e0eafc9	0.13934244
18	0x3dc19437	0.09452098
19	0x3d6ca794	0.057777002
20	0xbe19a7a6	-0.15005359
21	0x3de1ad02	0.11019327
22	0xbe631532	-0.22176054
23	0xbd191012	-0.03736884
24	0xbd453a63	-0.048151385
25	0x3e5dbf2f	0.21654962
26	0x3d2c155d	0.04201256
27	0xbd9db8b5	-0.07701246
28	0xbe185a36	-0.14878163
29	0xbe0c84ef	-0.13722585
30	0xbc7fa576	-0.015603414
31	0x3e565ec8	0.20934594
32	0xbe146346	-0.14490995
33	0x3dadf706	0.084943816
34	0x3da6fee8	0.08154088
35	0x3e2e800e	0.17041036
36	0x3db2d671	0.08732308
37	0xbd0dafb5	-0.034591395
38	0xbe5ca5ad	-0.21547575
39	0x3c72eea4	0.014827404
40	0x3d89d258	0.06729573
41	0xbd1f29b7	-0.03885814
42	0xbe18100d	-0.14849873
43	0xbde8f66b	-0.113751255
44	0xbe2694ae	-0.16267654
45	0x3e4e7822	0.20163015
46	0xbe51d85e	-0.20492694
47	0xbda6bd40	-0.08141565
48	0x3e3cfd5e	0.18456027
49	0xbdd8f98d	-0.10594473
50	0xbe4ad79b	-0.1980881
51	0x3e579357	0.210523
52	0x3b8aba20	0.0042336136
53	0xbdbac64a	-0.09119852
54	0xbe54b6cf	-0.20772861
55	0xbe570a7f	-0.21000098
56	0xbd03f7b0	-0.032218635
57	0x3de3e381	0.11127377
58	0x3d97c45e	0.07410501
59	0xbd80c571	-0.06287659
60	0x3d1ff05c	0.039047584
61	0xbd96e69e	-0.073682055
62	0x3e14cd87	0.14531527
63	0xbe532e77	-0.20623194
64	0xbdcb98a6	-0.09941225
65	0x3e44e70b	0.19228761
66	0xbde6e2ef	-0.11273753
67	0xbe07feda	-0.13280812
68	0x3de9ac36	0.114098
69	0x3d4c6a4f	0.04990607
70	0xbd6c33aa	-0.05766646
71	0x3dc914c2	0.09818412
72	0xbde9d879	-0.11418242
73	0xbe2a3ec4	-0.16625506
74	0xbe28b0d8	-0.1647371
75	0x3cb6d45e	0.022318061
76	0xbe3995d0	-0.18123555
77	0x3d6ee561	0.05832422
78	0x3dd87484	0.105690986
79	0x3d97fb51	0.07420982

lstm.weight_ih_l2 f4 [80, 20]
0	0xbe209708	-0.15682614
1	0x3df070a2	0.11740233
2	0xbe0ae536	-0.13564
3	0x3dcda415	0.10041062
4	0x3b0a6279	0.0021115823
5	0x3e1533d6	0.14570555
6	0x3ddf5878	0.10905546
7	0x3dfceeac	0.123502105
8	0xbd3d8ff5	-0.046279866
9	0xbd53d9bb	-0.051721316
10	0x3d9643f5	0.073371805
11	0x3e16ba85	0.14719589
12	0x3d587c78	0.052853078
13	0xbc44355a	-0.011975611
14	0x3e13b4f9	0.14424504
15	0x3d5fd284	0.054644123
16	0xbe6365bb	-0.22206776
17	0xbd00a8c0	-0.031410933
18	0xbe294452	-0.16529968
19	0x3e50b4a8	0.20381415
20	0x3de95d5d	0.11394761
21	0x3df02ba0	0.11727071
22	0x3e3b8039	0.18310632
23	0xbe31d196	-0.17365107
24	0xbe53753a	-0.20650187
25	0x3e3e3eae	0.18578598
26	0x3d30fa7b	0.043207627
27	0x3d468f71	0.04847664
28	0xbe32ffb1	-0.17480351
29	0xbd6464d8	-0.055760235
30	0x3e361949	0.17783083
31	0xbb6ada0e	-0.0035835537
32	0x3e28afb7	0.1647328
33	0x3dd4226b	0.10358127
34	0x3d8d43a2	0.068976656
35	0x3e15dcaa	0.14634958
36	0x3cb2e98c	0.02183988
37	0x3dbd713a	0.09250112
38	0xbce5a0d4	-0.02803079
39	0x3e10fc68	0.14158785
40	0xbd68b206	-0.0568104
41	0xbc1c8d28	-0.009555139
42	0xbe441cae	-0.19151565
43	0xbddd9244	-0.108189136
44	0xbe3d7ce5	-0.18504675
45	0xbd20f3d4	-0.039295033
46	0xbd7a9e2f	-0.061186012
47	0xbde8b65b	-0.113629065
48	0x3e43e5d9	0.19130649
49	0xbdad8c24	-0.08473995
50	0x3d93b0e0	0.072114706
51	0xbd43c186	-0.04779198
52	0xbe149775	-0.14510901
53	0x3e0a51d2	0.13507774
54	0xbe3004da	-0.1718935
55	0xbd77dfdd	-0.060516227
56	0xbd7b48a8	-0.061348587
57	0x3e190acc	0.14945525
58	0x3d2ef4e3	0.04271401
59	0x3d35949c	0.044331178
60	0xbe27cdcb	-0.16387098
61	0xbe2c40f2	-0.1682165
62	0xbde2e0b8	-0.11078018
63	0xbdc20184	-0.09472945
64	0xbe4509e6	-0.19242057
65	0x3c9b97eb	0.018993339
66	0xbe0bcb35	-0.13651736
67	0x3e2b40de	0.16723964
68	0xbe37652d	-0.17909689
69	0x3dcbe6a1	0.09956098
70	0x3d25277d	0.040320862
71	0xbd0ca5fa	-0.034337975
72	0xbe5a34b9	-0.21309175
73	0x3e2db087	0.16961871
74	0xbdb0ff55	-0.08642451
75	0xbd440462	-0.047855742
76	0x3e25392d	0.16135092
77	0xbd86a519	-0.06574459
78	0xbd619006	-0.055068992
79	0xbe62b347	-0.22138701
80	0x3c758851	0.014986114
81	0x3cff372b	0.031154236
82	0x3db41ac5	0.087941684
83	0x3caaa242	0.020829324
84	0x3c1dcf27	0.0096319085
85	0xbd075e54	-0.033048943
86	0x3d66b20c	0.056322142
87	0x3d5ef8c0	0.054436445
88	0x3c43b557	0.01194509
89	0xbe2329bc	-0.15933889
90	0xbe2bff97	-0.16796719
91	0xbe500767	-0.20315324
92	0x3dec98f2	0.115526095
93	0x3de19848	0.110153735
94	0x3e1e1d22	0.15440801
95	0x3c5a9b4d	0.013342691
96	0xbd435155	-0.047684986
97	0xbdd277f2	-0.10276784
98	0xbdb92c3c	-0.0904164
99	0xbe197109	-0.14984526
100	0x3e196fcc	0.14984053
101	0x3e09b6e7	0.13448678
102	0xbc975774	-0.018474318
103	0xbd0d497d	-0.034493912
104	0xbe407097	-0.1879295
105	0xbd3d341c	-0.046192273
106	0x3dd066e4	0.10175875
107	0xbe43a95b	-0.19107573
108	0xbdb03155	-0.08603159
109	0x3e113ee4	0.14184147
110	0x3c503b6a	0.012709478
111	0xbe19e56c	-0.15028924
112	0xbdd2bebb	-0.10290285
113	0xbe5b659e	-0.21425483
114	0x3d60d80d	0.054893542
115	0x3e0f1ec2	0.13976577
116	0x3e555b96	0.20835719
117	0x3e04a256	0.12952551
118	0x3da192de	0.07889341
119	0x3e504b11	0.20341136
120	0x3e50238b	0.20326059
121	0x3d4714e8	0.048603922
122	0x3e48b63a	0.19600764
123	0xbe4ee94b	-0.20206182
124	0xbe41b4b8	-0.18916595
125	0x3e564fb7	0.20928846
126	0xbc9ead96	-0.019369882
127	0xbe0b7a38	-0.13620842
128	0xbe4677cf	-0.19381641
129	0x3e4043e1	0.18775894
130	0xbc2f7bb9	-0.01071065
131	0x3e2027d2	0.1564019
132	0xbc1ff0c1	-0.00976199
133	0x3e4a4f81	0.19756891
134	0xbd41652c	-0.047215626
135	0xbe2202e7	-0.1582142
136	0xbd6bff9f	-0.057616826
137	0x3e156d51	0.14592482
138	0x3c70d635	0.014699508
139	0x3e27357b	0.16328995
140	0xbc0b901e	-0.008518247
141	0x3e3eed61	0.1864524
142	0xbe618c2c	-0.22026128
143	0x3d4808ab	0.04883639
144	0x3d78812b	0.06067006
145	0xbe5aa0ed	-0.21350451
146	0xbdffbcc5	-0.12487177
147	0x3e076fb2	0.13226202
148	0x3e4f0795	0.20217736
149	0xbe5e8de8	-0.2173382
150	0x3e299620	0.16561174
151	0x3d8e9625	0.069622315
152	0xbdb90440	-0.09034014
153	0xbd058e58	-0.032606453
154	0xbcafe223	-0.021470135
155	0xbc8f0dc3	-0.017462617
156	0xbda5143b	-0.08060499
157	0xbe5556b7	-0.2083386
158	0x3c08b0ad	0.008342904
159	0x3dbda5d8	0.09260148
160	0xbe2fa5bc	-0.17153066
161	0x3da0c0f5	0.07849304
162	0xbdb6070b	-0.08888062
163	0xbe0fda54	-0.1404813
164	0x3df5e3e2	0.12006356
165	0xbddc310d	-0.10751543
166	0x3da9ff6b	0.0830067
167	0xbc72d57c	-0.014821406
168	0xbe2882f5	-0.16456206
169	0xbe073838	-0.1320504
170	0x3e3dec0b	0.18547074
171	0x3df18a41	0.11793948
172	0x3d2dfae5	0.0424756
173	0x3dc65083	0.09683325
174	0xbd96fa3d	-0.07371948
175	0x3dbf7a29	0.09349472
176	0xbe2c4c27	-0.16825925
177	0xbe07c2bb	-0.13257878
178	0x3ae94638	0.0017797416
179	0x3e02f239	0.12787713
180	0xbda58aed	-0.080831386
181	0x3e3573e7	0.17719994
182	0xbd92c8f4	-0.07167235
183	0x3dcf88cf	0.10133516
184	0xbd363cae	-0.044491462
185	0x3c9cb8fc	0.019131176
186	0xbde5f59e	-0.112284884
187	0x3e51647f	0.20448492
188	0x3a618ca4	0.0008604026
189	0x3e5a801d	0.21337934
190	0x3e05422a	0.13013521
191	0xbe48c4b1	-0.19606282
192	0x3e38302b	0.17987125
193	0x3cec6bd2	0.028860006
194	0xbe4748ff	-0.1946144
195	0xbd4329e4	-0.047647372
196	0x3e2e92fe	0.1704826
197	0xbd613af8	-0.054987878
198	0x3e397d52	0.18114212
199	0xbd97f157	-0.07419079
200	0x3e5b7900	0.21432877
201	0xbcba6a9c	-0.022755913
202	0xbe33c2b3	-0.1755474
203	0xbe615e76	-0.2200869
204	0x3d8a361d	0.067486025
205	0xbd50aeaf	-0.05094784
206	0xbc9f4c11	-0.019445451
207	0xbd98a852	-0.074539796
208	0x3d36453b	0.044499617
209	0xbdd89159	-0.10574598
210	0xbdf995d3	-0.1218678
211	0xbe1c8aee	-0.15287372
212	0xbd8a5193	-0.0675384
213	0xbd3e2207	-0.04641917
214	0xbd937df0	-0.07201755
215	0xbe15d342	-0.1463137
216	0x3e24b73f	0.16085528
217	0x3da7fd58	0.08202618
218	0x3de6b0fc	0.11264226
219	0xbdcf23b9	-0.101142354
220	0x3e207500	0.15669632
221	0x3e58aeef	0.21160482
222	0xbe5eaab8	-0.21744812
223	0x3da1d3cc	0.07901725
224	0xbdcf0d19	-0.1010992
225	0xbe0272b4	-0.12739068
226	0x3e3c95c1	0.18416502
227	0x3d2adf3f	0.04171681
228	0xbdcb9e88	-0.09942347
229	0xbe43152c	-0.19051045
230	0xbca37ba5	-0.01995642
231	0xbe4b2ef5	-0.19842131
232	0xbdbff61b	-0.09373113
233	0xbe07476b	-0.13210838
234	0xbe580d93	-0.21098928
235	0x3e4a2bf4	0.1974333
236	0xbe17c2ed	-0.14820452
237	0x3dd72bad	0.10506377
238	0x3e1e822a	0.15479341
239	0x3dbf63f0	0.093452334
240	0xbcf16cf9	-0.029470908
241	0x3e273774	0.16329747
242	0xbe5abbd6	-0.21360716
243	0x3cef4446	0.02920736
244	0x3c285bc3	0.010275784
245	0x3c7d9383	0.015477064
246	0x3e33b636	0.17549977
247	0xbe50d944	-0.2039538
248	0x3dd54e6a	0.10415347
249	0x3e1570f5	0.14593871
250	0xbe16dd04	-0.14732748
251	0x3e316362	0.17323068
252	0x3e59e770	0.21279693
253	0xbe4e18b7	-0.20126615
254	0xbe435f86	-0.19079408
255	0x3df29e24	0.11846569

lstm.weight_hh_l2 f4 [80, 20]
0	0x3d17febe	0.037108175
1	0xbcb38cf3	-0.021917796
2	0x3de8ee54	0.113735825
3	0x3dcb2e68	0.09920961
4	0x3e40eabf	0.18839549
5	0xbdd8e439	-0.10590405
6	0x3e103ac2	0.14084914
7	0x3d177462	0.036976226
8	0xbdc702bd	-0.09717319
9	0x3e1b8a8d	0.15189572
10	0x3dbe8712	0.09303106
11	0xbda42fad	-0.08016906
12	0x3dddf62d	0.1083797
13	0x3e0cafa6	0.1373888
14	0x3dcd59b5	0.10026876
15	0xbdb1461e	-0.08655952
16	0xbe615464	-0.22004849
17	0xbd93cd22	-0.0721686
18	0x3e272450	0.16322446
19	0x3d8bb711	0.068220265
20	0x3c4309b8	0.011904173
21	0x3d967a9e	0.07347606
22	0xbd44374f	-0.04790431
23	0xbd97281b	-0.073806964
24	0xbe1988eb	-0.14993636
25	0xbe0370ac	-0.1283595
26	0x3de28bd1	0.11061824
27	0x3e16a2c8	0.14710534
28	0x3db91473	0.090371035
29	0xbd308ff6	-0.04310604
30	0x3d8a3acc	0.06749496
31	0x3e634d4a	0.22197452
32	0xbd6b1fc3	-0.057403337
33	0x3d97f3f7	0.074195795
34	0xbddf5cdf	-0.10906386
35	0xbe2c75f7	-0.16841875
36	0x3de2d3c7	0.110755496
37	0x3de39dcb	0.11114081
38	0x3d924bf5	0.07143394
39	0xbe1391c8	-0.1441108
40	0xbdbee792	-0.09321512
41	0x3e0a23ef	0.1349027
42	0xbc0ae7be	-0.008478103
43	0x3e1f8f5a	0.15582028
44	0x3e013a9b	0.12620012
45	0xbcc3d517	-0.02390532
46	0xbdd59036	-0.10427897
47	0x3d210f38	0.039321154
48	0x3dcaf221	0.09909464
49	0x3e2d0650	0.1689694
50	0x3caf5b78	0.02140592
51	0x3e586a4b	0.21134298
52	0xbd8e9752	-0.06962456
53	0x3d3793b1	0.044818584
54	0xbdbda17f	-0.092593186
55	0xbe01b960	-0.12668371
56	0xbdec9186	-0.11551194
57	0xbe4b6393	-0.19862203
58	0x3cca8d3e	0.024725553
59	0x3d439c36	0.047756396
60	0xbe343c72	-0.17601183
61	0x3de7ffab	0.11328062
62	0xbdc093f6	-0.09403221
63	0xbe04287f	-0.12906073
64	0x3e3283dd	0.17433114
65	0xbd017dd9	-0.03161416
66	0x3b0648dd	0.0020490207
67	0x3ae99c16	0.0017823006
68	0x3de63f21	0.1124251
69	0xbd35c4fe	-0.04437732
70	0x3e26e35f	0.16297673
71	0x3e12efce	0.1434929
72	0x3d9c7c95	0.0764095
73	0x3d68b9ef	0.056817945
74	0x3cd42683	0.02589727
75	0x3dc84291	0.097783215
76	0xbd6aa299	-0.05728397
77	0x3e299898	0.16562116
78	0xbca38387	-0.019960178
79	0xbcac9baa	-0.02107032
80	0xbe2e9e51	-0.1705258
81	0x3db56506	0.08857159
82	0xbd6a925c	-0.057268485
83	0xbcdc8b8b	-0.026922008
84	0xbd1c7306	-0.038195632
85	0xbe5e9c76	-0.21739373
86	0x3d6fb5ac	0.058522865
87	0x3da443cd	0.080207445
88	0xbe39941f	-0.1812291
89	0x3e2ee026	0.17077693
90	0xbd4ca259	-0.049959514
91	0x3d8d486d	0.0689858
92	0xbddd21cb	-0.10797461
93	0x3dd63164	0.10458639
94	0x3e3e4842	0.18582252
95	0xbbb81d2f	-0.0056187133
96	0x3cdb47a6	0.026767563
97	0x3cdc3fa1	0.02688581
98	0xbdfacceb	-0.12246116
99	0xbe085f28	-0.13317549
100	0xbe4f7e27	-0.20262967
101	0xbdfe72b7	-0.12424224
102	0xbe247190	-0.16058946
103	0x3daf4ee0	0.08559966
104	0x3d8140e6	0.063112065
105	0xbe272be7	-0.16325341
106	0xbe0dd3ba	-0.13850299
107	0x3dff4c85	0.12465767
108	0xbd858a56	-0.06520526
109	0x3d1876ae	0.037222557
110	0xbe15cfd2	-0.14630058
111	0x3cafb2e6	0.02144761
112	0x3e334f71	0.17510773
113	0x3e43789c	0.19088978
114	0xbe3f3b20	-0.18674898
115	0x3e50dea7	0.20397435
116	0x3e23bc14	0.15989715
117	0xbe326db8	-0.17424667
118	0xbe15d1ae	-0.14630768
119	0x3d77ea4a	0.06052617
120	0xbd2bbf0d	-0.041930247
121	0xbe013be6	-0.12620506
122	0x3e17d08a	0.14825645
123	0x3e1f7f84	0.15575987
124	0xbdf58b68	-0.1198948
125	0xbde10188	-0.1098662
126	0x3ccc6f48	0.024955407
127	0x3dcd440b	0.10022744
128	0x3e3c114c	0.18365973
129	0x3e35754c	0.17720526
130	0xbcd1f184	-0.025627859
131	0x3e3f4e0a	0.18682113
132	0x3d857a06	0.06517415
133	0x3e49ed3b	0.19719402
134	0xbe0688d7	-0.13138138
135	0x3e4b0c44	0.19828898
136	0x3dedb8be	0.116075024
137	0xbcfdaaa8	-0.030965164
138	0x3d98ee81	0.07467366
139	0xbd747406	-0.05968096
140	0xbda018cb	-0.07817229
141	0x3dcef129	0.101045914
142	0x3d8e471d	0.069471575
143	0x3e5bc37a	0.21461287
144	0xbe4574ce	-0.19282839
145	0x3e2dd15b	0.16974394
146	0xbd6eb486	-0.05827763
147	0xbd8e61fd	-0.069522835
148	0x3db1d80c	0.08683786
149	0x3c11b4f8	0.008893244
150	0x3d1fd547	0.039021757
151	0xbd86cb28	-0.06581718
152	0xbe613294	-0.2199195
153	0x3dfcf350	0.12351096
154	0x3d18db95	0.037318785
155	0x3e4835ef	0.19551824
156	0x3e486856	0.19571051
157	0xbe45e623	-0.19326071
158	0xbe054567	-0.13014756
159	0x3dce969d	0.10087321
160	0x3e485781	0.1956463
161	0x3d91b12e	0.071138725
162	0xbe1f085b	-0.15530531
163	0x3c99c540	0.018770814
164	0x3db11ba5	0.08647851
165	0x3e35a693	0.17739324
166	0xbe4adbbc	-0.19810385
167	0x3d5a4129	0.053284798
168	0xbdd1fe5f	-0.102535956
169	0xbe15d894	-0.14633399
170	0xbdcffdec	-0.10155854
171	0x3e37d682	0.17952922
172	0x3e20574a	0.15658298
173	0xbd8dec02	-0.069297805
174	0x3e5b54a9	0.21419014
175	0x3c8f9638	0.017527685
176	0xbe5db206	-0.21649942
177	0xbe4706b4	-0.19436151
178	0xbdd00f79	-0.10159201
179	0xbd43536d	-0.047686983
180	0x3d629963	0.055322062
181	0x3aafc5bd	0.0013410371
182	0x3dce1f1c	0.100645274
183	0xbd31f84e	-0.043449692
184	0x3cdcd3c4	0.026956446
185	0xbe020601	-0.12697603
186	0xbda07f02	-0.07836725
187	0xbe054e41	-0.13018133
188	0xbd889299	-0.06668586
189	0xbe0d1394	-0.13777
190	0xbe4439c0	-0.19162655
191	0x3d243e53	0.0400985
192	0x3e3502e2	0.17676881
193	0x3e1c4a50	0.15262723
194	0x3e243c33	0.16038589
195	0x3e4e2adb	0.20133536
196	0xbd1bb833	-0.038017463
197	0x3d65b38e	0.05607944
198	0xbe4d6b95	-0.2006057
199	0xbd4b5ec3	-0.04965092
200	0xbe4b4366	-0.19849929
201	0xbdbaa5a8	-0.09113628
202	0xbe5a7eef	-0.21337484
203	0xbe344653	-0.17604952
204	0xbba4e15c	-0.0050317477
205	0xbc619efa	-0.013770813
206	0xbc2b560a	-0.010457525
207	0x3e584ea8	0.21123755
208	0xbdf2e986	-0.11860947
209	0xbbf59c71	-0.007495456
210	0x3daa20ca	0.08307035
211	0x3cbe04b5	0.023195604
212	0x3e16c422	0.14723256
213	0xbe5259b2	-0.20542029
214	0xbded0b64	-0.11574438
215	0xbd13f7dc	-0.03612505
216	0xbdb0a049	-0.08624322
217	0x3e2b97ef	0.16757177
218	0x3e1acd5b	0.151174
219	0x3c43bc29	0.011946716
220	0x3d0bee89	0.03416303
221	0xbe3516a1	-0.17684413
222	0x3d26ceeb	0.040724676
223	0x3e4e574e	0.20150492
224	0xbcd25476	-0.02567504
225	0xbe62b21e	-0.22138259
226	0x3e4b2bad	0.1984088
227	0xbdc8e3cd	-0.098090746
228	0xbe572c2a	-0.21012941
229	0x3dcac0c9	0.09900052
230	0xbdb7e62d	-0.089794494
231	0xbe44d2c2	-0.19221023
232	0xbe133523	-0.14375739
233	0x3e1ca921	0.15298893
234	0xbe058638	-0.13039482
235	0xbda50758	-0.08058041
236	0xbe5eeb87	-0.21769534
237	0x3dd08534	0.101816565
238	0x3dbc425d	0.09192345
239	0xbe2ffdd7	-0.17186676
240	0xbe635ca5	-0.2220331
241	0xbe2698c3	-0.16269211
242	0x3df63ec8	0.12023693
243	0xbdf7f8ba	-0.12107988
244	0x3e493218	0.19648015
245	0x3e259300	0.16169357
246	0x3e547be5	0.20750387
247	0x3e44c0f4	0.19214231
248	0x3d86f648	0.06589943
249	0xbd9f8ed7	-0.077909164
250	0x3e2381c4	0.1596747
251	0xbe51cabd	-0.20487495
252	0x3e40f5d3	0.18843774
253	0xbd5ed150	-0.054398835
254	0x3e427a77	0.18992029
255	0xbe0a87c9	-0.1352836

lstm.bias_ih_l2 f4 [80]
0	0xbda442c1	-0.08020545
1	0xbe53923e	-0.20661256
2	0x3dac4e57	0.0841338
3	0x3d19a9b8	0.037515372
4	0xbc433773	-0.011915076
5	0x3df907bd	0.12159679
6	0x3e422eaa	0.18963113
7	0x3e338f85	0.17535217
8	0x3e345ef7	0.17614351
9	0xbcc40b5f	-0.023931203
10	0xbdc959a8	-0.09831554
11	0xbe4e2c02	-0.20133975
12	0x3d9e5bdf	0.07732367
13	0xbe1c6d16	-0.15275988
14	0xbdebcd48	-0.11513764
15	0xbdd217e4	-0.10258463
16	0xbe3a93a2	-0.1822038
17	0x3e02f804	0.12789923
18	0xbdf32af9	-0.11873431
19	0xbcc6755d	-0.024225885
20	0x3dbc36e4	0.09190157
21	0x3d912b3d	0.07088325
22	0xbe47c07e	-0.19507024
23	0xbe2dc8c9	-0.16971125
24	0x3c516204	0.012779716
25	0xbd72b5e6	-0.059255503
26	0xbe3e5445	-0.18586834
27	0xbbf8ab11	-0.007588752
28	0xbe1982da	-0.14991322
29	0xbe37ab4e	-0.17936441
30	0xbe2cdd8a	-0.16881385
31	0x3dce790e	0.10081683
32	0x3dc2f6f0	0.09519756
33	0x3e0e6db9	0.13909043
34	0xbd457211	-0.048204485
35	0x3e404980	0.18778038
36	0x3e13a276	0.14417443
37	0xbd1ad82d	-0.037803818
38	0xbd75fe45	-0.060056943
39	0x3d8089ab	0.06276258
40	0x3d1d076a	0.03833715
41	0x3e4551bd	0.19269462
42	0x3cd671fc	0.026177399
43	0x3e26b342	0.16279319
44	0x3d01281f	0.031532403
45	0x3e10afbd	0.14129539
46	0xbe457d1d	-0.19286008
47	0xbdf8a6e3	-0.12141206
48	0x3d7f8eb5	0.062391955
49	0xbe191b91	-0.14951922
50	0xbe1da5a0	-0.15395212
51	0x3e5478c9	0.20749201
52	0xbe4e43e8	-0.20143092
53	0x3da1011e	0.07861541
54	0xbe16064a	-0.14650837
55	0x3dae7458	0.085182846
56	0xbe0acfc2	-0.13555816
57	0x3e566908	0.20938504
58	0xbcbf986e	-0.023388114
59	0xbe4aa6ca	-0.19790187
60	0xbe602e15	-0.21892579
61	0xbe0b9e43	-0.13634591
62	0xbe2909a7	-0.16507588
63	0x3e2e9091	0.17047335
64	0xbe12e26d	-0.14344187
65	0xbba4dead	-0.005031428
66	0x3e41963a	0.18904963
67	0xbdb8908d	-0.09011946
68	0xbe16f14b	-0.14740483
69	0xbe44e9c3	-0.19229798
70	0xbe49880c	-0.19680804
71	0xbd812e7b	-0.063076936
72	0xbd9f88f5	-0.07789794
73	0x3db067c8	0.08613545
74	0x3cbee417	0.023302121
75	0x3e016784	0.12637144
76	0x3e46c5ef	0.19411443
77	0x3df66032	0.120300665
78	0xbe638072	-0.22216967
79	0x3dd1178a	0.10209568

lstm.bias_hh_l2 f4 [80]
0	0x3de46845	0.111527
1	0xbe4f613c	-0.20251936
2	0x3d7f14d1	0.06227571
3	0x3e5febf7	0.21867357
4	0x3c741053	0.01489647
5	0x3e074f92	0.13213947
6	0x3df169e3	0.117877744
7	0x3c08f2c0	0.008358657
8	0xbcad0ae9	-0.021123366
9	0xbcab64da	-0.020922113
10	0xbd002606	-0.031286262
11	0x3e38ce12	0.1804736
12	0xbdc3767a	-0.09544082
13	0x3d4eff83	0.050536644
14	0xbdcfd4d2	-0.10148014
15	0xbdcf9a0d	-0.10136805
16	0x3e1eac17	0.15495335
17	0xbdb95842	-0.09050037
18	0xbdc25293	-0.09488406
19	0xbd9ad0cc	-0.07559356
20	0xbe5dd04c	-0.2166149
21	0x3cda05ef	0.026614157
22	0x3de73ac2	0.11290504
23	0xbce61b41	-0.028089168
24	0x3d890ff2	0.066924945
25	0x3e5591b3	0.20856361
26	0xbde6cca8	-0.11269504
27	0x3e38037d	0.1797008
28	0xbd28864e	-0.041143708
29	0x3e141eb9	0.14464845
30	0xbe4b9bb5	-0.19883616
31	0x3b2cd66b	0.002637292
32	0xbe29cbf2	-0.16581705
33	0xbe20eeec	-0.15716141
34	0x3df1a87f	0.11799716
35	0x3e36d389	0.17854132
36	0xbdedd8d1	-0.1161362
37	0x3df90f6c	0.121611446
38	0x3d401fa8	0.04690519
39	0x3dd2ecd9	0.10299081
40	0xbe03c546	-0.12868223
41	0x3b776985	0.0037752104
42	0x3e4995c2	0.19686034
43	0xbde6c5ac	-0.11268172
44	0x3de2b56c	0.1106976
45	0x3e3ad21d	0.18244214
46	0xbe1b55a5	-0.1516939
47	0xbd33f262	-0.043932326
48	0x3dc10b89	0.09426028
49	0xbd21fb3d	-0.03954624
50	0xbdda43cd	-0.10657463
51	0xbdac4875	-0.084122576
52	0xbd44a5a2	-0.048009522
53	0x3d2b3e8f	0.041807707
54	0x3d72e242	0.059297808
55	0xbd398fb3	-0.045303058
56	0xbe64e028	-0.22351134
57	0x3e023d18	0.12718618
58	0x3db6bcdd	0.089227416
59	0xbdd640c7	-0.10461574
60	0xbe427693	-0.18990545
61	0xbe64919f	-0.22321175
62	0x3d070454	0.032963112
63	0xbe27867e	-0.16359898
64	0x3e073c8d	0.13206692
65	0xbe1ad09b	-0.15118639
66	0x3da58ee1	0.080838926
67	0xbd1fad4f	-0.03898364
68	0xbe4346f4	-0.19070035
69	0xbe38a0e6	-0.18030128
70	0xbdc6d6fc	-0.09708974
71	0xbe31f14f	-0.17377208
72	0x3d48ec37	0.049053397
73	0xbd9affcf	-0.07568323
74	0x3d833c9d	0.064080454
75	0x3de29a1a	0.11064549
76	0x3e1e14a1	0.15437557
77	0xbe51a061	-0.20471336
78	0x3e47e035	0.19519122
79	0x3e0c7033	0.13714676

linear.weight f4 [1, 20]
0	0xbe98285b	-0.2971829
1	0xbe5b5332	-0.21418455
2	0xbeb6da95	-0.3571364
3	0xbe935972	-0.2877918
4	0x3dc8cc60	0.098046064
5	0x3d32e0ba	0.043671347
6	0xbe6990b8	-0.22809112
7	0xbea41cf8	-0.3205335
8	0xbde2f5ce	-0.1108204
9	0xbe2ae194	-0.16687614
10	0xbd88d495	-0.06681172
11	0x3e16c4b7	0.14723478
12	0x3e6765d6	0.22597441
13	0x3df538a7	0.11973696
14	0xbe22a9db	-0.15885107
15	0x3dcb8196	0.09936826
16	0xbeac0833	-0.33600006
17	0x3cb8eec2	0.022574786
18	0x3d1623cf	0.036655243
19	0xbe3ecf67	-0.18633805
