Time-Series---Forecasting/Results/local/model9.pth (torch, 652429 bytes, 5 tensors)

lstm.weight_ih_l0 f4 [800, 1]
000000 98 22 ab 3b 1c bb fb 3c eb a9 ec 3c bc 8c 85 3c
       0.0052226298 0.03072887 0.028889617 0.016302459
000010 da 12 71 3d b7 78 54 3d 39 97 a1 bd 99 14 2f 3c
       0.05885587 0.051872935 -0.078901716 0.010686063
000020 6e ad ca 3c 19 5f 3f bd 6e ce 50 bd c8 14 09 39
       0.0247409 -0.04672155 -0.050978117 0.0001307308
000030 9e 97 44 be c3 fc 08 bd 0e eb 40 3c 36 2d a6 bd
       -0.19198462 -0.033444177 0.011774791 -0.08114092
000040 c1 b0 25 3d 5a 05 90 bd e3 86 21 bd 72 67 bb 3c
       0.04045177 -0.07032271 -0.03943528 0.022876475
000050 1e 6f 0b 3d 35 19 49 be 82 90 96 3d 29 ad bd 3d
       0.034041516 -0.19638522 0.073517814 0.09261543
000060 a8 9b 59 3d 61 20 ef 3c 20 6e 03 3d b5 8b 31 bd
       0.05312696 0.029190244 0.032087445 -0.043346126
000070 a1 40 51 bd f3 9c 68 bd e3 48 a1 3b da 9f 2d bd
       -0.051087026 -0.056790303 0.004922019 -0.042388774
000080 1f 8e b3 3c 5e bd a7 3d fc 67 3b bd a6 33 92 bd
       0.021918355 0.08190416 -0.045753464 -0.071387574
000090 cc 16 5b 3c 09 5f 96 3c 57 b8 f3 bb 35 cc 63 3d
       0.013372134 0.018355863 -0.0074377465 0.05561467
0000a0 0c 27 57 bc 33 1e 0f 3d 3d 4f ac bd d0 ac a8 3c
       -0.013131868 0.03494091 -0.08413551 0.020590216
0000b0 f0 63 87 bd 67 2a 4b bd 2a 67 39 bd 1f ed 4b bd
       -0.066108584 -0.049600985 -0.0452644 -0.049786683
0000c0 8e 41 6c 3d 4e ef c5 3c 14 0f 9a 3d 56 38 44 3d
       0.057679705 0.02416196 0.07522407 0.04790529
0000d0 06 1c 06 3d 6b d7 2e bd b8 46 58 bd 2a dd 10 3c
       0.03274157 -0.042685907 -0.052801818 0.008841792
0000e0 80 ad cd 3d e0 8e 95 bd 2b 6a 15 bd 6c 13 43 3d
       0.10042858 -0.07302642 -0.036478203 0.047625944
0000f0 f0 76 9e bd 1b 22 90 bd e2 05 63 bd ed 5d 3d bd
       -0.07737529 -0.07037755 -0.055425532 -0.046232153
000100 70 16 a9 3c 92 3b 4a bb de 63 83 bd 10 ec 0d bc
       0.020640582 -0.003085826 -0.064155325 -0.008662239
000110 27 84 05 be fb 47 a0 bc ec f9 44 3d d2 9f 7f 3d
       -0.13038693 -0.019565573 0.048089907 0.062408276
000120 6a 9e 49 bd 71 57 bf 3c b4 8e 15 bc dd 76 26 3e
       -0.04922334 0.023357125 -0.009128261 0.1625628
000130 58 1d 8d 3d 75 83 89 bd fe d6 87 3d 74 a6 44 3d
       0.068903625 -0.067145266 0.066328034 0.048010305
000140 76 06 a4 3c f9 f3 0c 3d ce 61 75 bc 88 9b c5 3c
       0.020022612 0.034412358 -0.014976932 0.024122015
000150 76 86 21 3b 80 be 93 3b 9e 6b d8 3c 33 1a 98 3d
       0.0024646795 0.0045087934 0.026418503 0.07426872
000160 5b fd a6 bd 03 d4 0f bc 47 6f 9d bd 24 32 84 bb
       -0.081537925 -0.008778575 -0.0768724 -0.0040342975
000170 bb 57 40 be 60 4a 9e 3c d2 bf cd bc 0e dc 42 bd
       -0.18783467 0.019322574 -0.025115881 -0.04757314
000180 6a 8e 10 bc 1c 3e 4f 3d a4 85 20 bc 45 23 91 3d
       -0.008823017 0.05059634 -0.009797487 0.07086805
000190 9e 25 15 3c 9c bf 66 bd 10 89 73 3d a2 ad b5 3a
       0.009103207 -0.056335077 0.059456885 0.0013860951
0001a0 6b 80 46 b9 b1 d3 9e 3d aa 00 23 bd 22 d1 f4 bc
       -0.00018930591 0.07755221 -0.039795555 -0.029884879
0001b0 a8 8a 36 be 80 d6 54 3d ed 28 fa bd 60 36 1a bd
       -0.1782633 0.051962376 -0.12214837 -0.037649512
0001c0 33 03 31 3c c5 0e 7e 3d b5 05 64 3c be 58 76 3d
       0.010803985 0.062025804 0.013917376 0.060143225
0001d0 df 37 40 bd 65 21 32 bd 9c a3 25 bd 49 7b bf 3c
       -0.046928283 -0.04348888 -0.040439233 0.023374217
0001e0 b2 cc db 3d 37 11 c0 bc f9 f7 03 3d b4 98 5a 3b
       0.10732402 -0.023445709 0.032218907 0.0033355178
0001f0 20 ee 89 3d f9 e7 8e bb bb 54 40 3b 13 07 e3 3c
       0.06734872 -0.0043611494 0.0029347378 0.027713334
000200 a1 d1 00 3d cd 5a 89 3d a9 ea 82 bc 2f e0 82 bd
       0.031449918 0.06706772 -0.015981035 -0.06390416
000210 33 bd 62 3c 69 d0 60 bd 8b e0 db 3c 23 d1 d3 bd
       0.013839054 -0.054886255 0.026840469 -0.10342624
000220 82 09 96 3d c0 fe 6f bd f6 38 63 3d d3 01 71 bd
       0.07326032 -0.058592558 0.055474244 -0.05883963
000230 5f 68 67 3b 8d 32 82 3d 18 d6 02 bd 7b d5 19 bc
       0.0035310013 0.06357298 -0.031942457 -0.009389277
000240 f0 71 d0 3c a3 65 d0 bd c6 d2 e8 bc ae 72 64 3d
       0.025444955 -0.10175636 -0.028420817 0.05577343
000250 eb f8 8d 3d 3c fe 78 bd e9 fd a3 3d bd 47 db bc
       0.06932243 -0.06078933 0.08007414 -0.026767606
000260 ba 26 18 bd c5 cc 84 3c cc c4 cd 3d fb a6 91 3d
       -0.037146308 0.016210923 0.10047302 0.07111927
000270 06 8e bd 3c 21 e8 29 3d b0 cb 04 bd d3 52 6e 3d
       0.023139011 0.04148114 -0.032420814 0.058184456
000280 2c cb 8b 3d 10 f7 5d bd 2b e8 62 3d 81 9e e5 bc
       0.06825861 -0.054190695 0.055397194 -0.028029682
000290 e9 dc a8 bd 67 45 d3 3d f7 56 62 3c a2 29 8d bd
       -0.0824526 0.10315972 0.013814679 -0.068927065
0002a0 a2 18 0f 3b 45 83 11 bd 82 7a 15 bb 50 c9 03 3d
       0.002183475 -0.03552558 -0.0022808616 0.03217441
0002b0 d0 f7 df 3d 91 67 1b 3c 91 92 5d bd fa 9c 0e bd
       0.10935938 0.009485141 -0.054094855 -0.034817673
0002c0 e8 87 d2 3c d1 88 2c bd d0 ec c1 3c e8 ff 9a bb
       0.02569957 -0.042122666 0.023672491 -0.0047302134
0002d0 54 52 25 bd 21 24 f8 bb 2d d9 45 3d 8a 1f 23 3c
       -0.040361717 -0.0075726663 0.048302818 0.00995625
0002e0 7c 01 29 bd 01 4f 95 3d 9e 81 36 3d 1d d3 6d bc
       -0.04126118 0.072904594 0.044557206 -0.014515665
0002f0 fd 4b 5c bd 29 30 c5 3c 2a 7b c6 bd cc d1 8a bd
       -0.053783406 0.024070816 -0.096914604 -0.06778297
000300 11 9e 6b bd 83 88 7e 3c 2f 21 12 bd da 92 97 3c
       -0.05752379 0.015535477 -0.035676178 0.018502641
000310 47 4b b5 bc 1a 28 59 bd 1e be 33 bd 2c eb b7 3c
       -0.022130622 -0.05301676 -0.04388248 0.022451006
000320 34 13 73 bd 3a 89 99 bd fc ea 81 3d bb a7 1c 3d
       -0.059344485 -0.07496877 0.06343648 0.038245898
000330 30 5c 59 bd 03 a6 57 3d 08 0c 54 3b 81 8f 30 3c
       -0.053066432 0.052648555 0.0032355804 0.0107764015
000340 22 c4 45 bd e3 ac a7 bd b4 5b 86 bd 44 bf 45 bd
       -0.04828275 -0.081872724 -0.0656046 -0.04827811
000350 85 39 27 be 16 3c 88 39 89 30 97 bc 6f 53 8f bb
       -0.16330536 0.0002598471 -0.01845576 -0.0043739597
000360 33 bb 16 bd db 42 51 bd 95 04 45 3d d6 2b 3f 3c
       -0.03679962 -0.05108915 0.048100073 0.011668166
000370 f2 21 d9 3b 09 ee 5c be 15 32 ed bb b3 1a f1 3b
       0.006626361 -0.21575178 -0.0072386363 0.007357919
000380 c7 73 dc 3c 64 e3 e9 bc 94 1d 24 3d 92 14 be bd
       0.026910676 -0.028550811 0.04006727 -0.09281267
000390 9d 79 40 3d f8 f4 8c bd ae 93 be bd d5 32 84 bd
       0.04699098 -0.068826616 -0.093055114 -0.06455008
0003a0 59 e6 a2 3c 62 5a 48 3d ba 16 26 bd 64 eb 7e bd
       0.019885229 0.04891432 -0.040549017 -0.062236205
0003b0 37 78 34 bd bd 5c c2 bb 2a 76 4e bd 8d 43 18 bd
       -0.04405996 -0.0059314654 -0.05040566 -0.037173796
0003c0 86 6d 81 bc 83 70 3c bd d4 51 8c 3c 9d 20 4c 3d
       -0.015799295 -0.046005737 0.017128862 0.04983579
0003d0 8f 0b 3b bb 98 f0 c1 3b 9f 66 c3 3c db 8a ef bc
       -0.0028540825 0.0059185736 0.023852644 -0.029241016
0003e0 a5 9a 21 bd 76 c4 fb 3c 27 03 6c 3d 33 95 68 3d
       -0.03945412 0.030733328 0.057620194 0.056782912
0003f0 cb 86 7f bc f8 87 1c bd ef 2e 87 bd fe d6 98 bd
       -0.015596102 -0.038215607 -0.06600749 -0.074628815

lstm.weight_hh_l0 f4 [800, 200]
000000 f0 0c 91 3b ac 0d d0 bb 51 0e 6d 3d a0 73 12 3c
       0.004426591 -0.006349286 0.05787498 0.0089387
000010 8a 5a eb bc 49 3a 47 bd f3 46 89 bd 53 e9 31 3d
       -0.028729696 -0.04863957 -0.067029856 0.043435406
000020 e6 d5 0c 3d 3a 43 93 3d 97 83 1d bd 09 ec f0 3c
       0.034383677 0.07190557 -0.038455572 0.029409425
000030 50 a7 7d bd 53 4f b2 3b 7a 67 d8 3c 67 e5 8e bd
       -0.06192714 0.005441585 0.026416529 -0.06977349
000040 01 81 80 bd f9 fd 89 3d 56 3c 66 bd 4b 58 9d 3c
       -0.062746055 0.067378946 -0.056209885 0.01920714
000050 7c 1d 23 3c 3f d2 a8 bc 8b 4a 24 bd 3c 96 89 bd
       0.00995576 -0.020608066 -0.040110152 -0.06718108
000060 36 9f 1a bc ec 9e 25 3d 06 8d 7d bc 70 50 2f 3b
       -0.009437373 0.040434763 -0.015475517 0.0026750825
000070 6d 89 72 3d 71 c0 c2 3c ab d2 63 bd 80 ed a5 3c
       0.05921309 0.023773404 -0.05562083 0.02025485
000080 bb c8 95 3d 8c d0 0e bc 58 34 29 bd 9d 64 9b bd
       0.07313677 -0.008716714 -0.041309685 -0.0758755
000090 2e fb e1 bc 79 4e ee 3c a5 d5 62 bd 1a 6b 46 bd
       -0.027585592 0.029090153 -0.05537953 -0.048441984
0000a0 37 48 9c bc b0 79 8d 3d 09 8f 3d 3d b4 09 54 3d
       -0.019077403 0.06907976 0.046278987 0.051767066
0000b0 79 e5 83 3d 8d f5 50 3d 51 48 39 bd 14 d9 ec bc
       0.06440253 0.051015425 -0.045234982 -0.028912105
0000c0 cd 73 a1 bb 07 c7 1e bd 3b d2 1a bb 2f 8c ec 3c
       -0.0049271346 -0.038764026 -0.0023623842 0.028875438
0000d0 1a 5e 47 bd 35 22 4f bd 8c 61 a3 ba 29 64 21 3c
       -0.048673727 -0.05056973 -0.0012464984 0.00985054
0000e0 f5 f5 79 3d 9a e3 87 3b 8f 0c b7 bc 54 8e c8 3c
       0.06102558 0.0041470053 -0.022344856 0.02448193
0000f0 d8 61 65 3c 1f e5 d7 3c 48 05 2d bd 76 2d 33 3d
       0.014000379 0.02635437 -0.042241365 0.043744527
000100 c8 13 94 bd 54 2b 06 3d 91 f3 8e 3d 7e 82 24 3c
       -0.072303355 0.032756165 0.0698005 0.010040877
000110 3c ba 07 3d fe 6d 1d 3d 77 a9 e4 3c 22 a6 d7 3c
       0.03313659 0.038434975 0.027912838 0.026324335
000120 c0 3d 7f 3c 17 ce 6f bd 04 f2 37 bd ab fd 84 3d
       0.015578687 -0.058546152 -0.04490854 0.06493696
000130 82 c0 d6 bc 67 70 bf 3c b7 55 fd bc 39 b0 3b 3d
       -0.026214842 0.023369027 -0.030924661 0.045822356
000140 5f a0 ad bc 27 4b 1b 3b a7 ad 25 ba 9c 75 67 3d
       -0.021194635 0.0023695917 -0.00063201267 0.056508645
000150 cb 1d 7f 3d 42 d0 d0 bc 79 ae b5 bc 49 bc 8a 3d
       0.062284272 -0.02548993 -0.022177922 0.06774194
000160 a3 e2 5e 3d c7 aa 50 3d 70 52 bd 3c 7c e2 58 bd
       0.054415356 0.050944116 0.023110598 -0.052950367
000170 b7 ad 0c 3b b8 6b 8c bd 25 79 85 bd e7 78 e9 bc
       0.0021465847 -0.06856483 -0.06517247 -0.028500034
000180 ef ec 15 3d ec e3 e7 3c a8 ca 81 bd 55 b3 3c bd
       0.03660291 0.028306924 -0.06337482 -0.04606946
000190 76 a0 4d bd ad 1a 35 3c 06 4e 10 bd 6b f5 80 3c
       -0.050201856 0.011053723 -0.03523066 0.015742024
0001a0 35 65 39 bb 2a e7 c5 3c 5f 4a d8 bc ed c8 af bc
       -0.0028289084 0.02415808 -0.02640265 -0.021458114
0001b0 0d 6e 7f bc 1d c8 71 bd e0 41 50 3d 24 f4 86 3d
       -0.015590203 -0.059028734 0.050844073 0.06589535
0001c0 cd f5 74 bc 99 15 5f 3c bf da 70 bd dd 45 99 bd
       -0.014951182 0.013615989 -0.058802363 -0.074840285
0001d0 f6 63 0b bd d1 24 80 3d 50 e0 6a 3c e6 c8 36 bd
       -0.034030877 0.06257022 0.014335707 -0.044625185
0001e0 8e 16 07 3c 91 27 03 3c 50 74 6c bd 2b 63 72 bd
       0.008245124 0.008005039 -0.05772811 -0.059176605
0001f0 87 9d 14 bd 3a 7a 1a bd 73 9f 32 3c 5e 4d 89 3d
       -0.036283042 -0.03771422 0.0109022735 0.0670421
000200 49 e6 0e 3d 55 7d 5d 3d cf ed 51 3d 45 ef 90 3d
       0.034887586 0.054074604 0.051252183 0.07076887
000210 0b ba 29 bb a5 92 6f 3d 39 f2 52 3c a1 c7 07 3d
       -0.0025898244 0.05848946 0.012875133 0.033149365
000220 1a b7 4f bd 8b c2 07 3d dc 17 25 3d 0b f6 37 3d
       -0.05071173 0.033144515 0.040305957 0.04491238
000230 cd ba 7b bd 3a be 8d bd 37 d4 76 3d 1b 5c 4d bb
       -0.061457444 -0.069210485 0.060260978 -0.0031335417
000240 37 a3 1f bd 46 2d ea bb 08 ea a7 3c b3 fd b3 3c
       -0.038974013 -0.0071465103 0.020497337 0.02197156
000250 55 3a ba bc d9 5a 09 bd b3 00 25 bd 0b 4c 50 bc
       -0.022732893 -0.033533905 -0.04028387 -0.012713443
000260 dc e4 1c 3d f9 80 21 3c e7 78 84 3d 11 29 13 3d
       0.038304195 0.00985741 0.06468373 0.035927836
000270 6e a4 85 3d e3 d5 b1 3c 70 46 34 bd f3 88 ef 3c
       0.06525503 0.021708434 -0.044012487 0.029240107
000280 c9 f3 72 3c c9 a7 3d bd a8 02 00 bd 0b af 29 bc
       0.014828631 -0.04630259 -0.031252533 -0.010356675
000290 8a 43 12 3c 4c b1 e5 3c 1b 1e be bc 83 68 85 bd
       0.008927235 0.028038643 -0.023207715 -0.06514075
0002a0 70 4e c2 bc f2 4e e1 3c 63 57 04 3d 23 69 52 3d
       -0.023719043 0.027503464 0.0323099 0.051369797
0002b0 13 28 75 bd a9 f3 0a bd 67 46 8f 3d c0 d4 2a 3c
       -0.05985267 -0.03392378 0.0699585 0.0104267
0002c0 4e f6 5c 3d c4 3f dc bc 08 c0 17 bd 4c 72 94 3d
       0.053945832 -0.026885875 -0.03704837 0.07248363
0002d0 36 9b 56 3d 9a d1 1d bd b8 23 f4 3c 33 f9 82 3c
       0.052394114 -0.03852997 0.029802188 0.015987968
0002e0 e8 bc 81 3d 0b 69 43 3d 1f 71 33 bd 5c f8 85 bd
       0.06334859 0.0477076 -0.043809053 -0.065415114
0002f0 2f c0 3b bd 40 5c 44 3c 24 bc 97 3d a2 a7 09 3d
       -0.045837577 0.011984885 0.07408932 0.033607133
000300 5c 89 45 bd a2 43 ec 3c 2b bc 2c 3d 40 ff ed 3c
       -0.0482267 0.028840844 0.04217164 0.029052377
000310 6d cd 6e bc 94 2d 4c bd 93 7a 64 3d 00 21 37 3d
       -0.0145753445 -0.049848154 0.05578096 0.044709206
000320 76 c0 a0 3d a9 f2 03 bd 09 ff 16 3d 55 aa 29 bc
       0.07849209 -0.03221384 0.036864314 -0.010355552
000330 85 ec 5c bd 40 97 6a bd 6b 45 bf 3b 0d 02 d1 bc
       -0.0539365 -0.05727315 0.0058371327 -0.025513673
000340 36 03 81 bc 7f 94 ef 3c 1c a2 f8 bc 0f df 8b 3d
       -0.015748601 0.029245613 -0.030350737 0.068296544
000350 70 89 aa 3c d0 a1 c3 bc 39 e7 bd bb 9d ef 14 bd
       0.020817488 -0.02388087 -0.005795386 -0.036361326
000360 77 f5 88 3d c4 89 fc bc 77 0f e2 3c 47 7b 65 bd
       0.06687444 -0.03082741 0.027595265 -0.05602577
000370 43 e8 d5 bd 19 29 cc 3b ff 9a 0f 3d ab 0f 97 3d
       -0.10444691 0.006230485 0.035059925 0.07376035
000380 6e 5b 85 3b 23 ff 53 bd 1e c1 66 3d 53 4a e7 3c
       0.004069737 -0.05175699 0.056336515 0.028233683
000390 55 c7 95 3d 66 43 d3 bc 08 2e 2c 3d 04 e0 8d 3c
       0.0731341 -0.025788974 0.042036086 0.017318733
0003a0 e0 85 ab 3b a0 81 d4 bd f4 7e 46 bd 48 89 0f 3d
       0.005234465 -0.103762865 -0.048460916 0.03504303
0003b0 c5 25 9f 3d 60 cb 2b 3d 0f 92 35 bd c6 3e d2 3b
       0.07770876 0.041942 -0.044328745 0.0064161746
0003c0 e1 78 41 bc f5 b3 8b 3d 87 ea 79 bd 2d 08 de bc
       -0.011808605 0.068214335 -0.06101468 -0.027103508
0003d0 c3 3b 21 bd 6e df dd bd f3 b1 6d bc bc 3e e8 3c
       -0.039363634 -0.108336315 -0.014507758 0.028350227
0003e0 21 7c 8d 3d 1c 84 05 bc 3c f3 d9 bc 97 3e 44 3c
       0.06908441 -0.008149173 -0.026605241 0.011977813
0003f0 09 84 fe bc 8f 00 8c bd 39 06 7e bc 21 f1 e5 bc
       -0.031068819 -0.06836044 -0.015504413 -0.02806908

lstm.bias_ih_l0 f4 [800]
000000 86 6e b9 3b c7 34 3e 3c 18 42 8c 3d ad 97 90 3c
       0.0056589274 0.011609263 0.06848544 0.01765045
000010 10 84 c1 bc c1 22 3e 3d 14 99 6e bd 10 6a a4 3d
       -0.023622543 0.046419863 -0.058251455 0.08028042
000020 1b 3f 31 3d cc 33 49 bd 2c 68 bb 3d 6f 73 86 bc
       0.043273073 -0.049121663 0.091507286 -0.016412465
000030 b4 57 a5 3d 5a 9d 4b bc ce 1c 53 bd 5b 01 ad bc
       0.08073369 -0.012427652 -0.051541142 -0.02111881
000040 14 56 48 bb fe 76 ad 3c c3 11 0e bd 8f 02 9c 3d
       -0.0030568885 0.021174904 -0.034684908 0.076176755
000050 0c ef 9f bb 45 3a 49 3d 81 ee 92 3c 1d 3f 5c bd
       -0.0048807915 0.049127836 0.017935993 -0.053771127
000060 91 95 c3 bc b5 7a 82 3b 41 32 36 3d 6f 62 f7 3b
       -0.02387503 0.003981913 0.04448152 0.007549576
000070 4c 7a 8c 3c ae 5a ed bc 7d e3 94 3d 93 a2 5f 3d
       0.01714816 -0.028973904 0.072699524 0.054598402
000080 27 b8 b1 bc a1 24 45 3c 2c 67 27 3e e8 11 6c 3c
       -0.021694256 0.012032659 0.1634795 0.014408566
000090 e4 05 9a 3c 2c 3c 1f 37 5d 16 b6 3d fc 24 7e 3c
       0.018801637 9.491148e-06 0.08890984 0.015511747
0000a0 d6 e1 85 3d 8b 7b 84 3d f8 5c 4b bd d0 a1 7b 3d
       0.065372154 0.064688765 -0.04964921 0.061433613
0000b0 b4 c7 18 bd 18 56 46 3d c2 f6 55 bc 28 1c 64 3d
       -0.037299827 0.04842195 -0.01305932 0.055690914
0000c0 e9 f7 77 3c 6c 8f ff 3c a3 f8 1a 3c 4f ba b3 3d
       0.01513479 0.031196319 0.009458694 0.0877577
0000d0 30 48 c4 bc 98 0d ab 3d af bd 6c bd 4a 15 b8 3d
       -0.023960203 0.08352202 -0.057798084 0.089884356
0000e0 2c 77 67 3d 1d 77 cd bc 61 be 87 bc 8d b7 05 3c
       0.056510136 -0.025081212 -0.016570272 0.008161438
0000f0 c2 77 30 3d 66 a3 e7 3c 6e 5f c1 3d 6a 70 2a 3d
       0.04308296 0.028276157 0.0944203 0.041611113
000100 3e 1a ed bc aa 6a 23 3c 86 b3 65 3d ed be 41 bc
       -0.028943177 0.009974161 0.05607941 -0.011825305
000110 0c 11 10 3d 34 24 55 3d 17 48 a9 3c 6b 3f b3 3d
       0.035172507 0.05203648 0.020664258 0.087523304
000120 18 2a 1c 3c bf f0 14 3d cf 16 56 3e 45 35 0f bd
       0.00953152 0.036362406 0.20907138 -0.03496291
000130 f4 60 cb bc 0c 5e 11 3d e2 13 02 3d 66 52 de 3b
       -0.024826504 0.03549008 0.031757243 0.006784725
000140 b8 d4 ec bc 2b b5 88 bc d7 cd 55 3d fd b4 7c 3d
       -0.028910026 -0.01668795 0.052198257 0.06169604
000150 e5 81 6d 3d cd 3d 25 3c b8 d6 a0 3d 69 0f 5a 3d
       0.057985205 0.010085535 0.07853454 0.053237353
000160 90 a6 4d 3d fc fc 40 bd 95 82 17 3c 1a a0 35 3d
       0.050207675 -0.047116265 0.009247442 0.044342138
000170 2b af c6 3c 81 7b ac ba e1 b7 91 3d 77 46 51 3b
       0.024253448 -0.0013159366 0.0711515 0.003193287
000180 14 6d 1f 3d 92 9f a8 3d 8e 25 c2 bb fd 80 53 3d
       0.038922384 0.082335606 -0.005924887 0.051636685
000190 78 cb 67 3c 96 ca f9 bc bf c6 a7 3d d6 72 9e 3d
       0.014147632 -0.030492108 0.08192205 0.07736747
0001a0 96 db 58 bd c6 3e 2d bd 39 42 75 bc 97 7d 62 bc
       -0.05294379 -0.042296194 -0.014969402 -0.013823888
0001b0 1c 93 b0 3d 13 d9 6f 39 f2 9e cf 3c 88 80 a8 3d
       0.08621809 0.00022873683 0.025344346 0.082276404
0001c0 7b f1 d0 bb 98 96 84 3c d8 85 e9 bc 34 3a 5d 3d
       -0.006376443 0.01618509 -0.028506204 0.054010585
0001d0 36 c5 50 bc 9a 51 3a 3d d2 83 4f 3d 1e b5 58 3d
       -0.012742331 0.045487978 0.050662823 0.0529071
0001e0 84 a7 58 bd 73 7a d3 bc 17 2b 68 3e 43 4f 91 bc
       -0.05289413 -0.025815224 0.22672687 -0.01773799
0001f0 39 de 18 bb 5e 01 2b 3b 58 92 4a 3d 9b cd 76 3d
       -0.0023325814 0.0026093344 0.04945597 0.060254674
000200 99 99 12 3d 56 fd b5 3c d8 d9 36 3c 37 ee 43 3d
       0.035791013 0.022215527 0.011160336 0.0478346
000210 82 89 50 bd 42 3e d0 3c 80 8f 4b 3d fb 57 0c bd
       -0.050912388 0.025420312 0.0496974 -0.034263592
000220 73 bb 9e 3d 30 e3 03 3d f1 fd 9c 3d b4 77 86 bb
       0.07750597 0.032199085 0.07665623 -0.004103625
000230 38 a3 ae 3c 6d a8 4a 3d 5f bb c1 bb d4 02 93 3d
       0.021318063 0.04947703 -0.005912229 0.07178274
000240 e2 68 66 3d be b0 54 39 75 88 b8 3c c6 1d 93 3d
       0.056252368 0.00020283737 0.022526005 0.07183413
000250 c2 6c 8d 3d 31 8e db bc 67 ac 80 bc 74 a2 84 3d
       0.069055095 -0.0268012 -0.015707208 0.06476298
000260 77 81 57 3d dd e2 1d 3d c7 41 56 3d c3 9a 61 3d
       0.0526137 0.03854643 0.052308824 0.055079233
000270 83 6d 80 3d b4 77 29 3d 8b 43 48 3c 44 1f 32 3d
       0.06270888 0.041373923 0.012223135 0.04348685
000280 2f 95 54 bc 5a 38 8c 3d 04 92 ae 3c 20 84 50 3d
       -0.012975021 0.06846686 0.02130986 0.050907254
000290 23 90 b1 bc 18 26 05 3d 3e 51 13 bd a8 bc 5d 3d
       -0.021675175 0.032507032 -0.03596615 0.054134995
0002a0 46 52 5b 3c 37 b8 c0 3c 8d 30 7e bc ef 1b 27 bd
       0.013386315 0.02352534 -0.015514505 -0.040798124
0002b0 c4 dd 7e 3d 5f bb 0a bd b5 76 5f bd 01 bf 1d 3c
       0.06222321 -0.033870097 -0.054556567 0.009628058
0002c0 0b 03 45 bd bd 4f 1d 3c 34 78 62 bd 5c 9d 04 3e
       -0.048098605 0.009601531 -0.055290416 0.12950653
0002d0 07 f1 68 bb 0b 0d 2e 3b 6a 75 af 3b 3c e3 9a bb
       -0.0035544054 0.0026558067 0.005354573 -0.0047267955
0002e0 b2 3d ac 3d 77 4e f2 3c 60 ee 85 bd 2c 82 9c bc
       0.08410205 0.02957843 -0.06539607 -0.01910504
0002f0 30 25 ec 3d e6 25 07 bd f7 a9 7b 3d cf 15 cf 3d
       0.115305305 -0.032995127 0.061441388 0.101115815
000300 70 68 a5 3c ad 03 f4 3c 2c 89 11 3c 0a 85 17 3d
       0.020191401 0.029786909 0.008882802 0.03699211
000310 5f bd 11 3d 22 26 12 3e b5 bc 80 3d ab 95 71 3c
       0.03558099 0.14272359 0.06285993 0.014745156
000320 69 bc 89 3d e8 c1 9c bc 05 6a 80 3d f3 1c 58 bd
       0.067253895 -0.01913543 0.062702216 -0.052761983
000330 68 61 3d bc 0c 1c 5e bd 0b dc 88 3d f8 e9 3e 3d
       -0.011558868 -0.054225966 0.06682595 0.04660985
000340 1a 74 42 bc e6 04 db bc b5 65 5b 3d 33 3f 32 3c
       -0.011868501 -0.026735734 0.053563792 0.010879326
000350 93 b5 52 bd 89 aa a8 bc cc b5 63 bd d8 a7 fc b9
       -0.051442694 -0.02058913 -0.055593297 -0.0004819024
000360 d7 1c b5 3b 37 7a 2c bd f5 c3 80 bd 60 09 31 bd
       0.0055271196 -0.04210874 -0.06287376 -0.04322183
000370 5d 72 9e bb dd ce 1d 3d 4e 79 36 bd e3 99 4c 3d
       -0.0048354105 0.03852736 -0.04454928 0.049951445
000380 f0 85 da bc 90 a5 2f bd 18 08 81 bc 6a 23 ec bc
       -0.026675195 -0.042882502 -0.01575093 -0.02882548
000390 44 2b 98 3d 82 dd db bc ad 8f 44 bd 55 9e 51 3d
       0.07430127 -0.026839022 -0.047988582 0.051176388
0003a0 a7 b7 3f 3d 77 ae e5 bc f9 43 2b 3d dd ca 3e 3c
       0.046806004 -0.028037293 0.04181287 0.011645046
0003b0 de 79 64 bd c5 89 c7 bc 79 9b a1 3c bd e6 7a 3c
       -0.055780284 -0.024357686 0.019727455 0.015313801
0003c0 f7 7f 63 bc c9 21 aa 3d 61 1b c8 3c f5 6d 13 3b
       -0.01388549 0.08307225 0.024427118 0.002249596
0003d0 05 78 16 3d 53 e4 32 bd ce 8f e6 3c 5a c0 2b bd
       0.036735553 -0.04367478 0.028144743 -0.041931488
0003e0 1b 7d ac bc b3 c1 a9 bd 30 ae 52 3c 52 62 9b 3d
       -0.021055749 -0.08288898 0.012858912 0.075871125
0003f0 4a 01 35 bb 80 7a 35 bd d0 af 2f 3d 6c f1 f9 bc
       -0.0027619177 -0.04430628 0.042892277 -0.030510627

lstm.bias_hh_l0 f4 [800]
000000 62 2b 3a bd 90 09 8f 3d de 85 5c 3d 04 3f 09 bd
       -0.04545153 0.06984246 0.053838603 -0.033507362
000010 fa 2a cd bc 8a a8 b7 3d 64 76 a2 3d 66 f6 73 bb
       -0.025044907 0.08967693 0.079327375 -0.0037225722
000020 d0 31 86 3d 03 f6 94 3d 1e 3b b6 bc de 41 26 3c
       0.0655247 0.072734855 -0.022244986 0.01014754
000030 d1 93 bc 3d 99 a0 a7 bc 89 5a ee 3c 87 ef 31 bd
       0.09207881 -0.020462321 0.029095905 -0.04344132
000040 37 fc 02 bd 67 b2 58 3d e1 df 5e 3d 62 e5 b4 bc
       -0.031978812 0.052904513 0.054412726 -0.022082034
000050 a1 6a 1d 3d 8b 57 4c 3d 01 5b ac 3d be 5d e3 bc
       0.038431767 0.049888175 0.08415795 -0.02775466
000060 3d 71 ee bb 8f c7 bf bc 71 8d 41 bd 2f ea 1c bc
       -0.0072766826 -0.023410587 -0.04725403 -0.009577318
000070 fa 3a 94 3d 2f 8f 06 bd 12 f7 09 bd 84 f6 8e 3d
       0.072378114 -0.032851394 -0.03368289 0.06980613
000080 44 7e 9e 3b b7 5b 38 3b 9c eb 39 3e f8 84 9c 3a
       0.0048368294 0.0028130838 0.18156284 0.0011941483
000090 7d 60 b3 3b 2c 8f 9e 3d aa d1 03 bd 19 96 8f 3b
       0.005474149 0.077421516 -0.032182373 0.0043819067
0000a0 cf b2 61 bc f7 9f 16 3d 83 a4 97 3d a6 f7 ce bc
       -0.013775541 0.036773648 0.07404425 -0.025264572
0000b0 f3 5a 02 bd 16 03 c7 3c 9f e7 a9 3d db 80 45 3c
       -0.031825017 0.024293464 0.08296131 0.012054647
0000c0 80 97 7b bc 0e b3 48 3d 94 9d 87 3d c0 55 81 3d
       -0.015355945 0.048998885 0.066218525 0.06315184
0000d0 da 27 61 bd 1d 07 59 bd 5e 12 70 3d 48 ed a5 3d
       -0.054969646 -0.0529853 0.058611266 0.081018984
0000e0 56 ec 81 3b 80 c6 97 3d 79 91 41 bd b7 54 2e 3a
       0.003964941 0.07410908 -0.047257874 0.0006650197
0000f0 9d 5a e8 3c f8 6c 7f 3c 91 c4 21 3d 02 d7 b6 3d
       0.02836352 0.015589945 0.0394941 0.08927728
000100 59 51 b7 bc b7 28 3c 3d 87 9a 23 3d 75 aa d4 3b
       -0.022377657 0.045937266 0.03994229 0.0064900466
000110 b7 86 b9 3d 4d 31 6c 3d 3f 52 1f 3d 98 14 21 3d
       0.09058898 0.057664204 0.038896795 0.03932628
000120 85 ba b1 3d 4b d8 9b 3d c3 76 e2 3d 4c a6 30 bd
       0.08678154 0.07609614 0.11057808 -0.043127343
000130 24 cc c3 3c ac cf 19 3d 14 05 41 3d 82 8c b2 bb
       0.023901053 0.037551567 0.047123984 -0.0054488787
000140 6d 06 38 3d c5 2a f5 bc c4 1d 8a 3d 53 2d a2 bb
       0.044928003 -0.02992762 0.067439586 -0.0049492507
000150 50 cf 64 3d 0f 51 bf 3d 10 d8 70 bd c6 53 f6 bc
       0.05586177 0.093416326 -0.058799803 -0.030069243
000160 85 e9 83 3c f6 1f 48 bd 86 63 ea 3a e9 d5 90 ba
       0.016102562 -0.048858605 0.0017882443 -0.0011050078
000170 81 ee aa 3b f7 07 a0 3d 03 74 d8 3c 48 34 84 3d
       0.00521642 0.07814019 0.026422506 0.06455284
000180 04 98 1b 3d b7 ee 90 3d 39 34 3c 3d 0b f7 53 3d
       0.03798677 0.07076781 0.04594824 0.05174927
000190 3b fc b7 3d c0 38 07 bd e3 f8 91 3d fd 01 a6 bb
       0.08983656 -0.033013105 0.071275495 -0.005066155
0001a0 ac 6c cd bb 1e 28 57 bc e3 c5 92 bc 44 46 a8 3c
       -0.006269058 -0.013132123 -0.017916625 0.020541318
0001b0 f8 91 83 3d 3f 2f ee bc 1a 85 46 3c 8c 61 f2 3c
       0.06424326 -0.029075263 0.012116695 0.02958753
0001c0 23 e5 5f bd ec 5d 83 3d 97 d6 16 bd 56 a9 41 3d
       -0.05466188 0.064143986 -0.036825743 0.047280632
0001d0 34 5d 09 bd 77 50 c2 3d 0e 57 6e bc 36 3e 8e 3d
       -0.03353615 0.09488004 -0.014547123 0.069454595
0001e0 66 1a 4e bd df 55 21 3d c9 3d 6e 3e 3f 51 a1 3d
       -0.050318144 0.039388534 0.23265757 0.078768246
0001f0 48 95 79 3d a0 8d 38 bc 5c b7 bd 3c a0 6d 0b 3d
       0.06093338 -0.011264235 0.023158722 0.034040093
000200 b2 58 b2 3d 56 39 be bc 30 9b 9f bc ee b6 bc 3d
       0.087083235 -0.0232207 -0.019483179 0.092145786
000210 7b 2c 38 bd 3f 67 14 bd 3c d8 4c 3d 31 01 a7 3d
       -0.044964295 -0.036231276 0.050010905 0.08154524
000220 66 45 bb ba 61 bd b2 3d cc 27 61 3d 19 18 2b bd
       -0.001428765 0.087275274 0.054969594 -0.04177103
000230 9c 36 26 bd 5c 10 6e bd 47 e2 0f 3d a6 bf 33 bc
       -0.040579423 -0.05812107 0.035127904 -0.0109709855
000240 fb 1f cc 3c 6c c4 f6 3c 24 8f 72 3d 3b 9b d3 bc
       0.024917593 0.030122958 0.05921854 -0.025830856
000250 c3 9a 9c 3c d6 6f 43 3d ca 96 5a 3d 0e ec 35 3d
       0.019116765 0.047714077 0.05336646 0.044414572
000260 f0 41 05 bc 18 d9 12 3c c3 7a 83 3b 88 b2 cc bc
       -0.0081333965 0.008962892 0.004012437 -0.024987474
000270 51 1a 0d 3d 04 f6 43 bb ff 1c 79 bc 98 f9 a3 3d
       0.034448925 -0.0029901275 -0.015204667 0.080065906
000280 ce 6a 4a 3c bd 58 25 bc 9b 38 b6 3d 9d 0b 3c bd
       0.012354566 -0.010091958 0.088975154 -0.045909513
000290 20 9a 38 bd 4a 7e 47 bd 62 d7 48 bc b5 55 44 3c
       -0.04506886 -0.048704423 -0.0122583825 0.011983325
0002a0 f0 fe 7b bb 3f c3 39 3d 99 62 76 3d f6 1d 0d bd
       -0.0038451515 0.045352217 0.060152624 -0.0344524
0002b0 93 35 87 3d f8 45 75 3d d8 3a 89 3c 0c 0f 47 3d
       0.06602015 0.05988118 0.016751692 0.048598334
0002c0 8a 69 7c 3d f7 8c 2f 3d ec 44 f3 3c 6a 6a 28 3d
       0.061624087 0.042859044 0.02969595 0.04111711
0002d0 be f7 02 bd a4 a5 1c 3c 17 a7 c6 bc 49 db 43 3c
       -0.031974547 0.009560976 -0.024249597 0.011954137
0002e0 ef fa 97 3d 9d f1 95 bc c5 71 ee bc 0b f1 22 3a
       0.07420909 -0.018303687 -0.029106984 0.0006215728
0002f0 b5 96 e0 3d f1 5b 90 3d 87 21 b0 3d 9a a7 c2 bb
       0.10966245 0.070487864 0.08600145 -0.00594039
000300 c9 5e c4 3c 56 cb 79 3d ee 26 73 3b 71 fb d3 3d
       0.023970978 0.060984932 0.0037102061 0.10350693
000310 5c 66 0b bd 17 44 4a 3d 91 63 a0 3d 40 b2 e7 bc
       -0.034033164 0.04938134 0.07831491 -0.028283238
000320 87 82 4c 3d 40 83 70 3d 53 0f b1 3a 47 ab 43 3d
       0.049929168 0.05871892 0.0013508595 0.047770765
000330 33 a8 e3 bb 86 6f 5a bd e5 45 2b 3d eb 32 94 3d
       -0.006947541 -0.053329013 0.041814703 0.07236274
000340 33 ac 89 bb 3d 8d 6c bb 74 12 49 bd 14 fb 6f bc
       -0.004201436 -0.0036094927 -0.049089864 -0.014647264
000350 7c 68 93 bc b5 24 57 3c ba b6 42 bd d8 99 0e bc
       -0.017994158 0.01313131 -0.047537543 -0.008703671
000360 76 06 dc bb d6 19 bb bc 5d 3d 96 bd b1 de 3e bd
       -0.0067146374 -0.022839468 -0.07335923 -0.046599094
000370 46 5b 40 3d 48 a5 3c 3d 53 31 b6 3c 14 75 66 3d
       0.046962045 0.046056062 0.022240316 0.056264
000380 24 5a d7 bc f0 cd 93 3d 19 bf 87 3d 4e a9 18 3d
       -0.0262881 0.07217014 0.06628246 0.037270837
000390 59 a0 79 3d 9d b8 1e 3d a2 44 80 3d 0e eb 44 3d
       0.060943935 0.03875028 0.06263091 0.048075728
0003a0 7a 3c 85 3d 37 51 e3 bc 31 a4 87 bc 99 14 21 3d
       0.065056756 -0.027748687 -0.016557785 0.039326284
0003b0 53 13 0b bd 1a a0 67 bd a5 f4 27 3d c3 a2 7d 3c
       -0.033953976 -0.05654917 0.041004796 0.0154807
0003c0 0b 74 e6 bc b6 62 a9 3d ed 20 7d 3d 56 c9 fd bc
       -0.028131505 0.08270781 0.06179898 -0.030979794
0003d0 15 2f 8e 3d 14 e5 86 bc 9b e5 32 3d 21 53 91 bc
       0.06942574 -0.016466655 0.043676 -0.017739834
0003e0 0f 0e cb bc 82 73 79 3c 26 4d 37 3d 68 7f 0e 3d
       -0.024786977 0.015225293 0.04475131 0.034789473
0003f0 9c 6c 1b bb bc 78 8d 3d ab 27 10 bd 49 7d 4f 3c
       -0.002371586 0.06907794 -0.03519408 0.012664148

linear.weight f4 [1, 200]
000000 fc 35 be 3c 0f de c9 bd f8 c0 a1 bd 61 5d 9f bc
       0.023219101 -0.098568074 -0.07898134 -0.019453706
000010 87 69 84 bc 99 7e bf 3d ae 58 b2 3d e1 83 7a bc
       -0.0161636 0.093503185 0.087083206 -0.015290231
000020 0a 86 71 3d b4 bb 45 3d ff 76 eb 3d 4f 16 db 3c
       0.05896572 0.04827471 0.11497306 0.026744036
000030 1a 8d 38 bd c1 93 cb bd f4 fe ba bd 3e e9 ba 3c
       -0.04505644 -0.09940291 -0.0913066 0.022816297
000040 19 a1 93 3d 7e bf 9e 3c 0c d8 78 3c c9 18 88 bd
       0.07208461 0.01937842 0.015188228 -0.066453524
000050 4a 28 a0 bd ca 0f 65 bd d5 25 7e bd 5e b3 53 3d
       -0.078201845 -0.05592326 -0.0620478 0.05168473
000060 f7 10 0f bd 06 74 a7 bd 0d 7a cd bd e5 2c 38 bd
       -0.03492829 -0.081764266 -0.10033045 -0.04496469
000070 50 5e 3c bc 5f f9 81 3d 37 25 a3 bd 9e d5 a5 bd
       -0.011497095 0.06346392 -0.079660825 -0.08097385
000080 46 b3 2e 3d e5 e0 37 bd 27 16 fb 3d 0b 99 dc bd
       0.042651437 -0.04489221 0.122600846 -0.10771378
000090 54 d6 78 3d fa a2 14 bc cd 3f ae 3d 43 d1 fb 3d
       0.060751274 -0.00907206 0.08508263 0.12295773
0000a0 f9 15 38 bd 26 e5 47 3d db 71 5f 3d 58 d7 c5 bd
       -0.04494283 0.048802517 0.05455194 -0.09660214
0000b0 df 58 b5 3d 38 0d 9c bc 88 19 93 3d 53 02 d0 3c
       0.088548414 -0.019049272 0.07182604 0.025391733
0000c0 ea df bd bd 49 28 ba bd 17 3f 0a bd 3c da 97 bd
       -0.09271224 -0.09089715 -0.033751573 -0.07414672
0000d0 28 5f 32 3d 65 2e 7f 3d 9d ba 18 bd 7c 5b 0e be
       0.04354778 0.062300105 -0.037287343 -0.13902086
0000e0 a3 34 26 bd e6 3b c3 bd bd 21 ac bc a9 65 ad bd
       -0.040577542 -0.09532909 -0.021012181 -0.08466656
0000f0 2c e3 a2 bd 9c e0 5c 3d ff ca d3 3d 7f fc de bd
       -0.07953486 0.05392514 0.10341453 -0.108880036
000100 4f 31 50 bd 2e d2 dc bc a3 55 bd 3d b6 95 50 3d
       -0.050828274 -0.02695569 0.092448495 0.050924025
000110 a7 93 ba bd 2a 9c 67 bd 1c 2a 65 bb 17 ab af bd
       -0.09110194 -0.056545414 -0.0034967726 -0.08577555
000120 b0 17 a2 3d 3a 7a ce 3c d9 e7 3e be 0a 79 9a bd
       0.07914674 0.025204767 -0.1864313 -0.075426176
000130 51 a3 19 bd 28 c5 98 bd 3c 73 98 3b 62 4e 65 bd
       -0.037509266 -0.074594796 0.004652409 -0.055982955
000140 50 a0 87 bc c9 fc d4 bc 73 d4 ba bd f5 a4 8d bd
       -0.016555935 -0.025999444 -0.09122553 -0.06916229
000150 f3 03 3c bd 19 b8 10 be aa e2 53 3c 3a 98 db 3d
       -0.045902204 -0.14132728 0.012932459 0.10722394
000160 a1 00 85 3c 9f 6e 30 bb 32 c3 c4 bd a3 0e 75 bc
       0.016235651 -0.0026921404 -0.09607543 -0.014957103
000170 d2 67 8a bd e1 7f c9 3c 20 97 c6 3c 6c 82 ac bc
       -0.067580834 0.02459711 0.024241984 -0.021058284
000180 4f 22 e8 bd 4a 51 43 3d cc ca 0a 3b 69 70 c3 3d
       -0.11334669 0.047684945 0.0021178005 0.09542925
000190 58 1d a3 3d 97 ed 73 3d f3 69 63 3c c5 05 ae bd
       0.07964581 0.059552755 0.013880241 -0.08497194
0001a0 51 f3 48 3d 80 89 16 3d 97 c0 41 bc d5 36 ca 3d
       0.04906017 0.036752224 -0.011825702 0.0987374
0001b0 c4 b1 c6 3d ad b2 cd 3c 10 5e 71 3d 34 11 94 3d
       0.09701875 0.025109613 0.058927596 0.07229844
0001c0 b1 8d f5 bb 6c 7a 72 3d b8 94 11 bd 3a 7a ad 3d
       -0.0074936976 0.05919878 -0.03554222 0.084705785
0001d0 b3 70 a8 3b 11 fe eb bd e3 d6 48 3d b7 18 cd bd
       0.005140388 -0.11523069 0.049033057 -0.100144796
0001e0 cb 8b b4 3d 10 40 0a bd d8 5b 53 3e dc 09 ba 3c
       0.08815726 -0.0337525 0.20640504 0.02270978
0001f0 56 a7 73 3c 0c 04 4e bb 2f 2f b8 3d a8 a9 95 3d
       0.014871439 -0.0031435518 0.089933746 0.0730775
000200 45 7d c6 bd 46 48 f1 3c f2 72 39 bd fe 24 6a 3d
       -0.09691862 0.029453408 -0.045275636 0.057164185
000210 62 4e 4c bd 25 0e 6f 3d 9e 6b c8 3d 3b 4a a4 bd
       -0.04987944 0.0583631 0.09786151 -0.08021971
000220 37 4f bd 3d 78 93 c9 bd 60 b4 23 bd b3 8b 19 bd
       0.09243625 -0.098425806 -0.03996694 -0.037486743
000230 76 38 44 3c 9d 8a ab 3c 89 79 ba 3d 22 98 ba 3d
       0.011976352 0.02094012 0.09105212 0.09111048
000240 cf f2 70 bc b5 01 6b bd 4f 1f ed 3c 30 bf d6 bd
       -0.014706328 -0.057374675 0.028945593 -0.10485685
000250 7b c1 a2 3d 03 e9 33 bd f1 2d 80 3d 38 55 c2 3d
       0.0794706 -0.04392339 0.06258763 0.094889104
000260 75 8d 03 bc 1d a5 e6 3c b0 f0 96 bd e5 06 85 3d
       -0.008029331 0.028154904 -0.07370126 0.06495456
000270 5b 68 33 bd 1d 4c d3 bd 3d 36 4a bd d3 68 97 bd
       -0.043800693 -0.10317252 -0.049368132 -0.073930405
000280 e7 51 26 bd 35 fb 84 bd 4e 0b 94 bd 34 f6 f1 3c
       -0.040605452 -0.064932264 -0.07228719 0.029536344
000290 48 f2 06 3d 56 26 9a bd bf 05 49 3d ed d9 d6 3c
       0.0329459 -0.07526843 0.049077746 0.026226962
0002a0 17 15 32 3d 5b 2b 82 3d 2a 5a 45 3d 87 ec c0 bd
       0.043477144 0.06355926 0.04818169 -0.09420114
0002b0 e0 eb 95 3d 54 d0 cb bc b8 7a df bb 1c d4 da bc
       0.0732038 -0.024879612 -0.006820049 -0.02671247
0002c0 75 e5 68 3d 5e 94 91 bd f9 b4 29 3d 14 ee 00 be
       0.056859452 -0.07108377 0.041432355 -0.1259082
0002d0 1f 32 68 bd e6 ce 5e 3d 89 14 07 3d 9a b7 dc 3c
       -0.056688424 0.054396532 0.03297857 0.026943017
0002e0 b1 11 e7 3d e6 38 4f bd 01 e5 29 3b 9b e7 4f bd
       0.11282671 -0.050591372 0.002592385 -0.050757986
0002f0 23 19 a2 bd fd 24 78 bd b9 d1 b5 bd 81 e1 ed bd
       -0.07914951 -0.06058215 -0.08877892 -0.11615277
000300 c3 3b 1b 3d 65 67 49 3d f8 14 a3 3c a9 ae b7 bd
       0.03789879 0.04917087 0.01990746 -0.08968861
000310 6d 99 a7 3d b3 86 fb bd 35 d7 5c 3d 6c 1f 57 3b
       0.081835605 -0.12281551 0.053916175 0.0032825125
