Time-Series---Forecasting/Results/local/model26.pth (torch, 11796 bytes, 13 tensors)

lstm.weight_ih_l0 f4 [40, 1]
0	0xbd143139	-0.036179755
1	0x3e8d35ae	0.27580017
2	0x3e2b8d8c	0.16753215
3	0xbf2148d4	-0.6300175
4	0x3db5436a	0.08850749
5	0x3e87502d	0.26428357
6	0xbd7a4b85	-0.061107177
7	0x3d3120d2	0.04324419
8	0x3e51f7f2	0.2050474
9	0xbdbb96c4	-0.09159616
10	0x3d47413f	0.048646208
11	0x3f3bc8b2	0.7335311
12	0xbe6e17e9	-0.23251309
13	0xbf06bb68	-0.5262971
14	0xbe9a60d2	-0.30151993
15	0x3e7f016b	0.24902885
16	0xba6971cc	-0.00089052017
17	0x3db1c438	0.08680004
18	0x3c5b6fac	0.013393324
19	0xbcd6448f	-0.026155738
20	0xbeb61837	-0.3556535
21	0x3e981f51	0.29711393
22	0x3e518d0d	0.20463963
23	0xbf3aa62f	-0.72909826
24	0x3bca563d	0.006174831
25	0xbe9fe1df	-0.31227013
26	0x3e8555c0	0.26041985
27	0x3ef6f325	0.4823238
28	0x3eaef348	0.34169984
29	0x3e33fef6	0.17577729
30	0xbe6dcad8	-0.2322191
31	0x3f0d5e51	0.5522204
32	0x3d09ce7d	0.03364419
33	0xbf515316	-0.81767404
34	0xbcd63f3b	-0.026153198
35	0x3f599aa4	0.8500159
36	0xbe5540c3	-0.20825486
37	0xbe0431da	-0.12909642
38	0xbea33387	-0.3187525
39	0xbe3e283b	-0.18570034

lstm.weight_hh_l0 f4 [40, 10]
0	0xbe224b59	-0.15849055
1	0xbd8ba036	-0.06817667
2	0x3e1df72b	0.15426318
3	0x3eaac92a	0.333566
4	0x3d7a8aa4	0.061167374
5	0xbc64570e	-0.013936771
6	0xbca792f8	-0.020455822
7	0xbe61a0c6	-0.22033986
8	0x3e6099c3	0.21933655
9	0xbefa719e	-0.48914808
10	0x3e9e0936	0.30866402
11	0xbe0c1c7f	-0.13682745
12	0xbe928c1c	-0.2862252
13	0x3f124caf	0.5714826
14	0x3ec5600d	0.38549843
15	0xbed145f0	-0.4087367
16	0x3e72d40d	0.23713703
17	0xbdae4f1c	-0.08511183
18	0x3e6c6440	0.23085117
19	0x3e1d5c99	0.15367354
20	0x3ea8ad37	0.32944652
21	0x3d6ec795	0.058295805
22	0xbe702cce	-0.23454592
23	0x3eac7d1d	0.33689204
24	0xbd92c31f	-0.07166123
25	0xbc6ca77c	-0.014444228
26	0x3e844dd1	0.2584062
27	0x3e32db88	0.17466557
28	0xbd88bdf4	-0.06676856
29	0x3c689945	0.014196699
30	0x3e13e6d5	0.14443524
31	0x3f971742	1.1803973
32	0xbdde57be	-0.10856579
33	0xbe5ba266	-0.21448669
34	0x3eb7d4f5	0.3590466
35	0xbf30d168	-0.6906953
36	0xbe52bbe0	-0.20579481
37	0xbe01f4d3	-0.1269105
38	0x3e398d28	0.18120253
39	0x3e815d56	0.25266522
40	0x3d828c44	0.0637441
41	0x3d78e161	0.060761813
42	0x3eb5fc37	0.35543987
43	0x3e9f8abc	0.31160533
44	0x3e7f864f	0.24953578
45	0xbc0380f4	-0.00802635
46	0xbd31ebb3	-0.04343767
47	0x3e8f07b4	0.27935565
48	0x3e063d4e	0.13109323
49	0x3e1ec214	0.15503722
50	0xbe86f9ab	-0.26362357
51	0xbd86997a	-0.06572242
52	0xbdbfd617	-0.09367006
53	0x39bfeb9b	0.000366059
54	0x3ddb9f7d	0.10723779
55	0xbcc12b52	-0.023580227
56	0x3e78d060	0.24298239
57	0x3eaa4fae	0.33263916
58	0xbd7933b0	-0.06084031
59	0xbdfcad9a	-0.12337799
60	0xbbf846ea	-0.007576813
61	0xbd946166	-0.0724514
62	0x3e42bc58	0.1901716
63	0x3e9a6442	0.30154616
64	0xbe0bb6a5	-0.13643892
65	0x3e35fdac	0.1777255
66	0xbe2fbb21	-0.17161228
67	0xbec8d7c1	-0.39227107
68	0xbe9632bf	-0.2933559
69	0xbe22763b	-0.15865414
70	0x3e09ff8c	0.1347639
71	0x3ee98e8e	0.45616573
72	0xbd01b8ba	-0.03167031
73	0x3ed141f4	0.4087063
74	0x3f2cae4d	0.6745346
75	0xbe72245b	-0.23646681
76	0x3f1b823f	0.60745615
77	0xbc7cad82	-0.015422227
78	0xbe5f5f9f	-0.2181382
79	0xbe84333b	-0.25820336
80	0xbe1514f2	-0.14558771
81	0xbeb816b4	-0.3595482
82	0xbdfa4721	-0.12220598
83	0x3eb07d6f	0.34470698
84	0x3e257054	0.16156131
85	0xbe41a8dd	-0.18912072
86	0xbd374f08	-0.044753104
87	0x3d9d1ed0	0.07671893
88	0xbe60a4ba	-0.21937838
89	0xbed66cfe	-0.4188003
90	0x3eadf1bf	0.339735
91	0x3e0699a0	0.13144541
92	0xbedcb0b5	-0.43103567
93	0x3ec1263b	0.3772448
94	0x3e860cab	0.2618154
95	0xbe8b1a6f	-0.27168605
96	0xbdf2ee40	-0.11861849
97	0xbea49914	-0.3214804
98	0xbea16967	-0.31525728
99	0xbcaab5a3	-0.020838564
100	0xbe920365	-0.28518215
101	0x3e61c7e0	0.22048903
102	0xbded33c4	-0.11582139
103	0x3e06c616	0.13161501
104	0x3d8808cf	0.06642305
105	0xbee9480e	-0.45562786
106	0xbd1f7c97	-0.038937178
107	0x3ea7c111	0.32764485
108	0xbdc92fb2	-0.0982355
109	0xbc4cbc18	-0.012496017
110	0x3e191a9d	0.14951558
111	0xbe23ffd7	-0.16015564
112	0x3e05aa54	0.13053256
113	0x3e7d7992	0.24753407
114	0xbde2ef9e	-0.110808596
115	0xbea9a6f3	-0.33135185
116	0x3e902fed	0.28161564
117	0x3ee143ab	0.4399694
118	0x3ead9980	0.33906174
119	0x3ea02dd4	0.31284964
120	0xbeb9f2e4	-0.36318123
121	0xbd965a88	-0.07341486
122	0x3e5bca53	0.214639
123	0x3e7336b7	0.23751341
124	0x3e01f4ca	0.12691036
125	0xbe321d30	-0.17393947
126	0xbe16463d	-0.14675231
127	0x3d6ef633	0.058340263
128	0xbe24eca5	-0.16105898
129	0x3df10780	0.11769009
130	0x3e4fac98	0.20280683
131	0x3f203ea5	0.6259559
132	0xbece1e0a	-0.40257293
133	0x3be0964a	0.0068538534
134	0x3d953cd3	0.07286992
135	0xbe4f4f27	-0.20245038
136	0xbeb66d9b	-0.35630497
137	0xbe3a26f2	-0.18178919
138	0x3dabda64	0.08391264
139	0xbd843079	-0.06454558
140	0x3da42576	0.080149576
141	0x3ed7be04	0.42137158
142	0x3eaf5332	0.3424316
143	0xbd94bfa0	-0.07263112
144	0x3e262a23	0.16227011
145	0xbeb7cd68	-0.358989
146	0x3e47de49	0.19518389
147	0x3cc445c4	0.023959048
148	0x3dc41abc	0.09575412
149	0xbea1f900	-0.31635284
150	0xbe0c64c9	-0.13710321
151	0xbd0c0086	-0.034180187
152	0x3dbdb4b8	0.09262985
153	0x3e917594	0.28410017
154	0x3ec695ee	0.38786262
155	0xbef1ee5c	-0.47252166
156	0x3edfd19c	0.43714607
157	0x3e031872	0.12802294
158	0xbe2dc3e0	-0.16969252
159	0x3ea2bf4d	0.31786576
160	0x3d89f93a	0.06736989
161	0x3ed10be5	0.40829387
162	0x3e7d138f	0.24714492
163	0xbe6d3523	-0.23164801
164	0x3ea66ae0	0.32503414
165	0x3e22b808	0.15890515
166	0xbe20dce9	-0.1570927
167	0x3e8a5269	0.27016
168	0xbe4b4c5e	-0.1985335
169	0xbe0bace9	-0.13640179
170	0xbe28f4f7	-0.16499697
171	0x3e76fb9a	0.24119416
172	0xbd844bfe	-0.06459807
173	0xbe27cbc8	-0.1638633
174	0x3e5ef9dd	0.21775003
175	0xbe87411c	-0.26416862
176	0xbe411575	-0.18855841
177	0x3eb10a81	0.34578326
178	0x3e05e83f	0.13076876
179	0xbe8ed4c6	-0.27896708
180	0x3e5531ed	0.20819826
181	0xbe374743	-0.17898278
182	0xbe65381d	-0.22384687
183	0x3f032dba	0.5124165
184	0x3eecb31e	0.46230406
185	0xbefd29b1	-0.4944587
186	0x3deeeb5d	0.11665986
187	0x3e800919	0.2500694
188	0xbe5d4689	-0.21608938
189	0xbdd55905	-0.1041737
190	0x3f1712c5	0.59013015
191	0x3f0ca05e	0.549322
192	0x3d8c7877	0.06858914
193	0x3f07ba7d	0.53018934
194	0x3ed5fb80	0.41793442
195	0xbf01c363	-0.5068876
196	0xbe736638	-0.23769462
197	0xbda62142	-0.08111812
198	0xbef6c2da	-0.48195535
199	0xbdeba587	-0.11506181
200	0x3d7789c3	0.060434114
201	0x3e8ad71a	0.27117234
202	0xbd89c287	-0.06726556
203	0xbea9efda	-0.33190805
204	0xbdf5d3be	-0.12003277
205	0xbd6ddf0a	-0.058074035
206	0xbde8d693	-0.11369052
207	0x3e201792	0.15633991
208	0xbe13b698	-0.14425123
209	0x3d5e9430	0.05434054
210	0xbe192772	-0.14956453
211	0x3d91b471	0.071144946
212	0x3e0e4ba5	0.13896044
213	0x3d9367e6	0.071975514
214	0xbea031c6	-0.31287974
215	0xbeb46c7c	-0.35239017
216	0x3ea972f0	0.33095503
217	0x3ef7c8a5	0.48395267
218	0xbbed0b5d	-0.0072340206
219	0x3e004e03	0.12529759
220	0xbe8cdbae	-0.27511352
221	0xbd9c1aef	-0.07622325
222	0xbe1b9eb7	-0.15197264
223	0x3e8c19dd	0.27363482
224	0xbe7b2421	-0.24525501
225	0xbcb81123	-0.022469109
226	0x3eb29396	0.34878224
227	0x3cbf104e	0.023323204
228	0x3e9c8e96	0.30577534
229	0xbdce2293	-0.10065188
230	0xbecb65ae	-0.39726013
231	0x3dfa39d3	0.1221806
232	0xbcc561cc	-0.024094485
233	0xbea2938e	-0.317532
234	0x3d10eb24	0.035380498
235	0xbeafdf97	-0.34350273
236	0x3cf07d69	0.029356675
237	0x3d945fc4	0.07244828
238	0x3dd54c79	0.104149766
239	0x3d437592	0.047719546
240	0xbeaf2fc2	-0.34216124
241	0x3d848ee6	0.06472568
242	0x3e19b61c	0.15010875
243	0x3ea546cb	0.32280573
244	0xbda0484e	-0.07826291
245	0xbc55e3db	-0.013054813
246	0x3e1552bf	0.14582346
247	0x38dd7f08	0.000105617626
248	0x3dc7ad7f	0.09749889
249	0x3e6c732e	0.23090813
250	0x3df98fec	0.12185654
251	0xbbd7b0e1	-0.006582365
252	0x3c2186b0	0.009858772
253	0xbe4818b0	-0.19540668
254	0x3e92b277	0.28651783
255	0x3e26d980	0.16293907

lstm.bias_ih_l0 f4 [40]
0	0x3c0d0fc1	0.008609713
1	0x3ea237a6	0.3168308
2	0x3d353663	0.04424132
3	0x3c803f0b	0.015655061
4	0x3dc9a225	0.0984538
5	0x3eb7a919	0.358712
6	0x3ed02a38	0.4065721
7	0x3f1274dd	0.5720957
8	0xbe2844c8	-0.16432488
9	0x3d717dfa	0.05895803
10	0xbe18a892	-0.14908054
11	0xbe5f8e92	-0.2183173
12	0xbd1d48d2	-0.038399525
13	0xbe564c8d	-0.2092764
14	0x3dbde648	0.09272438
15	0xbd0b9e69	-0.03408662
16	0xbd012da7	-0.031537678
17	0x3da1544b	0.07877406
18	0x3e9acdd1	0.3023515
19	0x3d013890	0.031548083
20	0x3dbb9e4e	0.091610536
21	0x3e7c9897	0.24667583
22	0x3e98dd00	0.2985611
23	0xbcf41466	-0.029794883
24	0x3ec7acf2	0.38999134
25	0xbeb36217	-0.35035774
26	0x3e486a4d	0.195718
27	0x3e862105	0.26197067
28	0xbe8b8be0	-0.27255154
29	0xbe1695ff	-0.14705656
30	0x3ef3a294	0.47584975
31	0x3f014280	0.50492096
32	0x3e3c2a51	0.18375517
33	0x3e9d874b	0.30767283
34	0xbda37cf8	-0.0798282
35	0x3d52aee1	0.05143631
36	0xbdc92018	-0.098205745
37	0x3f389910	0.72108555
38	0x3e9106d5	0.28325525
39	0x3c642bb7	0.013926438

lstm.bias_hh_l0 f4 [40]
0	0xbd8138f7	-0.06309693
1	0xbe25399e	-0.1613526
2	0x3e543250	0.20722318
3	0x3e64e18b	0.22351663
4	0xbc937bd8	-0.01800339
5	0x3dbe19a1	0.09282232
6	0x3d125d84	0.035733715
7	0x3f2f1f61	0.68407255
8	0xbe205e3d	-0.15660949
9	0x3e1d0f36	0.15337834
10	0x3ed79496	0.4210555
11	0x3e8fd04d	0.28088608
12	0x3ea31f61	0.31859878
13	0xbbd72890	-0.0065661147
14	0x3e5aebfb	0.21379082
15	0xbe01140f	-0.12605308
16	0x3e9b788c	0.30365407
17	0x3db4a94e	0.08821355
18	0x3ee927a4	0.45538056
19	0x3e95de3e	0.2927112
20	0x3c65eaf2	0.014033066
21	0xbe06b3f8	-0.1315459
22	0xbe7a56ec	-0.2444722
23	0x3e4c97e9	0.19979824
24	0x3dd2b278	0.102879465
25	0xbec5a50e	-0.3860249
26	0x3e9793d9	0.29604986
27	0xbe896228	-0.268327
28	0x3d07be20	0.0331403
29	0x3e514a2b	0.20438449
30	0x3c5f82e9	0.013642051
31	0x3ea37a12	0.3192907
32	0x3ee74c19	0.45175245
33	0x3ea66ea8	0.325063
34	0x3d3351c0	0.043779135
35	0x3e634249	0.22193255
36	0xbdd4deaf	-0.10394036
37	0x3f567cdf	0.8378429
38	0x3e0665fd	0.13124843
39	0x3f030a1d	0.51187307

lstm.weight_ih_l1 f4 [40, 10]
0	0xbd93c4ce	-0.07215272
1	0xbca7726a	-0.020440299
2	0x3e83150c	0.25601995
3	0x3e6f1c5e	0.23350665
4	0x3d13f299	0.03612003
5	0x3e1f5082	0.15558055
6	0xbd2981f6	-0.041383706
7	0xbd7a8247	-0.0611594
8	0xbe9ce4cd	-0.3064331
9	0xbdd5d38a	-0.104407385
10	0x3b870088	0.0041199364
11	0xbdf75135	-0.12076036
12	0x3e79aa56	0.24381384
13	0xbe606b27	-0.21915875
14	0xbd92f617	-0.07175844
15	0xbe9dacba	-0.30795842
16	0xbdc518a1	-0.09623838
17	0xbda3b249	-0.079929896
18	0xbdb204a1	-0.08692289
19	0x3d2a3335	0.04155274
20	0xbcfafd5f	-0.030638395
21	0x3db18e2a	0.08669694
22	0x3e3c951e	0.18416259
23	0x3dda573c	0.1066117
24	0x3c141f07	0.009040601
25	0xbd491838	-0.049095362
26	0xbe015947	-0.12631713
27	0xbc12b938	-0.008955292
28	0x3d74b9b3	0.05974741
29	0x3d6211f3	0.0551929
30	0xbe5df35a	-0.21674863
31	0x3e94fd6e	0.29099602
32	0xbbb48ccc	-0.0055099484
33	0x3e9e7fb5	0.30956808
34	0x3e0ab8c3	0.13547044
35	0x3e9e861e	0.30961698
36	0xbd9883e4	-0.07447031
37	0xbe9882b2	-0.29787213
38	0x3dc29201	0.09500504
39	0xbe64641d	-0.22303815
40	0xbe9d9be9	-0.30783013
41	0x3daf8584	0.08570388
42	0xbe3a3c4e	-0.18187067
43	0x3e0807fd	0.13284297
44	0xbdf8858c	-0.12134847
45	0x3d4b98a9	0.049706135
46	0x3c81a651	0.015826376
47	0x3e63a19d	0.2222962
48	0xbe3882a0	-0.1801858
49	0xbe6bc278	-0.23023403
50	0xbe1bd3d9	-0.15217532
51	0x3e869e62	0.26292711
52	0xbd9ac3f6	-0.07556908
53	0x3e6edeb4	0.23327142
54	0x3d0af3fd	0.03392409
55	0xbe042ecb	-0.12908475
56	0x3c5f3c86	0.01362527
57	0x3e13fcca	0.144519
58	0xbe44b2f1	-0.19208886
59	0xbd760ed5	-0.06007274
60	0x3e04e086	0.12976274
61	0x3e4f0de1	0.20220138
62	0x3e3bfb60	0.1835761
63	0xbe90824c	-0.2822441
64	0x3e858fef	0.26086375
65	0xbe65472c	-0.22390431
66	0x3e23cf0d	0.15996952
67	0xbd91bd85	-0.07116226
68	0x3e947685	0.28996673
69	0xbd12b387	-0.035815742
70	0xbce7c0d6	-0.028290194
71	0xbe892bd8	-0.26791263
72	0xbe0fe317	-0.14051472
73	0xbe6711f8	-0.22565448
74	0xbe8b9b3b	-0.2726687
75	0xbe6607e3	-0.22463946
76	0xbdd9d150	-0.10635626
77	0x3df25062	0.11831738
78	0x3e92c6d8	0.2866733
79	0x3cdd7fc0	0.027038455
80	0x3d24ecd5	0.040264923
81	0xbe4c0739	-0.1992463
82	0x3d0a5d8b	0.033780616
83	0x3e1d067d	0.15334506
84	0x3e17df86	0.14831361
85	0xbe0f5f09	-0.14001097
86	0x3e89d538	0.26920485
87	0x3e3f8339	0.18702401
88	0x3e630447	0.221696
89	0x3e7c57d9	0.24642886
90	0x3e84b390	0.25918245
91	0xbd894182	-0.06701948
92	0xbd895ddf	-0.067073576
93	0x3e4f4c12	0.20243862
94	0x3cfbd4f5	0.030741194
95	0xbdd28f74	-0.10281268
96	0xbdb87c3e	-0.09008072
97	0xbe456d27	-0.1927992
98	0x3c94f8c1	0.018185021
99	0xbd985202	-0.07437517
100	0x3e9f36d2	0.31096512
101	0xbdaf86f5	-0.08570663
102	0xbe8d3ad4	-0.27583945
103	0xbe99a608	-0.30009484
104	0xbd28ad05	-0.04118063
105	0x3c1521b4	0.009102274
106	0x3e735ef7	0.23766695
107	0x3cf7da3b	0.030255428
108	0x3e8faaed	0.28060094
109	0x3d440e5e	0.047865264
110	0xbdbe3c4d	-0.09288845
111	0x3dffe81e	0.12495445
112	0xbe27f446	-0.16401777
113	0xbe879c6c	-0.26486528
114	0x3d2c6223	0.042085778
115	0x3e86ee6a	0.2635377
116	0x3d7dec7e	0.061993115
117	0x3d00dc2b	0.03145997
118	0x3e8f4157	0.27979538
119	0x3e80b4f5	0.2513806
120	0x3caaa442	0.020830277
121	0xbd06e204	-0.03293039
122	0x3cec213b	0.02882444
123	0x3ce2c439	0.027681457
124	0x3d05f0b2	0.032700248
125	0xbe6f18d9	-0.23349322
126	0xbd532bc5	-0.051555414
127	0x3e1aaddd	0.15105386
128	0x3e11aa2c	0.14225072
129	0x3e59f8d2	0.21286324
130	0xbb714d32	-0.0036819694
131	0x3e1063a0	0.14100504
132	0xbcebc84a	-0.028782029
133	0x3d2ca6d7	0.0421513
134	0xbe3240c3	-0.17407517
135	0x3baddfe7	0.0053062323
136	0x3e661ec8	0.2247268
137	0xbe77a32e	-0.24183342
138	0xbc945a16	-0.018109363
139	0x3ce0b578	0.027430281
140	0x3e914f3c	0.28380764
141	0x3da3e6b3	0.08002987
142	0x3db8fbc3	0.09032395
143	0xbe61da1b	-0.22055857
144	0xbe64848e	-0.2231619
145	0x3e92285c	0.28546417
146	0x3b859e5b	0.0040777153
147	0xbddfbfae	-0.10925232
148	0x3e8967f0	0.2683711
149	0x3e461bf7	0.19346605
150	0x3e91e0b8	0.2849176
151	0x3e99f89f	0.30072495
152	0xbe3f81ab	-0.18701808
153	0x3dc76b38	0.09737247
154	0xbe9dd11a	-0.30823594
155	0x3e12b699	0.14327468
156	0xbdb935f2	-0.090434924
157	0x3dbb78f0	0.09153926
158	0x3dbda6bf	0.0926032
159	0xbe084f75	-0.1331156
160	0xbdcd0763	-0.100111745
161	0xbe02014d	-0.12695809
162	0x3e2c50d1	0.16827704
163	0xbe930cc5	-0.2872068
164	0xbe80d66d	-0.25163594
165	0xbcbaf4ea	-0.022821862
166	0x3bb3c8bd	0.0054865764
167	0xbe5d5aee	-0.21616718
168	0xbe91bd71	-0.28464845
169	0x3e555218	0.20832098
170	0x3c832d19	0.016012715
171	0xbe8ec5b8	-0.27885222
172	0xbcef453d	-0.02920782
173	0x3e26125d	0.16217943
174	0x3e5f0814	0.21780425
175	0x3e35049f	0.17677544
176	0x3e96e64e	0.29472584
177	0x3de7ba7e	0.113148674
178	0xbe028c32	-0.12748793
179	0xbde285ca	-0.110606745
180	0xbd5125ca	-0.05106143
181	0xbe95835b	-0.2920178
182	0xbe4f5982	-0.20248988
183	0x3d79ce12	0.06098754
184	0x3e4d85f5	0.20070632
185	0x3e4fe8fd	0.20303722
186	0xbe19f474	-0.15034658
187	0x3d690b22	0.056895383
188	0x3d46b78f	0.0485149
189	0xbe8daf0e	-0.2767262
190	0x3e06e90b	0.13174836
191	0xbd78013f	-0.060548063
192	0xbe91cce6	-0.28476638
193	0x3e2ab92d	0.16672201
194	0x3e8cc386	0.27492923
195	0x3e7355ad	0.23763151
196	0x3df21133	0.11819687
197	0x3cafb13c	0.021446817
198	0xbd96355b	-0.073343955
199	0xbda6b304	-0.08139613
200	0xbde9f173	-0.11423006
201	0x3e8adf8a	0.27123672
202	0x3cb81e39	0.022475349
203	0xbc6f0af9	-0.014590018
204	0xbbaaa63c	-0.005207805
205	0xbdc7c224	-0.09753826
206	0x3e62db40	0.2215395
207	0xbe8d4d45	-0.27598014
208	0x3dd2cf97	0.10293501
209	0x3e503628	0.20333159
210	0x3d79b284	0.06096126
211	0x3e741888	0.23837483
212	0xbd96e2ce	-0.07367478
213	0x3e2f3cda	0.17113057
214	0x3e9f7abe	0.31148332
215	0xbd1a36e7	-0.037650015
216	0xbe266703	-0.16250233
217	0x3c314495	0.010819574
218	0xbe1c7b4a	-0.15281406
219	0x3e43b86e	0.19113323
220	0x3e4c3432	0.19941786
221	0x3b934641	0.004494459
222	0x3dd0e96d	0.102007724
223	0x3e6e5f73	0.23278598
224	0xbe8b6a27	-0.27229425
225	0x3c402f82	0.011730077
226	0x3e9baa00	0.30403137
227	0x3e2ab39d	0.1667008
228	0xbe23f00a	-0.16009536
229	0x3e9dc7cc	0.30816495
230	0xbe94bba4	-0.29049408
231	0xbe45216d	-0.19251032
232	0x3d5fe4b8	0.054661483
233	0x3dae8300	0.0852108
234	0x3e5935c4	0.21211916
235	0xbe8de5d9	-0.27714422
236	0x3d4d81b5	0.050172526
237	0x3cf55a58	0.029950306
238	0x3e798468	0.24366915
239	0x3df35eeb	0.118833385
240	0xbe276841	-0.16348363
241	0x3d8f8d5d	0.07009385
242	0x3e72d707	0.23714839
243	0xbe2aa9ca	-0.16666332
244	0xbe3b77bc	-0.18307394
245	0x3e99a815	0.3001105
246	0xbe828f7b	-0.25500092
247	0xbe8c4de1	-0.27403167
248	0xbd9502e9	-0.07275946
249	0xbe6a7192	-0.22894886
250	0xbe46c8d1	-0.19412543
251	0x3d46cf33	0.048537444
252	0x3e34d73e	0.17660233
253	0x3e14ad3e	0.14519212
254	0x3d76a0e4	0.06021203
255	0xbe5c2115	-0.21496995

lstm.weight_hh_l1 f4 [40, 10]
0	0x3e1c4ad1	0.15262915
1	0xbe82fd55	-0.25583902
2	0xbe7bb120	-0.24579287
3	0xbd95a240	-0.07306337
4	0xbdf8a0a5	-0.121400155
5	0xbe3d7c27	-0.18504392
6	0xbb1513a2	-0.0022747298
7	0xbe5e2b76	-0.21696267
8	0x3e1ea1bb	0.15491383
9	0xbe1c662c	-0.1527335
10	0xbe052094	-0.13000709
11	0xbe3010c1	-0.17193891
12	0x3d0032de	0.03129851
13	0x3e401ae9	0.18760265
14	0x3d67ffc4	0.0566404
15	0x3e880919	0.2656944
16	0x3e7b8ec2	0.24566177
17	0xbc3d3867	-0.011549092
18	0x3dcbfae8	0.09959966
19	0x3d0df49e	0.034657113
20	0xbce07eff	-0.027404306
21	0x3e462c3e	0.19352815
22	0x3e59ae8e	0.21257994
23	0x3e6fa640	0.23403263
24	0x3d7375ec	0.05943863
25	0x3e7d6cd3	0.24748544
26	0xbe93547e	-0.287754
27	0xbe9e4e4a	-0.30919105
28	0xbe498ef7	-0.19683443
29	0x3cdce7a5	0.026965925
30	0x3e127156	0.14301047
31	0xbdda3950	-0.10655463
32	0xbc952b45	-0.01820911
33	0xbdff72b7	-0.12473052
34	0x3e8e30b7	0.2777154
35	0x3e102b6b	0.14079063
36	0xbdffcedb	-0.124906264
37	0xbe8eb5c2	-0.27873045
38	0xbdd04128	-0.101686776
39	0x3e93a888	0.28839517
40	0x3e119913	0.1421855
41	0x3d104897	0.035225477
42	0xbe25ebc3	-0.16203217
43	0x3db74d14	0.08950248
44	0x3e82138b	0.25405535
45	0xbe63baf3	-0.22239284
46	0xbdb2264a	-0.08698709
47	0x3db47c56	0.08812778
48	0x3d005668	0.031332403
49	0x3e88d9f7	0.26728794
50	0xbe70bf24	-0.23510414
51	0x3d279982	0.04091788
52	0x3e66af33	0.2252777
53	0x3e95c922	0.29255015
54	0x3e84bdb8	0.25925994
55	0xbdc5ed04	-0.09664348
56	0x3e2cdb39	0.16880502
57	0x3da74be9	0.081687756
58	0x3d2eab65	0.042643923
59	0xbe90625c	-0.28200042
60	0xbd5fb33a	-0.054614283
61	0x3e36d3ec	0.1785428
62	0x3e2ed92e	0.17075035
63	0xbe6e12a3	-0.23249297
64	0x3c99aa93	0.018758094
65	0xbe096ab5	-0.13419612
66	0x3e7ab41d	0.2448277
67	0xbe45fd43	-0.19334893
68	0x3e8bc8e9	0.2730172
69	0xbd8d43cf	-0.06897699
70	0x3e2a91ef	0.16657232
71	0xbe07cbc5	-0.13261326
72	0xbe4fb87c	-0.20285219
73	0x3e1cc053	0.15307741
74	0xbe3822d4	-0.17982036
75	0xbe915058	-0.2838161
76	0x3ea02230	0.31276083
77	0xbd02a0a7	-0.03189149
78	0xbe92258d	-0.28544274
79	0x3e3e5819	0.18588294
80	0xbe99a085	-0.3000528
81	0xbe5eb2f7	-0.21747957
82	0x3e191d48	0.14952576
83	0x3e2e8555	0.1704305
84	0xbe1ac185	-0.15112884
85	0xbe780f2b	-0.24224536
86	0x3e8cbea4	0.27489197
87	0xbdba7866	-0.091049954
88	0x3e3cc164	0.18433148
89	0xbc9aa938	-0.018879518
90	0x3e5c1233	0.21491317
91	0x3cd4e20f	0.0259867
92	0x3d053c86	0.032528423
93	0x3e8e9f5a	0.2785595
94	0x3d820bb0	0.063498855
95	0x3e86970f	0.26287124
96	0x3dd1c7c1	0.10243178
97	0x3e9d410a	0.30713683
98	0x3e612aae	0.21988937
99	0x3cf5f746	0.030025136
100	0xbb9dc080	-0.0048142076
101	0x3e2c517f	0.16827963
102	0x3e8ecb82	0.2788964
103	0xbe0eeb58	-0.13956964
104	0xbdfd3a2d	-0.12364612
105	0xbd7007eb	-0.0586013
106	0xbe1fe456	-0.15614447
107	0xbb62e9c6	-0.0034624203
108	0x3cad231e	0.02113491
109	0xbe433632	-0.19063643
110	0x3e27ea4b	0.1639797
111	0xbdf9eb7f	-0.122031204
112	0x3e844363	0.25832662
113	0xbe10486e	-0.1409013
114	0xbe975750	-0.29558802
115	0x3ce5276a	0.027972896
116	0xbca0629e	-0.019578274
117	0xbe7105ae	-0.23537323
118	0xbce87358	-0.028375313
119	0x3e9e9fb7	0.30981228
120	0x3e8ddc63	0.27707204
121	0xbdfd92af	-0.12381493
122	0x3e91a5eb	0.28446898
123	0xbe8f960b	-0.2804416
124	0xbe9500ba	-0.29102117
125	0x3e0612fa	0.13093176
126	0x3d5592a2	0.052141793
127	0x3e620f52	0.22076157
128	0xbe397bc8	-0.18113625
129	0x3e505b2f	0.20347284
130	0xbe289f8a	-0.1646711
131	0xbe8830cd	-0.26599732
132	0x3e146dae	0.14494964
133	0xbde27eee	-0.11059366
134	0xbe32e3cf	-0.17469715
135	0x3ea05b26	0.3131954
136	0x3d83cc19	0.06435413
137	0xbdd31153	-0.10306039
138	0x3e2f8560	0.17140722
139	0xbe14ee56	-0.14544043
140	0xbe4f066e	-0.20217296
141	0x3d7a192c	0.061059162
142	0xbdb2fdae	-0.08739792
143	0xbd3d1a7a	-0.04616783
144	0x3e35767b	0.17720978
145	0x3de6ca4c	0.11269054
146	0xbe35e809	-0.17764296
147	0x3e8b3831	0.27191308
148	0xbe5c52c2	-0.21515945
149	0x3e991c0d	0.29904214
150	0x3e28e7f7	0.16494738
151	0xbd5eaf91	-0.054366652
152	0x3e627c2f	0.22117685
153	0xbe9a66dc	-0.301566
154	0x3e4aa5b8	0.19789779
155	0x3e6019ce	0.21884844
156	0xbe8b1bbe	-0.27169603
157	0xbbf7dfd8	-0.007564526
158	0xbe645af9	-0.22300328
159	0x3e82e173	0.2556263
160	0x3c24e567	0.010064459
161	0x3e4830be	0.19549844
162	0x3d8d39ce	0.06895791
163	0x3e9ee98f	0.31037566
164	0x3dee9fc1	0.116515644
165	0xbd01e1c5	-0.03170945
166	0xbd3a0217	-0.04541215
167	0xbea17d83	-0.3154107
168	0x3db1f7ce	0.08689843
169	0x3e9b3bb5	0.3031899
170	0xbe999afd	-0.3000106
171	0xbd03a62c	-0.032140896
172	0xbe5e2ba3	-0.21696334
173	0xbdb505ef	-0.08839022
174	0x3d3f0390	0.046634257
175	0x3e9b049a	0.30276948
176	0x3e411f68	0.18859637
177	0xbbf0dbfd	-0.0073504434
178	0x3e86187e	0.2619056
179	0x3e3a74fb	0.18208687
180	0xbd5d1955	-0.053979237
181	0xbda91616	-0.08256166
182	0x3ea06704	0.31328595
183	0x3e5da2b9	0.21644105
184	0xbdcefe58	-0.10107106
185	0x3e60f486	0.21968278
186	0xbcd36d8b	-0.02580907
187	0xbe62a17d	-0.22131915
188	0x3e515865	0.20443876
189	0xbd0007b4	-0.031257346
190	0x3e80fcff	0.2519302
191	0x3e0d0d4a	0.137746
192	0xbe2fc6b0	-0.17165637
193	0x3e5ae385	0.21375854
194	0x3e861960	0.26191235
195	0x3e1e32fc	0.15449136
196	0x3e97398e	0.29536098
197	0x3df67dc5	0.120357074
198	0x3e80b929	0.25141266
199	0xbe851e84	-0.25999844
200	0xbe9a2de6	-0.30113143
201	0xbe481464	-0.19539028
202	0xbd456fc0	-0.048202276
203	0xbe6082f3	-0.21924953
204	0xbd5e7e83	-0.05431987
205	0x3e7d4f79	0.24737348
206	0x3ea0042a	0.31253177
207	0xbe590b83	-0.21195798
208	0x3ea1906b	0.31555495
209	0x3bc14643	0.0058982684
210	0x3e97cbed	0.2964777
211	0xbea15bee	-0.3151545
212	0xbdcd0295	-0.10010258
213	0x3e60d1e3	0.21955065
214	0xbe7ae82a	-0.24502626
215	0x3e175e6c	0.14782113
216	0x3df53854	0.11973634
217	0x3e55e593	0.20888357
218	0x3e936679	0.28789118
219	0x3e9a345a	0.30118066
220	0x3e204ce8	0.15654337
221	0x3e1f739e	0.15571448
222	0x3e83bc93	0.25729808
223	0xbe572c4a	-0.21012989
224	0xbe9a50c1	-0.30139735
225	0xbe8b13a9	-0.27163437
226	0x3d40a0f4	0.047028497
227	0xbe56281a	-0.20913735
228	0x3e669fd5	0.22521909
229	0x3dd7f7e1	0.10545326
230	0x3e1714e6	0.14754066
231	0x3e6afd97	0.229483
232	0x3e7bc7f4	0.24587995
233	0xbe085ece	-0.13317415
234	0x3e3a37a9	0.18185295
235	0x3e2a1e60	0.1661315
236	0x3e719fb4	0.23596078
237	0x3e62e279	0.22156705
238	0xbdc243bd	-0.09485576
239	0xbea0be63	-0.31395254
240	0xbd17761c	-0.036977872
241	0xbe279f2e	-0.16369316
242	0xbe0fce0a	-0.14043441
243	0xbda4b6e1	-0.08042694
244	0xbdcdf017	-0.10055559
245	0x3daba161	0.0838039
246	0x3d3bc6c5	0.04584386
247	0x3c7b6082	0.0153428335
248	0x3e8ff4f2	0.28116566
249	0xbe395c6b	-0.18101661
250	0xbdcb4b02	-0.09926416
251	0x3e444b1d	0.19169278
252	0xbe8459b4	-0.25849688
253	0xbe5b804a	-0.21435657
254	0xbe474491	-0.1945975
255	0x3e98aded	0.29820195

lstm.bias_ih_l1 f4 [40]
0	0xbe4bb409	-0.19892897
1	0xbe515c33	-0.20445327
2	0x3d4755f3	0.048665952
3	0xbe26a8c7	-0.16275321
4	0xbe98aa02	-0.29817206
5	0xbe9d9e76	-0.3078496
6	0xbe404ccc	-0.18779296
7	0xbd7b49e6	-0.061349772
8	0x3e400605	0.18752296
9	0xbc2224b0	-0.009896442
10	0xbdcc231c	-0.09967634
11	0xbe95794c	-0.29194105
12	0xbdc93dcb	-0.09826239
13	0x3e3905e1	0.18068649
14	0xbe182961	-0.14859535
15	0xbe265426	-0.16243038
16	0x3dd3e986	0.103472754
17	0x3e920930	0.28522635
18	0xbda7442f	-0.08167302
19	0x3d74fb29	0.059809837
20	0x3db394f5	0.08768646
21	0x3e4a4e64	0.19756466
22	0xbe1ef8fb	-0.15524666
23	0x3d531626	0.051534794
24	0x3e381c86	0.17979631
25	0x3e1c8436	0.1528481
26	0x3e4de506	0.20106897
27	0xbb014722	-0.0019726236
28	0xbdf07a9c	-0.11742136
29	0x3d96cd76	0.07363407
30	0x3e0f3221	0.13983966
31	0x3e994f24	0.29943192
32	0x3e9bbdba	0.30418187
33	0x3e070a53	0.13187532
34	0x3cef0298	0.029176041
35	0xbca01052	-0.019539032
36	0x3d26aacb	0.040690225
37	0x3e352512	0.17689922
38	0xbc134017	-0.008987448
39	0xbd80d88d	-0.06291304

lstm.bias_hh_l1 f4 [40]
0	0xbe8b87d8	-0.27252078
1	0x3e1a5341	0.15070821
2	0x3e2178a9	0.15768684
3	0xbe3e2e4f	-0.18572353
4	0x3d968e83	0.07351401
5	0x3e049a24	0.12949425
6	0xbe6996d4	-0.22811443
7	0xbe3a4c0c	-0.18193072
8	0x3e9785d0	0.29594278
9	0xbded92dc	-0.11600277
10	0x3dc6838a	0.09693058
11	0x3e629da0	0.22130442
12	0x3de7bfbf	0.113158695
13	0x3e9833d0	0.2972703
14	0x3e394d5e	0.1809592
15	0x3e8cc548	0.27494264
16	0xbcafe8e4	-0.021473356
17	0xbdcf8c7d	-0.10134218
18	0xbe21ebbf	-0.15812586
19	0x3a9ef7fc	0.0012128348
20	0x3b5c1282	0.0033580367
21	0xbe11bd94	-0.14232475
22	0x3e6e2963	0.23257975
23	0x3cac79ef	0.021054236
24	0x3bda0b94	0.0066542123
25	0x3e220673	0.15822773
26	0xbd9900eb	-0.07470878
27	0xbe252f0b	-0.16131227
28	0xbe145066	-0.14483795
29	0xbdc03626	-0.09385328
30	0x3e5e2b6c	0.21696252
31	0xbe4d790f	-0.20065711
32	0xbe811e33	-0.25218353
33	0xbda19792	-0.07890238
34	0x3d97b579	0.0740766
35	0x3d291028	0.041275173
36	0x3e9cc8ce	0.30621952
37	0x3d7b220e	0.061311774
38	0xbe6aa2ee	-0.22913715
39	0x3e9550c1	0.29163173

lstm.weight_ih_l2 f4 [40, 10]
0	0x3e3c5a61	0.18393852
1	0x3d9bf8ef	0.0761584
2	0xbdd2f8c2	-0.10301353
3	0xbe5bd56d	-0.21468134
4	0x3d08504a	0.033279695
5	0xbda74925	-0.08168248
6	0x3db1802c	0.08667025
7	0xbe2f1b97	-0.17100368
8	0xbd5aafa9	-0.05339018
9	0x3e937c4a	0.28805763
10	0xbd1f2c66	-0.0388607
11	0x3e50edfe	0.20403287
12	0x3e2be357	0.16785942
13	0xbe1029b5	-0.1407841
14	0x3d29730f	0.041369494
15	0x3d86168b	0.065472685
16	0x3d061334	0.032733157
17	0x3d90e45a	0.070748046
18	0xbe8a54c0	-0.27017784
19	0xbe44eb2a	-0.19230333
20	0x3e093873	0.1340044
21	0xbe5ed921	-0.21762516
22	0xbe92942a	-0.28628665
23	0xbe63fc22	-0.2226415
24	0xbe318401	-0.17335512
25	0xbd831f24	-0.06402424
26	0xbe6e9e61	-0.23302604
27	0xbdab8323	-0.08374622
28	0x3e94935e	0.29018682
29	0x3d6c75c8	0.057729512
30	0x3d2428bc	0.04007791
31	0xba9c8ae9	-0.0011943254
32	0xbe86c2ac	-0.26320398
33	0xbd724fd5	-0.059158165
34	0x3e487411	0.19575526
35	0xbe134a35	-0.14383776
36	0xbdbb92f3	-0.09158888
37	0xbe9bd395	-0.30434862
38	0x3e830e6d	0.25596943
39	0xbc81de9b	-0.015853217
40	0x3d9202d5	0.071294464
41	0x3e7e088e	0.24807951
42	0xbe110714	-0.14162856
43	0xbe985370	-0.29751158
44	0x3d3d7611	0.046255175
45	0xb94f7c25	-0.00019787306
46	0xbddf1bc6	-0.10893969
47	0x3d791092	0.06080682
48	0xbe4df19f	-0.20111702
49	0xbe9d326d	-0.30702534
50	0x3e98eb1c	0.29866874
51	0xbd11a11e	-0.035554044
52	0x3dd3f90a	0.10350235
53	0xbe6cb5c5	-0.23116215
54	0x3b012273	0.0019704371
55	0xbe984b0b	-0.29744753
56	0x3e9f7acf	0.31148383
57	0xbd6d8919	-0.057992075
58	0xbc38de55	-0.011283477
59	0xbdaca815	-0.084304966
60	0xbe407f74	-0.1879862
61	0x3d92bcf9	0.0716495
62	0xbcbb3e33	-0.022856807
63	0x3e850094	0.25977004
64	0x3b80e1a0	0.0039331466
65	0xbcdd5ae9	-0.027020888
66	0x3e1850df	0.148746
67	0xbe29ceb2	-0.16582754
68	0x3cd0ba31	0.025479408
69	0xbb9e45a2	-0.004830078
70	0xbe9cd968	-0.30634618
71	0x3e431530	0.19051051
72	0x3e1a378b	0.1506025
73	0x3da948dc	0.0826585
74	0xbe88f18a	-0.2674678
75	0x3d630350	0.05542308
76	0x3e27349f	0.16328667
77	0xbe1b2cd1	-0.15153815
78	0xbdd42c82	-0.10360052
79	0x3e555b79	0.20835675
80	0x3dada6c4	0.08479074
81	0xbe1334aa	-0.14375558
82	0x3e336acc	0.17521209
83	0xbe2dd42c	-0.16975468
84	0x3d54caf0	0.05195135
85	0x3e93ff16	0.28905553
86	0xbd15c1ea	-0.036561884
87	0xbdbca324	-0.09210804
88	0xbd4adfc9	-0.049529824
89	0x3e841b29	0.25801972
90	0x3d9d41d4	0.07678571
91	0xbd1e22ba	-0.038607337
92	0xbe2beec9	-0.16790308
93	0x3e84ee85	0.25963226
94	0xbe880114	-0.26563323
95	0x3dbfb3f6	0.09360497
96	0xbe62f6e6	-0.22164497
97	0xbe9cd438	-0.3063066
98	0x3e11403c	0.1418466
99	0x3e2222d7	0.15833603
100	0xbcdabea4	-0.026702233
101	0xbc08fa57	-0.008360467
102	0x3e9021a2	0.2815066
103	0xbe2e4cce	-0.17021486
104	0x3e9716da	0.29509622
105	0x3bfb3ed4	0.007667402
106	0x3df5edd8	0.12008256
107	0x3e49338e	0.19648573
108	0xbe872adf	-0.26399896
109	0x3e693fb5	0.22778209
110	0xbe73be12	-0.23802975
111	0xbe87acaf	-0.26498935
112	0x3e6e9391	0.2329848
113	0x3dd29a11	0.10283292
114	0xbd2486e4	-0.040167704
115	0xbda33ee7	-0.07970982
116	0x3e14609e	0.14489982
117	0xbe2cd264	-0.16877133
118	0x3de24e36	0.11050074
119	0xbdf8d991	-0.121508725
120	0x3da61c32	0.081108466
121	0xbe2327e0	-0.1593318
122	0xbe2d3675	-0.16915305
123	0x3e7d886d	0.24759074
124	0xbe6902a0	-0.22754908
125	0x3e8863a9	0.26638535
126	0xbe9261d6	-0.28590268
127	0xbd5d8229	-0.05407921
128	0xbc88ffb7	-0.016723497
129	0xbe200f2c	-0.15630788
130	0x3d0528c3	0.032509577
131	0x3e08dfbf	0.13366602
132	0xbe94fae0	-0.29097652
133	0x3ddb8f73	0.1072072
134	0x3e82d5f3	0.25553855
135	0xbe83aadb	-0.2571629
136	0x3e313634	0.17305833
137	0xbe417bdf	-0.1889491
138	0xbe6d05af	-0.231467
139	0x3e9a131e	0.3009271
140	0x3e3b7349	0.18305697
141	0xbe959aeb	-0.29219756
142	0xbe5e8339	-0.21729745
143	0xbe7fb052	-0.24969605
144	0xbe9d6941	-0.30744365
145	0xbe9df287	-0.30849096
146	0x3e89085a	0.26764184
147	0xbc3b914a	-0.011448214
148	0x3da67842	0.08128406
149	0x3e10d876	0.14145073
150	0xbca9f45b	-0.0207464
151	0xbe6aba46	-0.2292262
152	0xbda4ab47	-0.08040481
153	0x3e95d08a	0.29260665
154	0xb9f5e309	-0.00046899196
155	0x3d476137	0.048676696
156	0xbdf99f03	-0.12188532
157	0xbdc86f79	-0.09786887
158	0xbe27d7f4	-0.16390973
159	0x3e17c4d7	0.14821182
160	0x3d289f58	0.041167587
161	0x3e13dd74	0.14439946
162	0xbe98a3d1	-0.29812482
163	0xbd6ab8bb	-0.05730508
164	0xbe38bfa8	-0.18041861
165	0x3e7b5353	0.24543504
166	0x3e177d44	0.14793879
167	0x3e9946cc	0.29936826
168	0xbe22f156	-0.15912375
169	0xbd335324	-0.04378046
170	0x3ccb37d1	0.024806889
171	0x3ea1ae32	0.31578213
172	0x3ae7d091	0.0017686059
173	0x3e11a114	0.14221603
174	0x3df9319d	0.12167666
175	0xbe830633	-0.25590667
176	0x3e807f87	0.25097296
177	0x3d0b84a9	0.03406206
178	0xbd976772	-0.073927775
179	0xbcb3359d	-0.02187615
180	0xbe958f08	-0.29210687
181	0xbe7be0a4	-0.24597412
182	0x3e6abd90	0.22923875
183	0x3e9302dc	0.2871312
184	0x3e1cd7ec	0.15316743
185	0x3e4edecb	0.20202176
186	0xbd803d8b	-0.062617384
187	0xbe9e89e4	-0.30964577
188	0xbe88d953	-0.26728305
189	0x3e72e55b	0.23720305
190	0x3d98e1b6	0.07464926
191	0x3e7f24bf	0.24916361
192	0xbe9d62ee	-0.3073954
193	0x3e96c40c	0.29446447
194	0x3e91beff	0.2846603
195	0xbe36661f	-0.17812394
196	0xbe9f0fa7	-0.3106663
197	0x3d6b7d8b	0.057492774
198	0xbe8445a7	-0.2583439
199	0x3e24ab81	0.16081049
200	0xbe49c231	-0.19702984
201	0x3d5e832d	0.054324318
202	0x3c9a1483	0.018808609
203	0xbea17c2a	-0.31540042
204	0xbdd0367b	-0.10166641
205	0x3e93b468	0.28848577
206	0xbd8afbcb	-0.06786307
207	0xbe5daeeb	-0.21648757
208	0x3bc66321	0.0060542976
209	0xbe1d7bc7	-0.15379249
210	0x3cccc8df	0.024998127
211	0xbe52d1df	-0.20587872
212	0xbcfb72ee	-0.030694451
213	0x3e7371be	0.23773858
214	0x3e21684c	0.15762442
215	0x3e7fdd28	0.24986708
216	0xbda65db2	-0.0812334
217	0xbe5e6198	-0.21716917
218	0x3e24a93b	0.16080181
219	0xbe99ebf8	-0.30062842
220	0xbe4c8211	-0.19971491
221	0xbe61ddf3	-0.22057323
222	0x3de5ab61	0.112143286
223	0xbe2dc469	-0.16969456
224	0x3d9cdb55	0.07659022
225	0xbd897f97	-0.06713789
226	0x3de228b3	0.11042919
227	0x3e31390a	0.17306915
228	0xbe7042f1	-0.23463036
229	0xbe09d7fc	-0.13461298
230	0x3e28cc6d	0.16484232
231	0x3ddc1101	0.10745431
232	0x3e15a73e	0.14614579
233	0x3e4c8df9	0.19976033
234	0xbe94d29d	-0.29066935
235	0xbc99c2d9	-0.018769668
236	0xbe1e01dc	-0.15430397
237	0xbd4a2730	-0.04935378
238	0xbe8f6e5b	-0.28013882
239	0xbe4c6b35	-0.19962771
240	0xbda8ebc5	-0.082480945
241	0xbe8db49d	-0.2767686
242	0xbe89d5ab	-0.26920828
243	0xbc1f2ed9	-0.009715759
244	0x3e95c110	0.29248857
245	0x3dcca1f5	0.09991828
246	0x3d58c39c	0.052920923
247	0x3dbbc58c	0.091685385
248	0xbe19a15b	-0.15002958
249	0xbcc9f1dd	-0.024651462
250	0xbe174335	-0.14771731
251	0xbe97947a	-0.29605466
252	0x3e0a87e5	0.13528402
253	0x3cb3e2d4	0.021958746
254	0x3da7b61b	0.08189031
255	0x3db2b7fe	0.087265

lstm.weight_hh_l2 f4 [40, 10]
0	0x3da03e64	0.078244
1	0x3b2f6cc5	0.0026767713
2	0xbe927bf9	-0.2861021
3	0xbe3aad7f	-0.18230246
4	0xbce9bff0	-0.028533906
5	0xbe2d8a6f	-0.1694734
6	0xbe7ddd85	-0.24791534
7	0xbdf51429	-0.11966736
8	0xbea14fda	-0.31506234
9	0xbc892a7c	-0.016743891
10	0x3e698339	0.22803964
11	0x3d3dfd92	0.0463844
12	0xbe0a2e0f	-0.13494132
13	0x3e0bdead	0.13659163
14	0xbe13a064	-0.14416653
15	0xbe5556c7	-0.20833884
16	0x3d2fc7e2	0.042915232
17	0xbe834833	-0.2564102
18	0x3dbf6362	0.09345128
19	0x3d624f56	0.055251442
20	0xbcb768de	-0.022388872
21	0xbe08dafe	-0.13364789
22	0xbdb10273	-0.08643045
23	0x3e7a1ce6	0.24425086
24	0x3e7d34b4	0.24727136
25	0x3e1aa4c5	0.15101917
26	0xbe81ae4b	-0.25328287
27	0x3e4cf388	0.20014775
28	0x3d08e7f5	0.033424336
29	0xbe7895ad	-0.24275847
30	0xbe045cad	-0.12925978
31	0xbc29cb67	-0.010363436
32	0xbda59d59	-0.08086652
33	0x3e9839ba	0.29731542
34	0xbe91cbde	-0.2847585
35	0x3d5752c5	0.05256917
36	0xbdd12d33	-0.10213699
37	0x3e17584b	0.14779775
38	0xbd0a330c	-0.03374009
39	0xbe325ba5	-0.17417772
40	0x3e465b31	0.19370724
41	0x3e49b66f	0.19698499
42	0xbe9cf74b	-0.3065742
43	0xbe92e619	-0.28691176
44	0xbd207546	-0.03917434
45	0x3cb021e4	0.021500535
46	0x3e3c9ff1	0.18420388
47	0xbe5df364	-0.21674877
48	0x3e4d65d7	0.2005838
49	0xbda40ed2	-0.08010639
50	0xbdd1cda0	-0.10244298
51	0x3dc1aa9b	0.094563685
52	0xbe82f941	-0.2558079
53	0xbea00273	-0.3125187
54	0x3e1e78af	0.15475725
55	0xbe800ff6	-0.25012177
56	0xbe48233e	-0.19544694
57	0x3e3e12db	0.1856188
58	0xbe0608c0	-0.13089275
59	0xbe3acd95	-0.18242486
60	0x3d9d5f70	0.07684219
61	0x3e546a72	0.2074373
62	0xbdac019c	-0.083987445
63	0xbe667dc2	-0.2250891
64	0xbd696542	-0.056981333
65	0xbe02257e	-0.12709615
66	0x3cd4e159	0.02598636
67	0x3e063192	0.13104847
68	0xbe1ed568	-0.15511096
69	0xbe171be8	-0.14756739
70	0xbe995c00	-0.29953003
71	0xbdccace8	-0.09993917
72	0xbde169d1	-0.11006511
73	0x3d882a94	0.06648746
74	0x3d15c9b3	0.03656931
75	0xbe0ddca7	-0.13853703
76	0x3e9c63d4	0.30544913
77	0x3e6e74f2	0.23286799
78	0xbdb5171c	-0.088422984
79	0x3e5cb11d	0.21551938
80	0x3e0d12ee	0.13776752
81	0xbe20feb5	-0.15722163
82	0xbcb502fd	-0.022096151
83	0xbe69565e	-0.22786853
84	0xbe5d14f4	-0.21590024
85	0xbe4cd44b	-0.20002858
86	0xbe7be1a1	-0.2459779
87	0xbe1ed03f	-0.15509127
88	0xbe9f3153	-0.3109232
89	0xbe99cebf	-0.30040547
90	0x3e870a47	0.26375028
91	0xbc717719	-0.014737868
92	0xbdb74e11	-0.08950437
93	0xbe0b5f4c	-0.13610572
94	0xbe55befa	-0.20873633
95	0xbe154b0d	-0.14579411
96	0x3d11d158	0.035600036
97	0xbe90c756	-0.2827708
98	0x3e9ca22e	0.30592483
99	0x3e34ffc7	0.17675696
100	0x3d8c3b62	0.06847264
101	0x3e8c0dd9	0.27354315
102	0xbe763c5e	-0.24046466
103	0x3e7b520d	0.24543019
104	0x3dd7090c	0.104997724
105	0xbea0110d	-0.3126301
106	0x3db01a06	0.085987136
107	0x3e7a3ce6	0.24437293
108	0xbe8627c1	-0.26202205
109	0x3e3afc1e	0.18260238
110	0x3e2cf75c	0.16891235
111	0xbe90854a	-0.2822669
112	0xbd97df37	-0.07415622
113	0x3e0a240a	0.1349031
114	0xbd97b6c7	-0.07407909
115	0x3e81d3a7	0.2535679
116	0x3daab8b6	0.08336012
117	0xbd075fe0	-0.033050418
118	0xbe6aa546	-0.2291461
119	0xbe3e9f34	-0.18615419
120	0xbe2b1255	-0.16706212
121	0x3e131874	0.14364797
122	0xbdc1050a	-0.09424789
123	0xbe0c2757	-0.13686882
124	0xbe4cff9e	-0.20019385
125	0x3dc249a6	0.094867036
126	0x3e9bb720	0.3041315
127	0x3d8775fe	0.06614302
128	0xbe544fb0	-0.20733523
129	0xbe963375	-0.29336134
130	0x3e5b510e	0.21417639
131	0x3e1685d1	0.14699484
132	0xbe0d9cdd	-0.1382937
133	0x3ddc5138	0.10757679
134	0x3d19acfd	0.03751849
135	0x3e5f3c89	0.21800436
136	0xbe7c5af6	-0.24644074
137	0xbbd7f15b	-0.006590051
138	0xbe972919	-0.29523543
139	0x3d6223bd	0.055209864
140	0xbe0458f5	-0.1292456
141	0xbe09a624	-0.13442284
142	0xbdcebffd	-0.100952126
143	0x3e96e90f	0.29474685
144	0xbcac3319	-0.021020459
145	0x3d895912	0.06706442
146	0x3e842002	0.2580567
147	0x3d6434b5	0.055714328
148	0x3e807ef2	0.25096852
149	0xbde74966	-0.112932965
150	0xbe3f7dfe	-0.18700406
151	0xbdaf0d4a	-0.085474566
152	0x3d865583	0.06559279
153	0xbe818d7c	-0.25303257
154	0xbe283422	-0.16426137
155	0xbdafbd12	-0.08580984
156	0xbe4e28a0	-0.20132685
157	0xbe8a8d8e	-0.27061123
158	0x3e2da458	0.16957223
159	0xbe9139b4	-0.28364336
160	0x3e87da73	0.2653385
161	0x3e7e8de3	0.24858813
162	0xbe548abe	-0.20756051
163	0xbd4560cf	-0.048188027
164	0x3ea05d19	0.31321028
165	0x3e9edcbd	0.31027785
166	0xbc08d048	-0.008350439
167	0x3e8c23bc	0.27371013
168	0x3da62f35	0.08114473
169	0xbdbf55c3	-0.093425296
170	0x3e1d2e53	0.15349703
171	0x3e5e0206	0.2168046
172	0xbea17b28	-0.31539273
173	0xbe56f0d1	-0.20990302
174	0xbe1b7372	-0.15180758
175	0xbe87fef8	-0.26561713
176	0xbe811c4b	-0.25216898
177	0x3dc0d58c	0.09415731
178	0xbe65a40e	-0.22425863
179	0xbe454fcd	-0.19268723
180	0x3e8d0484	0.27542508
181	0xbdb122ba	-0.08649202
182	0xbe842f70	-0.25817442
183	0xbe038715	-0.12844498
184	0xbe4c976e	-0.19979641
185	0xbc995bc2	-0.018720511
186	0x3d416379	0.047214005
187	0x3e05e7d7	0.13076721
188	0x3e53ecc2	0.20695785
189	0xbe8a523c	-0.27015865
190	0xbea00a63	-0.31257924
191	0x3e4289f3	0.18997936
192	0x3dada0bd	0.08477924
193	0xbe8d941e	-0.27652067
194	0x3e09145e	0.13386676
195	0xbd9059d3	-0.070483826
196	0xbe86923a	-0.26283437
197	0x3e099fb2	0.13439825
198	0x3e2a4066	0.16626129
199	0x3d77c043	0.06048609
200	0x3df37c5e	0.118889555
201	0x3e7b9da4	0.24571854
202	0x3de1fb99	0.110343166
203	0xbe3b7962	-0.18308023
204	0x3e41203f	0.18859957
205	0xbe15e7cd	-0.14639206
206	0x3e4b741b	0.1986851
207	0x3d068950	0.032845795
208	0x3d976f4f	0.07394277
209	0xbd2fc467	-0.042911913
210	0xbe8c31cf	-0.2738175
211	0x3e8ee534	0.27909243
212	0xbe0364bb	-0.12831394
213	0x3e48212d	0.19543906
214	0xbc10561b	-0.008809592
215	0xbe07f573	-0.13277225
216	0x3e8df68c	0.27727163
217	0xbc862813	-0.01637653
218	0xbdd14ccd	-0.10219727
219	0xbe98e4ef	-0.29862162
220	0xbe8dfc48	-0.27731538
221	0x3e80c0f0	0.251472
222	0x3dcdbe11	0.10046018
223	0x3d6e2611	0.05814177
224	0xbe674ddb	-0.22588293
225	0x3d1f5319	0.038897607
226	0xbe1aa21d	-0.15100904
227	0x3e88dd03	0.2673112
228	0x3e519c8b	0.20469873
229	0x3e1a1368	0.15046465
230	0xbe6c113b	-0.23053448
231	0xbe57fb1c	-0.21091884
232	0xbd37c266	-0.044863127
233	0x3e98da3e	0.29854006
234	0xbe13908d	-0.1441061
235	0x3e6927c3	0.22769074
236	0x3e9f6310	0.31130266
237	0xbe95d18c	-0.29261434
238	0x3e106e1a	0.141045
239	0x3ea0fe3b	0.31443962
240	0x3d007403	0.031360637
241	0xbe3748ed	-0.17898913
242	0x3df7f906	0.12108044
243	0x3e4602d1	0.19337012
244	0x3e8ae774	0.2712971
245	0x3cfa08d9	0.030521797
246	0x3d85dea6	0.065366074
247	0xbdbf89e7	-0.09352475
248	0xbe26b95a	-0.16281644
249	0x3e57f349	0.210889
250	0x3e9edf03	0.3102952
251	0xbe21f8ac	-0.15817517
252	0xbd80a956	-0.06282298
253	0x3c07144c	0.008244585
254	0xbd139b7b	-0.03603695
255	0x3cf8942c	0.030344091

lstm.bias_ih_l2 f4 [40]
0	0x3dfaa08a	0.12237652
1	0x3d6b3a44	0.057428613
2	0x3c8f9249	0.017525809
3	0x3d163fd0	0.03668195
4	0xbe6acce9	-0.2292973
5	0x3dbf7897	0.093491726
6	0xbded53e9	-0.1158827
7	0xbd50e68b	-0.051001113
8	0x3d0b965f	0.034078952
9	0xbe0c634e	-0.13709757
10	0xbe14fbc2	-0.14549163
11	0xbd99a4e7	-0.07502156
12	0x3e2e45f2	0.1701887
13	0xbe2c7e82	-0.16845134
14	0xbe78cfda	-0.24298039
15	0x3e5accac	0.21367139
16	0xbe22ffab	-0.15917842
17	0x3e11098f	0.14163803
18	0x3ad09c8b	0.0015915794
19	0x3e9be4c5	0.30447975
20	0xbda17455	-0.07883517
21	0xbc86e65d	-0.016467268
22	0x3db991b1	0.090609916
23	0x3b075f67	0.002065623
24	0x3e20bc45	0.15696819
25	0xbdc33fa7	-0.09533625
26	0xbdd46ed1	-0.10372699
27	0x3d27b412	0.040943213
28	0xbe24d963	-0.16098551
29	0x3d62b17d	0.055345047
30	0xbea15489	-0.31509808
31	0x3e3e9684	0.18612105
32	0x3cd200ef	0.02563521
33	0x3e8799bc	0.26484478
34	0xbd0266aa	-0.03183619
35	0xbe3722d5	-0.17884381
36	0xbe72c8e1	-0.23709442
37	0x3df3194a	0.11870058
38	0xbd2583d5	-0.040408928
39	0xbe285771	-0.16439606

lstm.bias_hh_l2 f4 [40]
0	0x3e3d5975	0.18491156
1	0xbdb453b3	-0.08805027
2	0xbe1300e2	-0.14355806
3	0xbe90ecc6	-0.28305644
4	0xbe86e901	-0.26349643
5	0xbdb11137	-0.086458616
6	0x3c8a49b3	0.016880846
7	0x3d95cef0	0.07314861
8	0xbe831461	-0.25601485
9	0x3e686a23	0.22696738
10	0xbe19df89	-0.15026678
11	0x3e7b202a	0.24523988
12	0x3d8adf5a	0.06780882
13	0x3e239781	0.15975763
14	0x3e6f66dc	0.23379081
15	0xbd5abeb8	-0.05340454
16	0xbd093945	-0.033501882
17	0x3e1081ce	0.14112017
18	0xbe2849e9	-0.16434444
19	0xbe5685e7	-0.20949517
20	0xbe0be3e3	-0.1366115
21	0x3e8d3eea	0.27587062
22	0xbadf80fd	-0.0017051991
23	0xbe213bb0	-0.15745425
24	0x3e079a15	0.13242371
25	0xbc605b80	-0.01369369
26	0x3d9ba29a	0.07599373
27	0x3e97ba52	0.2963434
28	0x3e749bf7	0.23887621
29	0xbe869dcd	-0.26292267
30	0xbe92c6cf	-0.28667304
31	0xbdc72bea	-0.09725173
32	0x3d931ca7	0.071831994
33	0x3e6113e4	0.21980244
34	0xbdbb1a72	-0.091359034
35	0xbe76180d	-0.24032612
36	0xbe8a9023	-0.27063093
37	0xbe87f7f0	-0.2655635
38	0x3e8816b4	0.2657982
39	0xbe4b480d	-0.19851704

linear.weight f4 [1, 10]
0	0xbece7a34	-0.4032761
1	0x3ea3eb07	0.3201525
2	0x3eedfaaa	0.46480304
3	0xbf06f2e0	-0.5271435
4	0xbd0056ab	-0.031332653
5	0xbe2a3e27	-0.16625272
6	0x3e40dbb7	0.18833815
7	0x3f30f95b	0.69130486
8	0x3ed898ae	0.42303985
9	0x3e6453b8	0.22297561
