Time-Series---Forecasting/Results/local/model6.pth (torch, 490765 bytes, 9 tensors)

lstm.weight_ih_l0 f4 [400, 1]
0	0xbd5d4ca6	-0.054028176
1	0xbd9bbbbb	-0.07604166
2	0xbb0fb538	-0.0021928083
3	0x3d8b7b51	0.0681063
4	0x3d38c5e3	0.045110594
5	0xbd4fef22	-0.050765164
6	0xbaf604c7	-0.0018769734
7	0x3d57d52c	0.05269353
8	0x3dc4bd52	0.096064225
9	0x3daa57ad	0.08317504
10	0xbd57ad6f	-0.052655634
11	0xbdfcfdec	-0.12353119
12	0xbcd882af	-0.026429502
13	0x3dddff40	0.10839701
14	0x3cbaeb7a	0.022817362
15	0xbdf8f1d5	-0.12155501
16	0x3c68cf4e	0.014209582
17	0xbd5056d5	-0.05086406
18	0x3e189003	0.14898686
19	0x3e8fc241	0.2807789
20	0xbdcc4201	-0.09973527
21	0x3b7eb76a	0.0038866648
22	0x3caf90f6	0.021431427
23	0xbc5e51fc	-0.013569351
24	0xbcaf8267	-0.021424485
25	0x3d80e40c	0.062934965
26	0x3cc1d083	0.023658996
27	0x3dc766b3	0.09736385
28	0x3e0188a7	0.12649785
29	0xbd08d02f	-0.033401664
30	0x3d088e47	0.03333881
31	0x3c85df39	0.016341792
32	0xbca2d7f2	-0.019878361
33	0xbd261bac	-0.040553734
34	0xbd42822c	-0.047487423
35	0xbddffc3b	-0.10936781
36	0xbda61d5d	-0.08111069
37	0xbdd26a51	-0.102741845
38	0xbd84d3cb	-0.06485709
39	0x3e120e15	0.14263184
40	0x3da9fec1	0.083005436
41	0xbc688df4	-0.0141940005
42	0xbe1067c8	-0.1410209
43	0x3dd42c0a	0.10359962
44	0xbd98cfcd	-0.0746151
45	0x3c09ca04	0.008409981
46	0xbb8b20c6	-0.0042458503
47	0xbd228ade	-0.039683215
48	0x3d38e1be	0.04513716
49	0xbd537697	-0.051626768
50	0xbd69d827	-0.057090905
51	0xbd9d2c6a	-0.07674487
52	0x3d4a62b7	0.049410548
53	0x3bc00895	0.005860398
54	0x3d9c562a	0.07633622
55	0xbd6b4285	-0.057436485
56	0xbc98379c	-0.018581204
57	0xbc93e72a	-0.018054564
58	0x3da2a282	0.07941152
59	0x3ba5cdec	0.005059948
60	0xbd6c9660	-0.057760596
61	0x3d4e12cd	0.0503109
62	0x3d214dfa	0.039381005
63	0xbcbab60d	-0.022791887
64	0x3d1a0be2	0.03760899
65	0x3dff0f0d	0.124540426
66	0xbcaf2d50	-0.021383911
67	0x3db5590a	0.088548735
68	0x3ba742da	0.005104405
69	0x3d49a9cc	0.049234197
70	0x3d950ff9	0.07278437
71	0x3d79afd5	0.060958702
72	0xbdbe952c	-0.09305796
73	0x3d769228	0.06019798
74	0x3df235d7	0.118266754
75	0x3d9c08f6	0.07618897
76	0xbd77c6d6	-0.06049236
77	0xbcf0cac7	-0.029393567
78	0x3c5f6a4f	0.013636186
79	0x3d11219d	0.035432447
80	0xbe6c086b	-0.23050086
81	0x3d4afe6a	0.049559034
82	0x3cda7c8d	0.026670719
83	0xbd9a2132	-0.07525863
84	0xbe01c5a9	-0.12673058
85	0xbd95619d	-0.07294009
86	0x3de4ae00	0.11166
87	0x3d9c7ed2	0.076413766
88	0xbe219116	-0.15778002
89	0xbd4f7af6	-0.050654374
90	0xbd4324ed	-0.047642637
91	0xbdd385fd	-0.103282906
92	0x3de5329d	0.11191294
93	0xbd502c14	-0.050823286
94	0x3cd76957	0.026295347
95	0xbde8ceb0	-0.113675475
96	0xbe0b37d9	-0.13595523
97	0xbd3dd479	-0.046345208
98	0x3d9e4b6a	0.07729228
99	0x3d5cfd57	0.05395254
100	0xbd867ca2	-0.065667406
101	0xbd917dcb	-0.07104071
102	0x3d89568a	0.06705959
103	0xbd890f2f	-0.06692349
104	0x3d9c97f0	0.07646167
105	0xbd37ef7f	-0.044906136
106	0xbc9d76e9	-0.01922174
107	0x3c4731f5	0.012157907
108	0x3deb73cc	0.11496696
109	0xbbfb9c11	-0.0076785167
110	0x3d330fec	0.043716356
111	0xbd8d31ad	-0.068942405
112	0xbbb6c4d8	-0.005577665
113	0x3e07836f	0.13233732
114	0xbdcd9790	-0.10038674
115	0xbd486ce5	-0.048931975
116	0x3d98dab0	0.07463586
117	0xbe04f82a	-0.12985292
118	0x3e1bf32c	0.15229481
119	0x3e92b527	0.28653833
120	0xbd2bdaca	-0.0419567
121	0xbcc6f6cb	-0.024287602
122	0x3d7f91d7	0.062394943
123	0x3d324574	0.043523267
124	0x3ccb4323	0.024812287
125	0xbcc4a9c3	-0.02400673
126	0x3cc548e7	0.024082614
127	0xbc7b0c27	-0.015322722
128	0x3e071fb1	0.13195683
129	0x3df951ad	0.121737815
130	0xbd0ffbdc	-0.0351523
131	0xbd4954dc	-0.049153194
132	0x3da908d3	0.08253636
133	0xbdca027e	-0.098637566
134	0xbe09c40c	-0.13453692
135	0xbde34e78	-0.11098951
136	0x3d72c1fe	0.059267037
137	0x3d690f61	0.056899432
138	0xbdce0614	-0.10059753
139	0x3da23fb0	0.07922304
140	0x3d7d38bd	0.061821688
141	0xbd904519	-0.07044429
142	0xbd93f4d7	-0.07224434
143	0x3de052ac	0.109532684
144	0xbd15dd80	-0.036588192
145	0xbd098c18	-0.03358087
146	0xbd809ade	-0.062795386
147	0xbd1354d4	-0.03596957
148	0x3d5f1c84	0.054470554
149	0xbdfd88b5	-0.123795904
150	0x3d501ec7	0.0508106
151	0xbdbb1353	-0.09134545
152	0xbd40d5a2	-0.047078736
153	0xbde2eb16	-0.11079995
154	0xbd5ccca5	-0.0539061
155	0x3c9d4658	0.019198582
156	0xbd92003a	-0.071289495
157	0x3d1c2063	0.038116824
158	0xbd9edb30	-0.077566504
159	0xbce16dcf	-0.027518181
160	0xbd90dee4	-0.07073763
161	0xbda166ea	-0.078809574
162	0x3a47c281	0.0007620231
163	0x3dcffeee	0.10156046
164	0xbcc44f3a	-0.02396356
165	0xbcd68511	-0.026186498
166	0x3dd8f93d	0.105944134
167	0x3db540ce	0.08850251
168	0xbc35ff8c	-0.01110829
169	0xbda4414f	-0.08020269
170	0xbd189b5f	-0.03725755
171	0x3d841d28	0.064508736
172	0xbe009ef3	-0.12560634
173	0xbd7402b7	-0.0595729
174	0x3dacb9d0	0.084338784
175	0x3d8b58a5	0.06804017
176	0x3de2b343	0.11069348
177	0x3d9f4b51	0.07778037
178	0xbe08b077	-0.13348566
179	0x3dfeb2be	0.12436436
180	0xbe759e22	-0.23986104
181	0x3dd72035	0.1050419
182	0x3ca090d4	0.01960031
183	0x3c8fddb4	0.017561771
184	0xbd8eb334	-0.06967774
185	0xbca9c9b3	-0.02072606
186	0xbd66660d	-0.056249667
187	0x3da2eec9	0.07955701
188	0xbe125966	-0.14291915
189	0xbdc0052c	-0.093759865
190	0xbe072f8a	-0.13201728
191	0x3caa1a1c	0.020764403
192	0x3dbbc472	0.09168328
193	0x3da94b2e	0.082662925
194	0xbd3a8323	-0.045535218
195	0xbca7bc7d	-0.02047562
196	0x3ca9af46	0.02071346
197	0xbd5bdfed	-0.05368035
198	0xbcc1549c	-0.023599915
199	0xbd5c02c1	-0.053713564
200	0xbdfe537f	-0.12418269
201	0xbdc0f851	-0.094223626
202	0xbe1ff2ce	-0.15619966
203	0x3d16de9c	0.03683339
204	0xbdea971e	-0.114546046
205	0x3d4faeda	0.05070386
206	0xbbef2dbb	-0.0072991527
207	0xbe13338e	-0.14375135
208	0x3d17b841	0.037040953
209	0x3cacd40e	0.02109721
210	0x3d8eb1d9	0.069675155
211	0xbdf8d5cd	-0.12150154
212	0xbcd42511	-0.02589658
213	0xbd5b4647	-0.05353382
214	0x3e3fbcd9	0.18724383
215	0x3dfca6ec	0.12336525
216	0x3dfffdf1	0.12499607
217	0xbccb7baa	-0.024839241
218	0x3e3a3702	0.18185046
219	0x3d8febe8	0.070274174
220	0xbd94b9da	-0.07262011
221	0x3da8517c	0.08218667
222	0xbd6608af	-0.056160625
223	0xbe09a9c1	-0.13443662
224	0x3d5cbbf3	0.05389018
225	0x3d2eb54e	0.042653374
226	0xbe0a327b	-0.1349582
227	0x3d37d61c	0.044881925
228	0xbe01f90b	-0.12692659
229	0xbdc23ec1	-0.094846256
230	0xbd6396e5	-0.055563826
231	0x3e2841ed	0.16431399
232	0xbe29e536	-0.16591343
233	0xbdef155d	-0.116739966
234	0x3c7e3e3e	0.015517769
235	0x3e12486b	0.14285438
236	0x3e13c97f	0.14432333
237	0xbdecfee4	-0.11572054
238	0x3db6c1dc	0.089236945
239	0x3cd455f2	0.025919888
240	0x3e031941	0.12802602
241	0x3dcd8d11	0.10036672
242	0xbe4165ea	-0.18886533
243	0xbd8c85d0	-0.0686146
244	0xbe2c1a76	-0.16806969
245	0xbe045ed1	-0.12926795
246	0x3e0360d3	0.12829904
247	0xbdd017e3	-0.10160806
248	0xbcadacc5	-0.021200547
249	0xbe049d3c	-0.12950605
250	0xbd95b8f5	-0.073106684
251	0x3dd6082f	0.1045078
252	0x3dd5d0de	0.10440229
253	0x3d4d4d0f	0.050122317
254	0x3d4f1280	0.050554752
255	0xbdd2bf4b	-0.102903925

lstm.weight_hh_l0 f4 [400, 100]
0	0x3c6b9742	0.014379324
1	0x3dafbbf2	0.085807696
2	0x3d83f7e8	0.06443769
3	0x3da0000b	0.07812508
4	0x3d5ec789	0.05438951
5	0xbd09a95c	-0.03360878
6	0x3dbf6ce4	0.09346941
7	0x3d854f65	0.06509284
8	0x3da56a1c	0.080768794
9	0x3de0456e	0.10950743
10	0xbddcf568	-0.10788995
11	0x3dcf9f19	0.10137767
12	0x3d3157f3	0.043296766
13	0x3d9047f2	0.070449725
14	0xbd1a3d5d	-0.037656177
15	0xbe151edd	-0.14562555
16	0x3c2e769f	0.010648399
17	0x3c9c0107	0.019043459
18	0x3d0e060f	0.034673747
19	0xbc86b2cb	-0.016442677
20	0x3df96fcf	0.12179529
21	0x3dabc58b	0.08387288
22	0xbd01d3e6	-0.031696223
23	0x3d706867	0.058693316
24	0xbdcfd875	-0.10148708
25	0x3dce08e4	0.100602895
26	0xbdca7519	-0.09885616
27	0x3d539d6f	0.051663812
28	0xbdc6fceb	-0.09716209
29	0x3c90ed78	0.017691359
30	0x3da7ebcb	0.08199271
31	0xbda9c62c	-0.082897514
32	0x3d34af9b	0.044112783
33	0x3da31119	0.079622455
34	0xbd5b1206	-0.053483985
35	0xbe29f5e2	-0.16597703
36	0x3b007ade	0.0019604485
37	0xbcc62a97	-0.02419023
38	0xbdf01b89	-0.11724002
39	0xbcd99544	-0.026560433
40	0x3d27eee9	0.040999327
41	0xbd580c1b	-0.05274592
42	0x3dbc7e4d	0.092037775
43	0xbc64972a	-0.013952056
44	0xbccbaba2	-0.024862114
45	0xbcd00dec	-0.025397263
46	0xbc9c0a54	-0.019047894
47	0xbd7079ee	-0.05871003
48	0x3d92e3e4	0.07172373
49	0xbccc3443	-0.024927264
50	0xbdaa8917	-0.08326929
51	0x3d16bcf0	0.03680128
52	0x3b2fc2cd	0.0026818991
53	0xbe47ce79	-0.19512357
54	0xbb99418a	-0.0046770023
55	0x3dcd53c4	0.10025743
56	0x3d830482	0.06397344
57	0xbda4efe2	-0.080535665
58	0x3d6085a7	0.05481496
59	0xbc251fe2	-0.010078402
60	0x3cbf99af	0.023388712
61	0xbd8aecde	-0.0678346
62	0xbdb83322	-0.08994128
63	0x3d83d0cd	0.0643631
64	0xbddd3739	-0.108015485
65	0xbd988605	-0.07447437
66	0xbd05042a	-0.032474674
67	0x3d8341a4	0.06409004
68	0x3cc27dae	0.02374157
69	0xbd232bdf	-0.03983676
70	0xbb182e32	-0.0023220894
71	0xbb769790	-0.003762696
72	0x3c8fa3d9	0.017534183
73	0x3cdee645	0.02720941
74	0x3d914504	0.07093242
75	0xbdc279b9	-0.09495873
76	0x3cde9b0b	0.02717354
77	0xbbe08331	-0.0068515767
78	0x3dc555ee	0.096355304
79	0xbd70c772	-0.058783956
80	0x3d500084	0.05078174
81	0x3df21829	0.118210144
82	0x3d47951d	0.04872619
83	0x3ba50f95	0.005037258
84	0xbaa30234	-0.001243657
85	0xbdb2ccea	-0.087304905
86	0x3d0dc5bc	0.034612402
87	0xbddf083c	-0.108902425
88	0xbdfb8c68	-0.1228264
89	0xbd12e33a	-0.03586123
90	0xbe6460db	-0.22302572
91	0xbdb3ff27	-0.08788901
92	0x3c3b501d	0.011432675
93	0xbdab59d6	-0.08366744
94	0xbd32c630	-0.043646038
95	0x3e3740ce	0.17895815
96	0x3dbf04fc	0.093271226
97	0xbbcd2a69	-0.006261159
98	0xbd26883a	-0.04065726
99	0xbc96093d	-0.018314952
100	0x3ceacee1	0.0286631
101	0x3dccd74c	0.10002002
102	0x3ce4a5c9	0.027911084
103	0x3dc88bdd	0.09792302
104	0x3da09550	0.07840979
105	0xbc0f1427	-0.008732832
106	0x3de23330	0.110449195
107	0x3d48adc6	0.04899385
108	0x3d94baec	0.07262215
109	0xbd3a7f2d	-0.04553144
110	0x3c8758d8	0.016521856
111	0xbc166ac9	-0.009180733
112	0xbd4a9496	-0.04945811
113	0x3d12cb01	0.03583813
114	0xbcc653cb	-0.024209877
115	0xbd8ac3a5	-0.067755975
116	0x3c2aee7e	0.0104328375
117	0x3d3b1071	0.045669977
118	0xbc676106	-0.014122253
119	0xbd85c0b3	-0.06530895
120	0x3df2ba62	0.11851956
121	0x3d66ea43	0.056375753
122	0xbc14be58	-0.009078585
123	0x3b3be46e	0.002867009
124	0xbdfb2f3e	-0.1226487
125	0xbcd03b54	-0.025418915
126	0x3da89c65	0.08232955
127	0x3b91546f	0.004435114
128	0xbd52ba25	-0.051447053
129	0x3c111c09	0.008856782
130	0xbd6f6862	-0.058449157
131	0xbd9f6610	-0.07783139
132	0xbcbbafee	-0.022911038
133	0x3e0155a3	0.12630324
134	0xbc5c894e	-0.01346047
135	0xbd521d00	-0.051297188
136	0xbdaad33d	-0.08341072
137	0x39b53464	0.00034562044
138	0xbd524660	-0.051336646
139	0x3d4b40fa	0.049622513
140	0x3da001dd	0.078128554
141	0xbcf94cca	-0.030432124
142	0x3dec2bb8	0.11531776
143	0xbca9311e	-0.020653304
144	0x3cc44e8c	0.023963235
145	0x3db38dd8	0.08767289
146	0x3de3091f	0.11085724
147	0x3d575080	0.052567005
148	0xbd814a8d	-0.063130476
149	0xbd238c97	-0.039929
150	0xbd98ec57	-0.07466953
151	0x3bea81d0	0.007156588
152	0x3db3cfc5	0.08779863
153	0xbd9ed200	-0.07754898
154	0x3c2bb2f2	0.010479676
155	0x3da0870f	0.078382604
156	0xbc1614e3	-0.009160253
157	0xbd942aaf	-0.07234704
158	0x3d347398	0.04405555
159	0xbcd9018b	-0.026489994
160	0xbd72b0f6	-0.059250794
161	0x3d82530c	0.06363496
162	0xbbd29440	-0.006426364
163	0x3d46d98c	0.048547313
164	0x3da536be	0.08067082
165	0x3d55c4a2	0.052189477
166	0xbdb2f310	-0.08737767
167	0x3d8d3455	0.06894747
168	0xbdac709b	-0.08419915
169	0x3cb48cdb	0.022039821
170	0xbbf3498d	-0.0074245394
171	0xbd646727	-0.055762436
172	0xbdc43c37	-0.095817976
173	0xbca5fae6	-0.02026124
174	0x3dbd5a6e	0.09245764
175	0xbdb112c3	-0.08646157
176	0x3c60edfe	0.013728617
177	0xbbc9799a	-0.0061485292
178	0x3c268a34	0.010164786
179	0xbd5b6190	-0.05355984
180	0xbd4a90c4	-0.049454466
181	0x3c84737a	0.016168345
182	0x3cd230f6	0.025658112
183	0xbd6d8d6b	-0.057996195
184	0x3d15cdea	0.036573328
185	0xbcf1bf55	-0.02951018
186	0xbd8cf958	-0.06883496
187	0x3d0d4212	0.034486838
188	0xbdbaa815	-0.0911409
189	0x3d7d94e2	0.061909564
190	0xbd2bdee8	-0.041960627
191	0xbd49255e	-0.0491079
192	0x3db999df	0.09062552
193	0x3db1b48b	0.08677014
194	0xbdc01dbd	-0.09380672
195	0x3dbde2c1	0.092717655
196	0x3d94666b	0.07246097
197	0xbb43fa73	-0.0029903918
198	0xbd94de39	-0.07268948
199	0xbdcd8ce8	-0.10036641
200	0x3d87013f	0.065920345
201	0xbcbdcf66	-0.023170184
202	0x3d5e9d95	0.0543495
203	0x3d6ba463	0.05752982
204	0xbafab668	-0.0019127848
205	0xbdf75d3c	-0.1207833
206	0xbc926b19	-0.017873334
207	0xb9090851	-0.00013068436
208	0xbc557f71	-0.013030873
209	0x3d4ab8df	0.049492713
210	0x3d23ac3e	0.039959185
211	0x3dd4c0a6	0.10388307
212	0x3b66d7e2	0.003522389
213	0xbd652c9e	-0.055950753
214	0xbd6fd132	-0.058549114
215	0xbde417d1	-0.11137355
216	0xbc20458e	-0.009782208
217	0xbd00f2fb	-0.031481724
218	0x3d71f7b5	0.059074122
219	0x3e04c23c	0.1296472
220	0xbd51eb26	-0.051249646
221	0xbcea79d7	-0.02862255
222	0xbdbe79d7	-0.09300583
223	0xbc86a77b	-0.016437283
224	0x3d539791	0.051658217
225	0x3cdcded0	0.026961714
226	0x3dab4874	0.08363429
227	0xbc8f4dc9	-0.017493146
228	0x3d9171f0	0.0710181
229	0xbb956e0e	-0.0045602387
230	0x3d46b86c	0.048515722
231	0x3c89b93f	0.016811965
232	0xbda9de28	-0.08294326
233	0x3c91f705	0.017817983
234	0x3b5e7858	0.0033946242
235	0xbce8e039	-0.02842723
236	0xbc60d40a	-0.013722429
237	0x3da7b918	0.08189601
238	0x3caed793	0.021343028
239	0x3dfd4cc5	0.12368158
240	0x3de50ef0	0.1118449
241	0x3c1af174	0.009456981
242	0x3d3ad599	0.04561386
243	0xbd0d4062	-0.03448523
244	0xbd6783e0	-0.05652225
245	0xba85d5f9	-0.0010210864
246	0xbc1b24f9	-0.009469264
247	0x3d6dc056	0.058044754
248	0x3d642aa6	0.055704735
249	0xbd93389d	-0.071885325
250	0x3dcd4da6	0.10024576
251	0xbd54be53	-0.05193932
252	0xbcd02239	-0.025406944
253	0xbd8412e6	-0.06448917
254	0xbcedce4d	-0.029029036
255	0x3b3ada7a	0.002851157

lstm.bias_ih_l0 f4 [400]
0	0x3db434f3	0.08799162
1	0x3dd6bae6	0.10484867
2	0x3e1c8c3d	0.15287872
3	0x3d72667b	0.059179764
4	0x3db6cbb1	0.0892557
5	0x3dcb20b9	0.09918351
6	0xbcffd55f	-0.031229673
7	0x3db643c8	0.08899647
8	0x3bd0bde1	0.0063702916
9	0x3dd43ab4	0.10362759
10	0xbce864bf	-0.028368352
11	0x3b90b338	0.004415896
12	0xbbee135a	-0.0072654905
13	0x3d450356	0.048098885
14	0x3cae153e	0.021250363
15	0x3dec4c40	0.11537981
16	0xbc8f19eb	-0.017468413
17	0xbb3cb0a1	-0.0028791802
18	0x3e1208cf	0.14261173
19	0x3e04e46e	0.12977764
20	0x3cadd2f1	0.021218749
21	0x3d80b71a	0.06284924
22	0x3de997e8	0.11405927
23	0xbce61e61	-0.028090658
24	0xbc138072	-0.009002792
25	0xbd61d3ce	-0.055133633
26	0x3dc46f3b	0.09591528
27	0x3dd3ee9f	0.10348248
28	0xbd95c382	-0.07312681
29	0x3e16e4ab	0.14735667
30	0xbc3c1274	-0.011479009
31	0x3dfb8f48	0.12283188
32	0x3e15d8b0	0.14633441
33	0x3da5d363	0.080969594
34	0x3d0c8d87	0.03431466
35	0xbd1c4d64	-0.038159743
36	0x3cdb35ac	0.026758991
37	0xbbefcfd3	-0.0073184757
38	0xbcc29691	-0.023753436
39	0x3d20c2cf	0.039248284
40	0x3d917d08	0.07103926
41	0xbd59915f	-0.053117152
42	0x3e25f54c	0.16206855
43	0xbd16dbe7	-0.03683081
44	0x3df436a6	0.11924486
45	0x3d97e791	0.07417215
46	0x3dd39910	0.10331929
47	0xbd50ebdd	-0.051006187
48	0xbd9d4275	-0.07678691
49	0x3d9a9e9b	0.07549783
50	0x3c7996c5	0.0152337
51	0xbc00d676	-0.0078636315
52	0x3dffe492	0.12494768
53	0x3d814665	0.06312255
54	0x3ddb8565	0.10718802
55	0x3dafd1c6	0.08584933
56	0x3cf2ac82	0.029623274
57	0xbd7d3850	-0.061821282
58	0x3dfbe91e	0.12300323
59	0xbd7d38d9	-0.061821792
60	0x3c8aa2b9	0.016923295
61	0x3dd15dd6	0.10222976
62	0x3e5713d1	0.21003653
63	0x3db9b657	0.09067982
64	0x3cd9c44d	0.026582861
65	0x3de350fe	0.110994324
66	0x3e1ab8db	0.1510958
67	0x3db3fbb2	0.087882414
68	0x3d2487b9	0.040168498
69	0xbd5385a3	-0.051641118
70	0xbb0ea843	-0.0021767772
71	0xbcbeabf1	-0.023275347
72	0x3d18656f	0.03720611
73	0xbd4bee05	-0.04978754
74	0xbc01d290	-0.007923737
75	0x3d9c0e5d	0.07619927
76	0xbcadb1c3	-0.021202927
77	0x3d28e7af	0.041236576
78	0x3bff9a1a	0.0078003528
79	0x3d09fc5e	0.03368794
80	0x3db72ddc	0.08944294
81	0x3d0f8766	0.035041235
82	0x3db3927a	0.087681726
83	0x3da191b6	0.0788912
84	0x3d280e26	0.041029118
85	0xbd9a137e	-0.07523249
86	0x3dca0fe9	0.09866316
87	0xbd9192cc	-0.071080774
88	0xbc35013d	-0.0110476585
89	0x3d484620	0.048895
90	0x3c2f8728	0.010713376
91	0x3e05351b	0.1300854
92	0x3d877c06	0.066154525
93	0x3da5c55b	0.08094283
94	0x3dc69768	0.09696847
95	0x3d7677ec	0.06017296
96	0xbd416a68	-0.047220618
97	0x3c6b3136	0.0143549945
98	0x3a728ca9	0.00092525274
99	0xbd8a3be4	-0.067497045
100	0xbd5ce74d	-0.053931523
101	0x3d1e2820	0.038612485
102	0x3cf085d1	0.029360684
103	0xbc4a4432	-0.012345361
104	0x3da3f8ba	0.08006425
105	0x3d33ebae	0.043925934
106	0x3c931a5f	0.01795691
107	0x3dd11ce0	0.102105856
108	0xbd09c96d	-0.03363936
109	0x3d1b55df	0.03792369
110	0x3d86338d	0.06552801
111	0x3d9bca0d	0.076068975
112	0xbd9c81aa	-0.07641919
113	0xbd541491	-0.051777426
114	0xbd1cab11	-0.03824908
115	0xbc96ab0e	-0.018392112
116	0x3da82949	0.082109995
117	0xbaf68993	-0.0018809311
118	0xbd47be25	-0.04876532
119	0xbc33997a	-0.010961885
120	0xbd805811	-0.06266797
121	0x3d20ff31	0.03930587
122	0xbd25454b	-0.040349286
123	0xbd3eb901	-0.046563152
124	0x3da51e50	0.08062422
125	0xbc27a6d3	-0.010232645
126	0xbce8ee54	-0.028433956
127	0x3d20fbba	0.039302565
128	0xbdb0d6b6	-0.08634703
129	0xbd9e96c2	-0.077435985
130	0xbc284130	-0.010269448
131	0xbd06d6bb	-0.032919627
132	0xbd0fca6f	-0.035105165
133	0x3db56a5b	0.08858176
134	0xbd4df539	-0.05028269
135	0xbd92d988	-0.07170397
136	0x3d0621f7	0.032747235
137	0x3c7543b8	0.014969759
138	0xbbaf679c	-0.0053529274
139	0xbdad7bb1	-0.08470858
140	0xbc558b2f	-0.013033672
141	0x3ccef6e2	0.025264207
142	0xbc9fbe0c	-0.019499801
143	0x3dd42faa	0.10360654
144	0xbd93e350	-0.07221091
145	0x3ccb3b1a	0.024808455
146	0x3c9f62f7	0.01945637
147	0xbc3635cc	-0.011121225
148	0x3cb1488f	0.021641044
149	0x3bf30a21	0.007416979
150	0xbcde225c	-0.027115993
151	0x3d51e86b	0.05124704
152	0x3da37370	0.07981002
153	0xbb5fe5df	-0.0034164113
154	0x3d9b073b	0.075697385
155	0xbd219034	-0.039444163
156	0x3dfb53a9	0.12271816
157	0xbd4fcfa3	-0.050735127
158	0xbbe81b83	-0.007083358
159	0xbd8fe5ba	-0.07026239
160	0x3c63de8c	0.01390804
161	0x3d6d124f	0.05787879
162	0xbc0092b3	-0.007847476
163	0x3dc7f8e9	0.09764273
164	0xbd1ec6b9	-0.038763735
165	0xbcf48901	-0.029850485
166	0xbbe321a7	-0.006931502
167	0xbda83c5b	-0.08214637
168	0x3c2fa410	0.010720268
169	0x3c148f8f	0.00906743
170	0x3d56c3f7	0.05243298
171	0x3cc5a2f7	0.02412556
172	0xbd8f3deb	-0.06994232
173	0x3c314030	0.010818526
174	0x3d0650d4	0.032791927
175	0x3d1a0d2e	0.037610225
176	0x3c1ee34d	0.009697747
177	0xbd3f8876	-0.046761
178	0x3c4b466d	0.0124069275
179	0xbb99e6f3	-0.0046967207
180	0xbd39f6ae	-0.045401268
181	0xbd6b0f1f	-0.057387467
182	0xbd23ffc7	-0.04003885
183	0xbaff9619	-0.0019499689
184	0x3dc57254	0.09640947
185	0x3dcd28a7	0.100175194
186	0x3cca3087	0.024681343
187	0xbd0d79ae	-0.03453987
188	0x3d8e03e3	0.06934335
189	0xbd4b6e3d	-0.04966568
190	0xbd0a5465	-0.03377189
191	0x3dc57f54	0.096434265
192	0x3db7df08	0.08978087
193	0x3d674d30	0.056470096
194	0xbb756e89	-0.0037449917
195	0xbd7e197f	-0.062036034
196	0xbc4f22f0	-0.012642607
197	0xbd5616da	-0.052267887
198	0x3c512da6	0.012767231
199	0x3c891521	0.016733708
200	0xbd2b08a4	-0.041756287
201	0x3d5ed398	0.05440101
202	0xbd87e0fd	-0.0663471
203	0x3da8df4d	0.08245716
204	0xbda70cab	-0.08156713
205	0xbc70c487	-0.014695293
206	0x3dc40f5f	0.09573244
207	0x3d066099	0.032806966
208	0x3d3b93c4	0.045795217
209	0x3dde7672	0.108624354
210	0xbd1012c3	-0.035174143
211	0xbb6c8238	-0.0036088359
212	0xbda48f2f	-0.080351226
213	0xbd8dd77a	-0.069258645
214	0xbc66c55d	-0.014085141
215	0xbdd2ad65	-0.10286979
216	0x3d5d0922	0.053963788
217	0x3d3b098a	0.045663394
218	0xbd6510e1	-0.0559243
219	0x3d99d88c	0.07512006
220	0x3d13a3f0	0.036045015
221	0x3d780ed8	0.06056103
222	0xbda21b4a	-0.07915361
223	0x3cb2c844	0.02182401
224	0xbd9a3da3	-0.075312875
225	0x3db1ae64	0.086758405
226	0x3d430300	0.047610283
227	0x3a32f70b	0.00068269734
228	0xbc4db6b0	-0.012555763
229	0xbda0937a	-0.07840629
230	0xbda93aee	-0.08263193
231	0x3b104559	0.002201399
232	0xbd7d1707	-0.06178954
233	0x3dc4ae31	0.09603537
234	0xbdb93125	-0.09042577
235	0x3d15d31b	0.03657828
236	0xbc27d5b0	-0.010243818
237	0x3d61143b	0.054950934
238	0xbd9c8758	-0.07643002
239	0x3bfa03f6	0.0076298667
240	0x3ccc72ed	0.024957145
241	0x3c80621b	0.01567178
242	0x3dd0b947	0.10191589
243	0xbd7c97f5	-0.061668355
244	0xbd30a2da	-0.043124057
245	0xbdb92b71	-0.09041489
246	0x3dc5f2e5	0.09665469
247	0x3cf0d0f7	0.029396517
248	0x3d58de29	0.052946243
249	0xbd3c976c	-0.046042845
250	0x3d286d02	0.041119583
251	0xba1be804	-0.0005947354
252	0xbd524b20	-0.051341176
253	0xbdadf492	-0.08493914
254	0x3d66fbc5	0.05639245
255	0x3d9f15fe	0.077678666

lstm.bias_hh_l0 f4 [400]
0	0xbce1664b	-0.027514597
1	0xbc764bc3	-0.015032711
2	0xbd0020a9	-0.031281147
3	0xbce84e99	-0.02835779
4	0xbd70abeb	-0.058757704
5	0xbd032775	-0.03202005
6	0x3d65b1e8	0.056077868
7	0x3d35be79	0.044371102
8	0x3dd7c60d	0.10535822
9	0xbd928f9a	-0.07156296
10	0x3d1aeef3	0.037825536
11	0xbc1d3c12	-0.009596841
12	0xbdad2c01	-0.08455659
13	0xbd9176c4	-0.07102731
14	0xbca3f065	-0.02001209
15	0xbb66effc	-0.0035238257
16	0xbc504dbf	-0.012713849
17	0x3d8b2313	0.06793799
18	0x3d1e6261	0.03866804
19	0xbcd1c660	-0.025607288
20	0xbcf52c38	-0.029928312
21	0x3de8e529	0.11371834
22	0x3d7841e1	0.060609702
23	0x3da70f90	0.08157265
24	0xbd6074eb	-0.054799
25	0x3cd6624b	0.026169917
26	0xbc68e829	-0.014215508
27	0x3dc041ca	0.09387548
28	0x3dd2a4e3	0.10285356
29	0x3e16f7e3	0.14742999
30	0xbc0e19b3	-0.008673119
31	0x3d5f8a2e	0.054575138
32	0x3e24d755	0.16097768
33	0x3da88517	0.0822851
34	0xbce6c7c8	-0.028171435
35	0x3d320003	0.043457042
36	0x3c6b361c	0.014356162
37	0xbcc69b41	-0.024243953
38	0xbd986097	-0.07440298
39	0x3dace73d	0.08442543
40	0x3d758ecb	0.05995063
41	0x3d02c6c8	0.031927854
42	0x3d649089	0.055801902
43	0x3c7611f4	0.015018929
44	0x3caf8489	0.021425502
45	0x3d01e346	0.031710885
46	0x3cbe722a	0.023247797
47	0x3d0661a1	0.03280795
48	0x3dc3affc	0.09555051
49	0x3db799a3	0.08964851
50	0xbda4f72e	-0.08054958
51	0x3e09e516	0.13466296
52	0x3d99cdb7	0.0750994
53	0xbd8adffe	-0.06781004
54	0xbc912515	-0.017717877
55	0xbd4aec77	-0.049541917
56	0xbd783669	-0.060598765
57	0xb9491371	-0.00019176096
58	0xbd67365a	-0.056448318
59	0x3d9b67e0	0.07588172
60	0x3dd40bc5	0.10353807
61	0x3ddeaaca	0.10872419
62	0x3e1f0d99	0.15532531
63	0xbd9a2cb3	-0.07528057
64	0x3de748cb	0.11293181
65	0x3d2a15cb	0.04152469
66	0x3c925e41	0.01786721
67	0x3e0069ca	0.12540355
68	0x3dfccc7c	0.1234369
69	0x3df2fab3	0.11864223
70	0x3d75005e	0.059814803
71	0xbce0c4a9	-0.027437525
72	0x3daa29b8	0.083087385
73	0xbceed344	-0.029153474
74	0xbda463b3	-0.080268286
75	0xbd0c48c0	-0.034249067
76	0x3c6e7e3d	0.014556465
77	0x3d67255b	0.05643211
78	0x3d866467	0.06562119
79	0xbd4637b9	-0.048392985
80	0x3b5c2500	0.003359139
81	0x3dd9e920	0.10640168
82	0x3b00e3d1	0.001966704
83	0xbd06c7ee	-0.03290551
84	0xbd4049ad	-0.046945263
85	0x3d1a112a	0.037614025
86	0xbdabc9fb	-0.08388134
87	0xbd23d665	-0.039999384
88	0x3de1240f	0.10993206
89	0x3dca4edd	0.09878323
90	0x3c078eea	0.008273819
91	0x3c68b579	0.014203423
92	0x3d870e32	0.065945044
93	0x3c4c7e4e	0.012481285
94	0xbcf88722	-0.030337874
95	0x3da2c321	0.07947374
96	0xbbc73a92	-0.00607998
97	0x3d53c321	0.05169976
98	0xbc3a5150	-0.0113719255
99	0x3d05fa27	0.032709267
100	0x3d06bc0d	0.032894183
101	0x3c8d8bc2	0.017278556
102	0xbd33f01b	-0.043930154
103	0x3d8ecbaa	0.069724396
104	0xbdba3c98	-0.090935886
105	0x3cb1ab20	0.021688044
106	0x3d499a4c	0.049219415
107	0xbc3606fb	-0.011110063
108	0x3db60d0e	0.08889209
109	0xbd0c21d5	-0.034211952
110	0x3cfe297a	0.031025637
111	0xbd65f9bb	-0.056146365
112	0xbdbc0f74	-0.09182635
113	0x3cdf7f0e	0.027282264
114	0xbda4bebd	-0.08044193
115	0xbcd9562d	-0.02653035
116	0x3db430cc	0.0879837
117	0x3d303c9d	0.043026555
118	0xbd6dd522	-0.058064587
119	0xbd2a44c6	-0.041569494
120	0xbca38b56	-0.019963901
121	0xbd98feb3	-0.07470455
122	0xbd2939e5	-0.04131498
123	0x3cc69ca1	0.024244608
124	0xbc1c20ca	-0.009529302
125	0xbd11b59f	-0.035573598
126	0xbb9f379e	-0.004858925
127	0xbd9af868	-0.07566911
128	0xbd314ca4	-0.04328598
129	0x3cba8b90	0.022771627
130	0x3dab14c4	0.0835357
131	0x3d6b5f56	0.057463966
132	0x3dc8b3ee	0.09799944
133	0xbd523f75	-0.05133005
134	0xbd9268f0	-0.071489215
135	0x3d883c64	0.066521436
136	0x3d8cd54b	0.0687662
137	0x3cf8dd73	0.030379033
138	0xbc9749da	-0.018467832
139	0xbd875f95	-0.06610028
140	0x3c8f1c62	0.017469589
141	0xbcbb2f4e	-0.022849705
142	0x3c3163a6	0.010826981
143	0xbd2e2c80	-0.042522907
144	0x3d39ef6a	0.04539434
145	0x3bba049a	0.005676818
146	0xbd6410e0	-0.055680156
147	0xbcc98220	-0.024598181
148	0x3da1ba30	0.078968406
149	0x3d824a6a	0.063618496
150	0x3ca08f49	0.019599574
151	0x3c7156d2	0.014730172
152	0x3aef4ac8	0.001825654
153	0xbdae472c	-0.08509669
154	0x3d0e1892	0.0346914
155	0x3c116991	0.008875267
156	0x3ddd13e1	0.10794807
157	0x3d043dc1	0.032285456
158	0x3dc09f39	0.09405369
159	0x3d37421d	0.044740785
160	0xbd6c01a6	-0.05761876
161	0x3debbfd4	0.11511198
162	0x3cd2a201	0.025712015
163	0x3d6e4ed3	0.05818064
164	0x3dd3e8b7	0.10347121
165	0x3d67b546	0.05656936
166	0x3d8f2da6	0.069911286
167	0x3dc0dc33	0.09417
168	0x3da12b66	0.07869606
169	0x3c49fb82	0.012328031
170	0xbd34baa1	-0.044123296
171	0xbd9a750d	-0.07541857
172	0xbd95cd17	-0.073145084
173	0x3d9116d8	0.07084435
174	0xbc9d1920	-0.01917702
175	0x3d69c524	0.057072774
176	0xbdb20b5e	-0.08693574
177	0xbd9605bf	-0.07325315
178	0xbc570f5b	-0.01312622
179	0x3da1fdfb	0.07909771
180	0xba4182ab	-0.0007381837
181	0xbdb23b06	-0.08702664
182	0xbdb2b1e9	-0.0872534
183	0x3d8672ca	0.06564863
184	0x3c6fa128	0.014625825
185	0xbd52b2d0	-0.05144006
186	0x3d83cdab	0.064357124
187	0x3c39716e	0.011318548
188	0x3c54bb66	0.012984132
189	0x3ce7f7e5	0.028316448
190	0x3d0af8d8	0.033928722
191	0x3da71faf	0.0816034
192	0xbd02c881	-0.031929497
193	0x3d1c608b	0.038178008
194	0x3d927a09	0.071521826
195	0xbd9f7c2a	-0.07787354
196	0x3c996bcf	0.018728165
197	0xbd2f02d1	-0.042727295
198	0xbd8b3601	-0.0679741
199	0x3d168794	0.03675039
200	0xbd465a44	-0.048425928
201	0xbcd76afe	-0.026296135
202	0x3dc8c336	0.098028585
203	0x3dd2794d	0.102770425
204	0x3ccdd668	0.02512665
205	0xbcc0f8fa	-0.023556221
206	0x3d92f3d1	0.071754105
207	0xbcacd27e	-0.021096464
208	0x3dd280a2	0.10278441
209	0x3d8349b9	0.06410546
210	0xbdca7d89	-0.09887225
211	0x3dcc9e33	0.099911116
212	0xbc8dadc0	-0.017294765
213	0xbd58fa41	-0.052973036
214	0xbd82f071	-0.06393517
215	0xbd3880c2	-0.045044668
216	0xbb8331c5	-0.0040037357
217	0x3d922cc0	0.07137442
218	0x3cb433ec	0.021997415
219	0x3da63dcc	0.081172556
220	0x3d944a67	0.072407536
221	0xbdb7ee4e	-0.08981
222	0xbd63aa33	-0.055582236
223	0x3c075775	0.0082605975
224	0xbd1280fd	-0.035767544
225	0x3d305154	0.04304631
226	0x3c467880	0.01211369
227	0x3da2a7d3	0.07942166
228	0xbdc15413	-0.09439864
229	0x3ca7ef4b	0.020499846
230	0x3dc24491	0.09485734
231	0xbbf28d49	-0.0074020964
232	0x3ce7f1dd	0.028313572
233	0x3dab9f4c	0.08379993
234	0x3b17600b	0.0023098018
235	0xbdd591c4	-0.10428193
236	0x3d97ae06	0.07406239
237	0xbb7e39b1	-0.003879171
238	0xbd94e740	-0.0727067
239	0x3d83ef3e	0.06442116
240	0x3dce7e28	0.10082656
241	0xbdc205a1	-0.0947373
242	0xbd39c15e	-0.045350425
243	0xbdb58364	-0.088629514
244	0xba3e2135	-0.0007252873
245	0x3d52f064	0.051498786
246	0xbce63f83	-0.028106457
247	0xbce60521	-0.028078618
248	0xbca929a6	-0.020649742
249	0x3d10aeb1	0.03532285
250	0x3c3e2dda	0.011607612
251	0x3c3faeee	0.011699421
252	0x3d358a97	0.044321623
253	0xbcd73d5f	-0.026274381
254	0x3c35a64d	0.0110870125
255	0x3dc26148	0.09491211

lstm.weight_ih_l1 f4 [400, 100]
0	0x3cd54aed	0.026036704
1	0x3d0acd63	0.03388728
2	0x3c7dd067	0.0154915815
3	0xbcc2e86d	-0.02379247
4	0xbdbd4c0d	-0.09243021
5	0x3d9cd6c7	0.07658153
6	0x3dcbbdd3	0.099483155
7	0x3bbf3eb3	0.0058363318
8	0x3dc0e7d5	0.094192185
9	0xbd82e202	-0.06390764
10	0x3a276400	0.00063854456
11	0x3d814b5d	0.063132025
12	0xbccbb3fa	-0.024866093
13	0x3cbf6913	0.023365533
14	0x3dca560d	0.09879694
15	0xbd0233ea	-0.03178779
16	0xbce72d07	-0.028219713
17	0x3da028ca	0.0782028
18	0xbd7166d7	-0.058935966
19	0x3d62abd3	0.055339646
20	0xbda92f6f	-0.08261
21	0xbcdb2767	-0.026752187
22	0x3d82b8d0	0.063829064
23	0x3b999fe7	0.0046882513
24	0x3cda9d80	0.02668643
25	0x3d2fe8ca	0.042946614
26	0xbbc71f00	-0.0060766935
27	0x3c0e98b3	0.0087033985
28	0x3b9f024d	0.004852569
29	0xbd1f987d	-0.038963784
30	0x3c8b3f93	0.016998088
31	0xbd5a1763	-0.05324496
32	0xbd1f19b0	-0.038842857
33	0xbd195e70	-0.03744358
34	0x3d92189a	0.071335986
35	0xbdc2b840	-0.09507799
36	0xbc3cdbcd	-0.011527014
37	0x3c1c76a7	0.009549773
38	0x3cb5a413	0.022172963
39	0x3cf7d320	0.03025204
40	0xbc11bd8d	-0.00889529
41	0xbda6d37f	-0.081458084
42	0xbd2c7c73	-0.04211087
43	0xbd83b727	-0.06431418
44	0xbcd5f7d3	-0.026119148
45	0xbc75600d	-0.014976514
46	0x3d613573	0.054982614
47	0xbdc41cf0	-0.09575832
48	0xbdc65d28	-0.09685737
49	0x3bf4af67	0.0074671987
50	0x3d9c95c0	0.0764575
51	0xbd7aec1a	-0.06126032
52	0x3c80c96d	0.015721047
53	0xbcd38d3a	-0.025824178
54	0xbdae0d47	-0.08498626
55	0xbd98123b	-0.07425352
56	0xbcec9567	-0.028879834
57	0xbdc1684b	-0.094437204
58	0x3cbd9187	0.023140682
59	0x3d9e1b58	0.07720059
60	0x3d093240	0.033495188
61	0xbd27902d	-0.04090898
62	0x3d943f0a	0.07238586
63	0xbda8cdfa	-0.08242412
64	0xbd5d8f3a	-0.05409167
65	0x3d8de2b0	0.06928003
66	0x3cf4b053	0.029869234
67	0x3d7ec377	0.06219813
68	0xbc077267	-0.008267022
69	0xbd145dcd	-0.036222268
70	0xbd5e1a6d	-0.05422442
71	0x3ad500cd	0.0016250849
72	0x3da1c3f8	0.07898706
73	0xbd9a088b	-0.07521161
74	0x3dbdb09f	0.092622034
75	0xbd7f532a	-0.06233517
76	0x3d598840	0.053108454
77	0xbd2e8df0	-0.04261583
78	0x3d11c0f3	0.0355844
79	0xbd893c9d	-0.06701014
80	0x3d042f7d	0.03227185
81	0x3c341840	0.01099211
82	0x3db3f962	0.087878
83	0x3d8cf43b	0.06882521
84	0xbdb0c13b	-0.08630606
85	0x3d213b37	0.039363112
86	0x3d9a3860	0.07530284
87	0x3c9e0720	0.019290507
88	0xbd86bf3a	-0.06579442
89	0xbd894490	-0.067025304
90	0x3d52af30	0.051436603
91	0xbd29ae9d	-0.04142629
92	0xbd6b7d70	-0.057492673
93	0x3d513fda	0.051086284
94	0xbc987973	-0.018612599
95	0xbb3867cd	-0.0028138042
96	0xbda1b08b	-0.07895001
97	0xbdbc02f0	-0.09180248
98	0x3c50088d	0.012697351
99	0x3da5482b	0.080704056
100	0x3dbb7a1b	0.09154149
101	0xbc1b190d	-0.009466422
102	0x3d7bd91a	0.06148634
103	0x3c399140	0.011326134
104	0x3d04a37d	0.032382477
105	0x3d9b3f7a	0.075804666
106	0xbd11889a	-0.035530664
107	0xba2dc0cd	-0.0006628156
108	0xbda7d49d	-0.0819485
109	0x3dc0b9c8	0.09410435
110	0x3d9c4f30	0.07632291
111	0xbdc65295	-0.0968372
112	0x3da0ba37	0.07848018
113	0x3d906ebd	0.07052372
114	0xbda4a08a	-0.08038433
115	0xbd93fa37	-0.07225459
116	0x3d2564a7	0.040379193
117	0x3d55f2da	0.052233554
118	0x3d1216ca	0.035666265
119	0xbd7ac043	-0.06121851
120	0x3d0b915a	0.034074165
121	0x3d7ba843	0.061439764
122	0xbd16f7a0	-0.036857247
123	0xbc8a3200	-0.016869545
124	0x3d12f15a	0.035874702
125	0x3d7b4420	0.061344266
126	0xbca9c3fa	-0.020723332
127	0xbd6e3567	-0.058156397
128	0x3d8d8eb5	0.06911985
129	0x3d566bc7	0.05234888
130	0xbd9b1862	-0.0757301
131	0xbcf9cb4d	-0.03049245
132	0x3d646fe3	0.055770766
133	0xbd621707	-0.05519774
134	0xbd3be26a	-0.045870222
135	0xbd6811d3	-0.056657623
136	0xbd8040d5	-0.06262366
137	0x3d78cc47	0.06074169
138	0xbdca891b	-0.09889432
139	0x3dab119b	0.08352967
140	0xbd91f867	-0.07127457
141	0x3d4ba2da	0.049715854
142	0x3dc02d5f	0.09383654
143	0xbc53338d	-0.012890709
144	0x3d34f207	0.044176128
145	0x3db3135d	0.08743928
146	0x3d7c3b0a	0.06157974
147	0x3d1b4de3	0.037916075
148	0x3dc933a2	0.09824301
149	0xbb685933	-0.0035453558
150	0x3c43685a	0.011926735
151	0xbc2b34a7	-0.010449565
152	0x3d7a3b63	0.06109179
153	0xbdbf2c25	-0.09334592
154	0xbda71a75	-0.08159343
155	0x3dbd97af	0.09257447
156	0x3c8f475a	0.017490078
157	0xbd9847e8	-0.0743559
158	0x3dbee5c0	0.09321165
159	0xbd8c2850	-0.068436265
160	0x3dc5ae10	0.096523404
161	0x3dc5dfd0	0.096618295
162	0xbcb8183a	-0.02247249
163	0x3d317ac7	0.04332998
164	0xbc66ab5a	-0.014078939
165	0xbd83033a	-0.063971
166	0xbdab2077	-0.083558016
167	0x3cce4fc7	0.025184525
168	0xbdba2a03	-0.09090044
169	0x3d6a2c13	0.05717094
170	0xbd875a93	-0.066090725
171	0xbd9d61b0	-0.07684648
172	0xbd43d097	-0.04780635
173	0x3cf77947	0.030209197
174	0x3d90d53d	0.07071922
175	0x3d0fbe73	0.035093736
176	0xbd3693f7	-0.044574704
177	0xbd850025	-0.06494168
178	0x3cd3b873	0.025844788
179	0x3be5fa9a	0.0070183994
180	0x3d98d652	0.07462753
181	0xbd485047	-0.048904683
182	0x3db30760	0.08741641
183	0xbcd576fa	-0.026057709
184	0x3c0e67e7	0.008691764
185	0xbcd8687a	-0.026417006
186	0xbdc5ca33	-0.09657707
187	0x3d147c47	0.036251333
188	0x3d62d68d	0.055380393
189	0x3afcfc00	0.0019301176
190	0xbdb6776d	-0.089094974
191	0x3d68a53d	0.05679821
192	0xbd209273	-0.039202165
193	0xbc996f20	-0.018729746
194	0x3d815565	0.06315116
195	0xbd602c43	-0.05472971
196	0x3d215563	0.03938807
197	0xbdb5aa1a	-0.08870335
198	0x3d8da83b	0.06916853
199	0xbd9a78f0	-0.07542598
200	0xbd96b622	-0.07358958
201	0x3b7b52cd	0.0038348914
202	0xbd9a3297	-0.075291805
203	0xbd404a1a	-0.04694567
204	0xbdc63d03	-0.09679606
205	0x3dbb9af5	0.09160415
206	0x3cf7048d	0.030153537
207	0xbdad53f5	-0.08463279
208	0xbd266e5d	-0.040632594
209	0x3ceb4d80	0.028723478
210	0xbdc7aefa	-0.09750171
211	0xbdc9e8f7	-0.09858888
212	0x3d20d66a	0.03926698
213	0x3d8a00ba	0.0673842
214	0x3d3c25aa	0.045934357
215	0xbd130170	-0.035890043
216	0x3daf24a2	0.08551909
217	0x3b954a00	0.0045559406
218	0xbda3ebd7	-0.08003967
219	0x3dadbf53	0.08483758
220	0x3c900c1a	0.017583895
221	0x3d330d9d	0.043714155
222	0x3da04083	0.07824805
223	0xbdb494f3	-0.08817472
224	0xbd3ab903	-0.045586597
225	0xbd58a040	-0.0528872
226	0x3cf80dad	0.030279959
227	0x3c36404d	0.011123729
228	0xbca29420	-0.019846022
229	0xbc041dcd	-0.008063746
230	0xbb89179a	-0.0041837217
231	0x3d91a21b	0.07110997
232	0xbd972a80	-0.07381153
233	0xbc994b2d	-0.018712604
234	0xbd157caa	-0.036495842
235	0x3d4c1bba	0.04983113
236	0x3d57fbe7	0.052730467
237	0x3c8787f3	0.016544318
238	0xbdc85a03	-0.097827934
239	0x3ba2dd00	0.004970193
240	0x3d84f308	0.06491667
241	0x3d4d42a0	0.050112367
242	0x3da261ad	0.079287864
243	0x3d9c6e70	0.07638252
244	0xbdc6d47a	-0.097084954
245	0xbd8c21bf	-0.06842374
246	0xbdc62b93	-0.0967628
247	0x3c4ef1b3	0.012630868
248	0x3c2e3d0d	0.010634673
249	0xbdc4eba0	-0.096152544
250	0xbdb23905	-0.08702282
251	0xbcdf6ced	-0.02727362
252	0x3dc22b77	0.094809465
253	0xbd429d2d	-0.047513176
254	0xbd5122fa	-0.051058747
255	0xbc82ed60	-0.01598233

lstm.weight_hh_l1 f4 [400, 100]
0	0xbcf22b47	-0.029561652
1	0x3d803a9b	0.06261178
2	0x3ca693b3	0.0203341
3	0x3d3f3140	0.046677828
4	0x3da2e7e8	0.07954389
5	0xbd089e7a	-0.03335426
6	0xbcf1288d	-0.029438281
7	0x3db9a06b	0.090638004
8	0xbd0545a3	-0.032537114
9	0xbd75c3e3	-0.060001265
10	0xbd310da3	-0.043225896
11	0x3d183a20	0.037164807
12	0xbda33c6f	-0.07970511
13	0xbd93fd98	-0.072261035
14	0x3cf952d3	0.030435001
15	0xbd55840a	-0.052127875
16	0x3dca6473	0.098824404
17	0xbdbd677b	-0.09248253
18	0x3b59cf00	0.0033234954
19	0x3c263740	0.010145009
20	0xbd845d97	-0.06463163
21	0xbdc8f812	-0.09812941
22	0x3cd26b67	0.025685979
23	0x3d701f83	0.058623802
24	0xbdaf621d	-0.085636355
25	0xbcd6f093	-0.026237762
26	0x3b92fe33	0.0044858693
27	0xbda78962	-0.081805006
28	0xbdcb4930	-0.09926069
29	0x3d4a8983	0.049447548
30	0x3d39a233	0.0453207
31	0xbcbab8e7	-0.022793246
32	0xbd6c8dca	-0.057752408
33	0xbbbb2e80	-0.0057123303
34	0x3d0456c3	0.032309305
35	0xbd93a480	-0.0720911
36	0xbda46f28	-0.08029014
37	0x3dbb62d0	0.09149706
38	0xbd191f3d	-0.037383307
39	0x3cc76727	0.024341179
40	0x3d9aa983	0.07551863
41	0xbd58293d	-0.052773703
42	0xbb958c33	-0.004563832
43	0xbb72339a	-0.0036957026
44	0xbd665387	-0.056232
45	0x3d99e48b	0.07514294
46	0x3d99b830	0.07505834
47	0xbd8b8ed7	-0.06814354
48	0x3d8d1aa7	0.06889849
49	0xbc362d4d	-0.011119199
50	0xbd204fe7	-0.0391387
51	0xbd7f6e3d	-0.06236099
52	0xbcc0b660	-0.023524463
53	0xbd6343c0	-0.055484533
54	0xbd29e16a	-0.041474737
55	0xbc43f640	-0.011960566
56	0x3cf47be7	0.029844237
57	0xbcf16e27	-0.02947147
58	0x3d963682	0.07334615
59	0xbd527b37	-0.051387038
60	0xbd9277b3	-0.07151737
61	0xbd9c5535	-0.076334395
62	0xbdc43580	-0.09580517
63	0x3d958b2a	0.07301934
64	0xbd38398a	-0.04497675
65	0xbbc60ab3	-0.006043756
66	0xbd9a3f28	-0.07531577
67	0x3d3600b0	0.04443425
68	0xbdc9cf7f	-0.0985403
69	0x3d6eacca	0.058270253
70	0xbcd5514d	-0.026039744
71	0xbd55fead	-0.05224483
72	0x3d921def	0.07134616
73	0xbd8c35bd	-0.06846187
74	0x3d0034ea	0.031300463
75	0x3da900f8	0.08252138
76	0x3d058e73	0.032606553
77	0xbce6aa80	-0.028157473
78	0xbd696baa	-0.056987442
79	0xbda9ff48	-0.08300644
80	0xba934c00	-0.001123786
81	0xbda3293d	-0.0796685
82	0xbd840705	-0.06446651
83	0x3cdaa1ed	0.02668854
84	0x3db2d0b0	0.0873121
85	0xbd851c9b	-0.06499597
86	0xbce14300	-0.027497768
87	0x3cc62760	0.024188697
88	0xbda8bf50	-0.08239615
89	0x3da5dc12	0.08098616
90	0x3c8e6fba	0.01738726
91	0xbdb5a3af	-0.08869111
92	0xbd8feb0f	-0.07027256
93	0x3d85fcff	0.06542396
94	0x3d30975a	0.04311309
95	0x3cbc90a7	0.023018194
96	0xbd831d3d	-0.06402061
97	0xbda3eec7	-0.080045275
98	0x3b66c0cd	0.0035210133
99	0x3c33684d	0.01095016
100	0xbd6243a7	-0.0552403
101	0xbd665940	-0.05623746
102	0xbd91d0bd	-0.07119892
103	0x3d80f03a	0.062958196
104	0x3dc7adf2	0.09749974
105	0x3dbbf747	0.09178024
106	0xbc0d67cd	-0.008630705
107	0xbd19df20	-0.037566304
108	0x3da3712d	0.07980571
109	0x3d216750	0.039405167
110	0x3d180577	0.037114587
111	0xbd6bc683	-0.057562362
112	0xbd76f923	-0.06029619
113	0x3d4f8b30	0.05066985
114	0xbd4861d7	-0.048921432
115	0xbdcc1e0d	-0.09966669
116	0xbd9fbd73	-0.077998064
117	0x3cceb72d	0.02523383
118	0x3db9ec70	0.090783
119	0x3bf05e1a	0.0073354365
120	0x3cdce24d	0.026963377
121	0xbcaac9e7	-0.020848228
122	0xbca33df3	-0.019927
123	0xbb04e333	-0.0020277023
124	0xbdadf408	-0.08493811
125	0xbdb8d3cb	-0.09024771
126	0xbb911700	-0.0044277906
127	0xbd8c5af8	-0.068532884
128	0xbbcb071a	-0.006195915
129	0x3c97cd07	0.018530382
130	0x3cce75c7	0.025202645
131	0x3d706a1a	0.058694936
132	0xbd2dce10	-0.042432845
133	0xbd007e6d	-0.03137057
134	0xbc80f973	-0.015743947
135	0x3db881a7	0.09009104
136	0x3d925c7f	0.071465485
137	0x3d8a588f	0.067551725
138	0x3dab460a	0.08362968
139	0x3c8798a0	0.01655227
140	0xbd138693	-0.03601701
141	0x3d0229e3	0.031778228
142	0xbd9a2a13	-0.07527556
143	0x3dc7d475	0.0975732
144	0xbd3aa5da	-0.045568325
145	0xbdafdc4b	-0.085869394
146	0xbd1a9740	-0.0377419
147	0xbdb35158	-0.087557495
148	0x3d236177	0.03988787
149	0x3cc83893	0.02444104
150	0x3cd01a60	0.025403202
151	0xbd9730f3	-0.07382383
152	0x3da6369b	0.08115884
153	0x3c26850d	0.010163558
154	0xbd4b16d7	-0.04958233
155	0x3d3aef0a	0.04563812
156	0x3c87ac87	0.01656176
157	0xbbfdd24d	-0.007746017
158	0xbc2108c0	-0.009828746
159	0x3d28e973	0.04123826
160	0xbd60354a	-0.05473832
161	0xbdc7e3e0	-0.097602606
162	0x3dc135ab	0.094340645
163	0x3dcaea38	0.09907955
164	0xbc35d127	-0.011097229
165	0xbdbb04d0	-0.09131777
166	0x3d0b8877	0.03406569
167	0xbd8f17f0	-0.069869876
168	0xbd15957d	-0.036519516
169	0x3db98f4f	0.09060537
170	0x3cd1131a	0.025521804
171	0x3c01da27	0.007925547
172	0xbdcabe50	-0.098995805
173	0x3dc2a61f	0.09504341
174	0xbdad2adb	-0.0845544
175	0x3db06377	0.086127214
176	0x3d3a4bed	0.045482565
177	0x3c122273	0.008919346
178	0xbc52a1e7	-0.012855983
179	0x3daf36c3	0.08555367
180	0xbd1af8b3	-0.037834834
181	0xbd163830	-0.03667468
182	0x3d88d5c7	0.066814
183	0xbd27d89d	-0.040978063
184	0x3d747b97	0.059688177
185	0x3dc6464a	0.09681375
186	0xbd1a0340	-0.037600756
187	0xbd24bc6a	-0.04021875
188	0x3c9448c0	0.018101096
189	0x3cc1238d	0.023576522
190	0x3d63b9bd	0.055597056
191	0x3d7ee107	0.06222632
192	0xbbfeae33	-0.007772231
193	0xbd839487	-0.06424814
194	0xbd8f0fc8	-0.06985432
195	0x3d98f307	0.07468229
196	0xbcaf6e1a	-0.021414805
197	0x3d1de6e3	0.03855027
198	0x3dc0c625	0.09412793
199	0xbdacf885	-0.08445839
200	0x3d234033	0.039856147
201	0xbb3d1567	-0.0028851868
202	0x3d63993a	0.05556605
203	0x3c06ab33	0.008219528
204	0xbc801053	-0.015632784
205	0xbd9aeb38	-0.07564396
206	0xbc65e667	-0.014031983
207	0x3cc030da	0.023460794
208	0xbca65f53	-0.020309126
209	0xbd25e94d	-0.040505696
210	0xbb83869a	-0.0040138485
211	0x3c890147	0.016724242
212	0x3c392b4d	0.011301828
213	0x3dbc65e3	0.09199121
214	0xbd934d4d	-0.07192478
215	0xbce46253	-0.027878916
216	0xbdb5b2bd	-0.08871982
217	0xbbd3e4e7	-0.0064664963
218	0x3dbb0afb	0.09132954
219	0xbd3560e3	-0.04428185
220	0x3d1af76d	0.03783362
221	0xbc8a5ef3	-0.016890978
222	0xbd522bb0	-0.051311195
223	0xbda99b8d	-0.08281622
224	0xbcd565ba	-0.026049484
225	0x3cda9b0d	0.026685262
226	0xbd02f1a0	-0.031968713
227	0x3d7534ba	0.059864737
228	0xbabffd33	-0.0014647603
229	0xbdaf6c28	-0.08565551
230	0x3c1d1e9a	0.0095898155
231	0x3d8da427	0.06916075
232	0xbd1b9d8a	-0.037992038
233	0x3cd5ef13	0.026114976
234	0x3da1166d	0.078656055
235	0x3dba930a	0.09110077
236	0xbd590b27	-0.05298915
237	0x3db20f45	0.08694319
238	0xbd882733	-0.06648102
239	0x3d805363	0.06265905
240	0xbc7d26f3	-0.015451181
241	0x3db8da1f	0.09025978
242	0x3bb353cd	0.0054726363
243	0xbae0f800	-0.0017163754
244	0x3dc45815	0.09587113
245	0xbd3e3737	-0.046439376
246	0xbdc74bf3	-0.09731283
247	0x3d93e91d	0.07222197
248	0xbc94d087	-0.01816584
249	0x3d197bbd	0.03747152
250	0x3d548537	0.051884856
251	0x3db21938	0.08696216
252	0xbdb582d0	-0.08862841
253	0x3d8ef343	0.06979992
254	0x3d0db1ba	0.03459332
255	0xbd0d8de0	-0.03455913

lstm.bias_ih_l1 f4 [400]
0	0x3c88eca0	0.016714394
1	0x3db6dfa5	0.089293756
2	0x3a1acd9a	0.0005905271
3	0x3d6c4c8a	0.05769018
4	0xbdcac543	-0.09900906
5	0x3d0e3bfa	0.034725167
6	0xbdcab5df	-0.098979704
7	0xbd80831b	-0.062750064
8	0x3dcc277b	0.09968468
9	0x3cdaf0c0	0.026726127
10	0x3dae2f58	0.08505124
11	0x3d4762ad	0.04867809
12	0xbb1b5133	-0.0023699522
13	0xbcf47a4d	-0.029843474
14	0xbdb613d0	-0.08890498
15	0x3d9e1c27	0.077202134
16	0x3d8358e8	0.06413442
17	0x3d809a52	0.06279434
18	0x3dc91c08	0.098198
19	0xbd47aa1a	-0.048746206
20	0x3db7dd85	0.08977798
21	0x3d15b7aa	0.03655211
22	0x3daf2335	0.08551637
23	0x3caa3447	0.02077688
24	0xbdb7e563	-0.08979299
25	0xbd9a704f	-0.075409524
26	0xbcf5129a	-0.029916096
27	0x3cf6162d	0.030039871
28	0xbdbfbdff	-0.09362411
29	0x3da883da	0.08228274
30	0xbcb19367	-0.021676732
31	0xbd61bd3d	-0.055112112
32	0xbd8f94d5	-0.07010809
33	0x3be554e7	0.0069986465
34	0xbd8a658f	-0.06757652
35	0xbb9057cd	-0.004404998
36	0x3da27b1d	0.07933638
37	0x3c1268b3	0.008936095
38	0xbc11d5e7	-0.008901096
39	0xbd0ad2fd	-0.03389262
40	0x38812000	6.15716e-05
41	0xbd2cecb7	-0.042217936
42	0x3c950a20	0.018193305
43	0x3cbf0d73	0.023321843
44	0x3d95f9d2	0.0732304
45	0x3d7dd39a	0.061969377
46	0xbdbd381b	-0.09239217
47	0xbd5886cd	-0.05286293
48	0x3d85d09f	0.06533932
49	0xbd1d831d	-0.038455117
50	0xbdacbb10	-0.08434117
51	0xbd92d232	-0.07168998
52	0x3d85c663	0.0653198
53	0xbdc5f417	-0.09665697
54	0xbd89c88d	-0.06727705
55	0xbcb46d7a	-0.022024859
56	0x3ce898ed	0.028393233
57	0x3bf07033	0.007337594
58	0xbd35b417	-0.0443612
59	0xbceb49c0	-0.02872169
60	0x3d934eff	0.07192802
61	0x3d9bc662	0.07606198
62	0xbd54280a	-0.051795997
63	0x3dc3e0e3	0.09564378
64	0xbd3e88f0	-0.046517313
65	0xbdab38c5	-0.08360437
66	0x3cca3fba	0.02468859
67	0xbcf0073a	-0.02930032
68	0x3d404470	0.046940267
69	0x3d40941a	0.04701624
70	0x3d8a8d6a	0.06765254
71	0xbd9ac2f7	-0.07556718
72	0xbc545527	-0.012959755
73	0x3d915370	0.070959926
74	0xbd634930	-0.05548972
75	0xbd166b57	-0.03672346
76	0x3b77afcd	0.0037793994
77	0x3db24c4d	0.087059595
78	0xbbb7fcb3	-0.005614841
79	0x3c2009da	0.009767974
80	0xbdb0aca0	-0.086266756
81	0x3c87fb7a	0.016599406
82	0x3c34111a	0.010990405
83	0xbdbe6e17	-0.09298342
84	0xbd46a2f0	-0.048495233
85	0x3dc14677	0.09437268
86	0xbda6b37a	-0.08139701
87	0x3d78a89d	0.060707677
88	0xbcf86b13	-0.030324494
89	0xbd30b79a	-0.043143846
90	0xbc1b280d	-0.009469998
91	0xbd5ae9da	-0.053445674
92	0xbdb60d4b	-0.08889254
93	0x3d46b820	0.04851544
94	0xbc8d1f73	-0.01722691
95	0x3d9a1e9a	0.07525368
96	0xbd207347	-0.039172437
97	0x3d9f8868	0.07789689
98	0x3d5dac13	0.05411918
99	0xbdc0cfef	-0.0941466
100	0xbd8cdee7	-0.06878453
101	0x3d8fc1af	0.07019364
102	0xbb89ca80	-0.004205048
103	0x3daaf0c3	0.08346703
104	0x3dc84d85	0.09780411
105	0x3d94b0d5	0.072602905
106	0xbd33ce5d	-0.043897975
107	0xbd840c10	-0.06447613
108	0xbd1ab930	-0.037774265
109	0xbd55dc37	-0.052211966
110	0x3d9ec48a	0.077523306
111	0x3d2b2d90	0.0417915
112	0x3db7f32a	0.08981927
113	0x3d038880	0.0321126
114	0x3c4d82cd	0.012543392
115	0x3b85ac33	0.0040793656
116	0x3cd2bac0	0.025723815
117	0xbc858d27	-0.016302658
118	0x3dbc495a	0.09193678
119	0xbab4719a	-0.0013766766
120	0xbd7e11d7	-0.062028732
121	0x3d174877	0.036934342
122	0xbd078817	-0.03308877
123	0xbdb0cbf3	-0.0863265
124	0xbdb0d29b	-0.0863392
125	0xbc29b6b3	-0.0103585
126	0x3d839b7b	0.0642614
127	0x3cffe3ba	0.031236518
128	0x3dc0750b	0.09397324
129	0xbd9c293d	-0.07625053
130	0xbc425273	-0.011860478
131	0x3d6b4cdd	0.05744635
132	0xbdbc9510	-0.09208119
133	0xbcaa4427	-0.02078445
134	0x3d48d70a	0.049033202
135	0x3d08599d	0.033288587
136	0x3db1aaf0	0.08675182
137	0xbd6a52a3	-0.057207715
138	0xbc87470d	-0.016513372
139	0x3da2c05a	0.079468444
140	0xbcfc58e7	-0.03080411
141	0x3d939cc5	0.07207636
142	0xbdb26bf8	-0.08712
143	0xbb0f4f9a	-0.0021867515
144	0xbdc6d095	-0.097077526
145	0x3db8be53	0.090206765
146	0xbdc3732a	-0.0954345
147	0xbcaebe6d	-0.021331036
148	0xba6f719a	-0.00091340544
149	0x3d193ff0	0.03741449
150	0x3d50a0e7	0.0509347
151	0xbc8ad020	-0.016944945
152	0xbce86980	-0.028370619
153	0xbd983468	-0.07431871
154	0x3d98d4fd	0.07462499
155	0xbd75866a	-0.05994264
156	0xbda92a20	-0.08259988
157	0x3d62e0ba	0.055390097
158	0x3cd0bf07	0.025481714
159	0x3d8746fb	0.06605335
160	0xbdc3bc9a	-0.09557457
161	0xbd885825	-0.06657437
162	0x3d36a740	0.044593096
163	0xbd7a0743	-0.06104208
164	0xbdbd3825	-0.09239224
165	0x3dacced7	0.08437889
166	0xbd76d290	-0.0602594
167	0xbd08428d	-0.033266593
168	0x3d47a1e3	0.04873837
169	0x3dcbf2af	0.099583976
170	0x3d8d4185	0.068972625
171	0xbd33b4b0	-0.04387349
172	0x3da7307d	0.08163545
173	0xbd9c4370	-0.0763005
174	0xbb3d6033	-0.002889645
175	0x3b9a9e33	0.004718566
176	0x3dc8e158	0.09808606
177	0xbd2f558a	-0.042806186
178	0xbdb58c73	-0.08864679
179	0x3b83ae80	0.0040186048
180	0xbd9138fd	-0.07090948
181	0x3d843a78	0.064564645
182	0xbc11305a	-0.008861626
183	0xbd60d90a	-0.054894485
184	0x3c893b80	0.016752005
185	0xbd67f2ed	-0.056628156
186	0xbd759e8a	-0.059965648
187	0xbcf34573	-0.029696202
188	0x3db6cc35	0.08925668
189	0xbd7a0a50	-0.06104499
190	0xbd1bed2d	-0.038067985
191	0xbdcab3db	-0.09897586
192	0x3d70d6b3	0.058798503
193	0x3d96d573	0.07364931
194	0xbc3bf64d	-0.011472297
195	0xbd7d99cd	-0.061914254
196	0xbc9dbbb3	-0.019254541
197	0xbdb74717	-0.08949106
198	0x3d813a6b	0.063099705
199	0xbd01bf5a	-0.031676628
200	0x3d02605a	0.03183017
201	0xbd4d5737	-0.050132003
202	0xbda2d31d	-0.07950423
203	0x3d18d783	0.037314903
204	0xbd2ce3f0	-0.042209566
205	0x3cb72740	0.022357583
206	0xbd7d7f1a	-0.06188879
207	0xbdc7e498	-0.09760398
208	0xbd4da453	-0.05020554
209	0x3bd5ce4d	0.006524837
210	0xbda1eb5d	-0.0790622
211	0x3dc364c7	0.09540706
212	0x3b3c5f67	0.0028743388
213	0xbd5a2c47	-0.053264882
214	0xbd1d6640	-0.03842759
215	0xbd8a67d0	-0.06758082
216	0xbd6f0210	-0.058351576
217	0xbda5c0f8	-0.080934465
218	0xbc1aca67	-0.009447671
219	0x3d3c9463	0.04603995
220	0x3cf44d33	0.029821968
221	0x3badacb3	0.0053001284
222	0x3d17abbd	0.037029017
223	0xbdaf315f	-0.08554339
224	0xbb83aeb3	-0.0040186285
225	0x3d5669fa	0.05234716
226	0xbdb90393	-0.09033885
227	0xbd34fced	-0.04418652
228	0xbd989f0f	-0.07452213
229	0xbdafe898	-0.085892856
230	0xbd57af53	-0.052657437
231	0x3d8afd47	0.0678659
232	0xbd1bf360	-0.038073897
233	0xbdc3b527	-0.095560364
234	0x3d27fbc0	0.041011572
235	0x3d61f4a7	0.05516496
236	0xbd2ffa2a	-0.042963184
237	0xbc077f67	-0.008270121
238	0x3c55a440	0.0130396485
239	0x3d0b3260	0.03398359
240	0x3d7a4fc7	0.061111238
241	0x3d09a540	0.03360486
242	0x3d5d6f8d	0.05406146
243	0x3d4f47a3	0.050605427
244	0xbd2dbc17	-0.042415705
245	0xbdb7ca18	-0.08974093
246	0x3d8acdc2	0.067775264
247	0xbd0eb99d	-0.034844983
248	0xbdae06d7	-0.08497398
249	0x3c8d14b3	0.017221784
250	0xb98a7ccd	-0.00026414395
251	0x3db0ffdb	0.086425506
252	0x3d8de03d	0.06927536
253	0xbc8d3e4d	-0.017241621
254	0xbdb062f3	-0.08612623
255	0x3b3cd9cd	0.0028816343
