Time-Series---Forecasting/Results/local/periodic0.pth (torch, 3938 bytes, 5 tensors)

rnn.weight_ih_l0 f4 [20, 1]
00000000: 8486 0fbe 4b1d d7bc 5403 d5bd 8b10 183e
00000010: 11a0 49be 3d55 e83d 2fab b63d 908c 6cbe
00000020: 3eb7 2c3e d0cf 623e ce83 31bb 1dcd 09bd
00000030: 3f3f e9bc 9061 b0bd 50e9 7b3d 8915 6dbe
00000040: ce94 27be bc3f 6ebe a8a8 f13c b30b 45be
-0.14016157 -0.026259085 -0.104010254 0.1485006 -0.19689967 0.11344383 0.089193694 -0.23100495
0.16866776 0.22149587 -0.0027086618 -0.033642877 -0.02847254 -0.086123586 0.0615018 -0.23152746
-0.16365358 -0.232665 0.029499367 -0.19242744

rnn.weight_hh_l0 f4 [20, 20]
00000000: d75b 493e 4b5a 2c3c 104a 50be 631d d93c
00000010: 68af 0c3e 6a03 11be 937a 20be 870b dd3d
00000020: 6c8a 70bd 9674 b1bd ce60 a63d 3f76 e43d
00000030: fe1b 93bc d035 bebc e230 f0bd f1a2 973e
00000040: 5445 8c3d cd56 59bd 5591 ecbc 2f57 a03d
00000050: 19de c13c 2791 3a3e bd85 103e 5ffa 55bd
00000060: 88ec 533e 14e2 9d3c 6623 cfbd fcdf fa3d
00000070: 4ccb 023e 3b7c e33d f05a 69be 7818 603e
00000080: 5f0c 82bd dd25 59be 1555 d0bd 54d6 563e
00000090: ee7b c83d e1ad 323e 2685 58be e335 c4bd
000000a0: 665a 9a3d 0751 3ebe dc91 883e a338 bb3d
000000b0: 8ef9 3c3e bb85 11be 496e 67be bd94 2f3e
000000c0: 749c ee3d 7f80 20be 5d6d 76be 9184 263e
000000d0: 34d2 4abe bfee 0f3e aa42 a73d cb25 9bbe
000000e0: 56c2 64be 5efe 04bd a288 99be fecb 41be
000000f0: e0b7 2ebd 2338 60be 889f 82bd ee1d da3d
00000100: 1e16 73bd 633c 823d a12c 70bd 8dbc e8bc
00000110: 9c55 a4bd 479e 7d3e c587 5dbd af30 6fbe
00000120: 50b3 a13d f499 71bd 520c 363e 8870 efbd
00000130: 2532 72bd 605f 453d c1e5 babd d5ad 01be
00000140: 21f6 4b3e 66af f7bd d0d5 31be b1c7 fc3d
00000150: 8930 43bd f198 5bbc b3c4 50be 1aae 553e
00000160: eab3 77be 9db6 3bbe 5d07 c8bd d55c 3d3e
00000170: 28f7 44be 9257 6d3d 8f7e e5bd f7b4 a63c
00000180: d672 1dbd 1b43 253d a686 ee3c 5aa7 f0bd
00000190: c1c1 4d3d 3862 01be 5ae9 083e aaa9 f8bd
000001a0: 7fbb 963d 4048 b33d 5798 c8bc ea35 14be
000001b0: e573 ddbd fc5a 493e 8a6d 2d3e dc21 ebbd
000001c0: 44da 61bc 7f2e c3bd 294e ca3c dbec be3d
000001d0: ba43 f3bd dd47 393e ece3 95bd 7823 403e
000001e0: e83e 48be 2143 ce3c 792a 8bba 9cc9 783a
000001f0: 7572 fa3d 981c 05be a8d6 4e3e 460e fbbd
00000200: 0880 063d ad8f bdbd b49b aebd d0fe eabd
00000210: 1bad 093e 2a36 493e 40a1 293e ad08 76be
00000220: e9a6 ce3d 3b22 fc3a e0fa 183e d640 3dbe
00000230: b43c 9a3d 2027 8b3c 0d56 d5bd 5a08 5c3d
00000240: b2e4 2f3e 4636 243d 455a e53d c59e 513e
00000250: 7eae 5dbe 897c c53d 7595 d9bb df0e 6e3e
00000260: 0bbe 75be 0655 61bd a868 453d 76f6 833e
00000270: 404d 56be 0c1e 053e e481 ab3d efcf 843c
00000280: f738 3b3e 16bc 48bd 73d8 0cbd b4ef 153e
00000290: 5f93 0bbe 4818 ee3d 031d 773d e4ca a4bc
000002a0: b75c 16be 90c8 1f3e 2e77 1ebe a80a a03c
000002b0: f289 2cbe 5d00 2e3e 66f3 443d a802 4cbd
000002c0: 5a39 813e e15b 513e 5c9d 1f3e c9c6 fc3d
000002d0: f010 163e ea0d 03be 9fc7 6dbe 62c9 5b3e
000002e0: ebc5 c1bd beec 8d3c 94a4 37bd 4770 06bd
000002f0: 80da 9e3d 6b8c 9d3e 371a 2fbe 52b7 6a3d
00000300: 862f 96bd 9685 f23c 5971 963d 32f7 7b3d
00000310: fb5d 7a3e 8df5 b8bd 12c5 493e 2d3f 823e
00000320: c5cb 403e 93e2 3cbe 230e 23be 0a74 56bd
00000330: 8c02 0a3d c9ba 4d3d 4232 753e 5116 12be
00000340: c95f 34bc f5f6 1f3e a1a2 a63d 5427 02be
00000350: 4d9b 6e3e 4209 863e f114 a03d 0500 123e
00000360: 99f0 713d b3cd 1abd f1fb fabd 7541 803d
00000370: 4e13 0d3b 70c7 f0bd 5337 8a3e 57d9 f2bc
00000380: cb59 493e 9d98 1e3e 014a 183e 1b50 913d
00000390: 8b42 21be a3ba 063d b671 843d 073d 2b3e
000003a0: 2395 febd 28ee 1fbe afec 2f3e 340e 30be
000003b0: 7e69 30bc 3d96 4a3e 7e45 2ebe 053c aa3c
000003c0: f16a 7cbe e0c2 76be d5cf c43d 873c f93c
000003d0: 7746 cbbd 978b 00be c3f2 483e 8f56 3dbe
000003e0: b0c1 783e a171 36be c574 09ba 0192 ff3d
000003f0: b958 3c3d 8a4d 073e 0106 133e 763f 49be
0.1966394 0.010519574 -0.20340753 0.02650327 0.13738787 -0.14161459 -0.15671758 0.10793214
-0.05872576 -0.08664815 0.08123933 0.11155366 -0.017957684 -0.02321902 -0.11728074 0.29616502
0.06849161 -0.053061295 -0.028877893 0.07829129 0.023665475 0.18219434 0.14113517 -0.052240726
0.20695698 0.019272842 -0.101141736 0.12249753 0.12772864 0.111076795 -0.22788596 0.21884334
-0.06350016 -0.2120585 -0.10172478 0.20980197 0.09789263 0.17449142 -0.21144542 -0.095805906
0.075367734 -0.18585597 0.26673782 0.09141662 0.18454573 -0.1421117 -0.22600664 0.17146583
0.11650935 -0.15674017 -0.24065156 0.16261508 -0.19806749 0.14055918 0.08167012 -0.3030227
-0.22339758 -0.032469146 -0.29987055 -0.18925473 -0.042655826 -0.21896414 -0.063780844 0.1065024
-0.059347264 0.06359174 -0.05863631 -0.02841022 -0.08024141 0.2476741 -0.054084558 -0.23358415
0.07895529 -0.05898471 0.17778137 -0.116913855 -0.059129853 0.04818666 -0.09125853 -0.12663968
0.1991811 -0.120940015 -0.17366719 0.123427756 -0.04765371 -0.013403163 -0.20387535 0.20867196
-0.24189726 -0.1833138 -0.097670294 0.18492444 -0.19234908 0.05794484 -0.1120578 0.020349963
-0.038439594 0.0403472 0.02911694 -0.1175067 0.050233606 -0.12635124 0.13370267 -0.12141736
0.07359981 0.08754015 -0.024486704 -0.14473692 -0.10813121 0.19663614 0.16936317 -0.114810675
-0.013784949 -0.09530353 0.024695473 0.0932252 -0.11878152 0.1809382 -0.07318863 0.1876353
-0.19555247 0.025178494 -0.0010617516 0.00094904914 0.12228862 -0.12999189 0.20199072 -0.12258582
0.032836944 -0.092559196 -0.08525792 -0.11474383 0.13444941 0.19649568 0.16565418 -0.24026747
0.10090429 0.0019236276 0.14939451 -0.18481764 0.075311095 0.01698643 -0.104168035 0.053718902
0.17177084 0.04009082 0.11198858 0.20470722 -0.21648595 0.09642894 -0.006640131 0.2324786
-0.23998277 -0.055012725 0.04819551 0.25773972 -0.20927906 0.12999743 0.08374384 0.016212432
0.18283449 -0.049007498 -0.03438611 0.1464222 -0.13630436 0.11625725 0.060330402 -0.020116277
-0.14683805 0.15603852 -0.15475151 0.019536331 -0.16849497 0.16992326 0.048083685 -0.04980722
0.25239068 0.20445205 0.15587372 0.12342603 0.14654899 -0.12798277 -0.2322068 0.2146354
-0.09461578 0.017324802 -0.04483469 -0.03282192 0.07756519 0.30771193 -0.17099844 0.057303734
-0.07333283 0.029604714 0.07345838 0.06151504 0.24449913 -0.0903121 0.19704083 0.25438824
0.18827732 -0.18445806 -0.15923361 -0.052356757 0.033693835 0.05022696 0.23944953 -0.14266326
-0.011009165 0.1562155 0.08136488 -0.12710315 0.2330143 0.26178938 0.07816494 0.1425782
0.059067342 -0.037793826 -0.12255085 0.06262485 0.00215264 -0.1175679 0.26995334 -0.029644651
0.1966316 0.15487905 0.1487198 0.07095357 -0.1574804 0.032892834 0.06467001 0.16722499
-0.12430789 -0.15618193 0.17180131 -0.17192918 -0.010767339 0.19783874 -0.17018697 0.020780573
-0.2465017 -0.24097776 0.09609953 0.03042437 -0.099255495 -0.1255325 0.19623856 -0.1849005
0.24292636 -0.17816783 -0.0005243535 0.1247902 0.04598305 0.13213173 0.14357759 -0.19653115

rnn.bias_ih_l0 f4 [20]
00000000: 55bf 6c3d ccb1 153d daed 8a3e 3d62 4bbe
00000010: 4391 82bd 3cd3 953d 4ba9 a33c 0478 7abe
00000020: 2189 d43d 86e8 b2bd 5ed4 363d aaf8 a53d
00000030: 9da6 00be 00d4 c8bc 6521 02be f6d9 7f3c
00000040: 45b7 d3bd 7e89 1f3e 6794 ccbd e3d1 81be
0.057799656 0.036546513 0.2713459 -0.19861694 -0.06375363 0.073156804 0.019978186 -0.24459845
0.10377718 -0.087357566 0.044636123 0.081040695 -0.12563558 -0.024515152 -0.12708052 0.015615931
-0.1033769 0.15579793 -0.09989243 -0.25355443

rnn.bias_hh_l0 f4 [20]
00000000: 6fdd 40be b5ef afbd 1d42 a73d c400 98bc
00000010: b752 1d3d 5ecd 5a3e bf2e 203e d183 cfbd
00000020: 6a2a 993c 3dd1 58be 0553 96bd 2aea 07be
00000030: 4108 963c 5a3e cd3d 3f4e 083e 1ede 1bbe
00000040: b748 e5bd 0567 cbbd 54d4 86be f490 18be
-0.1883447 -0.08590642 0.08166907 -0.018555053 0.03840896 0.21367404 0.15642832 -0.10132564
0.018696982 -0.21173568 -0.073400535 -0.1327292 0.018314483 0.10021658 0.13311099 -0.1522145
-0.1119551 -0.09931759 -0.26333869 -0.14899045

linear.weight f4 [1, 20]
00000000: 47ed d73d 45ad 52be 2b66 07bd 5488 863e
00000010: 9980 7cbe d7f2 e4bd 2d9c 3dbc cd72 dc3d
00000020: ea53 2bbe cf5d 473e ca9b 503e 3d27 01be
00000030: 90ea 3c3e dcc6 7e3e cf2d fd3d 8ce6 923c
00000040: 8571 083e 76b9 43be 73af 923e ae7b 713d
0.10543304 -0.2057391 -0.03305642 0.26275885 -0.24658431 -0.111791305 -0.01157288 0.10764084
-0.1673123 0.19469379 0.20371929 -0.12612624 0.18448853 0.24880546 0.12362253 0.017932199
0.13324554 -0.19113716 0.28649482 0.05895584
