Time-Series---Forecasting/Results/local/regularized_local_model.pth (torch, 183009 bytes, 19 tensors)

input_mlp.0.weight f4 [28, 14]
000000 4d 3c 46 be 8c c3 f0 bd fd d9 28 be 15 fb 1d 3e
       -0.1935894 -0.117560476 -0.16489406 0.15427811
000010 da e3 15 be 95 16 51 ba 44 40 45 3e e3 61 22 be
       -0.146377 -0.0007976082 0.19262797 -0.15857653
000020 16 34 d8 3d 2f 18 01 3e 9a 25 72 be e7 ed 3b 3e
       0.105568096 0.12606882 -0.23647156 0.18352471
000030 27 1a 42 be 05 dd a6 3d d3 87 d7 bd 46 d4 07 3e
       -0.18955289 0.08147625 -0.10523953 0.1326457
000040 14 8e 4a bd 9c a1 7b be c1 3c d4 3d a9 66 06 bd
       -0.049451903 -0.24573368 0.103631504 -0.032812748
000050 7a 49 f3 3d 29 76 de 3d 87 ca 91 3d 09 ef 3f 3e
       0.11879249 0.10862381 0.07118707 0.18743528
000060 73 e3 e0 bd 09 7e 23 3d 32 bf 50 bd 18 48 fa bd
       -0.109808825 0.03991512 -0.050963588 -0.12220782
000070 7b e0 f7 bd 97 a0 4c 3e 83 f5 c7 bd 8d 2a 61 be
       -0.12103363 0.19983135 -0.097636245 -0.21988888
000080 8f 4a 61 be d6 ca 00 be db 9e e4 3d 15 a0 68 3e
       -0.22001098 -0.12577376 0.11163112 0.22717316
000090 77 ec 06 3e 3a 0b 30 be 18 11 ff bc 62 49 27 3e
       0.13176142 -0.17191783 -0.03113608 0.16336587
0000a0 07 27 e2 bc 9f c8 94 be 91 02 cb bc c0 38 ad bd
       -0.0276065 -0.29059312 -0.024781497 -0.0845809
0000b0 c1 4b 2e be 18 eb 73 3e c0 07 4c 3e 59 d2 27 3e
       -0.17021085 0.2382015 0.19924831 0.16388835
0000c0 eb 43 50 3d 96 55 30 be 55 a1 17 3d 01 85 75 3e
       0.05084602 -0.17220148 0.037019093 0.23976518
0000d0 5e 54 40 3e 43 49 6f be 66 17 a3 bd 1f cb 8f 3d
       0.18782184 -0.23367791 -0.07963447 0.07021164
0000e0 7f 7d 59 be 27 59 8c 3e 0c 58 5a 3e a7 05 c7 bd
       -0.21239279 0.27411768 0.2132265 -0.09717875
0000f0 d3 4f 58 bd 3b f6 8a bc a2 47 11 3e 06 c4 e5 bd
       -0.0528105 -0.016963115 0.14187482 -0.11219029
000100 f2 a4 0b 3e cc e5 41 be 45 fd 7a be 71 38 3e 3d
       0.1363714 -0.18935317 -0.24510677 0.046440545
000110 8e 03 1c 3e 46 dc f6 3c ae 51 28 be 97 21 27 3e
       0.15235731 0.030134331 -0.16437408 0.16321407
000120 da bf 85 3e e9 e4 80 3e 76 5b 32 bc cd ad 71 bd
       0.26122934 0.25174645 -0.010886064 -0.05900364
000130 e6 df 16 be e1 6e 1a be 4f 88 11 be 6f 8d 26 be
       -0.14733848 -0.1508136 -0.14212154 -0.1626489
000140 9c b0 2d be d8 ab 1c 3e 8c b8 88 3e 47 0f 47 be
       -0.16961902 0.15299928 0.26703298 -0.19439422
000150 25 0e 9a 3d 90 2e a6 bd 09 1c 9c bd 2e 91 33 3e
       0.07522229 -0.0811435 -0.07622535 0.1753585
000160 ae f5 e9 bd 8c 79 df bc 44 6e f8 bc e3 65 62 3e
       -0.11423813 -0.027279638 -0.030326016 0.22109179
000170 59 5a 70 3e 82 c1 08 3e 63 71 81 bc e5 9b 9c 3d
       0.23471965 0.13355067 -0.015801137 0.07646922
000180 e3 5f 2e bd 7a 39 0b be af d3 2b 3d ad c8 5f 3d
       -0.042571913 -0.13596144 0.041949924 0.05463474
000190 29 8d 97 3d d3 c4 a7 b9 91 f7 81 3e cc ed fb bc
       0.07399971 -0.00031999368 0.2538419 -0.030753039
0001a0 25 a7 0d 3e 01 a3 8b 3c f5 2c 03 3e f6 68 37 3e
       0.13833292 0.0170455 0.12810118 0.17911133
0001b0 04 ec c4 bc 26 91 2c 3e d6 34 16 be 69 25 89 bd
       -0.024038322 0.16852245 -0.14668593 -0.066965885
0001c0 8d b8 1a be 31 5a 4b be e7 60 37 bb 1c 4e 7a bd
       -0.15109463 -0.19858624 -0.0027981342 -0.061109647
0001d0 03 8f 44 3e 28 13 5d be 23 32 61 be 5d 5e 70 3e
       0.1919518 -0.21589339 -0.21991782 0.23473497
0001e0 98 61 81 be 93 06 38 be b0 12 d8 3d 5b 8d 5b 3d
       -0.2526977 -0.17971258 0.10550439 0.053601604
0001f0 35 30 47 be 50 20 58 be 06 d2 2d 3e fe 48 77 3e
       -0.19451983 -0.21106076 0.16974649 0.24148938
000200 f0 32 c3 3d 0a a1 83 3e 82 81 16 be 00 e6 1f be
       0.095312 0.257088 -0.14697841 -0.15615082
000210 92 db 49 be 6c 36 13 3d 01 88 6a 3e ac 1e f1 bd
       -0.19712666 0.035940573 0.22903444 -0.11773428
000220 be 93 15 3e 61 5c 20 3e 4a f9 83 3e 66 9d e4 3d
       0.1460714 0.1566024 0.2577613 0.11162834
000230 11 2a 28 bb 57 06 6a 3e 13 f0 2b be e0 fc 4e 3e
       -0.002565984 0.22853981 -0.167908 0.20213652
000240 ab 4b 09 3e c5 f6 4f 3e 64 0a 8e bd 7d a7 86 be
       0.13407771 0.20308979 -0.069355756 -0.26299658
000250 de 6a 8e bd 0c be fe bd 57 05 5b be 59 73 c8 bd
       -0.06953977 -0.12438592 -0.21388756 -0.09787626
000260 7f 5c 27 be d1 92 5a bc 88 81 2a be 9d b3 40 3c
       -0.16343878 -0.013340668 -0.16650975 0.011761573
000270 f4 36 33 3e 8a ef 82 3e 24 47 7d be 74 7e 95 bd
       0.17501432 0.2557338 -0.24734169 -0.0729951
000280 3b fd 68 be 50 48 82 be f4 5c 82 3e 06 26 24 3e
       -0.2275285 -0.25445795 0.25461543 0.1603013
000290 af 26 12 bd d2 45 83 be f7 03 3e 3e 6f b9 b7 3d
       -0.035681423 -0.25639206 0.185562 0.089709155
0002a0 15 3c 1b 3d 2d 84 65 3e 64 70 39 3e b5 be 65 be
       0.037899096 0.22413702 0.1810928 -0.2243603
0002b0 6f 6f 30 be 6c dc 0b 3e 5b 27 13 3e 6e 60 59 be
       -0.17230009 0.13658303 0.14370482 -0.21228191
0002c0 e6 34 fb 3d 6b 12 27 bc 61 e6 8d bd 58 b8 c4 bd
       0.12265949 -0.010197262 -0.06928707 -0.09605473
0002d0 4a 05 4d bd 88 dd 46 bd c0 95 4f be f3 f7 1a 3e
       -0.050053872 -0.048551112 -0.20271969 0.15133648
0002e0 ff 10 7a 3e 14 0a 3d 3d b5 6a 82 be 88 ac 08 3d
       0.24420546 0.04615219 -0.25472036 0.033367664
0002f0 d8 3c 2f 3c 96 1b e4 bd e3 2e 3c bd 9c e7 29 3e
       0.010695659 -0.11138074 -0.045943152 0.16592258
000300 bc 20 42 be 3d a2 2a be b2 59 49 3e 35 c5 4b be
       -0.189578 -0.16663451 0.19663122 -0.19899447
000310 ed 36 e1 bd 0a 7e b3 3d 92 6a 25 be 04 c2 92 3d
       -0.109968044 0.087642744 -0.16153935 0.07165912
000320 9e 9d 9a 3c 02 78 58 be 82 2b e2 bd b9 76 1a be
       0.018873986 -0.2113953 -0.11043455 -0.15084352
000330 13 ab 20 3d 32 ae 0d 3e e0 9a 1f 3e a6 de 80 3e
       0.03922565 0.13835981 0.15586424 0.25169867
000340 03 ba 64 3e 31 78 7a be d0 45 38 be 24 4d 52 be
       0.22336583 -0.24459912 -0.17995381 -0.2053724
000350 b5 44 c3 bd 66 16 a4 bd a5 a4 40 3e f4 0d d1 bd
       -0.09534589 -0.08012085 0.18812807 -0.102077395
000360 b7 00 35 be d3 60 f3 bd d0 9e 34 be b2 82 9d bc
       -0.17676054 -0.11883702 -0.17638707 -0.01922736
000370 5b 88 dc 3d 81 22 ed bd 11 9c ed 3d f8 b8 86 3e
       0.10768195 -0.11578847 0.11602033 0.26312995
000380 5e bd 15 bd 7e 82 c9 3c 0a fe 90 bd e4 e3 cd 3c
       -0.036557548 0.024598356 -0.07079704 0.02513308
000390 18 0e 97 3a 6e 3b c6 3d 93 28 84 3e b9 ed 36 3e
       0.0011524586 0.09679304 0.25812206 0.17864121
0003a0 07 1f 3c be a1 ed da 3d 25 cb 2d be c9 22 67 3e
       -0.18371211 0.10689855 -0.16972025 0.22571863
0003b0 63 de 2d be 14 a6 c6 3c 73 3e 09 3e 6b 9d 41 3e
       -0.16979365 0.024249114 0.13402729 0.18907706
0003c0 37 69 38 3e ef 7c 80 3e b1 0d be bd ab c7 4b 3e
       0.18008886 0.25095317 -0.09279955 0.19900386
0003d0 98 51 b5 3d 00 80 92 bd a0 d6 53 be fc 91 38 bd
       0.088534534 -0.0715332 -0.20687342 -0.045061097
0003e0 46 da c2 3d d4 fa ba bd d6 48 f0 bd 4e fc b8 bd
       0.095142886 -0.09129873 -0.11732642 -0.09032498
0003f0 20 5c a8 bd a9 36 3f 3e ee c9 07 3e ed e4 80 be
       -0.082206964 0.18673195 0.13260624 -0.25174657

input_mlp.0.bias f4 [28]
000000 4f 69 0f 3e 7f c9 89 3d 99 04 7b be 78 5d 99 3d
       0.14005016 0.067278855 -0.24513473 0.07488531
000010 21 d5 65 be f4 90 b5 3d bd 7f e7 bd cb 93 73 be
       -0.22444583 0.08865538 -0.11303661 -0.23786847
000020 17 d6 0a be 96 4e 36 3d 92 89 33 3e c0 c4 51 3d
       -0.13558231 0.04450854 0.17532948 0.051213026
000030 9d 28 43 3e 20 67 6f 3e b8 c1 10 3e 5c 86 0e 3e
       0.19058461 0.23379183 0.14136398 0.13918442
000040 3d 13 69 3e e3 c5 20 be 65 53 3f 3e 00 c3 85 be
       0.22761245 -0.15700488 0.18684156 -0.26125336
000050 da e0 2d 3e d5 c9 92 3d 68 57 7a 3d 79 03 cb bd
       0.16980305 0.07167403 0.061118513 -0.09912772
000060 dd 10 df 3b 8d da 05 3c 29 f0 1a be 8a 3d 79 3d
       0.00680743 0.008169782 -0.15130676 0.060849704

input_mlp.2.weight f4 [64, 28]
000000 0c ac 1f be df 1e 0e 3d b7 36 27 3e 0c d2 2e 3e
       -0.15592974 0.03469741 0.16329466 0.17072314
000010 67 01 86 bc a4 d2 57 bd bd 84 42 3e ca 53 1e 3e
       -0.01635809 -0.052691117 0.18995948 0.1546165
000020 c4 6b 8d 3d 25 e9 d9 3d 75 a8 21 3e c9 84 df 3d
       0.0690532 0.10640172 0.15786918 0.10913999
000030 c9 5b 5e bd 3d a5 af bd fe 9f 7e 3d 07 ed 7c 3d
       -0.054286752 -0.085764386 0.0621643 0.061749484
000040 da 7e d6 3d 53 54 02 3e d7 60 94 ba 7b 5c 05 3e
       0.10473414 0.1272748 -0.0011320364 0.1302356
000050 0c 3f e7 bc 57 c1 34 be aa 68 bb 3c 85 40 fc bc
       -0.028228305 -0.17651878 0.022877056 -0.030792484
000060 60 b7 41 be db d6 ab bd 6e ac 66 3d bb 5e d6 3d
       -0.18917608 -0.0839059 0.056316786 0.10467287
000070 42 0d f2 3d 82 0f 76 3c 5b e0 cc bd f5 15 2c be
       0.11818935 0.015018346 -0.1000373 -0.16805251
000080 fd fa 18 be 8a ef 36 3e 79 fa 17 be 8d e0 0e 3d
       -0.14939494 0.17864814 -0.14841641 0.034882117
000090 72 50 81 3c 36 27 fa 3c ac 35 71 bd 51 09 ee bc
       0.01578543 0.030536275 -0.058889076 -0.029057177
0000a0 3a de fe 3b 6a 91 27 be 6c 8e dd bd 4e 5d 06 3e
       0.0077779563 -0.16364065 -0.108181804 0.1312153
0000b0 da 6a 47 3e d9 5e 55 3d a4 47 4e 3d 02 55 2f be
       0.19474354 0.052092407 0.05036129 -0.17122272
0000c0 c3 7b 0a bd 0a b4 d0 bd e9 dc 8e bc 9d d7 1a 3e
       -0.033809435 -0.1019059 -0.017439323 0.15121312
0000d0 49 b5 b0 3d 72 95 0c 3d 83 c6 e9 bd 23 c8 e8 3d
       0.086283274 0.03432221 -0.11414816 0.11366298
0000e0 f9 7a 94 3c 85 2c d3 3b 8f d8 12 3e f1 98 56 3d
       0.018125044 0.006444516 0.14340423 0.05239195
0000f0 86 cc 33 3c 3b 35 31 be 06 70 22 3e eb 5b b6 bd
       0.010974055 -0.17305462 0.15863046 -0.08904251
000100 cb f2 44 bd 6f df 17 be 76 81 eb 3c ac 3a 6e 3d
       -0.048083108 -0.14831327 0.028748255 0.058161423
000110 31 a5 31 be 5e 7b f1 bd 4a 85 f5 3d 70 25 04 3e
       -0.17348172 -0.117911085 0.119883135 0.12904906
000120 77 b6 a2 3d 0f 06 d3 3b 50 de 16 3e c1 93 ea bd
       0.07944959 0.006439931 0.14733243 -0.11453963
000130 aa 0f 2e 3e 41 79 15 bd da 9a 31 be cb a7 cc 3d
       0.16998163 -0.03649259 -0.17344227 0.099929415
000140 90 ae 32 3e 8d 10 3b 3d 9a 34 b8 bd 17 30 09 3e
       0.17449403 0.04567008 -0.08994408 0.13397251
000150 24 79 db 3b 0c 33 22 bc 98 0a 38 3e 6e 4e 17 3e
       0.0066977907 -0.009899866 0.17972791 0.14776012
000160 1a 75 98 3d e6 bc 2f bd 77 4a 39 3e 19 c1 05 be
       0.0744421 -0.042904757 0.18094812 -0.13061942
000170 a8 14 16 3c c2 06 2b 3e 1f cb 2b be d9 b9 e3 3d
       0.009160198 0.16701797 -0.16776703 0.11119432
000180 4a 02 1c be 58 ce af bd 35 0e 19 bc f2 b6 2f 3e
       -0.15235248 -0.08584279 -0.009341766 0.17159632
000190 2a 7f 0a 3e 25 10 44 3c 42 93 1d 3d 0f 67 c3 3d
       0.13525072 0.01196674 0.038470514 0.09541141
0001a0 4a f3 36 be 49 7e 41 3d 60 cf 91 bd e5 41 ff 3d
       -0.17866245 0.047239576 -0.07119632 0.1246374
0001b0 7a 3c 19 be 0f 7b 27 bd d3 b1 46 3d 3a 3a 40 be
       -0.14964476 -0.040888842 0.04850943 -0.18772212
0001c0 fb 57 2b 3e de f1 09 3d 03 96 ca bd 9e 2b ca bd
       0.1673278 0.03367793 -0.09891894 -0.098716006
0001d0 45 96 e5 bd ec 79 22 3e cd bb 57 3c 9b d6 2d be
       -0.11210302 0.15866822 0.013167334 -0.16976397
0001e0 43 bb 08 3d 8e b7 50 3e fc 09 0f 3e 71 9d 72 3d
       0.03338171 0.2038252 0.13968652 0.05923218
0001f0 d7 6f a2 bd 06 6e 26 3e c7 5e 55 be f6 8b d2 bd
       -0.07931488 0.16252908 -0.20836936 -0.10280602
000200 08 b0 61 3d d0 6d d6 bd 1b b9 bc 3d bb fb 91 bd
       0.055099517 -0.10470164 0.092149936 -0.07128092
000210 06 92 26 3e a0 26 b0 bd 53 f2 4e ba 04 89 b1 3c
       0.16266641 -0.08601117 -0.00078943855 0.02167178
000220 82 c1 7d 3c 34 71 5e bd 17 1d 28 be f0 1d 1e bb
       0.01548803 -0.054307178 -0.16417347 -0.002412673
000230 5e 9c f1 bd 2d 0b c0 3b 0f 41 59 3d 24 9f 9b 3d
       -0.11797403 0.0058607073 0.05304056 0.07598713
000240 6a c7 3b 3d fc dc 39 bd d5 77 51 3d ca 44 17 3d
       0.045844473 -0.045376763 0.05113967 0.036930837
000250 e0 92 2b bc 93 cb ec 3c e0 c6 11 be 67 4a b6 3d
       -0.010472029 0.028905666 -0.14236021 0.0890091
000260 87 d4 92 bd a1 34 11 be b2 a8 95 bc a5 8d 3c 3e
       -0.071694426 -0.14180233 -0.018268917 0.18413408
000270 02 d2 ad bd 5f 6e 8c 3d d7 c0 50 be e2 d5 bd 3d
       -0.084873214 0.06856989 -0.20386063 0.092693105
000280 d5 a9 3f 3e 73 e2 39 3e 78 2f 35 3e f8 ca b3 3d
       0.1871713 0.1815279 0.17693889 0.087789476
000290 6c 84 7a bd 0a af 00 3e 7e 34 38 bd 45 93 ce 3c
       -0.061161444 0.12566772 -0.044971935 0.025216708
0002a0 c3 5a 7e bd e4 98 23 3d 18 53 0a be df 79 6c bb
       -0.062098276 0.03994073 -0.1350826 -0.0036083383
0002b0 f1 f1 45 bd 7f 77 34 bd ff 78 1c bd 83 3b 7b b9
       -0.048326436 -0.044059273 -0.03820133 -0.00023959395
0002c0 bf 32 62 bd 54 98 07 3e d9 8a f2 bb 3f 78 01 be
       -0.055224176 0.13241702 -0.007401806 -0.12643526
0002d0 9d db 89 3d c2 70 13 be d7 02 e2 bd 93 56 97 bd
       0.06731341 -0.14398482 -0.11035698 -0.073895596
0002e0 03 53 e9 bd 18 b1 37 be e8 77 d9 bd fd 2a 1b be
       -0.11392786 -0.1793865 -0.106185734 -0.15153117
0002f0 04 ab 4a be 34 fc 20 3e 80 56 f3 bd 26 fe 26 be
       -0.197918 0.15721208 -0.11881733 -0.16307887
000300 80 18 0a be ec 38 29 3b ca ed 11 3e 41 a8 2d be
       -0.13485909 0.0025821282 0.14250866 -0.16958715
000310 55 1f fb 3d c5 86 8e bd 92 29 80 bd 5c 1f 0b 3e
       0.122618355 -0.06959299 -0.06257929 0.13586181
000320 a0 72 c4 bc a5 86 93 bd 9d bf 89 bd 89 9f 00 3e
       -0.023980439 -0.07203416 -0.067260005 0.12560858
000330 4f de 98 bd f9 6a 33 3e d1 74 18 3d ac ff 5c 3d
       -0.07464277 0.17521276 0.03722078 0.053954765
000340 86 22 92 3d 3c bc 17 3d 9d fe 5a 3d 11 b1 43 3c
       0.07135491 0.03704475 0.053465474 0.011944071
000350 ad 4c 44 3d 87 c3 b3 bd 8c 6f 65 bd ef 09 60 bd
       0.047924686 -0.08777528 -0.056014583 -0.054696973
000360 39 d4 c5 bb ab d3 8d 3d b3 00 a6 bd 2b 83 12 be
       -0.006037262 0.06925138 -0.08105602 -0.14307849
000370 4a ef 12 be ab 74 20 3e 50 89 32 3d ab 01 41 3e
       -0.14349094 0.15669505 0.043587983 0.18848293
000380 80 af f3 3d 1a d5 19 3e fb d5 27 be 3b d5 b2 bc
       0.11898708 0.15022698 -0.16390221 -0.021830192
000390 5c 69 0e 3e bf 0f 31 be 7d c8 1b be 3d 48 06 be
       0.13907379 -0.17291163 -0.15213199 -0.13113494
0003a0 f8 3e a4 bd 14 12 c4 bc af 72 33 3c b7 fb b0 bc
       -0.08019823 -0.023934402 0.010952636 -0.021604402
0003b0 03 a5 64 bd ee 24 0c 3d fb 8c 74 bd f2 a5 20 be
       -0.05582143 0.034214906 -0.059704762 -0.15688303
0003c0 3a 4a 13 3d 81 d3 e4 3d b1 b9 7a bd ac 5a 02 3d
       0.03595946 0.11173154 -0.061212245 0.031824753
0003d0 24 6e 1e 3b 47 c8 2d 3e be e1 c1 bd ef 94 0e be
       0.0024174536 0.16970931 -0.09466885 -0.13924001
0003e0 f8 f4 05 be bd f9 34 3e d5 67 97 bd a5 15 52 be
       -0.1308173 0.17673393 -0.07392851 -0.20516069
0003f0 fb 85 86 3d 45 26 cd bd 35 0b 11 3e 7f db ab bd
       0.065685235 -0.10017065 0.14164431 -0.08391475

input_mlp.2.bias f4 [64]
000000 0c 32 fc bd 44 52 03 3e ff e9 10 3e af 04 1f be
       -0.12314233 0.1282435 0.14151762 -0.1552913
000010 0e 14 c0 bd 0a 6b 05 be 6e 3f 38 bd 71 2a 00 3d
       -0.09378825 -0.13029113 -0.044982366 0.031290475
000020 fd 56 b6 3d 8f 87 0a bd b7 0c 26 3c b9 90 00 3e
       0.089033104 -0.033820685 0.010134867 0.12555207
000030 95 29 34 bd d5 a4 a2 bd f1 8c 2c 3e 69 ef 4d bc
       -0.04398497 -0.079415955 0.1685064 -0.012569287
000040 eb 5f 2c 3e 82 cc 2f 3e b8 b4 2c 3e 37 52 27 3e
       0.16833465 0.17167857 0.16865814 0.16339956
000050 fc e0 9c 3d 79 b4 b0 bd 13 8d de bd 6b 2a a7 bd
       0.076601 -0.086281724 -0.108667515 -0.081623875
000060 47 a6 de 3d 17 93 98 bd d3 69 b8 bd 64 fd bf 3c
       0.10871559 -0.0744993 -0.09004559 0.023436256
000070 5b 60 ae bd 31 aa 49 3c 8d 99 0a be de 88 41 3e
       -0.08514472 0.012308643 -0.13535137 0.18899867
000080 67 bd 20 be 75 ff 3b be 68 6d 20 bc 14 43 7f 3c
       -0.15697251 -0.18359168 -0.0097917095 0.0155799575
000090 44 76 6c bd 26 e1 f9 bd 17 03 ff bd ae 47 1b 3e
       -0.057729974 -0.12201147 -0.12451761 0.15164062
0000a0 87 9a 17 3e 56 73 ad bd 07 9c 95 3b 5c ba 05 3e
       0.14805041 -0.08469264 0.004565719 0.13059372
0000b0 be 7a ea bd bf 2a cf bd 94 1e 29 3e ff 4c 58 3d
       -0.114491925 -0.10115575 0.16515571 0.052807804
0000c0 14 e4 23 3e 28 67 a4 3d de e7 02 3e 3b 1c 2e 3e
       0.16004974 0.08027488 0.12783763 0.17002957
0000d0 6a 59 39 3e cb dd 96 bd 00 e2 2a 3e 22 cc 1a 3e
       0.18100515 -0.073665224 0.16687775 0.15116933
0000e0 f4 8c 12 be 7c 55 93 bc 4e e6 47 3c f9 95 1e be
       -0.14311582 -0.017985098 0.012200905 -0.15486898
0000f0 4b f0 40 3e c0 2a 91 3d 0b a0 67 3d b2 08 24 be
       0.18841664 0.07088232 0.056549113 -0.16018942

lstm.weight_ih_l0 f4 [256, 64]
000000 7c 87 be bc 1d c8 d8 bd 64 a9 65 3c 45 09 81 bd
       -0.023257963 -0.105850436 0.014017437 -0.06300596
000010 fb ff af bd aa 8f 82 bb 3d 2e 6b bd 04 9d a4 3d
       -0.08593746 -0.0039844112 -0.057417143 0.08037761
000020 e8 d7 f5 bd 09 cf 9e bd eb e3 c2 3d c0 b2 20 bc
       -0.120040715 -0.077543326 0.09516128 -0.009808242
000030 6b a3 96 bc 33 fb 9f bd 68 81 aa 3d 71 84 07 3e
       -0.01838847 -0.07811584 0.083254635 0.13234116
000040 39 fa ed bc 0c c6 81 bc f8 0e c5 bb c1 f9 88 3d
       -0.02904998 -0.015841506 -0.0060137473 0.06688262
000050 05 a2 11 bd 07 5b e8 3d 1d e8 78 3d f0 a2 39 3d
       -0.035554904 0.11345487 0.060768235 0.045321405
000060 82 fc 04 3e de dc 98 bc 5a e4 b8 bc 8b 81 ba 3c
       0.12986949 -0.018660005 -0.022569824 0.022766849
000070 de 37 80 3d 76 89 99 3d 68 a9 d9 bd 24 78 cd bb
       0.06260656 0.07496922 -0.10628015 -0.0062704254
000080 64 c6 e9 3d 39 ee 2a bc 64 8a b1 bd bd 42 af bd
       0.11414793 -0.010432773 -0.08668974 -0.08557651
000090 81 ea 7d b8 87 c4 0d be 1a 14 87 3d 1c e8 cb 3d
       -6.05383e-05 -0.138445 0.06595631 0.09956381
0000a0 51 bd 12 bd 38 e9 5b 3d c9 3d d1 3d a6 65 8d 3d
       -0.035825077 0.05368921 0.10216863 0.069041535
0000b0 08 56 21 3d aa 07 c0 bd a0 92 62 bd 12 1e 4a 3d
       0.039388686 -0.09376462 -0.055315614 0.049345084
0000c0 67 55 2a bd 1f 3b 81 bd 8a fe 22 bd 5f b8 f2 bd
       -0.041585352 -0.063101046 -0.03979353 -0.11851572
0000d0 a9 0a b5 bc 73 9f 77 3d 62 4b c9 bd 13 63 65 3d
       -0.02209981 0.060454797 -0.09828831 0.056002688
0000e0 78 e1 e5 3d d7 67 36 3d 26 00 e2 3d 70 5c 68 3d
       0.112246454 0.044532623 0.110351846 0.05672878
0000f0 a6 f3 20 bd dc 25 3d bd 49 eb 19 3d 95 dc 9e bd
       -0.03929486 -0.046178684 0.0375779 -0.077569164
000100 7f c0 ff 3b 79 c6 4d bd cd 22 a3 3d 78 26 b2 3d
       0.0078049297 -0.050238106 0.07965622 0.086987436
000110 50 23 c6 bd dc 90 c5 bd f1 f4 14 be 60 8b 15 3d
       -0.09674704 -0.0964677 -0.14546563 0.03650987
000120 cd 1f 84 bd fe b3 c3 3d 79 51 00 bb 43 f3 1b 3c
       -0.06451378 0.09555815 -0.0019579811 0.009518447
000130 3f 7b 64 bd 4f ea cb 3d b6 4f f6 bb 44 4e c1 3d
       -0.0557816 0.099568 -0.0075168265 0.09438756
000140 ab 3a bc 3d b0 db 83 3d 74 b0 28 bd a1 8d 23 bd
       0.091908775 0.064383864 -0.041183904 -0.03992999
000150 c6 49 5e bd e9 3b 23 bd 1f c5 c3 3c 15 06 87 3c
       -0.054269575 -0.039852057 0.023897706 0.016482392
000160 0b 28 8e bd 2d 56 11 be d7 16 b9 bc a4 36 00 be
       -0.06941231 -0.1419303 -0.022593899 -0.12520844
000170 87 df f7 bb dc 5d 8a 3d 14 3d 3e 3d 15 0a 87 3d
       -0.0075644883 0.067561835 0.046444967 0.0659372
000180 80 f4 9d bd 97 ec d9 bd e7 13 eb 3d 2c 78 8d 3c
       -0.0771265 -0.10640829 0.114784054 0.017269216
000190 80 a7 c5 3d e7 ee 15 be 91 de 4b 3d e2 df a1 3d
       0.09651089 -0.14641915 0.049772803 0.079040304
0001a0 58 70 2d bd 83 ad 1d 3c b2 cd 21 3d 3c 7e 5d 3d
       -0.042343467 0.009623888 0.039502807 0.054075465
0001b0 d2 97 9e 3c 0a 8f e4 bd 0b 83 76 3d 89 40 f6 3d
       0.019359503 -0.11160095 0.060183566 0.12024028
0001c0 dd 04 d1 bc 15 2b 07 3e 0a 93 b7 3d a9 19 4c 3d
       -0.025515014 0.13200028 0.08963592 0.04982916
0001d0 36 65 44 bb c1 de 5b bd e5 59 b4 3d 60 5c c1 3d
       -0.0029967553 -0.05367923 0.088062085 0.09441447
0001e0 28 4b 9f bd d2 5d ba 3d 43 09 bc bd ae 09 1f bd
       -0.07778007 0.09099926 -0.09181454 -0.03882759
0001f0 05 b3 aa 3d 7f f1 05 3e ea dd 54 3d af a9 b8 bd
       0.083349265 0.13080405 0.051969446 -0.090167396
000200 2a 67 d3 bb 0f 81 eb bc 0e d9 96 bc da 4d b3 bd
       -0.006451507 -0.028748063 -0.018414047 -0.087550834
000210 7b b0 0d bd 99 ca e2 bd de 21 65 3d be fc c0 3d
       -0.034592133 -0.11073799 0.0559405 0.09423207
000220 d0 0e 96 3d 28 98 03 be 33 c9 91 bc 92 52 90 3d
       0.07327044 -0.12851012 -0.017796135 0.07046999
000230 41 88 36 3d b2 0c a1 bd 9f 59 a5 3d 69 e5 8b 3d
       0.044563536 -0.078637496 0.080737345 0.06830866
000240 c8 53 c1 b9 55 d9 7a bd 7c a2 9e bd 28 11 8c bb
       -0.0003687425 -0.06124242 -0.07745835 -0.004274506
000250 b1 7f ab bd c8 4a 0d be e9 17 1f 3d 7f ef bf bd
       -0.083739646 -0.13798058 0.038841162 -0.09371852
000260 a4 6c aa 3c 12 af 0e bc 37 d6 d0 bd cb 65 d9 bd
       0.020803757 -0.008708732 -0.10197108 -0.106151186
000270 f0 93 a3 3d 40 97 25 3d ee c2 b7 bc 3c b1 df 3b
       0.07987201 0.040427446 -0.022431817 0.006826548
000280 6b a0 04 3e e3 73 64 3d cc d6 c8 bd c5 58 39 3c
       0.1295182 0.05577458 -0.09806594 0.011312668
000290 16 a5 35 3d 9d 5a 87 3d 94 7f 00 be 25 4e 29 3d
       0.04434689 0.0660908 -0.12548667 0.04133429
0002a0 eb 05 a5 bd 08 80 10 bd 2c aa 02 3e 51 cb 69 3d
       -0.080577694 -0.03527835 0.12760228 0.057078663
0002b0 35 47 e0 3b ac 20 7d 3d 66 31 ad bb 3b 30 c3 3d
       0.006844426 0.061798736 -0.00528543 0.095306836
0002c0 18 94 f3 3c ad 43 94 bd 21 c3 9f 3c 93 86 0d bd
       0.029733703 -0.07239471 0.019502224 -0.034552168
0002d0 4b a9 07 bb cf 38 7c bd 83 c9 ec bd ee 87 b0 bd
       -0.0020700272 -0.061577614 -0.11561873 -0.086196765
0002e0 eb 9a 61 bc 2b 2e bb bc db a0 df bd 0b ff a2 bc
       -0.0137698455 -0.022849163 -0.109193526 -0.019897005
0002f0 22 66 c6 3d 30 bd e2 3d 33 30 a0 bb 93 9b cf bc
       0.09687449 0.11071241 -0.0048885583 -0.025342738
000300 4d 47 88 3d df d7 3e 3d cd 27 9f bd bd c9 38 bd
       0.066542245 0.04659259 -0.07771263 -0.045114268
000310 f6 f2 e7 bd 17 8e 86 3b a2 c6 a0 3c 4a 61 74 bc
       -0.11325638 0.004106294 0.019625966 -0.014915774
000320 cb 77 6b 3d 74 67 37 bd 37 67 a3 3d 6c 9f ae 3c
       0.05748729 -0.044776395 0.07978671 0.021316253
000330 06 35 8c bd e6 5b df bd 67 c3 65 3c 01 cf ae bd
       -0.06846051 -0.109062 0.014023638 -0.085355766
000340 ee fe 94 3d 2d 18 99 3c 89 6d 12 3e 6f 87 0c 3e
       0.072751865 0.018688286 0.14299597 0.13723539
000350 87 ba 23 3d 75 ab 13 3e f1 c1 ab 3d 3f 0a c5 bd
       0.03997281 0.14420874 0.08386601 -0.09621095
000360 b1 66 08 bd 04 7f 0f 3c b8 2c 0a be 5d 59 02 3e
       -0.03330106 0.00875831 -0.13493621 0.12729402
000370 66 3f d0 bc 10 31 0d 3d e1 85 09 bd a2 e6 f8 3d
       -0.025420856 0.034470618 -0.033574942 0.12153365
000380 63 fc 76 bb d2 f6 eb bd 59 0c 34 bd ab ba 41 bc
       -0.0037687055 -0.115216866 -0.04395709 -0.01182429
000390 c5 cb b7 3c d7 06 ca 3b e7 3c b8 3d 6b b7 9a bd
       0.022436032 0.006165366 0.08995991 -0.075545155
0003a0 02 c9 e8 3c fb 3d 16 3e b1 b5 a0 3d 2b 77 dc bd
       0.02841616 0.14672081 0.07847155 -0.10764917
0003b0 e5 39 d1 bd e5 f2 86 bd 36 f3 a5 bd 4d 05 8a 3d
       -0.10216121 -0.06589297 -0.081030294 0.06739292
0003c0 bc f6 a4 bd c0 26 cf 3c 5b 45 db 3d d2 29 a2 bd
       -0.08054873 0.025287032 0.10706588 -0.07918133
0003d0 93 f5 bb 3a 6d 73 e9 bd 59 d6 3d 3b e2 75 4e bd
       0.0014340155 -0.11398969 0.0028966872 -0.05040539
0003e0 57 c6 87 3d 5a 17 44 3b 7a 57 fa 3d 80 82 76 3d
       0.06629627 0.0029921145 0.12223716 0.06018305
0003f0 a4 09 49 3c a0 78 aa bd 1d 07 48 bd c2 5f cf bd
       0.012270365 -0.08323789 -0.04883491 -0.10125686

lstm.weight_hh_l0 f4 [256, 64]
000000 89 81 98 3d 8c 25 04 be 16 a0 4d 3d de 3b d9 bd
       0.07446582 -0.12904948 0.050201498 -0.10607122
000010 2b b5 e6 3d c9 17 1e bc b8 af 03 3e 39 2c a0 bd
       0.11265024 -0.0096492255 0.1286 -0.07820935
000020 bf 27 07 3d 7c f7 88 ba 7f 42 69 bd b1 58 34 3d
       0.03299689 -0.0010449733 -0.05694818 0.044029895
000030 02 5c 63 bd 6f eb b5 3d e6 92 e7 3d 75 95 91 3d
       -0.055507667 0.08882796 0.113073155 0.07108585
000040 d0 3d ee bd 79 62 7a bd 78 7a d2 3c 0a 45 16 3e
       -0.116328835 -0.061129067 0.025693163 0.14674774
000050 c2 56 05 3e 1d 92 1d bd 8d 5c bc bd ed b6 05 3e
       0.13021377 -0.038469423 -0.0919734 0.13058062
000060 eb 88 31 3d ab dc cd bd c8 15 e7 bd 4d 6b ab bd
       0.043343466 -0.10051855 -0.11283451 -0.083700754
000070 e4 9c f9 bc e9 7c b7 3d e7 98 b6 3d 29 8f 22 bc
       -0.03047032 0.089593716 0.089158826 -0.009921827
000080 c7 0a 8b 3d b0 83 9b 3d 50 3f 9f bd 3f 46 33 bd
       0.06789165 0.07593477 -0.07775748 -0.043768164
000090 91 7e 72 bd 28 d1 cf 3d cf fb 9d 3d a4 6b 15 3e
       -0.059202734 0.10147315 0.07714044 0.14591843
0000a0 3d ef 95 bd 61 b7 d0 bd e3 4c e4 bd 1a d5 b2 3b
       -0.07321022 -0.10191227 -0.111474775 0.0054575326
0000b0 8a ec ea bc bd 2c 39 bc 0b 61 96 bc 17 65 f7 3d
       -0.028677244 -0.01130217 -0.01835682 0.12079828
0000c0 f0 96 a4 3d 40 a6 07 3e 91 90 c7 bd fc 0d 07 3d
       0.080366015 0.13247013 -0.09744371 0.03297232
0000d0 f9 0d 89 bd 1a 9a e9 bd 6a 9d b7 3d 7c db 5b bd
       -0.06692118 -0.11406346 0.08965571 -0.053676113
0000e0 9f 99 c0 3d de 23 0a be 51 e3 db bd 0d a2 5b 3d
       0.09404301 -0.13490245 -0.107367165 0.05362134
0000f0 7d 4e f0 bd 4d c1 a2 3d 8c a1 5f bd d2 90 f6 3d
       -0.117337205 0.079470254 -0.054597422 0.12039341
000100 af 4d a8 3d 15 07 86 bd 61 01 75 3d 99 e0 f5 bd
       0.08217942 -0.065443195 0.05981577 -0.12005729
000110 35 33 e1 3c bc a3 8c bd 20 4c 8d 3d 96 71 00 bd
       0.027490238 -0.06867167 0.06899285 -0.031358324
000120 90 59 df bd 38 e5 12 bd d3 07 84 3d 95 aa a5 bd
       -0.109057546 -0.03586313 0.06446805 -0.080891766
000130 79 25 b8 3d 87 0f b3 bd f5 9e fc 3d ca 03 b2 3d
       0.08991522 -0.08743196 0.12335006 0.08692129
000140 da db a2 bd a5 76 92 3d fa 21 82 bd 6e 98 3d 3c
       -0.079520896 0.07151536 -0.06354137 0.011571987
000150 0d f2 d0 bd e7 2e e4 3d b6 f9 57 bd 14 e2 91 bd
       -0.102024175 0.111417584 -0.052728377 -0.07123199
000160 64 85 28 bd f4 9d 2f 3c b5 4e af bc 81 86 79 3d
       -0.041142836 0.010718811 -0.021399835 0.06091929
000170 d0 57 ec bd dd b8 d8 3d a3 c1 ea bd 63 bc 15 bd
       -0.115401864 0.10582135 -0.114627145 -0.036556613
000180 dd aa a8 3d 67 75 7e bd 34 43 b1 3d ff d4 a9 3c
       0.082357146 -0.062123682 0.08655396 0.020731447
000190 58 30 06 be 58 50 8e 3b a4 38 f5 bd 62 90 e8 3d
       -0.13104379 0.004343074 -0.11973694 0.11355664
0001a0 66 ec 49 3d e0 44 49 3c e9 24 0b 3d 5d 2a 00 3d
       0.049297713 0.0122844875 0.033970747 0.0312904
0001b0 d3 5f a5 3c 4c cb 03 be 9b 34 5e bd 27 f5 b9 3d
       0.020187294 -0.1287052 -0.054249387 0.09079962
0001c0 a4 08 dd 3d 9a 5e f9 bc 50 d5 d1 3d f3 e9 09 be
       0.10792664 -0.030440617 0.10245764 -0.13468151
0001d0 26 bc 87 bc b2 79 bc bd 57 dd 42 bd 9f 3c 4f 3d
       -0.016569208 -0.09202899 -0.047574367 0.050594922
0001e0 8d c5 d1 3b 5d cb 8a 3c f9 df 9b bd 6b f8 61 bd
       0.0064017237 0.016942674 -0.07611079 -0.05516855
0001f0 26 0a d5 bc 23 77 aa bd 59 64 c5 bd 20 5c 71 3d
       -0.026005816 -0.08323505 -0.096382804 0.058925748
000200 00 b8 ad 3d ef 23 6b bd 0f f4 bf 3d b7 18 9c bd
       0.08482361 -0.057407316 0.09372722 -0.076219015
000210 99 21 63 bd 02 bc 8f bd 6c 17 b4 3d 35 8d bd bd
       -0.055451963 -0.070182815 0.0879353 -0.09255449
000220 33 3a 78 3d 4b 7a e9 bc 00 bc f8 3d cb 8d 21 3d
       0.060602378 -0.028500697 0.12145233 0.039441865
000230 37 3d 8f bd 62 f5 2d bd a7 c9 2f 3d bd 6a 93 bd
       -0.06994098 -0.042470343 0.04291692 -0.07198093
000240 a4 3b 0e 3e fe db 98 bd fd 77 0d 3e f4 38 7d 3d
       0.13889939 -0.07463835 0.13815303 0.061821893
000250 5b bc e2 3d 3c d1 e8 3d 48 e1 c1 bd 63 aa 03 3e
       0.11071082 0.11368033 -0.09466797 0.12857966
000260 ff 06 26 3e 2b 7a 9e 3d 19 c3 4b bd a7 28 dd bd
       0.16213606 0.077381454 -0.049746606 -0.107987694
000270 10 f6 80 bd 45 51 5a 3d 20 13 97 3d 42 17 b3 3d
       -0.06296933 0.05330016 0.07376695 0.087446705
000280 02 c1 cc 3d 31 8b e0 3b ea 99 84 3d 73 c9 41 3d
       0.09997751 0.0068525304 0.06474669 0.047311258
000290 99 da ac 3d 2d 47 b7 3d 91 27 8a 3d f6 a5 68 bc
       0.08440132 0.089491226 0.06745828 -0.014199724
0002a0 7a b7 a9 bd ea 52 2a 3c 6b 8e 05 bd dd 84 ff 3c
       -0.082869485 0.010395745 -0.032606523 0.031191284
0002b0 7e f6 50 bd 6e e1 99 bd 5d 8f 0e 3e 31 28 ae 3d
       -0.051016323 -0.075137004 0.13921876 0.0850376
0002c0 6f dd 13 bd a5 0f b4 3d 2d d3 da bd 51 47 ce bc
       -0.036099847 0.087920465 -0.1068481 -0.02518049
0002d0 d0 ae 92 3d 47 de 60 3d be 99 26 3b 2b 1c 7f 3d
       0.07162249 0.05489948 0.0025421227 0.062282722
0002e0 cf ef 1f be a4 0a 51 3d fc 46 3e 39 47 66 d0 3d
       -0.15618823 0.05103554 0.00018146256 0.10175758
0002f0 af 6c 12 3d 9d fd ab bd 25 70 19 3e 68 89 e5 bc
       0.03574818 -0.08397982 0.14984186 -0.028019622
000300 c9 c2 63 bd ee bb 95 bc 7b 26 90 3d fe 76 aa bc
       -0.055605683 -0.018278088 0.070385896 -0.020808693
000310 31 d0 a3 bd 82 f4 bc 3c b0 27 1c 3d 62 48 6c bd
       -0.07998694 0.02306581 0.038123786 -0.057686217
000320 c4 91 87 bd 7c 33 a8 3d 85 60 80 3d a6 21 b3 3d
       -0.066195995 0.08212945 0.0626841 0.08746652
000330 e2 28 fb 3d 13 ee 8b bd 67 8c 82 bd 42 89 01 3e
       0.12263657 -0.068325184 -0.06374436 0.12650016
000340 57 9c e7 bc bd 60 ed bd eb f4 43 3d 8c 31 02 3d
       -0.02827279 -0.11590717 0.047840994 0.031785533
000350 d4 97 06 bd b5 63 e0 bd 35 c7 ab bd 80 a0 cf bc
       -0.03285964 -0.109565176 -0.08387605 -0.025345087
000360 5a b9 73 3d ba 2c e2 bd 78 f6 85 3c 6c 98 95 3a
       0.059502937 -0.11043687 0.016352877 0.0011413223
000370 57 a8 40 3c d1 87 4c 3d ae e0 e4 bd 30 ac 4b bd
       0.011758885 0.049934212 -0.11175667 -0.049724758
000380 8d 0f 8c bd 0f 02 c5 3d d5 97 09 bd 53 30 c8 3d
       -0.068389036 0.09619533 -0.033592064 0.09774842
000390 97 d0 c7 bd 82 7a 91 3d 01 f2 b9 3d 26 d3 c2 bd
       -0.09756582 0.07103445 0.09079362 -0.095129296
0003a0 b6 60 91 3d d7 2d ef bc 2d 7f ee 3d 92 19 94 3d
       0.07098524 -0.029196663 0.116453506 0.0723144
0003b0 e9 d0 e5 bc 14 02 b0 bb db 67 2b bd 49 93 ac b9
       -0.028053718 -0.0053713415 -0.04184709 -0.00032916132
0003c0 84 20 3d 3d 0d 1b a3 bd 28 c8 85 3d dd cc 57 bd
       0.046173587 -0.07964144 0.065323174 -0.052685607
0003d0 49 0b d8 3d 07 ce 2d bd 9b 9a 80 3c 24 80 c8 3d
       0.105490275 -0.04243281 0.015698722 0.09790066
0003e0 4c 85 b2 bd 55 2e 11 be d9 bd c4 bc 5e 3d 5e 3d
       -0.087168306 -0.1417783 -0.024016308 0.054257743
0003f0 bd e4 d9 bd 0a c2 4a bc 6e 99 1b bd 7b 80 d3 bb
       -0.106393315 -0.012375364 -0.03798812 -0.006454525

lstm.bias_ih_l0 f4 [256]
000000 ce 90 4e 3d 52 9b 88 3d 96 d9 a8 3b 75 da 1d bd
       0.050431065 0.0667025 0.0051528914 -0.038538415
000010 dc fc 97 3d b5 30 44 bd ea eb 63 3c e7 3e c3 bd
       0.07421276 -0.047898013 0.013911227 -0.09533482
000020 1d 49 20 bc 2a b5 7d 3d 5b 93 d5 bd b4 30 b5 3c
       -0.009783057 0.06194035 -0.104284965 0.02211795
000030 af de 6a bc ed f0 a1 3c 03 62 b2 3d 03 cb e3 3d
       -0.0143353185 0.019768203 0.087101005 0.11122706
000040 33 5a c0 bd eb ad ab 3d cc 24 8d bd 04 da 9f 3d
       -0.09392204 0.083827816 -0.06891784 0.07805255
000050 f7 b1 2f 3d 78 57 63 bc 57 fe aa 3d 1d 38 7d 3c
       0.04289433 -0.013875835 0.08349293 0.015455273
000060 af ab 9c bd 65 4a ba bd ce d7 71 3d b5 b8 df 3d
       -0.076499335 -0.09096221 0.059043698 0.10923902
000070 05 05 ec 3d ad 72 a0 bd 64 96 29 bd 04 76 cc bd
       0.11524395 -0.07834373 -0.04140319 -0.09983447
000080 af 2d 98 3d f0 50 f3 3d a6 bd b7 3d 1d b8 33 3c
       0.074305885 0.11880672 0.089717194 0.010969189
000090 d1 29 0b bd 32 14 1c bd 07 f3 c1 3b 2b 47 80 bd
       -0.033975426 -0.038105197 0.0059188637 -0.06263574
0000a0 3c 6f 61 3d 40 af db bd 0a ce 9b bc 71 53 ba 3c
       0.055037722 -0.10726786 -0.019019146 0.022744866
0000b0 30 f6 ec bd fe 95 f6 bd af 89 ed bd fb 58 ae 3d
       -0.11570394 -0.120403275 -0.11598527 0.085130654
0000c0 78 8b 58 3d 8d ea 95 bd b9 1f 0d 3d c4 3c fb 3c
       0.052867383 -0.07320128 0.03445408 0.030668624
0000d0 d1 d3 d4 3d 5c db bf 3d 0d dc c7 3d 5e d3 af 3c
       0.10391963 0.09368011 0.09758768 0.021463092
0000e0 6b 86 99 bd 3a be d2 3c 67 d6 a9 3d c3 3e 7e bd
       -0.07496341 0.025725473 0.08292847 -0.062071573
0000f0 37 21 33 bb 74 80 b2 3d 4f b7 a0 bd 99 16 81 3d
       -0.002733303 0.08715907 -0.07847463 0.06303138
000100 12 32 8c bd 92 24 f2 3c 56 ab 8b bd cf 5d 2e bc
       -0.06845488 0.029558454 -0.06819789 -0.010642483
000110 3d 88 06 3e a3 4e cf bd 5c 4b d7 bd 22 93 ae bd
       0.13137908 -0.10122421 -0.105124205 -0.08524157
000120 cf 48 73 3d 8b 7a e3 bd b1 32 d3 3c 5d 1e 8a 3d
       0.059395608 -0.111073576 0.025781007 0.067440726
000130 cb ee 0c bd 0e 82 9f bc 91 16 88 bd 32 0c 08 3e
       -0.03440742 -0.019471195 -0.06644929 0.13285902
000140 df d6 d3 bd 7b 79 56 3d a8 58 20 3d fc c6 69 bd
       -0.10343718 0.052361947 0.03914705 -0.057074532
000150 77 53 f5 bd 39 c1 60 3d 99 9f bf bc 47 db a5 3d
       -0.1197881 0.05487177 -0.023391532 0.080984645
000160 60 30 03 3d 2f 2c d7 3d 8f da f2 3d 1b d4 92 bd
       0.032028556 0.10506474 0.11858093 -0.07169362
000170 a1 83 4a 3c 78 12 8e 3d fd 59 cc 3d a3 c4 9c bc
       0.012360484 0.069371164 0.099781014 -0.019136732
000180 0f a2 da 3c 40 88 10 3d fe ef be 3c 54 96 6e bd
       0.026688604 0.035286188 0.023307797 -0.058248833
000190 20 11 53 3d e3 f8 31 bd 62 72 9a 3d f3 91 1c bd
       0.051530004 -0.043450247 0.07541348 -0.038225126
0001a0 f3 16 ee 3c 42 58 03 be 89 d4 e4 3d 68 d3 37 3d
       0.029063677 -0.12826636 0.1117335 0.044879347
0001b0 79 51 cb 3d cc be a5 bd 60 76 ea 3c d3 96 93 3d
       0.09927649 -0.08093032 0.028620899 0.07206502
0001c0 b0 f5 91 3d 53 74 f2 3d 61 3e 08 3d df 6b 8d 3d
       0.07126939 0.11838593 0.033262614 0.069053404
0001d0 f6 00 93 3d e1 c7 96 bd 65 2d 97 3c 81 8a 93 bd
       0.07177918 -0.073623426 0.018454263 -0.07204152
0001e0 75 e5 c2 bc 66 2a 49 3b f6 fc bf bd 4a d1 b6 bd
       -0.023791054 0.0030695437 -0.0937442 -0.089266375
0001f0 19 96 b0 bd ff f7 f5 bb 22 be ad bd 67 f0 ce 3d
       -0.08622379 -0.00750637 -0.084835306 0.10104447
000200 66 30 ad bd 2a 90 9b bd 8e 8e e1 3d fb 85 01 be
       -0.08456497 -0.075958565 0.11013518 -0.12648766
000210 5b 6a 65 bd 4c 62 f5 3c ce f0 80 3c 73 f7 86 3d
       -0.05600963 0.029954098 0.015739825 0.06590166
000220 a9 ae 67 3d cb d1 9b 3d b3 52 dc 3d f1 fa bd 3c
       0.056563053 0.07608374 0.10757961 0.023190947
000230 db 25 9b bd c2 16 b6 3d 9d 9b 09 3d 74 df 69 bd
       -0.0757558 0.088910595 0.03359567 -0.057097867
000240 8a 3f ce bd 69 ca fa 3d f2 c2 ba bd a1 f4 34 bd
       -0.10070713 0.12245638 -0.09119214 -0.04417861
000250 75 1e fe 3d 93 1a b2 bc 28 e2 9c 3c f4 fa 74 3d
       0.12408153 -0.021741187 0.019150808 0.05980964
000260 32 74 1e 3d 29 64 31 bd 10 24 b4 3c 09 77 ee 3d
       0.03868503 -0.04330841 0.021989852 0.11643798
000270 47 9b 61 bd ff f3 bc 3d ce 09 db bd f5 0c f1 bb
       -0.055079725 0.09226226 -0.106952295 -0.007356281
000280 01 02 8b bd 7b bb d9 3c ef 35 63 bd 06 90 a5 bd
       -0.067874916 0.026578655 -0.055471357 -0.08084111
000290 2b e8 f7 bd 5a a8 d5 3d f6 49 84 3d c3 50 b8 3d
       -0.121048294 0.10432501 0.064594194 0.08999779
0002a0 92 c5 c1 3c dd 30 49 3d 53 35 bf bc 50 2c 4a 3d
       0.02365378 0.049118865 -0.023340857 0.049358666
0002b0 42 e5 ec bd 4b b1 c7 bd e8 b9 32 3c 37 0a 54 bd
       -0.11567165 -0.09750613 0.010908581 -0.051767554
0002c0 31 b5 b5 bd f1 19 99 3d 95 0b 7f bc 71 65 9e bd
       -0.0887245 0.07475651 -0.015566726 -0.07734192
0002d0 dc 79 ed bd 91 e1 e8 bd 29 c6 93 bd e2 19 0e 3d
       -0.115955085 -0.113711484 -0.072155304 0.034692653
0002e0 35 e0 d6 bd 61 76 2b bd ac 23 7d 3d 46 de 7b 3c
       -0.10491983 -0.04186094 0.061801597 0.015372818
0002f0 12 bc 98 bd f5 1c 83 3c db c6 9d bc a0 ae c2 bb
       -0.074577466 0.016005019 -0.01925986 -0.005941227
000300 6c 40 9a bd ce 7f 00 3e 0a 43 a1 bc fc ad 6c bd
       -0.07531819 0.12548754 -0.019685287 -0.057783112
000310 83 4e b3 bd 17 05 ab 3d e0 08 dd bd e2 16 3d b9
       -0.08755209 0.0835058 -0.107927084 -0.00018032969
000320 81 ac d2 bd c4 2f d4 3d 38 19 35 bc a6 2c e1 bd
       -0.10286809 0.10360673 -0.011053376 -0.10994844
000330 14 bc b6 bc 6f 4a db bd ff 57 bb 3d 63 4e f0 bc
       -0.02230648 -0.107075565 0.09147643 -0.029334253
000340 98 4f 71 bd 98 40 24 bd 31 62 31 3d 62 01 a7 3d
       -0.058913797 -0.040100664 0.043306533 0.081545606
000350 6c 71 31 bd 71 ae a7 3d 79 22 8e bc d6 be b1 b9
       -0.04332106 0.08187569 -0.017350422 -0.00033902255
000360 80 30 91 3d b7 04 dd bd 30 35 64 bd 6e bf d2 bd
       0.07089329 -0.10791915 -0.055714786 -0.102904186
000370 fc ae df bc a1 21 6e bd 33 c6 e0 bd 8d 31 d3 3d
       -0.027305119 -0.05813754 -0.109753035 0.103121854
000380 07 57 7b 3d 76 9d 58 bc 6a 05 93 bd 24 73 64 3d
       0.061362293 -0.013221135 -0.07178767 0.05577387
000390 e5 6a b8 bd b0 c6 24 bd 98 1c e0 bd 52 ec c9 bc
       -0.090047635 -0.040228546 -0.10942954 -0.02464882
0003a0 66 c6 d7 3c 7a 7c bc bb 4e a7 cb bd e0 29 00 bd
       0.026339721 -0.0057521435 -0.0994402 -0.031289935
0003b0 1a 3f bd bd 8d a3 e3 bd a8 1b f3 bd f7 1b 72 37
       -0.09240551 -0.11115179 -0.118705094 1.4430835e-05
0003c0 46 3a 77 3d 0b 7a 52 3d 7e 63 ee bc dc b7 ff 3d
       0.06035831 0.05138592 -0.029100176 0.1248624
0003d0 55 ee cf bd 7c 69 6c 3c 43 98 f2 3d 09 b3 16 bd
       -0.1015288 0.014429446 0.11845448 -0.036791835
0003e0 90 2a 90 3d 2f d5 ea bd 2e d8 77 bd bd 93 2a 3d
       0.07039368 -0.11466443 -0.0605089 0.0416448
0003f0 be 80 6e 3d 53 3e 97 3d 9c cb bf bc 1f f0 e0 3c
       0.058228247 0.07384934 -0.023412518 0.027458249

lstm.bias_hh_l0 f4 [256]
000000 e8 09 95 bd eb 11 e0 3d 56 d1 db 3b 6c b4 a5 3d
       -0.0727728 0.109409176 0.0067083044 0.08091053
000010 8a 76 84 3d 5d 58 0a bd c2 af 04 be 57 e1 dc bd
       0.06467922 -0.033775676 -0.12957671 -0.10785168
000020 fa 10 ef 3d 3a b5 af bc ff 7b 95 3d 1e db 6a bc
       0.1167316 -0.02144872 0.07299041 -0.014334468
000030 db 33 af 3d 65 ee 20 bd 58 39 09 3d e7 a6 dd bd
       0.085548125 -0.03928985 0.033501953 -0.1082285
000040 4b 15 d6 bd fd 34 16 bd 69 aa 46 bd ce 08 31 bd
       -0.1045328 -0.036671627 -0.04850236 -0.043221287
000050 33 9c e8 bc 14 b1 f6 bd f2 70 da bc 6a 50 c2 3d
       -0.028394794 -0.12045494 -0.026665185 0.09487994
000060 a3 a0 b6 3d 8b 72 aa bd 75 73 25 bd f9 26 4d 3d
       0.08917358 -0.083226286 -0.04039331 0.050085995
000070 69 60 97 3d 2b 55 e6 bd 6d 84 b9 bd 8c c8 f1 3d
       0.07391436 -0.11246713 -0.09058461 0.118058294
000080 f3 6d 3e 3d cd 52 a4 bb 2e 69 bd 3d ee 39 b3 bc
       0.046491574 -0.0050147534 0.09248577 -0.021878209
000090 db a1 a1 bd d6 a6 a5 3b b3 6d ea 3d 33 dc 44 bd
       -0.078921996 0.005055289 0.11446705 -0.04806156
0000a0 38 5a 4f 3d ec 0c fb bd 53 31 34 3d 53 b0 60 3d
       0.05062315 -0.12258324 0.04399235 0.054855656
0000b0 a1 7a fb 3b e1 e6 cd bc 69 6c 39 bd 2b 9a 9a 3d
       0.0076745306 -0.025134506 -0.045269404 0.075489365
0000c0 0b 5a c8 3d d8 93 ce 3c 5d e1 1d 3d 0b 7e 72 bd
       0.09782799 0.025216982 0.038545 -0.059202235
0000d0 5b 5f a8 bd e0 54 41 3d 93 c2 e0 3d c6 e6 67 bd
       -0.082213126 0.047200084 0.10974612 -0.056616567
0000e0 71 4d c7 3d 72 01 04 3d ab 81 81 3d 5e f6 aa bc
       0.09731568 0.03222794 0.0632356 -0.02086943
0000f0 f7 b5 eb 3d 98 97 1d 3b e0 f7 c8 bc aa 4f fb 3d
       0.115093164 0.0024046656 -0.024532259 0.12271054
000100 bc a5 01 3e 32 57 3c 3c d8 84 d2 bc ef 4e a3 3d
       0.12660879 0.011495398 -0.02569811 0.0797404
000110 5c 5f c8 bd 53 84 a2 3c 90 11 92 3d f2 b6 e4 bd
       -0.09783813 0.019838488 0.07132256 -0.111677065
000120 5b 00 63 3d 96 8a 62 bd 67 3f fc 3d 50 f0 a2 3d
       0.05542026 -0.055307947 0.123167805 0.07955992
000130 74 14 bd bc 24 f9 06 bd e8 02 0a 3e 62 64 aa bd
       -0.023081042 -0.032952443 0.13477671 -0.08319928
000140 bf 67 04 be 2d 39 27 3d 4d f0 e9 bc ef 6e d1 3d
       -0.12930201 0.04082601 -0.028556967 0.10226237
000150 85 49 38 bc cf dd 74 bd b5 1a 47 3d 9f ad c1 3d
       -0.011247997 -0.059781846 0.048609454 0.09456944
000160 70 8a 4f 3c 6c 04 5f 3c c3 71 e2 bd 5b 76 a8 bd
       0.012667283 0.013611894 -0.110568546 -0.082256995
000170 16 fc 83 bd f2 1f da bd 21 a5 03 3e 7f be ac bd
       -0.06444566 -0.10650624 0.1285596 -0.08434772
000180 18 1c 03 bd f4 bd a5 3b 3e 14 c0 bd 02 4b b2 3d
       -0.032009214 0.0050580446 -0.09378861 0.08705713
000190 d2 f1 2e 3c e0 f6 8f 3d 92 27 c8 bc 5b 4a 79 bd
       0.010677772 0.070295095 -0.024432931 -0.060861927
0001a0 5c 09 84 bc 90 ec 83 3b 3d b1 c4 3d 64 e2 1a 3e
       -0.016117744 0.004026003 0.09604118 0.15125424
0001b0 ed ea b9 bd 09 70 52 3d 07 6d 3a 3d bb c9 83 bd
       -0.09078012 0.051376376 0.045514133 -0.064349614
0001c0 f9 fe 31 3d af d4 b9 3d 4f 28 b7 bd d5 16 d8 bd
       0.04345605 0.09073769 -0.08943235 -0.1055123
0001d0 6f 74 7a 3d ae 51 2e bd 30 23 5c bd c5 b0 13 3d
       0.061146196 -0.042558365 -0.053744495 0.036057252
0001e0 8c 12 f7 bd 2a 11 0c bd 7a 7f 77 bd 6d 1e 73 3d
       -0.120640844 -0.034196056 -0.060424305 0.05935519
0001f0 16 77 01 bd 19 5c 43 bd f0 fe d4 bd d4 1b 2c bc
       -0.03160771 -0.047695253 -0.10400188 -0.010504682
000200 7e 97 df bd b7 c9 e3 bc 63 de e9 bc 17 c8 c0 bd
       -0.10917567 -0.027806146 -0.028548425 -0.09413164
000210 76 1d d0 bd 41 07 c6 3b a2 1b 8b 3d 6a b0 02 bd
       -0.10161869 0.006043345 0.0679238 -0.031906523
000220 dd 27 65 3d 06 8c 81 3d b1 bc 4a 3d f1 5f 41 3d
       0.05594622 0.063255355 0.049496356 0.047210637
000230 17 67 16 bc 0d 3f 35 bd f4 4c 8a 3d b0 44 f3 3d
       -0.009179852 -0.044249583 0.06752959 0.118783355
000240 9e cc 25 bc c7 0a c6 3c 96 5a c9 3d 21 cf 94 3d
       -0.010119585 0.02417506 0.09831731 0.07266069
000250 23 4d cd bc 1c dd 07 bd 28 c4 87 3c 18 36 97 3d
       -0.025061196 -0.03316985 0.016573027 0.073833644
000260 3e d3 3a bd 0b b6 43 3d 68 d7 a3 3c bb 49 b2 bd
       -0.045611612 0.04778103 0.020000175 -0.08705469
000270 2f 4c 27 bd 2f 5b 03 bc 4e 29 fa 3d d4 e8 e7 ba
       -0.04084414 -0.008017345 0.122149095 -0.001769329
000280 7b 1a 1b bc 0b c1 ce bd 2d 7d 97 3b 94 1b b5 bd
       -0.009466763 -0.10095414 0.0046230764 -0.08843151
000290 3d 4e 89 bc a9 ee 63 bd 19 36 5e 3d af e8 85 bd
       -0.01676094 -0.055647526 0.05425081 -0.065385215
0002a0 f9 83 7e bd b3 67 61 bd a0 c6 f0 3d 3d 7c c0 3d
       -0.062137578 -0.055030536 0.11756635 0.093986966
0002b0 82 34 95 3d 7a d7 0b 3d b9 c1 8c 3d eb 6c 05 bd
       0.07285406 0.03414104 0.06872887 -0.032574575
0002c0 3f fc 9f 3d 80 81 09 3d 18 8a a5 bd 77 39 c9 3d
       0.07811784 0.033570766 -0.0808298 0.09825414
0002d0 6c fe be 3d ab 24 96 3d e1 00 a3 bc 86 d1 3e 3d
       0.09325871 0.073312126 -0.01989788 0.046586536
0002e0 67 47 ab 3c 49 94 d8 3d 38 eb 06 bd 74 c2 38 3d
       0.02090807 0.10575158 -0.032939166 0.04510732
0002f0 34 6d 04 be 89 7d e2 3d 32 7a 24 bd ec 57 a4 bd
       -0.12932283 0.110591 -0.040155597 -0.08024582
000300 8d 52 71 bc 2b 1d ea 3d a2 e1 87 bd 18 99 5e bc
       -0.014729154 0.114313446 -0.06634833 -0.013586305
000310 07 91 d6 bc d9 8a a0 3d 8d 42 33 3d 82 88 ab 3c
       -0.026192201 0.07838983 0.04376464 0.020939115
000320 1f 1e a8 3d 46 1a a9 3d 40 10 da bc 54 0b 93 bd
       0.0820887 0.082569644 -0.026619077 -0.07179895
000330 2c cd 5a 3d 9d 1a ac 3d b8 9b 70 bd 88 0a 4b 3d
       0.053418323 0.084035136 -0.058742255 0.04957059
000340 10 dc a0 3d bf cd fc 3d 8d fc 59 3d ff ff f2 bc
       0.078544736 0.123439305 0.053219367 -0.029663084
000350 30 34 1b 3d 45 90 da 3d 0f 0f 3f bd 81 fa 9e bd
       0.037891567 0.106720485 -0.04664522 -0.077626236
000360 30 9a 22 3d 80 f2 03 be d8 cb 35 bd c0 2c 9a bd
       0.039697826 -0.12885475 -0.044383854 -0.07528067
000370 5a 09 1c 3d 4e 22 01 be df 31 eb bd 32 12 5c 3d
       0.038094856 -0.12610742 -0.114841215 0.05372829
000380 b6 fb e5 3d 5f 2c c0 bc 9a 2e d5 bd 9e 64 8c 3d
       0.11229651 -0.023458658 -0.10409279 0.06855129
000390 1b 09 96 bd 54 dc 99 3d 10 94 c3 bd fa dd a8 3c
       -0.073259555 0.075127274 -0.09549725 0.02061366
0003a0 ba 0c 0f 3d 4f 3a d4 3d e8 c8 97 bd 94 e2 70 bd
       0.034924246 0.10362684 -0.07411367 -0.05880983
0003b0 ba e7 cb bd 0f ef ca 3d 3f 3d 87 bb 23 ec 90 3b
       -0.09956308 0.09908878 -0.004127174 0.004422681
0003c0 6b 7b e3 bd a0 6f c6 3c fc cd b9 bd 52 1a a7 bd
       -0.111075245 0.024223149 -0.090724915 -0.08159317
0003d0 e4 4e 5a 3c 01 1c 16 3e e1 e4 94 3d af 91 2b 3d
       0.013324473 0.1465912 0.07270218 0.04188698
0003e0 07 8d 62 bd 19 35 ce 3d 35 ba d3 3d 77 6f fd 3c
       -0.055310275 0.10068721 0.103382505 0.03093694
0003f0 2e d3 a5 3d ff f7 d9 bd 7d 4c af 3d d4 47 c6 bd
       0.0809692 -0.106430046 0.08559511 -0.09681669

blocks.0.norm1.weight f4 [64]
000000 52 fc 7e 3f 16 1e 81 3f 06 0b 83 3f b9 78 83 3f
       0.9960376 1.0087306 1.0237739 1.0271217
000010 c8 92 7e 3f 33 a8 80 3f d3 28 7d 3f 23 08 80 3f
       0.9944272 1.005133 0.9889042 1.0002483
000020 60 d1 7f 3f 34 b9 7e 3f 1d fd 7e 3f 3b 17 81 3f
       0.99928856 0.9950135 0.9960497 1.0085214
000030 90 9c 7f 3f 8c 61 7f 3f 37 af 80 3f b1 ea 81 3f
       0.9984827 0.9975822 1.0053471 1.0149747
000040 f1 0a 7e 3f 7c b4 83 3f ad 72 81 3f 8c 6a 7e 3f
       0.99235445 1.0289454 1.0113121 0.9938133
000050 66 08 80 3f ee 88 7d 3f ce e3 80 3f 42 2d 80 3f
       1.0002563 0.99037063 1.006952 1.0013812
000060 cb 4a 7f 3f 8b 11 7f 3f 0e af 7f 3f e1 fb 7f 3f
       0.997235 0.99636143 0.9987649 0.9999371
000070 8b 2f 80 3f 6a 87 7e 3f 66 32 80 3f 04 fb 7e 3f
       1.0014509 0.99425375 1.001538 0.9960177
000080 79 bc 80 3f e6 cd 80 3f 97 44 7e 3f ce 11 80 3f
       1.0057517 1.0062835 0.9932341 1.0005434
000090 c7 d1 7f 3f 9e c8 81 3f f3 06 7d 3f a4 4b 83 3f
       0.9992947 1.0139349 0.9883873 1.0257459
0000a0 26 49 80 3f 2f 9f 7d 3f 18 f1 7f 3f 92 9b 80 3f
       1.0022323 0.9907102 0.99977255 1.0047476
0000b0 03 8e 7e 3f 6e 94 7f 3f b7 75 80 3f 39 59 80 3f
       0.9943544 0.9983586 1.0035924 1.0027229
0000c0 4d 81 7d 3f 8c 0b 7f 3f be 7f 7f 3f 2a a5 7f 3f
       0.9902542 0.99626994 0.99804294 0.99861395
0000d0 93 ef 7e 3f 86 7a 81 3f 9c 31 81 3f b9 6c 80 3f
       0.9958431 1.0115516 1.0093265 1.003318
0000e0 0a e4 80 3f 96 ae 7a 3f 2a 0a 7e 3f 8d 4f 80 3f
       1.0069592 0.97922647 0.9923426 1.0024277
0000f0 86 e4 7d 3f a2 17 7f 3f b8 22 80 3f f0 cd 80 3f
       0.99176824 0.99645436 1.0010595 1.0062847

blocks.0.norm1.bias f4 [64]
000000 d0 e2 09 bb 5f a9 26 3c 6a b2 05 3c 90 1f d3 3a
       -0.0021039732 0.010172217 0.008160213 0.0016107429
000010 d0 cf 01 bc 87 57 91 bb 18 0b c5 bb 11 8c 96 3a
       -0.0079230815 -0.004435483 -0.0060132854 0.0011485835
000020 50 eb 08 ba 9c 06 69 bb f8 22 88 ba 2a 92 45 3b
       -0.00052230526 -0.0035556918 -0.0010386398 0.0030146935
000030 6c 18 78 3a 5a 7e a7 bb 16 c4 82 3b 49 0f f1 b8
       0.00094640884 -0.005111498 0.0039906604 -0.000114946226
000040 6a 51 2a bb e3 77 af 3b 12 3d 7e bb 27 b1 bf 3b
       -0.0025988468 0.005354868 -0.0038793725 0.0058499756
000050 1e a9 ba bb 8e bf 45 3c 93 56 cc 3b cb c4 73 bb
       -0.00569643 0.012069596 0.0062359064 -0.0037196155
000060 94 b7 cd ba 5e 1c ad bb f8 0d a6 bb 8f 4d d6 bb
       -0.0015694969 -0.0052829226 -0.005067583 -0.0065400074
000070 6a c0 d5 bb 05 11 24 ba da 87 a5 3a 5a 63 e1 3a
       -0.0065231817 -0.00062586396 0.0012628988 0.0017195747
000080 31 2b 1b 39 3d 07 84 3b 13 bc d6 3b f7 5f ad bb
       0.00014798042 0.004029183 0.006553182 -0.005290981
000090 38 90 d2 39 a3 63 c4 bb be 05 3e bc 52 99 4b 3c
       0.00040161773 -0.005993323 -0.011598049 0.012426691
0000a0 62 e6 fd ba 25 bc 16 bb 3b 61 c4 3a db 34 6d bb
       -0.0019371028 -0.0023000326 0.001498259 -0.0036194834
0000b0 f8 0d ff 3a eb a6 a7 3b 9d f2 d6 3a c7 bb 88 3a
       0.0019459119 0.0051163337 0.0016399209 0.0010431939
0000c0 22 be b3 bb 71 14 98 bb 99 2d 3d 3a 3a 78 15 3c
       -0.005485312 -0.0046411087 0.00072165724 0.0091229025
0000d0 a1 04 2d 3a da 48 1e 3b fc 35 fe 3b fc b7 f2 ba
       0.0006600116 0.002415231 0.0077579003 -0.0018517966
0000e0 0f 37 60 3a 5e 56 2d bc c1 f2 b1 39 50 4a f7 ba
       0.0008553126 -0.010579674 0.00033940937 -0.0018866751
0000f0 61 bb 65 bb 9f f8 9b bb 86 dc bd ba de 19 e5 3b
       -0.0035054313 -0.0047598626 -0.0014485277 0.006991609
